weights/weights_LF=4_sparse/w=0.20_4.pth (torch, 38796 bytes, 8 tensors)

input.weight f4 [64, 4]
0.9056954 -0.2681021 1.0939616 0.22706255 -0.12716143 1.0506705 0.48876545 -0.244634
0.54813635 0.7378208 -0.5428172 0.9539957 -0.5496935 0.3842736 0.42319795 0.66341734
-0.110388055 -0.5290882 0.5040196 0.16912138 0.17570017 1.0991693 0.073566176 0.9791613
-0.91063535 1.0674353 0.34599006 1.0496173 0.5203004 0.95928925 -0.7081729 -0.40206423
0.6730363 -0.3321058 -1.1928474 -0.18480279 0.43985543 0.16207463 -0.4273172 -1.1611133
-0.48063964 -0.4342213 0.54535824 1.1200583 -0.7515946 0.46773478 -0.68742347 0.53580004
-1.2443848 -0.73689294 -0.28104946 -0.2059685 -0.86917335 -1.0502106 0.988534 -0.39273396
-1.2046465 0.20090248 -0.6779554 -1.1651434 -0.34294736 -0.019434063 0.5200753 0.7005484
-1.0612246 0.5652637 0.36739776 -0.37777528 1.1128327 0.7813651 0.8692111 0.35337406
0.8473707 0.71665674 -0.012306197 1.2092391 -0.015271884 1.1811385 -0.7986636 -1.0937078
0.75793207 -0.1851355 1.2148815 1.0111089 1.0885761 -0.131074 -0.5599756 1.0754491
0.56463236 1.2133931 0.49822715 -0.49180084 -0.48617178 0.80699843 0.06567412 0.5705398
-0.5041921 -0.6833264 0.8537775 0.86288196 0.7309751 -0.20647632 -1.0317404 -0.16632433
1.2401317 1.015686 1.1713271 -0.6355809 -0.73838305 0.51308966 -0.6408624 0.49857882
-0.66344917 1.2464399 0.5246091 -1.0236413 0.13050023 -1.2363725 -0.924188 0.4858243
-0.5843306 -0.34828264 -0.6972026 0.7614134 0.919951 0.82967466 0.7742202 -0.491508
1.0955566 -0.30408853 -0.89797693 0.856263 0.22520576 0.2475247 -0.53631884 -0.3834468
0.09018322 0.5009145 0.91046935 -1.1151301 0.2791651 -1.0190791 1.0103012 0.4109317
-0.25249094 0.93333316 -0.6676195 0.5522019 -1.0899602 0.49349675 0.92785424 1.0512124
0.19743654 -0.80876803 0.18595695 -0.56310976 0.053561755 0.3699161 -1.1458333 -0.80970585
1.1680796 0.50264347 1.1691142 0.90635705 -0.41619453 0.01991176 -0.19910665 -1.2273694
1.1313013 0.81437314 1.0312366 -0.73970217 -0.19731197 0.043763548 0.0016259974 0.9693166
0.5572341 0.16325635 1.1152823 0.3728364 0.27985802 0.42778528 -0.51166403 0.12904271
-0.9934326 -0.5287531 -0.8676126 0.9702526 -0.19034143 -0.49876124 -0.07753183 -0.10992021
-1.155023 0.9771387 -0.19270994 -0.40494025 -1.0284216 -0.08348006 1.159755 0.024011202
-0.77603984 0.648478 0.05590851 0.97626865 0.0447174 0.3546007 0.3022154 -0.68478364
0.057222117 -0.03908868 0.3407834 0.17776433 -1.1416988 -1.0246009 0.2008547 0.9227217
0.05076168 -1.2659718 0.86509085 -0.6048371 -1.1668345 -0.76860404 -0.7569489 -0.76910245
-0.40732643 1.2272341 -0.532765 -1.0183867 0.28805172 0.774683 -0.94292307 0.8409803
1.1703693 -0.82882994 0.82408255 0.56086856 -0.10323002 -0.11267998 1.181661 0.4650317
0.78637296 -0.1668749 -1.0289367 -0.8269959 -0.025052307 0.86479557 0.7091275 -0.2071128
-0.88483286 -1.240416 -0.67514277 0.72273266 1.1408635 -1.1183356 0.2474613 0.8296768
00000000: a7db 673f ae44 89be ef06 8c3f 1683 683e
00000010: 9b36 02be 5f7c 863f 773f fa3e 5681 7abe
00000020: aa52 0c3f d3e1 3c3f 11f6 0abf 1039 743f
00000030: b7b8 0cbf 82bf c43e 67ad d83e b8d5 293f
00000040: 2213 e2bd 5372 07bf 6e07 013f 282e 2d3e
00000050: bfea 333e 94b1 8c3f dda9 963d 51aa 7a3f
00000060: 661f 69bf b8a1 883f 9c25 b13e dc59 863f
00000070: 6832 053f fb93 753f d24a 35bf 5ddb cdbe
00000080: 1b4c 2c3f c509 aabe 39af 98bf f13c 3dbe
00000090: bb34 e13e e4f6 253e 52c9 dabe 5c9f 94bf
000000a0: 6616 f6be 4152 debe 999c 0b3f 125e 8f3f
000000b0: 8168 40bf ef7a ef3e fcfa 2fbf 312a 093f
000000c0: 0048 9fbf 04a5 3cbf b7e5 8fbe 68e9 52be
000000d0: 2582 5ebf 4d6d 86bf 9010 7d3f 6d14 c9be
000000e0: db31 9abf 61b9 4d3e 7c8e 2dbf 6b23 95bf
000000f0: cc96 afbe 2f34 9fbc a823 053f 2457 333f
00000100: 35d6 87bf 1fb5 103f 8f1b bc3e c36b c1be
00000110: 4d71 8e3f 8b07 483f 9e84 5e3f 72ed b43e
00000120: 49ed 583f d176 373f ee9f 49bc 59c8 9a3f
00000130: ed36 7abc 8c2f 973f 3875 4cbf 9efe 8bbf
00000140: d607 423f 2994 3dbe 3d81 9b3f 046c 813f
00000150: 7656 8b3f 4338 06be 905a 0fbf 51a8 893f
00000160: bf8b 103f 7750 9b3f a117 ff3e 52cd fbbe
00000170: 82eb f8be 7397 4e3f 2780 863d e50e 123f
00000180: bc12 01bf 7bee 2ebf 2a91 5a3f d5e5 5c3f
00000190: 2f21 3b3f 876e 53be 1210 84bf ed50 2abe
000001a0: a3bc 9e3f 0002 823f 0cee 953f 6eb5 22bf
000001b0: ac06 3dbf d859 033f 8f0f 24bf b945 ff3e
000001c0: ced7 29bf 588b 9f3f c84c 063f ae06 83bf
000001d0: daa1 053e 7441 9ebf 9697 6cbf f6bd f83e
000001e0: b196 15bf 1a52 b2be df7b 32bf fdeb 423f
000001f0: e981 6b3f 8f65 543f 4c33 463f f0a6 fbbe
00000200: 333b 8c3f 7eb1 9bbe d1e1 65bf 0d34 5b3f
00000210: 579c 663e 1d77 7d3e 314c 09bf 2453 c4be
00000220: fbb1 b83d ef3b 003f 8514 693f 95bc 8ebf
00000230: baee 8e3e 2f71 82bf 8d51 813f a465 d23e
00000240: 7e46 81be ecee 6e3f 1de9 2abf 1b5d 0d3f
00000250: d183 8bbf 9bab fc3e db87 6d3f 218e 863f
00000260: ce2c 4a3e 6c0b 4fbf 806b 3e3e f627 10bf
00000270: 9263 5b3d a565 bd3e aaaa 92bf e248 4fbf
00000280: a283 953f 3ead 003f 89a5 953f 0407 683f
00000290: 7317 d5be fd1d a33c 9de2 4bbe 711a 9dbf
000002a0: 7bce 903f c27a 503f 90ff 833f 1f5d 3dbf
000002b0: 260c 4abe 6841 333d 6b1f d53a 2225 783f
000002c0: e5a6 0e3f ac2c 273e 92c1 8e3f 6ae4 be3e
000002d0: 8d49 8f3e ac06 db3e 6afc 02bf c623 043e
000002e0: 9951 7ebf 5d5c 07bf dc1b 5ebf 7962 783f
000002f0: dde8 42be a25d ffbe 02c9 9ebd d91d e1bd
00000300: cbd7 93bf c325 7a3f c155 45be 5454 cfbe
00000310: 52a3 83bf 98f7 aabd da72 943f 24b3 c43c
00000320: 8caa 46bf a702 263f 5200 653d beec 793f
00000330: 9829 373d 398e b53e fabb 9a3e fb4d 2fbf
00000340: bd61 6a3d 741b 20bd 297b ae3e da07 363e
00000350: 3023 92bf 1f26 83bf dbac 4d3e 7d37 6c3f
00000360: 7beb 4f3d 5d0b a2bf 9876 5d3f 9bd6 1abf
00000370: d55a 95bf 3cc3 44bf 67c7 41bf e6e3 44bf
00000380: 178d d0be 0216 9d3f 4963 08bf 7f5a 82bf
00000390: 847b 933e a051 463f 6863 71bf 7c4a 573f
000003a0: a9ce 953f 332e 54bf 13f7 523f 1595 0f3f
000003b0: 436a d3bd c3c4 e6bd ab40 973f a318 ee3e
000003c0: bd4f 493f 41e1 2abe 33b4 83bf 01b6 53bf
000003d0: 7f3a cdbc 3e63 5d3f 6189 353f 6115 54be
000003e0: 6884 62bf f4c5 9ebf 28d6 2cbf 0205 393f
000003f0: d107 923f 9f25 8fbf 7f66 7d3e b365 543f

input.bias f4 [64]
-0.077946894 0.029727621 0.0831797 -0.049691055 -0.017115166 -0.02149935 0.06707378 0.007878354
0.059780642 0.021222547 -0.017602382 0.032500293 -0.04966848 0.06434337 -0.01881927 0.061863575
-0.053022742 -0.048688628 -0.029878972 0.081194445 -0.008614601 -0.0582331 0.11187125 0.06284567
0.12039328 -0.0528687 0.0933393 -0.008820669 0.10875951 -0.04494916 -0.027583875 0.084133945
-0.06051487 -0.072673045 0.039036624 -0.07494258 -0.041683648 -0.021064077 0.00884483 0.034469288
0.0415083 -0.030039202 -0.04957827 -0.02594217 -0.016287431 -0.0649359 0.035706677 -0.0043473085
0.029149564 0.023921948 -0.051638354 0.057028987 0.07488993 -0.03741606 -0.11510794 -0.039833948
-0.052253354 -0.02490789 0.070281945 0.05964389 -0.0684241 0.104430206 0.057738278 -0.062407795
00000000: 9fa2 9fbd 5787 f33c 1e5a aa3d d988 4bbd
00000010: 1b35 8cbc 681f b0bc fa5d 893d 3614 013c
00000020: 8cdc 743d e8da ad3c df32 90bc 071f 053d
00000030: 2d71 4bbd 75c6 833d df2a 9abc a964 7d3d
00000040: 602e 59bd ba6d 47bd bfc4 f4bc 4649 a63d
00000050: 4124 0dbc d585 6ebd c11c e53d 3bb5 803d
00000060: c190 f63d da8c 58bd ad28 bf3d 9184 10bc
00000070: 4ebd de3d 9c1c 38bd 94f7 e1bc 6b4e ac3d
00000080: 71de 77bd 9bd5 94bd dee4 1f3d 7f7b 99bd
00000090: 79bc 2abd 928e acbc e8e9 103c ab2f 0d3d
000000a0: 9b04 2a3d c614 f6bc 9612 4bbd ac84 d4bc
000000b0: 386d 85bc 1dfd 84bd 2a41 123d de73 8ebb
000000c0: 11cb ee3c f6f7 c33c bd82 53bd 3a97 693d
000000d0: e45f 993d 9541 19bd b6bd ebbd ec28 23bd
000000e0: 9d07 56bd a20b ccbc fbef 8f3d 274d 743d
000000f0: ef21 8cbd 81df d53d f97e 6c3d 519f 7fbd

h1.weight f4 [64, 64]
-0.0984786 -0.19063248 -0.21763176 0.079619795 -0.31116483 0.09107465 -0.07801207 -0.08223743
0.04451914 0.04935113 -0.12882017 0.051445253 -0.2940602 0.24893661 -0.18037583 0.27429673
-0.22772342 0.16957808 0.31051764 0.022808386 -0.16244534 0.19060108 0.26614332 -0.11382984
-0.016493855 -0.1255107 -0.2421544 -0.0039587566 0.3200053 -0.070988916 -0.21381184 0.22658424
-0.085689306 0.014291487 0.19831662 0.31622288 -0.07905844 -0.14933063 0.080571964 0.19915736
0.26285192 0.12152684 0.05083601 -0.18401454 0.16615766 -0.14124584 -0.26400986 -0.17689447
0.22975239 0.29625386 0.100547284 -0.19625784 0.14090185 -0.14561315 0.08716336 -0.21472222
0.17911203 -0.18056226 -0.21255264 -0.15756541 -0.29398617 -0.14747514 0.047596637 -0.08305424
0.224433 0.22441101 0.010000108 -0.24932793 0.25911945 -0.10284973 -0.10162028 -0.23768666
0.1505837 0.118710436 -0.051429927 -0.09647917 -0.30259782 0.046691824 -0.08211545 -0.006746795
-0.27669793 0.24819197 0.12488653 -0.31400466 0.2806305 -0.22066711 0.10067405 -0.2511169
0.07609536 -0.23847231 -0.16985016 0.040272657 -0.026244022 -0.07380771 0.07125825 0.09808609
0.212534 -0.12031225 0.19019069 0.22253649 0.16617352 -0.09955411 0.1708762 0.04454929
-0.13181226 -0.07361127 0.015188271 0.21811791 -0.14528205 -0.24653512 -0.036136102 0.20881279
-0.29305756 -0.0051806676 0.25082022 -0.2840608 -0.20979881 0.031884845 -0.012498847 0.20853998
-0.14551815 -0.07789057 -0.13973375 -0.25975755 -0.1854427 0.16863662 -0.3330927 0.2797488
-0.13273948 -0.23298214 -0.26708388 -0.028862247 -0.074571565 -0.1730549 -0.16146508 -0.1463081
-0.1971456 -0.19426054 0.058698576 0.15820564 -0.08267955 0.24142349 0.26630974 0.22881426
-0.312079 0.30260023 0.31458628 -0.19335629 -0.25667173 0.06308089 -0.15326913 -0.26461962
0.24511875 -0.21526891 0.33124647 -0.20639093 0.1987142 -0.013422973 -0.15868078 -0.18572186
-0.16426925 0.184231 0.24260317 -0.18705714 0.34022447 0.32724273 0.2614532 -0.1926406
0.26471737 -0.13122763 0.19555464 -0.02079652 0.18681939 0.3276717 0.14469084 0.06987488
-0.15637653 -0.14746013 -0.15703987 0.068508096 0.0061535216 -0.12377518 0.102461465 -0.2548377
0.03544227 -0.072223455 0.014784216 0.043999452 -0.24871182 0.06534497 0.19710301 0.2874839
0.20991121 -0.24356902 0.07541117 -0.01729435 -0.1849779 0.07946318 -0.10679056 -0.17766574
0.025686253 -0.31900206 -0.150057 -0.14656909 -0.1253383 0.19834962 0.15571938 0.2726705
-0.054598663 0.2632498 0.024723414 0.059855245 -0.13071288 0.16103815 0.10994397 0.33530504
0.1539472 0.10707334 0.16448978 0.12619025 0.25648925 0.20382895 -0.19125134 -0.116726734
0.32755852 -0.05214796 0.21400638 -0.10934496 -0.05806943 0.050144684 0.12946859 0.07944306
-0.2135419 -0.18038866 -0.02866025 0.23556338 -0.123427995 0.09849977 0.14264633 -0.13517642
-0.10710141 0.15550393 0.015121681 0.31933084 -0.13078906 0.09170889 0.23579971 -0.23921812
0.2687243 -0.19834895 0.30436194 0.32318634 -0.009086206 -0.10333938 -0.069937594 0.2619292
00000000: 26af c9bd 2935 43be dcda 5ebe b40f a33d
00000010: ff50 9fbe 5985 ba3d cbc4 9fbd 196c a8bd
00000020: b459 363d 6924 4a3d 6fe9 03be 42b8 523d
00000030: 0f8f 96be 3de9 7e3e 71b4 38be 9f70 8c3e
00000040: 5430 69be e0a5 2d3e 2bfc 9e3e a7d8 ba3c
00000050: 1258 26be ee2c 433e f043 883e 9f1f e9bd
00000060: 1f1e 87bc e085 00be 53f7 77be 75b8 81bb
00000070: bcd7 a33e a362 91bd 7ef1 5abe b305 683e
00000080: e07d afbd d726 6a3c 8313 4b3e f7e7 a13e
00000090: 64e9 a1bd 21ea 18be ea02 a53d e8ef 4b3e
000000a0: 8794 863e 10e3 f83d 6c39 503d 4f6e 3cbe
000000b0: 3c25 2a3e c0a2 10be 4d2c 87be d323 35be
000000c0: 3644 6b3e 96ae 973e bceb cd3d d1f7 48be
000000d0: 9348 103e 9d1b 15be b482 b23d 24e0 5bbe
000000e0: 2569 373e 50e5 38be 66a7 59be d458 21be
000000f0: 5b85 96be b903 17be b1f4 423d 5718 aabd
00000100: c4d1 653e 00cc 653e 7ed7 233c d24f 7fbe
00000110: 4eab 843e e1a2 d2bd 4b1e d0bd 2264 73be
00000120: 9d32 1a3e 751e f33d 30a8 52bd df96 c5bd
00000130: 1aee 9abe ed3f 3f3d 252c a8bd 3814 ddbb
00000140: 5aab 8dbe 0926 7e3e 82c4 ff3d 38c5 a0be
00000150: cdae 8f3e 8ff6 61be 322e ce3d 6592 80be
00000160: e2d7 9b3d 1632 74be 33ed 2dbe f1f4 243d
00000170: b4fd d6bc 7f28 97bd d8ef 913d 5ce1 c83d
00000180: 83a2 593e 4566 f6bd 59c1 423e 9be0 633e
00000190: 6429 2a3e 06e3 cbbd 2cfa 2e3e 5179 363d
000001a0: cbf9 06be 81c1 96bd 3ad8 783c 4d5a 5f3e
000001b0: d1c4 14be b473 7cbe 7303 14bd 05d3 553e
000001c0: a40b 96be 97c2 a9bb 826b 803e 6b70 91be
000001d0: 80d5 56be af99 023d f7c7 4cbc 818b 553e
000001e0: b602 15be 1785 9fbd 5d16 0fbe f1fe 84be
000001f0: b1e4 3dbe 14af 2c3e 208b aabe 3c3b 8f3e
00000200: dcec 07be df92 6ebe 38bf 88be 8570 ecbc
00000210: fab8 98bd 4e35 31be 1a57 25be cad1 15be
00000220: 89e0 49be 3cec 46be eb6d 703d a900 223e
00000230: e553 a9bd b837 773e c059 883e 494e 6a3e
00000240: d2c8 9fbe 6bee 9a3e 7411 a13e 31ff 45be
00000250: 7a6a 83be 8e30 813d 95f2 1cbe 397c 87be
00000260: 6900 7b3e 746f 5cbe 2399 a93e 2558 53be
00000270: bc7b 4b3e 08ec 5bbc 377d 22be df2d 3ebe
00000280: 3336 28be 0da7 3c3e f76c 783e e88b 3fbe
00000290: e731 ae3e 5c8c a73e 32dd 853e 9443 45be
000002a0: 0989 873e 8960 06be 7a3f 483e 775d aabc
000002b0: 954d 3f3e 96c4 a73e d629 143e 901a 8f3d
000002c0: 2b21 20be caff 16be 0fcf 20be f94d 8c3d
000002d0: 7ba3 c93b d77d fdbd 51d7 d13d 167a 82be
000002e0: ea2b 113d e4e9 93bd 7f39 723c c538 343d
000002f0: 50ae 7ebe 95d3 853d 5fd5 493e 1731 933e
00000300: f7f2 563e 286a 79be 2c71 9a3d e1ac 8dbc
00000310: d96a 3dbe 97bd a23d 02b5 dabd 02ee 35be
00000320: fa6b d23c 3d54 a3be 8ba8 19be 3516 16be
00000330: af58 00be 2a1c 4b3e e774 1f3e 789b 8b3e
00000340: d9a2 5fbd aec8 863e c288 ca3c c62a 753d
00000350: 99d9 05be 2fe7 243e 4e2a e13d 1aad ab3e
00000360: 56a4 1d3e 4449 db3d 0270 283e 0438 013e
00000370: 8f52 833e 89b8 503e 64d7 43be 6d0e efbd
00000380: c0b5 a73e 1999 55bd 7d24 5b3e 40f0 dfbd
00000390: 36da 6dbd 8364 4d3d 6a93 043e 0bb3 a23d
000003a0: baaa 5abe ceb7 38be e7c8 eabc 8737 713e
000003b0: d1c7 fcbd 3fba c93d e111 123e b06b 0abe
000003c0: fc57 dbbd 6c3c 1f3e edc0 773c 557f a33e
000003d0: 91ed 05be dfd1 bb3d 7b75 713e 98f5 74be
000003e0: 3b96 893e fd1b 4bbe 54d5 9b3e ae78 a53e
000003f0: 4fde 14bc 99a3 d3bd 713b 8fbd 961b 863e

h1.bias f4 [64]
0.03543019 -0.04778637 -0.041548856 0.07081044 0.13027875 -0.042086203 0.11067605 0.095773354
0.11717604 0.04804042 0.0852743 -0.057374064 0.014272217 0.050908197 -0.12162453 -0.0686652
0.13220586 0.069654986 -0.03491278 0.09170954 0.021766726 0.024439288 0.114336364 -0.05433229
0.063971244 -0.016261624 -0.010742612 0.077474155 0.05353714 0.06549399 0.061527673 0.022664197
0.13190022 -0.056834113 -0.027155543 0.014701294 0.006649125 -0.014716685 -0.026828319 0.086594425
0.0045713186 -0.08558178 -0.01335716 -0.01343242 0.048201606 -0.035925876 0.08458986 0.084688604
-0.052812863 0.11193346 0.035124745 -0.06578405 0.0048390576 -0.006501432 -0.054721117 -0.036043204
-0.08923926 -0.03130391 0.09432242 0.10401295 -0.056462504 -0.018502425 0.009117508 -0.031008014
00000000: 3f1f 113d a4bb 43bd 222f 2abd 1005 913d
00000010: cb67 053e 9562 2cbd 20aa e23d d224 c43d
00000020: fef9 ef3d 08c6 443d 4ba4 ae3d 1101 6bbd
00000030: 04d6 693c 1d85 503d 4816 f9bd 57a0 8cbd
00000040: f960 073e 46a7 8e3d b400 0fbd 36d2 bb3d
00000050: 2250 b23c e734 c83c 2f29 ea3d 898b 5ebd
00000060: 5b03 833d 1937 85bc c801 30bc c5aa 9e3d
00000070: c349 5b3d b721 863d 7104 7c3d 44aa b93c
00000080: da10 073e e3ca 68bd 4d75 debc b2dd 703c
00000090: e7e0 d93b 401e 71bc 10c7 dbbc 6b58 b13d
000000a0: 00cb 953b 8045 afbd fdd7 5abc a713 5cbc
000000b0: 0c6f 453d 0327 13bd 733d ad3d 3871 ad3d
000000c0: 4d52 58bd 5f3d e53d f7de 0f3d cab9 86bd
000000d0: f590 9e3b f709 d5bb 4023 60bd 0aa2 13bd
000000e0: 13c3 b6bd 8738 00bd 1d2c c13d be04 d53d
000000f0: 3a45 67bd 6692 97bc 9a61 153c 8504 febc

h2.weight f4 [64, 64]
-0.14812909 0.33694494 0.23049144 0.22101533 0.028791383 -0.1036797 -0.24616724 0.04486775
0.13599622 0.10301582 0.33337685 0.30341977 0.21737328 -0.21378581 -0.22815624 0.1992148
0.34129548 0.25119734 0.048395615 0.34073153 -0.04662461 -0.005556302 -0.15925965 -0.2279182
0.13991912 0.035572015 -0.121495426 0.30278537 0.13771018 -0.18238361 -0.09025672 0.20607835
0.08303619 -0.297971 0.034687094 0.12926766 0.26286238 0.05167007 0.2836956 0.07816828
-0.084896095 -0.10156539 -0.23805475 -0.28186697 0.16293423 0.17126119 0.26265356 0.2744522
0.2951966 0.02749551 0.32516113 0.31009972 -0.20432864 0.23588222 0.2180081 0.20778501
-0.24641277 -0.18038683 0.21027596 -0.172465 -0.19346847 -0.13912404 -0.28771013 -0.1426096
-0.0500587 0.09193284 0.26774547 0.052904446 -0.03634637 0.2547768 0.26650593 -0.22564389
0.1480033 0.2738488 0.087524325 -0.26163816 -0.07816694 0.22237894 0.011560021 -0.29119328
-0.00047312235 -0.078604735 0.06520103 -0.063928716 0.26322764 -0.11055851 -0.19486175 -0.19722672
0.15389451 -0.057242636 0.10181363 -0.06652272 0.28739005 -0.102489464 0.21115118 0.16206352
0.20240524 -0.14336245 -0.30372873 -0.18442492 0.13131517 -0.20309958 0.17744623 -0.061867274
-0.0038425266 0.29403555 0.2835666 -0.25298896 0.27000272 -0.13362345 0.07316504 0.025554363
-0.27027625 -0.23471439 0.25049427 0.26570904 -0.24638046 0.16751257 0.22006528 -0.14561866
0.2051326 -0.28564465 -0.17054613 0.0030784665 -0.046534814 0.232618 0.08476612 0.23650058
0.30452648 0.2651375 0.23981471 0.16505636 -0.07224785 0.13953282 -0.22028089 0.2425151
0.058786053 -0.12653103 0.20861937 -0.26767495 -0.24162266 -0.14033416 -0.21734655 -0.13871716
0.10345177 0.25529766 -0.21079277 0.34816664 -0.18044214 -0.28257012 0.2990551 0.29412717
0.33505794 0.20293222 -0.24034128 -0.26027834 0.1233115 0.1888661 -0.045452107 0.33516452
-0.047887582 -0.19736758 -0.024146808 0.10873739 -0.14912094 -0.09531801 0.02743758 -0.2130263
-0.20760849 -0.2525992 0.3227792 0.10459787 -0.06737187 -0.22751056 0.25393936 0.2648615
0.3150852 0.33670855 -0.106669374 -0.026215242 0.18904528 0.32278332 -0.26566434 -0.2589739
0.2941986 -0.0018016404 -0.0066485303 -0.19689873 -0.27677453 0.043927506 -0.031120619 -0.089765064
0.012866884 -0.1216503 0.07636448 -0.07731401 -0.05521833 -0.07868626 0.1783558 0.089792795
-0.24106231 -0.044489242 0.10714543 -0.20523214 0.015208772 -0.16945492 -0.109774515 0.2012082
0.039801806 -0.13940907 -0.086807325 0.21894813 -0.2504087 -0.19883934 0.22606733 0.07549695
-0.20255323 -0.15986085 0.17963791 0.2397936 -0.08251672 0.114911586 -0.2511022 0.13339664
0.06630118 -0.08458135 0.09379548 0.06601208 0.02376437 0.15687902 0.0026993235 0.15987203
-0.15455075 0.2814468 -0.14840145 0.12347842 -0.16420315 0.23728901 0.23021036 -0.079533905
-0.17686296 0.29079777 0.15238228 0.3037673 -0.050744854 -0.12272622 0.24690355 -0.053889617
-0.27221772 0.13030516 0.17643237 0.2927794 -0.22269832 -0.2573392 0.24077064 0.22884744
00000000: 27af 17be 0c84 ac3e f305 6c3e d851 623e
00000010: e8db eb3c 0656 d4bd 4413 7cbe 3fc7 373d
00000020: 9842 0b3e f5f9 d23d 5fb0 aa3e d659 9b3e
00000030: 1a97 5e3e abea 5abe caa1 69be f7fe 4b3e
00000040: 48be ae3e f09c 803e 7b3a 463d 5d74 ae3e
00000050: 72f9 3ebd a411 b6bb f614 23be 6363 69be
00000060: f546 0f3e f6b3 113d 98d2 f8bd af06 9b3e
00000070: e603 0d3e c5c2 3abe 84d8 b8bd 3406 533e
00000080: e10e aa3d a88f 98be 0e14 0e3d be5e 043e
00000090: e695 863e ffa3 533d 8d40 913e b116 a03d
000000a0: 01de adbd 8401 d0bd a0c4 73be de50 90be
000000b0: 3bd8 263e 185f 2f3e 877a 863e 0085 8c3e
000000c0: 0224 973e 443e e13c 857b a63e 64c5 9e3e
000000d0: 873b 51be 1c8b 713e 843d 5f3e 98c5 543e
000000e0: a153 7cbe 53b7 38be 9552 573e aa9a 30be
000000f0: 991c 46be 8876 0ebe be4e 93be 4008 12be
00000100: 5a0a 4dbd 4947 bc3d ef15 893e 55b2 583d
00000110: eedf 14bd 1b72 823e 7773 883e 310f 67be
00000120: 2d8e 173e e935 8c3e f43f b33d 70f5 85be
00000130: fd15 a0bd 4eb7 633e 3e66 3d3c 4917 95be
00000140: 680d f8b9 85fb a0bd 1e88 853d 0fed 82bd
00000150: c6c5 863e 806c e2bd d789 47be cdf5 49be
00000160: 8696 1d3e 4177 6abd aa83 d03d 103d 88bd
00000170: ca24 933e ffe5 d1bd 0438 583e fbf3 253e
00000180: 5243 4f3e 9bcd 12be 5582 9bbe e3d9 3cbe
00000190: 7c77 063e 56f9 4fbe 77b4 353e 8a68 7dbd
000001a0: e6d2 7bbb d48b 963e a42f 913e c587 81be
000001b0: cc3d 8a3e 96d4 08be 8dd7 953d 6257 d13c
000001c0: a661 8abe f858 70be c940 803e 040b 883e
000001d0: 294b 7cbe 6a88 2b3e cb58 613e 0f1d 15be
000001e0: 480e 523e 0440 92be a5a3 2ebe 19c0 493b
000001f0: 4a9b 3ebd 6a33 6e3e dc99 ad3d 352d 723e
00000200: e5ea 9b3e 1ac0 873e fd91 753e 8904 293e
00000210: aef6 93bd b1e1 0e3e 5091 61be e155 783e
00000220: a5c9 703d 5a91 01be 51a0 553e b10c 89be
00000230: ee6b 77be c2b3 0fbe 1890 5ebe df0b 0ebe
00000240: 86de d33d 60b6 823e 0fda 57be e642 b23e
00000250: d3c5 38be 08ad 90be c01d 993e d697 963e
00000260: b78c ab3e 77cd 4f3e 061c 76be 3443 85be
00000270: bd8a fc3d 1d66 413e fd2b 3abd af9a ab3e
00000280: c525 44bd ba1a 4abe 87cf c5bc b5b1 de3d
00000290: 29b3 18be 1736 c3bd c7c4 e03c 9123 5abe
000002a0: 5297 54be af54 81be 5143 a53e 6837 d63d
000002b0: 43fa 89bd 87f8 68be 5704 823e ed9b 873e
000002c0: d952 a13e 1065 ac3e 7975 dabd 59c1 d6bc
000002d0: 1695 413e db43 a53e 2805 88be 3a98 84be
000002e0: 33a1 963e 0525 ecba eadb d9bb d29f 49be
000002f0: 64b5 8dbe 54ed 333d abf0 febc bfd6 b7bd
00000300: 9fcf 523c cb23 f9bd fb64 9c3d cf56 9ebd
00000310: 9e2c 62bd 4326 a1bd e7a2 363e 49e5 b73d
00000320: 0ad9 76be 5a3a 36bd 106f db3d 6028 52be
00000330: 372e 793c 9785 2dbe 76d1 e0bd 8609 4e3e
00000340: 3807 233d 40c1 0ebe 0ac8 b1bd f033 603e
00000350: 9235 80be 8a9c 4bbe 327e 673e 259e 9a3d
00000360: 1d6a 4fbe 90b2 23be 00f3 373e 748c 753e
00000370: 87fe a8bd c456 eb3d 7890 80be 2199 083e
00000380: eac8 873d fd38 adbd d817 c03d 5731 873d
00000390: 7fad c23c e5a4 203e 22e7 303b 7eb5 233e
000003a0: 8d42 1ebe cc19 903e 8df6 17be 41e2 fc3d
000003b0: df24 28be e4fb 723e 44bc 6b3e ace2 a2bd
000003c0: 901b 35be 72e3 943e 1a0a 1c3e 6387 9b3e
000003d0: d6d9 4fbd e257 fbbd 49d4 7c3e 5cbb 5cbd
000003e0: 1f60 8bbe b76e 053e b0aa 343e 2ee7 953e
000003f0: 070b 64be f7c1 83be 948c 763e fc56 6a3e

h2.bias f4 [64]
-0.035834618 -0.03963749 0.012678719 0.122113265 0.062425468 -0.049836505 -0.09787401 -0.07506013
0.03815824 -0.068078905 0.10745966 -0.08159325 0.076354064 -0.057835083 -0.08173816 -0.08562527
-0.11839068 0.13569513 -0.021712828 -0.04147417 -0.032155916 0.100444965 -0.045341823 -0.0107006775
-0.09726466 -0.030945826 0.05360326 -0.09180418 -0.026725909 0.092216656 0.06484484 0.018898899
0.117279634 -0.03932311 -0.07916917 -0.056247648 0.0018492424 0.12873477 -0.06396935 -0.09817725
-0.028157163 0.027329527 0.07253233 -0.070713386 0.06301052 -0.08272682 0.026805608 -0.038454246
-0.041654274 -0.066613466 0.032298043 -0.07062384 0.031744994 0.04405829 -0.068296306 -0.09833585
0.07606567 -0.04989085 0.0015303504 0.03302282 -0.10318599 0.059741996 0.07372414 0.057052493
00000000: 52c7 12bd ec5a 22bd 67ba 4f3c 8516 fa3d
00000010: d9b1 7f3d 5d21 4cbd 2b72 c8bd 20b9 99bd
00000020: d14b 1c3d f46c 8bbd cf13 dc3d 5d1a a7bd
00000030: 855f 9c3d 7be4 6cbd 5666 a7bd 4d5c afbd
00000040: d076 f2bd aaf3 0a3e 1adf b1bc d2e0 29bd
00000050: ecb5 03bd 17b6 cd3d 59b8 39bd e551 2fbc
00000060: b232 c7bd 1a82 fdbc 188f 5b3d d403 bcbd
00000070: 4bf0 dabc 16dc bc3d 5fcd 843d ddd1 9a3c
00000080: 4e30 f03d 4511 21bd 7223 a2bd ef63 66bd
00000090: 4762 f23a 0cd3 033e 5d02 83bd 2711 c9bd
000000a0: daa9 e6bc 2ce2 df3c d58b 943d 2ed2 90bd
000000b0: a90b 813d ae6c a9bd 6f97 db3c 3382 1dbd
000000c0: ac9d 2abd a46c 88bd f44a 043d 3ba3 90bd
000000d0: 0a07 023d 7776 343d efde 8bbd 4e64 c9bd
000000e0: 51c8 9b3d 595a 4cbd 0a96 c83a f042 073d
000000f0: 2d53 d3bd 06b4 743d affc 963d e0af 693d

h3.weight f4 [4, 64]
-0.11469212 -0.06874403 -0.23320906 0.07676825 0.252389 0.2424592 0.25044194 -0.042282466
-0.1962459 0.257809 0.16900444 0.07548038 0.14947732 -0.09622944 0.050632704 0.09422092
-0.21309474 0.1472118 -0.24152802 0.22303818 -0.15534462 -0.2301265 0.05060307 0.19241042
-0.1528989 0.23024371 -0.298002 -0.01674012 -0.16794129 -0.23716438 -0.0077980137 0.2586814
-0.23853537 0.25636974 -0.16556059 0.18244357 -0.018415635 -0.17645362 0.22871369 0.06634099
0.018441238 0.28678477 -0.03775156 -0.036210775 0.19634263 -0.04473274 -0.0237681 -0.17113726
-0.14431599 0.06638993 -0.12200517 0.010512364 -0.15731224 -0.12388271 -0.029951187 0.0008891131
0.26403242 0.18473466 -0.24084187 0.1294292 -0.01514266 0.25534165 -0.051498193 0.048566718
0.3508315 -0.053406198 0.17212878 0.35017663 0.25801 0.051323045 -0.11097458 0.042332288
-0.25059736 0.3464161 0.16184314 -0.13516209 0.32109872 -0.10370415 -0.28300127 0.26551297
-0.05047331 0.11100509 0.21717218 -0.23536225 0.19611982 0.18890443 0.09891668 0.16800244
0.10381471 0.22425647 -0.1439023 -0.17209366 0.023045942 0.06854819 -0.16744667 -0.22133403
0.10658467 -0.1534159 -0.11211777 0.20966925 -0.06865554 0.13415287 -0.21739395 0.08839917
0.23324597 0.037019063 0.29361117 0.12874062 -0.25838038 -0.2115564 -0.19231223 0.012490902
0.24464676 -0.233833 0.26866376 0.3008733 0.24354185 -0.10342189 -0.05404204 -0.1873417
0.23979734 -0.033115976 0.006229227 -0.19131012 -0.04490702 0.17170586 0.044571474 -0.014319931
0.0737848 0.13683744 0.318073 0.042338572 -0.08533603 -0.17627887 0.090467826 -0.06995027
-0.1528932 0.08824572 -0.006837127 0.0321982 0.15932864 -0.049209304 -0.27009872 0.24118006
-0.11046001 0.2020467 0.27717757 -0.19768757 0.25052738 0.07651032 0.0431648 0.096779734
-0.1287445 0.14028394 -0.23749019 0.2861373 0.15220274 0.024206884 0.25547072 0.03327927
0.09611975 -0.075020365 0.31559736 0.16940923 0.34493345 0.109076224 -0.11136359 -0.19403833
-0.30167148 0.13860074 0.31936297 -0.09170041 0.2677313 -0.286692 0.27214855 0.28817236
-0.2599148 0.2633842 -0.14305009 -0.100808315 0.2584951 0.10056954 0.11297767 -0.032959327
-0.10652039 -0.082795605 -0.009657929 -0.19905578 0.03801341 0.29795855 -0.040157177 -0.029229274
0.14369825 0.0037917232 -0.032231428 -0.1934742 -0.08761252 0.037768 -0.14886832 -0.09855058
-0.24054603 -0.049202856 -0.23204759 -0.14936754 0.10344658 0.037301227 0.13671586 -0.05247417
-0.15817118 0.040663194 -0.13021286 -0.19284114 0.009299766 -0.18712433 -0.12854183 0.022977209
-0.22082801 0.30354577 -0.013382496 -0.17844205 -0.1437246 0.12866029 0.023929147 0.09767173
0.29594955 -0.13928054 -0.16829321 -0.01664787 0.29517287 0.123918496 0.03730971 0.19388498
-0.102503635 -0.17043549 -0.16302484 0.16622894 -0.14566132 0.18422797 -0.14427724 -0.2468251
-0.11601299 -0.03848348 0.19181016 0.14421442 -0.12564066 0.29855955 -0.04895332 0.12447685
0.18452652 -0.10742139 0.079812236 0.10237851 0.018754166 0.041623257 0.23250805 0.20794395
00000000: b4e3 eabd acc9 8cbd 5bce 6ebe ac38 9d3d
00000010: 2239 813e 3947 783e ed39 803e 6130 2dbd
00000020: aff4 48be 8bff 833e 800f 2d3e 7595 9a3d
00000030: 9510 193e f113 c5bd 3d64 4f3d e6f6 c03d
00000040: 8235 5abe b1be 163e 1f53 77be 1f64 643e
00000050: a912 1fbe 48a6 6bbe 2a45 4f3d 3d07 453e
00000060: 8791 1cbe 02c5 6b3e b893 98be 9322 89bc
00000070: cdf8 2bbe 38db 72be 7b86 ffbb e371 843e
00000080: 9e42 74be e542 833e b788 29be 7dd2 3a3e
00000090: 63dc 96bc 42b0 34be ec33 6a3e c9dd 873d
000000a0: 1412 973c 74d5 923e 61a1 1abd c051 14bd
000000b0: 0b0e 493e ad39 37bd 52b5 c2bc 9b3e 2fbe
000000c0: 92c7 13be 72f7 873d d9dd f9bd 0d3c 2c3c
000000d0: 7616 21be 38b6 fdbd 315c f5bc 5f13 693a
000000e0: 422f 873e 152b 3d3e 409f 76be 1789 043e
000000f0: eb18 78bc 24bc 823e c5ef 52bd e5ed 463d
00000100: 30a0 b33e 75c0 5abd 8742 303e 5a4a b33e
00000110: e319 843e 1d38 523d a446 e3bd 9f64 2d3d
00000120: 4c4e 80be 735d b13e 35ba 253e ee67 0abe
00000130: 0d67 a43e d762 d4bd 8be5 90be 51f1 873e
00000140: 1abd 4ebd a356 e33d 6262 5e3e cd02 71be
00000150: a2d3 483e 2a70 413e d494 ca3d d508 2c3e
00000160: cf9c d43d 7da3 653e 205b 13be 5239 30be
00000170: d8ca bc3c fe62 8c3d 2477 2bbe 63a5 62be
00000180: 1049 da3d 0f19 1dbe 009e e5bd 89b3 563e
00000190: 479b 8cbd 5f5f 093e 859c 5ebe a00a b53d
000001a0: 08d8 6e3e 4da1 173d 3454 963e 95d4 033e
000001b0: 6f4a 84be 3ea2 58be 7fed 44be a4a6 4c3c
000001c0: ae84 7a3e eb71 6fbe 4c8e 893e 110c 9a3e
000001d0: 0963 793e dbce d3bd 305b 5dbd 81d6 3fbe
000001e0: 6f8d 753e 9ea4 07bd 8b1e cc3b cde6 43be
000001f0: 6cf0 37bd a9d3 2f3e 9490 363d 259e 6abc
00000200: 7c1c 973d 1d1f 0c3e 77da a23e 366b 2d3d
00000210: a8c4 aebd 7382 34be 3247 b93d 1642 8fbd
00000220: 0990 1cbe 2cba b43d fa09 e0bb 42e2 033d
00000230: 0c27 233e b28f 49bd 614a 8abe e8f7 763e
00000240: dc38 e2bd 55e5 4e3e 38ea 8d3e 9c6e 4abe
00000250: 2045 803e 71b1 9c3d 93cd 303d 7434 c63d
00000260: 99d5 03be 98a6 0f3e a130 73be 9780 923e
00000270: 09db 1b3e 844d c63c 0fcd 823e d84f 083d
00000280: 6eda c43d 47a4 99bd fa95 a13e 9d79 2d3e
00000290: 1e9b b03e 5b63 df3d 9812 e4bd fcb1 46be
000002a0: af74 9abe 5aed 0d3e 8b83 a33e 6dcd bbbd
000002b0: 1414 893e 4bc9 92be 0e57 8b3e 548b 933e
000002c0: 8d13 85be 4bda 863e b97b 12be 9774 cebd
000002d0: 7859 843e 67f7 cd3d d660 e73d 5c00 07bd
000002e0: 5d27 dabd be90 a9bd 4a3c 1ebc 47d5 4bbe
000002f0: f3b3 1b3d 068e 983e da7b 24bd 3b72 efbc
00000300: a225 133e 8f7e 783b 1a05 04bd 1a1e 46be
00000310: 316e b3bd 9eb2 1a3d f070 18be e3d4 c9bd
00000320: b351 76be ef88 49bd e29d 6dbe cef3 18be
00000330: cddb d33d 2cc9 183d 3eff 0b3e 28ef 56bd
00000340: a0f7 21be 738e 263d 8556 05be 2678 45be
00000350: 0c5e 183c 859d 3fbe 78a0 03be b33a bc3c
00000360: bd20 62be 5a6a 9b3e 4242 5bbc 83b9 36be
00000370: 8b2c 13be 86bf 033e 0f07 c43c 1e08 c83d
00000380: b386 973e 8f9f 0ebe 0e55 2cbe 1d61 88bc
00000390: e620 973e fbc8 fd3d 11d2 183d c989 463e
000003a0: 6ded d1bd a486 2ebe fcef 26be eb37 2a3e
000003b0: 3e28 15be 42a6 3c3e 6abd 13be b8bf 7cbe
000003c0: 3898 edbd dba0 1dbd e269 443e f2ac 133e
000003d0: f2a7 00be ccdc 983e 4783 48bd b8ed fe3d
000003e0: 85f4 3c3e bfff dbbd 9974 a33d d3ab d13d
000003f0: 56a2 993c 267d 2a3d 9716 6e3e 42ef 543e

h3.bias f4 [4]
-0.046401676 -0.037953973 -0.056150295 0.056735575
00000000: af0f 3ebd a075 1bbd dafd 65bd 9063 683d
