weights/weights_LF=4_sparse/w=0.30_1.pth (torch, 38796 bytes, 8 tensors)

input.weight f4 [64, 4]
0	0x3f71a6ad	0.9439495
1	0xbe4cc686	-0.19997606
2	0x3f0dc222	0.5537435
3	0xbec7d94d	-0.39032975
4	0xbf756b21	-0.9586659
5	0x3f959615	1.1686426
6	0xbe1185de	-0.14211223
7	0xbf7e2bbf	-0.992855
8	0xbf3b1059	-0.7307182
9	0xbf5f362a	-0.8719202
10	0x3eaf032b	0.34182104
11	0xbe5a8910	-0.21341348
12	0x3e8b3ad9	0.27193335
13	0x3f226e30	0.6344938
14	0xbf9888b0	-1.1916714
15	0xbeab423b	-0.33448967
16	0xbe5536e5	-0.20821722
17	0xbf9e99d9	-1.23907
18	0x3f86b6a3	1.0524486
19	0xbf439de4	-0.76412797
20	0xbf55681d	-0.8336199
21	0x3e76f4a9	0.24116768
22	0xbf82e7e2	-1.0227015
23	0x3f6f3079	0.9343334
24	0xbebff9eb	-0.3749536
25	0x3ed055ca	0.40690452
26	0x3f3976f0	0.7244711
27	0x3eb05cbf	0.3444576
28	0xbf8d82bf	-1.1055526
29	0xbe6989c8	-0.22806466
30	0xbf2eead9	-0.683271
31	0x3ef11211	0.47084096
32	0x3f198174	0.59963155
33	0xbef80ee5	-0.48448864
34	0x3f372e5a	0.715551
35	0x3f83fb69	1.0311099
36	0x3f8e1c8e	1.1102464
37	0x3e823bfd	0.25436392
38	0x3f7e4360	0.99321556
39	0xbf876890	-1.0578785
40	0x3f8d676a	1.1047184
41	0xbe630d36	-0.22173008
42	0xbe88b248	-0.26698518
43	0x3f88fd99	1.0702392
44	0x3f9d28a7	1.2278031
45	0x3eecf44a	0.46280128
46	0x3f4e1433	0.8049957
47	0xbf17655e	-0.5913905
48	0xbf88a86e	-1.0676401
49	0xbf988929	-1.1916858
50	0x3e49aa8a	0.19693962
51	0xbf553855	-0.8328908
52	0x3e62b5ea	0.22139707
53	0x3eebb1fd	0.46034232
54	0x3f72bcd0	0.94819355
55	0xbe970059	-0.29492453
56	0xbe82245a	-0.2541836
57	0x3ea85e88	0.32884622
58	0xbf79b66c	-0.9754398
59	0xbf0ffec5	-0.5624812
60	0x3f205abf	0.6263847
61	0x3c49be95	0.012313505
62	0x3e1946d4	0.14968425
63	0xbe088cd3	-0.1333497
64	0xbf84197a	-1.0320275
65	0xbf5686fc	-0.8379972
66	0x3e9de6c4	0.30840123
67	0xbe6018e8	-0.21884501
68	0x3f79c5e4	0.9756758
69	0xbeb9212b	-0.36158118
70	0xbf98a493	-1.1925224
71	0xbf99f3f4	-1.2027574
72	0xbe904453	-0.28177127
73	0x3e255d27	0.16148816
74	0xbf7a3f81	-0.9775315
75	0xbf235bc0	-0.63811874
76	0xbf393f8c	-0.7236259
77	0x3e0c50cc	0.13702697
78	0x3eeeaabf	0.46614644
79	0xbdd1d412	-0.10245527
80	0xbe7f9d30	-0.24962306
81	0xbf76d19a	-0.96413577
82	0x3f4eb9fa	0.8075253
83	0x3efaeffe	0.49011225
84	0xbf7c0fab	-0.9846141
85	0xbef7c8c4	-0.4839536
86	0xbde6711f	-0.11252045
87	0x3f64601b	0.89209145
88	0x3f85198c	1.0398421
89	0xbe8286c6	-0.2549345
90	0xbd99bbc7	-0.07506519
91	0x3f4c4c2f	0.79803747
92	0xbf060f35	-0.52366954
93	0x3f784f40	0.96995926
94	0xbe5c67c6	-0.21523961
95	0xbbd50e53	-0.0065019517
96	0xbf1c03ac	-0.609431
97	0xbf914480	-1.134903
98	0xbcd57a11	-0.026059182
99	0x3f8c0d07	1.0941476
100	0xbf9d4bf5	-1.2288805
101	0xbf825735	-1.0182863
102	0x3f1b432b	0.60649365
103	0x3f03ff81	0.51561743
104	0x3f26f7d9	0.65221936
105	0xbf4d79ad	-0.8026379
106	0xbf8e3473	-1.1109756
107	0x3f55b379	0.8347698
108	0x3f06c71b	0.5264756
109	0x3f4bdc62	0.7963315
110	0x3f248713	0.64268607
111	0x3f541357	0.8284201
112	0xbf120bcd	-0.57049257
113	0xbea75e65	-0.32689205
114	0x3f503a2c	0.81338763
115	0xbf259c1b	-0.64691323
116	0xbecec242	-0.40382582
117	0x3f125d37	0.57173485
118	0xbf184619	-0.5948196
119	0xbf1f4e7d	-0.6222914
120	0xbf7aa629	-0.9790979
121	0xbea97a20	-0.33100986
122	0x3eca3883	0.3949624
123	0xbf63a4ad	-0.8892315
124	0x3dd79bd1	0.105277665
125	0x3f897f33	1.0741943
126	0x3e98eb97	0.2986724
127	0x3e9cf827	0.30658075
128	0x3f488e3c	0.7834203
129	0x3e8d1827	0.2755749
130	0x3f4789a0	0.77944374
131	0xbf289ed9	-0.6586738
132	0xbf467a33	-0.7753021
133	0x3e5b72a8	0.21430457
134	0xbea2224d	-0.31666794
135	0xbe8f5599	-0.27994993
136	0x3ef9a3ff	0.48757932
137	0xbf61950a	-0.8811804
138	0x3f52afcd	0.822995
139	0x3f8162d6	1.0108287
140	0xbf5058ec	-0.81385684
141	0xbd4fd15e	-0.050736777
142	0x3dc50ba6	0.096213624
143	0xbf1fc76f	-0.62413687
144	0x3db08273	0.08618631
145	0x3f95cb27	1.1702622
146	0x3e0fe414	0.14051849
147	0xbf7501da	-0.9570595
148	0xbf6bf682	-0.92173016
149	0x3eea6612	0.45780998
150	0xbe2a281d	-0.16616865
151	0x3f459880	0.7718582
152	0x3f57db46	0.8431896
153	0xbf406305	-0.7515109
154	0x3f9fe12d	1.2490593
155	0x3e647637	0.2231072
156	0xbf78acf9	-0.97138935
157	0xbe11a416	-0.1422275
158	0x3e7a1006	0.24420175
159	0xbf5e52ec	-0.8684528
160	0xbf16a921	-0.5885182
161	0x3f860e8f	1.0473193
162	0x3d75dc3f	0.060024496
163	0x3f4ba5a7	0.7954964
164	0x3e925050	0.285769
165	0x3f98daef	1.1941813
166	0x3f1d8df2	0.61544716
167	0x3f5bd1cb	0.85866994
168	0x3f66f78c	0.90221477
169	0xbf39ffff	-0.72656244
170	0x3ee7ac35	0.4524857
171	0xbd7b8937	-0.061410155
172	0xbf8a319d	-1.0796391
173	0xbed5c41d	-0.41751185
174	0xbf896ad2	-1.0735724
175	0x3f88e41e	1.0694616
176	0x3f861e6f	1.0478038
177	0xbf7dcd32	-0.9914123
178	0xbf959a91	-1.1687795
179	0x3eae79a1	0.3407717
180	0xbf9b654c	-1.2140288
181	0xbf1672b0	-0.5876875
182	0xbf508236	-0.81448686
183	0x3f5fbbfd	0.8739622
184	0xbf772db5	-0.9655412
185	0x3f9037ab	1.1266989
186	0xbf9d3774	-1.2282548
187	0xbf2cedf0	-0.67550564
188	0x3f485fd8	0.78271246
189	0x3fa14e91	1.2602102
190	0xbf29caef	-0.6632528
191	0x3f8210c3	1.0161365
192	0x3e66f3b4	0.22553903
193	0x3f455b4e	0.77092445
194	0xbf0e7010	-0.55639744
195	0xbf4bddfe	-0.7963561
196	0xbf2107df	-0.62902635
197	0xbf9ea558	-1.2394209
198	0xbf1e52e0	-0.6184521
199	0xbf8ee6e1	-1.1164209
200	0x3f08e8b2	0.53480065
201	0xbe2acfc2	-0.16680816
202	0x3fa0aa96	1.2552059
203	0x3f2b2ccd	0.66865236
204	0xbf4abc36	-0.7919344
205	0x3fa00a03	1.2503055
206	0xbf27c415	-0.6553357
207	0x3ecf6846	0.40509242
208	0xbe55e205	-0.20887001
209	0xbf62187b	-0.88318604
210	0xbf7faa9f	-0.9986972
211	0xbf322bce	-0.6959809
212	0xbee7b832	-0.45257717
213	0xbf7ab7ca	-0.9793669
214	0x3e1100c5	0.1416045
215	0x3f8b0bb6	1.0862949
216	0xbe7f5359	-0.24934138
217	0xbe9fb93e	-0.31196016
218	0x3f58fca8	0.8476052
219	0xbf881fa5	-1.0634657
220	0xbf6613a2	-0.8987371
221	0xbe8fa241	-0.28053477
222	0x3f1dfaf2	0.6171104
223	0xbf3beac7	-0.73405117
224	0xbf973c13	-1.1815208
225	0xbb7c7cf2	-0.0038526622
226	0x3f928c48	1.144906
227	0x3f8e8c74	1.1136613
228	0x3f4d4c1d	0.80194265
229	0x3dc0c70d	0.09412966
230	0xbf9ce426	-1.2257125
231	0x3f4fadf6	0.8112482
232	0x3f8bf298	1.0933409
233	0xbcc7db45	-0.024396548
234	0xbf7420f3	-0.95362777
235	0xbf4863ed	-0.78277475
236	0xbf22c0d0	-0.6357546
237	0x3f0b5e66	0.54440916
238	0xbf80413f	-1.0019912
239	0xbf8188a1	-1.0119821
240	0x3f9c8875	1.2229143
241	0x3e8cf7c7	0.2753279
242	0xbf5d7fb8	-0.8652301
243	0x3e993815	0.299256
244	0x3e8b851e	0.27249998
245	0xbf7baa48	-0.98306704
246	0x3f69079e	0.9102725
247	0x3f4c2a19	0.79751736
248	0x3f6d97e7	0.9280991
249	0xbee040e0	-0.43799496
250	0xbf953cfe	-1.1659238
251	0xbeefea47	-0.46858427
252	0x3dbaef36	0.09127657
253	0x3eb00083	0.3437539
254	0x3f757640	0.9588356
255	0xbf823144	-1.0171285

input.bias f4 [64]
0	0xbd051f84	-0.03250076
1	0x3cf4d3b1	0.029886099
2	0x380e87d4	3.3981938e-05
3	0xbcff225e	-0.031144317
4	0xbd6dd248	-0.058061868
5	0xbda2e7d4	-0.07954374
6	0x3da217d2	0.079146996
7	0xbcd608b2	-0.026127193
8	0xbce05598	-0.027384564
9	0x3df04ed0	0.11733782
10	0x3c8b5ee9	0.01701303
11	0xbd5030b4	-0.050827697
12	0xbc802351	-0.01564184
13	0x3d5d9c59	0.054104183
14	0xbdd4f367	-0.10397988
15	0x3df66ae0	0.120321035
16	0xbdd2f68e	-0.10300933
17	0xbe08bdec	-0.133537
18	0x3cde9c0a	0.027174015
19	0xbd46688f	-0.04843956
20	0xbc118733	-0.008882332
21	0x3dc70f5b	0.09719726
22	0xbd2931aa	-0.04130713
23	0xbd2a002a	-0.041504063
24	0xbd9a755b	-0.07541915
25	0xbdcfe398	-0.10150832
26	0x3d2b2964	0.04178752
27	0x3d823a49	0.06358773
28	0xbe088af2	-0.13334253
29	0xbbe6d53b	-0.007044462
30	0xbd1cdd1c	-0.038296804
31	0x3e13ddb7	0.14440046
32	0xbd9cf7e3	-0.07664468
33	0xbe0c8b06	-0.13724908
34	0xbd23a334	-0.039950565
35	0xbc803282	-0.015649084
36	0x3df6ad14	0.12044731
37	0x3dd2546e	0.1027001
38	0xbd494a8c	-0.04914336
39	0x3d115c30	0.035488307
40	0x3e0a67de	0.13516185
41	0xbc6d3972	-0.014479028
42	0x3df5dd71	0.12005127
43	0xbd15aef6	-0.03654381
44	0xbdc7c3e9	-0.09754164
45	0x3d26b53d	0.040700186
46	0xbde2f865	-0.11082534
47	0x3e0339c3	0.12815003
48	0xbd112cf2	-0.035443254
49	0xbdde71e9	-0.108615704
50	0x3ccb2b28	0.024800852
51	0x3cf045d3	0.02933017
52	0xbe040530	-0.12892604
53	0x3bdf6a3c	0.006818084
54	0x3dbc2453	0.09186616
55	0xbd6480ee	-0.05578702
56	0x3d6198db	0.055077415
57	0xbde4264d	-0.11140118
58	0x3d821c03	0.06352999
59	0x3ca55b36	0.020185094
60	0x3e0e79c6	0.1391364
61	0x3df21380	0.118201256
62	0xbd9ab795	-0.07554547
63	0x3dc636a8	0.096783936

h1.weight f4 [64, 64]
0	0xbd19f96c	-0.037591383
1	0x3dbb3e64	0.091427594
2	0xbe02f1d2	-0.1278756
3	0x3dcbe2e8	0.09955388
4	0xbe4f81c5	-0.20264347
5	0xbcd670cf	-0.026176838
6	0x3e81bb7b	0.2533835
7	0x3db6d85e	0.089279875
8	0x3e0b2a98	0.13590467
9	0x3d980127	0.07422095
10	0x3e109f24	0.14123207
11	0xbdb406a0	-0.08790326
12	0x3e757714	0.23971206
13	0x3e259be8	0.16172755
14	0x3c9cd959	0.019146608
15	0xbe863462	-0.2621184
16	0xbe8e31e1	-0.2777243
17	0xbe797a83	-0.24363141
18	0xbe05e0d2	-0.13074043
19	0x3e420d9d	0.18950506
20	0xbe5b37f2	-0.2140806
21	0x3e0ea75e	0.13931033
22	0x3e7416b8	0.23836792
23	0xbd95cb60	-0.07314181
24	0x3e2808d0	0.16409612
25	0x3df287db	0.118423186
26	0x3ca16afb	0.019704333
27	0xbd682486	-0.056675456
28	0x3e7f8790	0.24954057
29	0xbcbac988	-0.022801176
30	0x3e3bb427	0.18330441
31	0x3d8c14d7	0.068399124
32	0x3e700949	0.23441042
33	0xbd013ab7	-0.031550135
34	0x3db501d2	0.08838238
35	0xbe8fb930	-0.28070974
36	0xbe8c9a34	-0.27461398
37	0xbd8dc565	-0.06922416
38	0x3e4de7b1	0.20107915
39	0x3c1dbb96	0.0096272435
40	0x3e9b4126	0.30323142
41	0x3db9f025	0.09079007
42	0xbe7c1b08	-0.24619687
43	0x3e08aa6c	0.13346261
44	0xbe983adb	-0.29732403
45	0x3e2746af	0.16335557
46	0x3e63c772	0.22244051
47	0x3e86098a	0.26179153
48	0xbe27e96b	-0.16397636
49	0xbe3cf7e2	-0.18453935
50	0xbca726bb	-0.02040421
51	0xbdec38aa	-0.11534245
52	0x3e74526b	0.23859565
53	0xbd1950a9	-0.03743044
54	0x3d73c2e6	0.05951204
55	0xbd3aaeee	-0.045576982
56	0x3e3a3196	0.18182978
57	0xbe807602	-0.25090033
58	0x3e3055b1	0.17220189
59	0x3ddd0cca	0.10793455
60	0x3e8ce491	0.27518132
61	0x3e6b5e86	0.22985277
62	0xbe85c6ae	-0.26128143
63	0x3bf40d34	0.007447863
64	0x3ea26fd8	0.31725955
65	0x3e09d2e4	0.13459355
66	0xbe21616e	-0.15759823
67	0xbc795f0a	-0.015220413
68	0xbd5d42e9	-0.05401889
69	0xbea92d28	-0.33042264
70	0xbded3ea8	-0.11584216
71	0xbcf1b318	-0.029504344
72	0x3dfa0a77	0.12209027
73	0x3cd55e2f	0.026045887
74	0x3e4d4c2d	0.2004859
75	0x3e824d23	0.25449476
76	0xbd862bea	-0.06551345
77	0x3da52e8a	0.08065517
78	0x3d41c506	0.047307037
79	0x3ea7ff8b	0.3281215
80	0x3d9437b4	0.07237187
81	0xbe92d5b7	-0.28678676
82	0xbe733f15	-0.23754533
83	0x3d8faf7b	0.07015892
84	0x3e638956	0.22220358
85	0x3e576e10	0.2103808
86	0xbe2b4db6	-0.16728863
87	0x3c4689ae	0.012117786
88	0xbcaa2e18	-0.020773932
89	0xbc3fad7d	-0.011699078
90	0xbe3b16ce	-0.18270418
91	0x3e1a61d6	0.15076384
92	0xbdb605ea	-0.08887847
93	0xbdc13deb	-0.09435638
94	0xbdd24923	-0.10267856
95	0xbdba9ac3	-0.0911155
96	0xbe147094	-0.1449607
97	0xbe968d3f	-0.29404637
98	0xbe5d027b	-0.21582977
99	0xbe028853	-0.12747316
100	0x3e8b1aaf	0.27168795
101	0xbd4583b8	-0.04822132
102	0xbd1b1ea1	-0.037871007
103	0x3e0fb59f	0.14034127
104	0xbe485482	-0.19563487
105	0x3e4ddd50	0.20103955
106	0x3e5c73e8	0.2152859
107	0xbe208ee7	-0.15679513
108	0x3cd641e4	0.026154466
109	0xbe354b26	-0.17704448
110	0xbc35b758	-0.011091076
111	0x3e3a885e	0.18216082
112	0xbe90046b	-0.2812837
113	0xbe59b3ee	-0.21260044
114	0xbe2e0498	-0.1699394
115	0xbc53c272	-0.012924777
116	0x3cb7a824	0.022419043
117	0xbe5e8c64	-0.21733242
118	0xbe5fa578	-0.21840465
119	0x3db644d0	0.08899844
120	0xbd4cf5a3	-0.050038945
121	0xbe89ad13	-0.26889858
122	0xbc2933ca	-0.010327289
123	0xbdbf5da8	-0.093440354
124	0x3d426b7d	0.04746579
125	0xbdd052e2	-0.10172059
126	0xbeabb090	-0.33533144
127	0x3db05d57	0.08611553
128	0x3e4d8e62	0.20073846
129	0xbe7a3b31	-0.24436642
130	0xbd8ef954	-0.06981149
131	0xbe27c92d	-0.16385336
132	0xbc9ee9bc	-0.019398563
133	0xbe4ee892	-0.20205906
134	0x3dd7d747	0.10539108
135	0xbde17cac	-0.110101074
136	0xbc8a7277	-0.016900284
137	0x3eb05e67	0.34447023
138	0x3d9b1838	0.07572979
139	0x3e8f5b79	0.27999476
140	0xbe89312d	-0.2679533
141	0x3e76f490	0.2411673
142	0x3e046824	0.12930351
143	0x3a311b8a	0.0006756118
144	0xbeb1eca1	-0.34750846
145	0xbe657f34	-0.22411805
146	0x3de45774	0.11149493
147	0x3e1f6bde	0.15568492
148	0xbde67682	-0.11253072
149	0x3e75fbc2	0.24021819
150	0x3e03bfc8	0.12866127
151	0xbd7608a2	-0.060066827
152	0xbe25b9d7	-0.16184174
153	0xbe679997	-0.22617184
154	0xbe45fe01	-0.19335176
155	0x3dd8adb1	0.10580004
156	0xbea485a4	-0.3213321
157	0x3bed607c	0.007244168
158	0xbd95ff9b	-0.073241435
159	0x3de6b44a	0.11264856
160	0x3b8e051f	0.0043341066
161	0xbe8a8a75	-0.2705876
162	0x3e8bc057	0.2729518
163	0x3e47147e	0.19441411
164	0x3e583a47	0.21115981
165	0x3d71d47c	0.05904053
166	0x3e931e72	0.28734165
167	0x3e818d10	0.25302935
168	0xbcc5732b	-0.024102768
169	0xbd268861	-0.040657405
170	0xbdc6146e	-0.096718654
171	0xbe72e2a6	-0.23719272
172	0x3e59b521	0.21260501
173	0xbdb457b9	-0.08805794
174	0x3dfd5a9e	0.123707995
175	0xbc3d34a0	-0.011548191
176	0x3e129572	0.14314821
177	0xbe8dfce7	-0.27732012
178	0x3d03618c	0.03207545
179	0xbe6321a7	-0.22180806
180	0xbdc94f09	-0.09829528
181	0xbe6e24e7	-0.23256265
182	0x3d368cc7	0.04456785
183	0xbe22fedf	-0.15917538
184	0x3e74d1a8	0.23908103
185	0xbe59bbd4	-0.21263057
186	0x3e3ef575	0.18648322
187	0xbd69cf63	-0.057082545
188	0x3e687ee1	0.2270465
189	0x3e5c0643	0.21486764
190	0xbdc19096	-0.09451406
191	0xbe5819b4	-0.21103555
192	0x3d9ce62a	0.07661088
193	0xbe8f322b	-0.27967963
194	0x3d843b11	0.064565785
195	0xbd19eb46	-0.03757789
196	0x3e68aab9	0.22721376
197	0x3e135820	0.14389086
198	0xbe9f89ea	-0.31159908
199	0x3e832978	0.25617576
200	0x3dce8d4f	0.10085546
201	0xbea313de	-0.31851095
202	0xbe07d3f4	-0.13264447
203	0xbe176392	-0.14784077
204	0x3ddf114a	0.108919695
205	0xbe3d9d0a	-0.18516937
206	0x3e438527	0.19093762
207	0xbe81f2ca	-0.25380546
208	0xbe525302	-0.20539477
209	0xbe369902	-0.17831805
210	0x3db7234b	0.089422785
211	0xbe6a044a	-0.22853199
212	0x3d46e161	0.04855478
213	0x3d18eb3e	0.03733372
214	0xbe94e85f	-0.29083535
215	0xbe1c1e97	-0.15246044
216	0xbdfbb6ce	-0.122907266
217	0x3e4f828e	0.20264646
218	0xbe0026fd	-0.12514873
219	0x3e1e476f	0.15456937
220	0x3e7f3e4c	0.24926108
221	0x3dbcd40d	0.09220133
222	0xbe56c82b	-0.20974796
223	0xbe5b7367	-0.21430741
224	0x3e5ad3b2	0.21369818
225	0xbe69d847	-0.2283641
226	0xbe845304	-0.25844586
227	0x3c53b403	0.012921336
228	0xbdc15ab1	-0.09441126
229	0x3e67b5d1	0.22627951
230	0xbbeaf47d	-0.0071702586
231	0xbdc0bcd3	-0.09411015
232	0xbde0ecad	-0.10982642
233	0x3e45a11c	0.1929974
234	0x3e789da3	0.24278884
235	0xbc136139	-0.008995348
236	0xbe431e7d	-0.19054599
237	0x3e02a527	0.12758313
238	0x3e98a4c6	0.29813212
239	0x3e1fd070	0.15606856
240	0x3e9bb080	0.30408096
241	0xbe2a7c80	-0.16649055
242	0xbe539378	-0.20661724
243	0x3e7ba9d0	0.24576497
244	0xbd5ce2eb	-0.053927343
245	0xbdb103b8	-0.086432874
246	0xbd1a47c3	-0.037666094
247	0x3c9835c1	0.01858032
248	0xbe4592ed	-0.19294329
249	0xbd902b6b	-0.07039531
250	0x3e2b28fe	0.16714856
251	0xbe47297c	-0.19449419
252	0x3d75de24	0.060026303
253	0x3e28fb59	0.16502132
254	0xbe758068	-0.23974764
255	0xbb856073	-0.0040703355

h1.bias f4 [64]
0	0x3d8007a6	0.06251459
1	0x3d819df4	0.06328955
2	0x3b01e56d	0.0019820586
3	0x3d274b2b	0.04084317
4	0x3d187d9b	0.03722916
5	0xbcb8616e	-0.022507396
6	0xbd845e1d	-0.06463263
7	0xbdd623a3	-0.10456016
8	0xbcbc5e2a	-0.02299412
9	0xbd62137d	-0.055194367
10	0x3d069756	0.03285917
11	0x3cfab6e0	0.03060478
12	0x3dfb235a	0.12262602
13	0xbd718c96	-0.058971964
14	0x3d52527c	0.051348194
15	0x3df7b4a2	0.12095
16	0xbce102d1	-0.027467163
17	0xbc8471d7	-0.016167564
18	0xbd4bc66d	-0.04974978
19	0xbd5e2c0c	-0.054241225
20	0x3d837b13	0.06419959
21	0xbdb07dc4	-0.08617738
22	0x3cbaf076	0.022819739
23	0xbdb00dab	-0.08596357
24	0x3dcc3b45	0.09972242
25	0x3d57c3e8	0.052677065
26	0x3b4d605d	0.0031337955
27	0x3ba40230	0.0050051436
28	0x3d66911f	0.056290742
29	0x3cf97849	0.030452864
30	0x3d737473	0.059437227
31	0xbd6ec026	-0.058288716
32	0x3e1021f6	0.14075455
33	0x3cff3afd	0.031156057
34	0x3dd67339	0.10471196
35	0x3df3815f	0.1188991
36	0x3db18830	0.08668554
37	0x3deb94ea	0.115030125
38	0xbb0bb837	-0.0021319517
39	0x3c90cb57	0.017675085
40	0x3cf310ad	0.029671038
41	0x3dc65ce8	0.09685689
42	0x3cb7c018	0.022430465
43	0xbd8bf12c	-0.06833109
44	0x3e0196d2	0.1265519
45	0xbdb0b808	-0.08628851
46	0x3d3ef843	0.04662348
47	0xbd38f8af	-0.04515904
48	0x3d6ebf9f	0.058288213
49	0x3dde6bfe	0.108604416
50	0x3d3348ea	0.04377071
51	0xbdca38d9	-0.09874124
52	0x3d102f1e	0.035201184
53	0xbc0b489c	-0.008501198
54	0x3d850577	0.06495183
55	0xbd2da2f1	-0.04239172
56	0x3cba58bd	0.022747392
57	0x3bba5a96	0.005687068
58	0x3dbc70cb	0.09201201
59	0x3ac7e5e7	0.0015251011
60	0xbcc9a620	-0.024615347
61	0xbd38b8d1	-0.04509813
62	0x3dda6d0a	0.10665329
63	0xbd974005	-0.07385258

h2.weight f4 [64, 64]
0	0xbe7b0051	-0.2451184
1	0xbe566812	-0.20938137
2	0x3dfb10a2	0.12259032
3	0xbe55fa8b	-0.20896356
4	0xbceb5900	-0.028728962
5	0xbe201a57	-0.15635048
6	0x3e66f50c	0.22554415
7	0x3e161f6a	0.14660421
8	0xbe28711d	-0.164494
9	0x3e4f0e59	0.20220317
10	0xbe86118d	-0.26185265
11	0x3e66af35	0.22527774
12	0x3e8e11bb	0.27747902
13	0x3d85c5d5	0.06531874
14	0xbd04007d	-0.03222703
15	0x3db6ba9f	0.08922314
16	0x3ded5d36	0.11590044
17	0xbd943852	-0.07237305
18	0x3d8b3d80	0.067988396
19	0x3e4153ca	0.18879619
20	0x3e7261cb	0.23670118
21	0xbe59e5f3	-0.21279125
22	0xbd6cb7f0	-0.057792604
23	0x3e544d21	0.20732547
24	0xbdbb3c5c	-0.09142372
25	0xbe36df4a	-0.17858616
26	0xbde643c8	-0.11243397
27	0xbd436697	-0.04770526
28	0x3eb572cb	0.35439143
29	0xbd099799	-0.03359184
30	0xbe8b4a4f	-0.2720513
31	0xbe1ea6ea	-0.1549336
32	0x3e95b65b	0.2924069
33	0xbe4e4a28	-0.20145476
34	0x3dc3dd7f	0.095637314
35	0x3e9aad95	0.30210558
36	0xbdd1e48a	-0.102486685
37	0x3e009706	0.12557611
38	0xbdcc3a94	-0.099721104
39	0x3e2173ea	0.15766874
40	0x3ea7531f	0.32680604
41	0xbe6def8f	-0.23235916
42	0xbe409a9b	-0.18808977
43	0x3e9ca547	0.30594847
44	0x3ea37875	0.3192784
45	0xbe8906a5	-0.26762882
46	0x3e0b1d98	0.13585508
47	0x3d7bb307	0.06145003
48	0x3db8d1a3	0.0902436
49	0xbd89f0cf	-0.06735384
50	0xbe5c8105	-0.21533592
51	0x3d9ea4aa	0.07746251
52	0xbe2148d5	-0.1575044
53	0x3bd25803	0.006419183
54	0xbe4e59ab	-0.20151393
55	0x3d2896e8	0.04115954
56	0xbe66b68f	-0.22530578
57	0x3d0b5988	0.03402093
58	0xbe40aff3	-0.1881712
59	0x3e7d05cc	0.24709243
60	0xbdcf4dff	-0.101222984
61	0x3ea20e52	0.3165155
62	0x3e8b0805	0.27154556
63	0xbe5a8138	-0.21338356
64	0xbdbe8a3b	-0.09303709
65	0x3db4bf5f	0.08825564
66	0x3e57ed9c	0.21086735
67	0xbde78da0	-0.1130631
68	0xbe72e4e9	-0.23720135
69	0x3d7d1ee0	0.061797023
70	0x3d874c66	0.06606369
71	0xbe663ae5	-0.22483404
72	0x3e32556c	0.17415398
73	0xbe810de5	-0.25205913
74	0xbde5f441	-0.11228228
75	0x3e38d0e8	0.18048441
76	0xbe503b30	-0.20335078
77	0xbe0b5a2b	-0.13608615
78	0xbdbab04b	-0.091156565
79	0x3e81d9f7	0.25361606
80	0x3dee842f	0.11646306
81	0x3e308a8d	0.17240353
82	0xbd94bebc	-0.07262942
83	0x3e84adce	0.25913852
84	0xbe7e7923	-0.24850897
85	0x3e819c6c	0.25314653
86	0xbe272f93	-0.16326742
87	0x3e8710d2	0.2638002
88	0x3dc85a14	0.09782806
89	0xbe04488c	-0.129183
90	0x3ea5cf0c	0.32384527
91	0xbe833b66	-0.25631255
92	0xbe28c6f5	-0.16482146
93	0x3e1cb89e	0.15304801
94	0xbe4639a2	-0.19357923
95	0xbe7226dc	-0.23647636
96	0x3e264f8c	0.16241282
97	0xbe3454bf	-0.17610453
98	0xbe00debf	-0.12584971
99	0x3e848635	0.25883642
100	0x3e23cc89	0.15995993
101	0x3e18f7a5	0.14938219
102	0x3e87b3e2	0.26504427
103	0xbe789627	-0.24276029
104	0xbe6c0c9f	-0.2305169
105	0xbe3cd8ec	-0.18442124
106	0xbe3c6024	-0.1839605
107	0x3e2cc342	0.1687136
108	0xbe811ef0	-0.25218916
109	0x3e0c0b45	0.13676174
110	0xbad39226	-0.0016141578
111	0x3e504471	0.20338608
112	0x3e8134c0	0.25235558
113	0xbd3d17d3	-0.0461653
114	0x3dc76c03	0.097373985
115	0xbe8b2ac1	-0.27181056
116	0x3df9b8a4	0.121934205
117	0xbe08af22	-0.13348058
118	0x3a1ce4c1	0.0005985015
119	0xbc9f05ec	-0.019412003
120	0x3d29daa6	0.041468285
121	0x3eaeaa7d	0.34114447
122	0x3cfa12ed	0.030526603
123	0x3cf552d9	0.029946731
124	0xbe3f8b3e	-0.1870546
125	0xbe72c250	-0.23706937
126	0x3e85b0ed	0.26111546
127	0xbb834f9c	-0.004007293
128	0xbe641ba3	-0.22276168
129	0x3d64409e	0.055725686
130	0xbdb79dce	-0.08965646
131	0xbdf9cdf6	-0.12197487
132	0xbd4cc78f	-0.049995
133	0xbe896d6b	-0.26841292
134	0x3e41f4f5	0.189411
135	0x3d912756	0.07087581
136	0x3e824cce	0.25449222
137	0x3e216c43	0.15763955
138	0x3e628359	0.22120418
139	0xbdc2239d	-0.09479449
140	0x3de10243	0.109867595
141	0x3e84eaad	0.25960293
142	0xbca0acfb	-0.019613734
143	0x3e41d685	0.18929489
144	0x3e7b0dfe	0.24517056
145	0xbe81fef9	-0.2538984
146	0xbe83a028	-0.25708127
147	0x3d818171	0.06323517
148	0x3d87fa37	0.066395216
149	0xbe8768c0	-0.26447105
150	0x3e09dde5	0.13463552
151	0x3db15f9c	0.08660814
152	0xbe2550fe	-0.16144177
153	0x3e78f995	0.24313958
154	0xbe086b93	-0.13322286
155	0xbe58bc0e	-0.21165487
156	0x3d8f20de	0.06988691
157	0x3d177fd8	0.036987156
158	0xbe5d0673	-0.21584491
159	0x3c3a7f9e	0.011382965
160	0xbe09199a	-0.13388672
161	0xbe55e70b	-0.20888917
162	0x3dbf8851	0.09352172
163	0x3e447bd5	0.19187863
164	0x3c83b9f9	0.01607989
165	0xbca2d9b4	-0.0198792
166	0xbdd259cc	-0.10271034
167	0xbe8e6e77	-0.27818653
168	0xbe820fbb	-0.25402626
169	0xbe86a725	-0.26299396
170	0xbe43d863	-0.19125514
171	0xbdaff0ef	-0.08590876
172	0xbdb62150	-0.088930726
173	0x3e61b16d	0.22040339
174	0x3e9c2ba6	0.3050205
175	0xbe2a9f49	-0.16662325
176	0xbd662f26	-0.056197308
177	0x3e222c39	0.15837182
178	0x3cf16a77	0.029469712
179	0xbd320eac	-0.043471023
180	0x3d170dc0	0.036878347
181	0x3df29c67	0.11846238
182	0x3e748f7a	0.23882857
183	0xbe5166fd	-0.20449443
184	0x3bb89cc3	0.005633922
185	0xbe02adcb	-0.1276161
186	0xbd9ed62a	-0.07755692
187	0x3db2d4c1	0.08731986
188	0xbd06222c	-0.032747433
189	0xbd93cc38	-0.07216686
190	0x3e8d8a92	0.27644783
191	0x3e3f7874	0.18698293
192	0xbd4ba195	-0.049714644
193	0x3e14eb87	0.14542972
194	0x3e6d626c	0.23182076
195	0xbe7f3760	-0.24923468
196	0x3e10264f	0.14077114
197	0xbe2ffb65	-0.17185743
198	0xbdff93dd	-0.124793746
199	0x3e0040ae	0.12524673
200	0x3e585fcf	0.21130298
201	0x3ca28842	0.019840363
202	0x3dcea9e2	0.10090996
203	0xbe318a0a	-0.17337814
204	0xbe0b325f	-0.13593434
205	0x3e6aa233	0.22913437
206	0x3c992da3	0.01869852
207	0xbe9e6263	-0.30934438
208	0xba86051b	-0.001022491
209	0x3dced061	0.10098339
210	0xbda43a25	-0.08018903
211	0xbe2e0b56	-0.16996512
212	0xbd5d69d4	-0.054056004
213	0x3e4ad3cf	0.19807361
214	0xbd8b88b0	-0.068131804
215	0x3e3a909d	0.18219228
216	0x3e84cb89	0.25936535
217	0xbe9f3cfc	-0.31101215
218	0xba36ff0b	-0.00069807534
219	0xbdf20f60	-0.11819339
220	0xbe5dc98f	-0.2165892
221	0xbdf7293c	-0.12068412
222	0x3e49d31e	0.19709441
223	0x3e925efc	0.28588092
224	0xbdaf351d	-0.085550524
225	0xbd387a11	-0.045038287
226	0x3e5f1136	0.21783909
227	0x3e6af35d	0.22944398
228	0xbdfb9835	-0.122848906
229	0x3d46b918	0.048516363
230	0xbdefb897	-0.117051296
231	0x3e37cc50	0.17949033
232	0x3e625b5b	0.22105162
233	0xbe56af36	-0.20965275
234	0xbe09fc9c	-0.13475269
235	0xbdf22e6b	-0.1182526
236	0xbdeef56f	-0.116679065
237	0x3dd47b7a	0.10375114
238	0xbe894bf4	-0.2681576
239	0x3db37926	0.087633416
240	0x3e9708a1	0.2949877
241	0xbdb3ca88	-0.08778864
242	0xbe8d3fe6	-0.27587813
243	0x3dc894a1	0.09793974
244	0xbe6ba909	-0.230137
245	0xbddea11b	-0.10870572
246	0x3e30d6d5	0.17269452
247	0xbe298abc	-0.16556829
248	0xbe8d09f1	-0.27546647
249	0x3e791721	0.24325229
250	0x3cc18dfb	0.023627272
251	0xbe614dc6	-0.22002324
252	0xbe7a1c7b	-0.24424927
253	0xbe591937	-0.21201025
254	0x3e71ecef	0.23625539
255	0x3e4329ef	0.19058965

h2.bias f4 [64]
0	0x3cb9c133	0.022675132
1	0x3d230e2a	0.03980843
2	0xbd6144a7	-0.054997113
3	0x3d302c56	0.043011032
4	0xbd46a3a9	-0.048495922
5	0x3dcb089f	0.09913754
6	0x3d30520e	0.043047003
7	0xbd8e51e4	-0.06949213
8	0xbccf8f64	-0.025336929
9	0x3d8afb63	0.067862295
10	0x3d4ba449	0.04971722
11	0xbdb6a7cf	-0.08918726
12	0x3d33f3c0	0.04393363
13	0x3c4f0c6b	0.012637238
14	0x3d0da6dd	0.03458296
15	0xbcbea0a5	-0.02326996
16	0xbd309d3d	-0.043118704
17	0x3b54bdfd	0.0032461875
18	0x3d3f7cae	0.046749763
19	0x3cb23d40	0.021757722
20	0x3a102165	0.000549814
21	0xbda17972	-0.07884492
22	0xbaa061a7	-0.0012236134
23	0x3da40c93	0.08010211
24	0x3ba23b44	0.0049509127
25	0x3c21e267	0.009880639
26	0x3d62ceea	0.05537311
27	0x3dd7e013	0.10540786
28	0x3db4dfe7	0.088317685
29	0x3d5ee0eb	0.054413717
30	0xbc3f0be7	-0.011660553
31	0x3c3280a1	0.010894925
32	0xbcc05b0d	-0.023480916
33	0xbc3e3b2e	-0.011610789
34	0x3d067f25	0.0328361
35	0xbcc08c94	-0.023504533
36	0xbca7e7d3	-0.020496285
37	0xbdc5dc4f	-0.09661161
38	0xbca6c5c8	-0.020357981
39	0xbd8a2481	-0.06745244
40	0x3de34ab8	0.11098236
41	0x3d1bf2a9	0.038073216
42	0xbc148677	-0.009065262
43	0xbd8c20f7	-0.06842225
44	0xbccf522c	-0.025307737
45	0xbd2e5194	-0.042558268
46	0x3db17474	0.0866479
47	0x3d191135	0.037369926
48	0x3c75169a	0.014959002
49	0xbcd48c40	-0.025945783
50	0x3dcf0e6c	0.10110173
51	0xbca06cd3	-0.019583141
52	0x3d08765d	0.033316005
53	0xbb161072	-0.0022897986
54	0xbacecf1b	-0.0015778275
55	0x3dce23ed	0.10065446
56	0xbc0b367b	-0.008496876
57	0xbdbea298	-0.09308356
58	0xbc8c5b5f	-0.017133413
59	0xbd22ba23	-0.039728295
60	0x3c25df24	0.010124002
61	0xbae36293	-0.0017348103
62	0xbd3ffea3	-0.0468737
63	0x3c1d323e	0.009594498

h3.weight f4 [4, 64]
0	0x3d3f2252	0.04666359
1	0xbd82eb25	-0.063925065
2	0xbcf54c80	-0.029943705
3	0xbe628f36	-0.22124943
4	0xbe05b208	-0.13056195
5	0xbcc33d61	-0.023832979
6	0x3e340c0f	0.17582725
7	0xbd8df359	-0.069311805
8	0x3e3f3dd2	0.18675926
9	0x3d7c6d2d	0.061627556
10	0x3e963a2e	0.29341263
11	0xbd2fb83b	-0.042900305
12	0x3e0ea72b	0.13930957
13	0x3e9cbcf8	0.30612922
14	0x3e556d33	0.20842437
15	0xbe92cd33	-0.2867218
16	0xbe76f1dc	-0.241157
17	0xbdb9dbc5	-0.09075121
18	0x3e2baea2	0.16765836
19	0xbdfe4db8	-0.124171674
20	0x3e43fc9f	0.19139336
21	0xbe65d58d	-0.22444744
22	0x3e5baafa	0.21451941
23	0x3e988fb7	0.29797146
24	0x3e9062ba	0.28200322
25	0x3e9ca871	0.3059726
26	0x3d1e777e	0.038688175
27	0xbd101e24	-0.035184994
28	0x3e322779	0.1739787
29	0xbe14bb03	-0.14524464
30	0xbe014401	-0.12623598
31	0x3e2bd699	0.16781081
32	0xbd5b2206	-0.053499244
33	0xbe431343	-0.19050317
34	0xbdb2cc02	-0.08730318
35	0xbe9382a9	-0.28810623
36	0x3e808a8d	0.25105706
37	0xbe64aa03	-0.2233048
38	0xbe8d36dc	-0.27580917
39	0x3d552bd7	0.052043762
40	0xbd342c33	-0.043987464
41	0x3e4beafb	0.19913857
42	0xbdb98851	-0.090592034
43	0xbe8e0179	-0.277355
44	0xbe7f9a1a	-0.24961129
45	0xbdf931e7	-0.12167721
46	0xbe2104aa	-0.15724435
47	0xbe3a8583	-0.18214993
48	0x3dcdcb04	0.10048488
49	0x3ce099a4	0.027417012
50	0xbb3a3932	-0.0028415439
51	0xbe4d09da	-0.2002329
52	0x3e596c3f	0.21232699
53	0x3e34e075	0.17663749
54	0xbe01301a	-0.12616006
55	0xbddda239	-0.10821957
56	0xbe5e7d71	-0.2172754
57	0x3e0e54a1	0.13899471
58	0x3e091228	0.13385832
59	0xbe1afbe4	-0.15135151
60	0x3e36f760	0.17867804
61	0x3d377f48	0.04479912
62	0xbe78a724	-0.24282509
63	0xbdbabf89	-0.09118564
64	0x3e8ecf63	0.27892599
65	0x3e0a2c38	0.1349343
66	0x3e5d65b4	0.21620828
67	0xbc54fa43	-0.01299912
68	0x3e114e79	0.14190091
69	0x3df4af06	0.119474456
70	0xbde13459	-0.10996313
71	0xbd0965ea	-0.03354446
72	0x3dc79f11	0.097471364
73	0xbdc62347	-0.09674697
74	0x3e0e3dfc	0.13890833
75	0x3e021723	0.12704138
76	0x3da5547d	0.080727555
77	0xbe775979	-0.24155225
78	0x3e9d6ac3	0.30745515
79	0x3ea2f157	0.31824753
80	0xbd0f7de9	-0.035032187
81	0xbd98b518	-0.07456416
82	0xbe1c0464	-0.1523605
83	0xbe77c278	-0.24195278
84	0x3dcecc2e	0.10097538
85	0x3dec50b7	0.11538833
86	0x3ea49771	0.3214679
87	0xbd07f1da	-0.033189632
88	0x3e03119a	0.12799683
89	0xbe304433	-0.17213516
90	0x3c36f378	0.011166446
91	0x3e859b07	0.2609484
92	0x3e8e7187	0.2782099
93	0x3cc4ccbc	0.024023406
94	0xbe2c849c	-0.16847461
95	0x3b78160b	0.0037854936
96	0x3e95604e	0.29175037
97	0x3e907029	0.2821057
98	0x3e8d099d	0.27546397
99	0xbd9e923e	-0.07742737
100	0xbce0bae3	-0.027432865
101	0xbe0db2e6	-0.13837776
102	0x3cdb9df9	0.026808726
103	0xbe5bfe9d	-0.21483846
104	0x3c8e0ba8	0.017339543
105	0xbe8acf5c	-0.27111328
106	0x3d7a6050	0.061127007
107	0x3ea1dad9	0.3161228
108	0xbe758bc9	-0.23979105
109	0x3e82fbe0	0.2558279
110	0x3e6f82bd	0.23389716
111	0x3ca1e5e4	0.01976294
112	0x3e0231ad	0.12714262
113	0x3d687988	0.056756526
114	0x3e05295e	0.13004062
115	0xbe691429	-0.22761597
116	0x3da67339	0.08127446
117	0x3e99f095	0.30066362
118	0x3e399e74	0.18126851
119	0x3e5aacd8	0.21354997
120	0x3ea3424c	0.31886518
121	0x3e1c1b70	0.15244842
122	0xbde320ba	-0.110902265
123	0xbe9b6eb8	-0.3035791
124	0xbd820fdd	-0.06350682
125	0xbac60028	-0.0015106248
126	0xbe3069fe	-0.17227933
127	0xbdd308b6	-0.10304396
128	0x3e93c8b0	0.2886405
129	0x3d202cfc	0.0391054
130	0x3e2a9707	0.16659175
131	0xbe4427a7	-0.19155751
132	0x3e7673fb	0.2406768
133	0xbd86c3af	-0.065802924
134	0x3eadb4a4	0.3392688
135	0xbdf31989	-0.11870105
136	0x3e712923	0.23550849
137	0x3dcfad1f	0.10140442
138	0x3cff0d0d	0.031134153
139	0xbe08f02f	-0.13372873
140	0xbe852db8	-0.26011443
141	0xbcc3ba39	-0.023892509
142	0xbe5efeb3	-0.21776848
143	0xbe4449ca	-0.19168773
144	0x3e8eab79	0.27865198
145	0xbdc74dc4	-0.097316295
146	0xbe587366	-0.21137771
147	0xbe6a421f	-0.22876786
148	0x3d87ce66	0.06631164
149	0x3d8b2a43	0.0679517
150	0x3de0ee0a	0.10982902
151	0xbe24e43f	-0.16102694
152	0x3e96d155	0.29456583
153	0x3e29755f	0.1654868
154	0xbe5aed70	-0.21379638
155	0xbe6eb30e	-0.23310491
156	0x3e4b581e	0.19857833
157	0x3e7ed718	0.24886739
158	0xbe21b59f	-0.15791939
159	0x3e788a7c	0.24271578
160	0xbbf1c35b	-0.0073780245
161	0x3e38d430	0.18049693
162	0x3ea9eb3c	0.33187282
163	0x3e8ba44d	0.2727379
164	0xbe9242f2	-0.285667
165	0x3e0de264	0.13855892
166	0xbe10f835	-0.14157183
167	0x3e402c91	0.18767
168	0x3db4b6fd	0.08823965
169	0xbc4a9f40	-0.01236707
170	0xbe414793	-0.1887496
171	0x3ea4e6bb	0.32207283
172	0xbddb5566	-0.10709648
173	0xbc4e52b4	-0.01259296
174	0xbe4b2b70	-0.19840789
175	0x3dfac019	0.12243671
176	0x3ea043b7	0.31301662
177	0x3e5dc18a	0.2165586
178	0x3e0956c5	0.13412006
179	0x3e6a3b2c	0.22874135
180	0x3e47e41d	0.19520612
181	0x3ea9670d	0.33086434
182	0xbd3e5bbc	-0.046474203
183	0x3e53d708	0.20687497
184	0xbdc34c2f	-0.09536015
185	0x3e3e9662	0.18612054
186	0x3def8fd7	0.11697357
187	0x3d167a0e	0.036737494
188	0xbc196592	-0.009362595
189	0x3e9257c0	0.28582573
190	0xbdc09602	-0.09403612
191	0x3d9f81f9	0.07788462
192	0xbe951fb7	-0.2912576
193	0x3e6e2f58	0.23260248
194	0xbe4755fe	-0.19466397
195	0x3e8339ae	0.25629944
196	0xbe033c57	-0.12815987
197	0x3e80090f	0.2500691
198	0xbd84d295	-0.06485478
199	0xbd76f01a	-0.060287572
200	0x3e396f1b	0.1810879
201	0xbe3a48f0	-0.18191886
202	0xbdc0d03c	-0.094147176
203	0xbe5d3adb	-0.21604483
204	0xbe485144	-0.1956225
205	0xbdf4e6b7	-0.11958068
206	0xbd88f45e	-0.06687234
207	0xbc14aec5	-0.009074871
208	0xbd7b78dc	-0.061394557
209	0x3e850f56	0.25988263
210	0x3e51ce2e	0.20488808
211	0xbd6bcb5a	-0.057566978
212	0x3ce65d01	0.02812052
213	0x3e8d44f6	0.27591676
214	0x3e1e8ba6	0.15482959
215	0xbd8757d5	-0.066085495
216	0xbe192e7b	-0.14959137
217	0xbe256f27	-0.16155683
218	0xbe419381	-0.18903925
219	0xbe462766	-0.19350967
220	0xbdfc58af	-0.123216026
221	0x3d1871d7	0.03721794
222	0xbe6ac57f	-0.22926901
223	0x3e1ae856	0.15127692
224	0xbd120f39	-0.03565905
225	0xbd56f2ed	-0.052477766
226	0xbdf6143c	-0.12015578
227	0xbe71d5d4	-0.23616725
228	0x3dd469ee	0.10371767
229	0x3de18c00	0.11013031
230	0x3dc8ef1d	0.09811232
231	0xbcf42766	-0.029803943
232	0xbe435c6f	-0.1907823
233	0x3dc3b9dc	0.09556934
234	0x3e35c2fd	0.17750163
235	0x3d751d64	0.059842482
236	0x3d25ce41	0.040479902
237	0x3e171ba1	0.14756633
238	0x3e003d93	0.12523489
239	0x3e00fc97	0.12596355
240	0xbd35f161	-0.04441965
241	0xbe850731	-0.2598205
242	0x3e60c8e2	0.2195163
243	0xbe86fe8e	-0.26366085
244	0x3dc3eec2	0.09567024
245	0x3e301332	0.17194822
246	0x3e320039	0.17382897
247	0xbd24e9e8	-0.040262133
248	0x3d4e4583	0.05035926
249	0x3dd10f2c	0.10207972
250	0xbd7266ec	-0.059180185
251	0xbd3aeb03	-0.04563428
252	0x3ddadc2e	0.10686527
253	0x3cf53517	0.029932542
254	0x3d4d578d	0.050132323
255	0x3d936340	0.07196665

h3.bias f4 [4]
0	0x3d1324d0	0.03592378
1	0xbd818b25	-0.06325368
2	0x3df181f1	0.117923625
3	0xbca771d5	-0.020440022
