weights/weights_LF=4_sparse/w=0.60_0.pth (torch, 38796 bytes, 8 tensors)

input.weight f4 [64, 4]
-0.4415418 -0.9781794 0.9611634 -0.30484203 -0.3172847 0.89957213 0.1944373 -0.9512387
-0.7893177 -0.30523682 0.2817538 -0.40196148 1.0796741 -0.9326007 0.5538482 -0.40784895
0.12558426 0.65850437 -0.96302766 -0.9788547 0.9287655 0.2444298 1.1207144 0.19357058
-1.0926722 0.7684531 -0.4001163 0.5515272 -0.92018336 -0.7000775 0.28642604 -0.4258189
0.9206476 0.63821214 -0.3707255 0.0067094676 1.1292155 -0.69494504 -0.31298622 -0.9101974
-0.31300977 0.43747565 -0.6181687 -0.413854 0.22981551 -1.1733129 -0.021961736 -0.94534206
0.057126727 -0.9573733 -0.14936817 -0.30210355 0.6638076 0.6014334 1.0019169 1.123963
0.9998499 -0.4076714 0.016531117 0.30163345 0.7470871 -0.39297527 -0.941098 -0.42687702
1.2057731 0.42060217 -0.57831585 0.84620416 -0.38886613 -0.8870879 -0.62538874 -0.009279433
-0.09559709 -0.663447 0.46580622 0.76221305 0.30791345 0.9437525 -1.1534219 -0.8991063
-1.1233525 0.8084432 0.46848568 0.3062801 -0.90576947 0.6082744 -1.148653 1.082642
0.8166478 -0.09811995 0.1679777 0.37292263 -0.8052862 0.7478688 1.1307184 -0.99962497
1.1654013 -0.29341978 1.1116813 0.4473137 -0.10626023 0.2324514 0.54077256 -0.21698982
0.2555088 -0.80214024 -0.33618036 -0.09837594 -0.13694987 -1.2204598 -1.0646132 0.75222355
0.63453424 0.7074938 -0.1857171 1.1149887 -1.1807669 -0.3093491 1.0045788 0.4552145
-0.63614124 1.0729902 -0.9844751 0.05464477 0.9229715 0.25945333 -1.1856711 0.31224814
0.94869816 -1.050874 -0.59277475 0.3524058 0.7459437 0.90759116 -0.11958131 -0.49332237
0.029496072 -0.42499852 -0.73124665 1.1614879 1.1803511 0.23825356 -0.23622642 -0.9854367
-0.6125498 -1.0934163 1.1879783 0.26221162 0.57284397 1.2114347 0.94180465 -1.0960219
0.4950295 1.1864984 -0.06707577 0.7346061 -0.6709914 0.40630943 1.05865 -0.8882984
-0.12400195 -0.83161527 0.7321702 0.29294816 0.65197873 0.8835731 1.1772091 -0.81076324
-0.1433099 -0.04009196 0.0011084855 -0.7958127 -0.5804133 1.0277258 -1.2164984 1.2127053
-0.97904605 -1.1482502 0.83298147 0.7611904 1.038978 0.045908146 0.5631992 -1.1670938
1.1981456 -1.122373 -0.2398888 -1.025877 0.05206989 1.0501544 -1.0239916 -1.1948243
-1.0469093 0.7206713 -0.020553187 -0.7396162 -0.62630427 -0.14856122 -0.9919442 -0.9786295
-0.1895101 0.07312602 -0.07343337 -1.1946523 0.3476427 1.1848038 0.055954214 0.029057762
0.77582926 0.27825087 0.63626957 0.3236566 1.1672945 0.2034391 0.63083184 -0.3453211
0.68434703 -0.54100853 -0.9791362 -0.8591922 -0.09110365 -0.7411907 -0.8068587 -0.16328949
0.563317 1.1613421 0.39460215 -0.9202382 -0.8901547 -1.0442077 -0.56863433 1.0160643
-1.1180542 0.2166158 -0.15122947 0.38755062 -1.1529431 -0.21643123 -0.62974 -0.9444531
0.7407445 -0.40005234 0.3184657 -0.20497201 -0.40786374 1.0230494 1.0602074 0.61523145
0.76679534 -0.64390147 -0.853362 0.091036215 0.45859724 0.46974608 -1.0335147 -0.49716565
00000000: c411 e2be f769 7abf ce0e 763f 4114 9cbe
00000010: 2473 a2be 5c4a 663f 921a 473e 6184 73bf
00000020: ba10 4abf 0048 9cbe 0942 903e e5cd cdbe
00000030: c332 8a3f ebbe 6ebf ffc8 0d3f 94d1 d0be
00000040: 2999 003e be93 283f fb88 76bf 3996 7abf
00000050: 93c3 6d3f ce4b 7a3e 9273 8f3f 5e37 463e
00000060: afdc 8bbf 58b9 443f 0bdc ccbe e330 0d3f
00000070: 2391 6bbf 4738 33bf 6fa6 923e ef04 dabe
00000080: 90af 6b3f df61 233f bccf bdbe 18db db3b
00000090: 228a 903f ebe7 31bf bb3f a0be b202 69bf
000000a0: d142 a0be cffc df3e 4e40 1ebf ace4 d3be
000000b0: c254 6b3e 1e2f 96bf 19e9 b3bc f001 72bf
000000c0: b7fd 693d 6b16 75bf f8f3 18be 51ad 9abe
000000d0: 4bef 293f 8af7 193f d03e 803f 05de 8f3f
000000e0: 2af6 7f3f 4eba d0be 446c 873c b36f 9a3e
000000f0: 1a41 3f3f 0e34 c9be cceb 70bf a08f dabe
00000100: c656 9a3f 2b59 d73e 820c 14bf d6a0 583f
00000110: 7619 c7be 3118 63bf 7a19 20bf c308 18bc
00000120: 68c8 c3bd aad7 29bf 277e ee3e 6520 433f
00000130: d5a6 9d3e c499 713f 54a3 93bf d52b 66bf
00000140: 04ca 8fbf 22f6 4e3f 5bdd ef3e bfd0 9c3e
00000150: 82e0 67bf dfb7 1b3f 1007 93bf 0394 8a3f
00000160: d50f 513f 1df3 c8bd 5902 2c3e b7ef be3e
00000170: 3d27 4ebf 5474 3f3f 61bb 903f 6ce7 7fbf
00000180: df2b 953f 1e3b 96be 934b 8e3f 4d06 e53e
00000190: f79e d9bd bd07 6e3e 1270 0a3f 9432 5ebe
000001a0: 0dd2 823e 1059 4dbf d51f acbe 5379 c9bd
000001b0: 963c 0cbe 0738 9cbf 3f45 88bf b991 403f
000001c0: d670 223f 501e 353f a02c 3ebe f3b7 8e3f
000001d0: 5f23 97bf 0163 9ebe 0a96 803f e011 e93e
000001e0: 27da 22bf be57 893f 8f06 7cbf 32d3 5f3d
000001f0: dc47 6c3f 11d7 843e 12c4 97bf fdde 9f3e
00000200: e2dd 723f 0a83 86bf 16c0 17bf 886e b43e
00000210: 2bf6 3e3f e557 683f 0ce7 f4bd c094 fcbe
00000220: bfa1 f13c 6899 d9be fb32 3bbf a3ab 943f
00000230: bf15 973f bef8 733e 57e5 71be 9445 7cbf
00000240: 10d0 1cbf 11f5 8bbf ac0f 983f 9a40 863e
00000250: e7a5 123f 4b10 9b3f 1c1a 713f 724a 8cbf
00000260: 8274 fd3e 2edf 973f 055f 89bd 250f 3c3f
00000270: 18c6 2bbf ca07 d03e d881 873f 8667 63bf
00000280: bcf4 fdbd bde4 54bf 826f 3b3f 4dfd 953e
00000290: 14e8 263f d931 623f caae 963f 2e8e 4fbf
000002a0: d5bf 12be 7837 24bd 9a4a 913a 62ba 4bbf
000002b0: f795 14bf 858c 833f 38b6 9bbf ed39 9b3f
000002c0: c3a2 7abf ddf9 92bf 463e 553f 60dd 423f
000002d0: 3bfd 843f 2e0a 3c3d d32d 103f 5463 95bf
000002e0: d65c 993f eba9 8fbf 69a5 75be f04f 83bf
000002f0: 3d47 553d 766b 863f 2812 83bf 01f0 98bf
00000300: 2001 86bf ea7d 383f 285f a8bc 7d57 3dbf
00000310: 7a55 20bf 6f20 18be 0ef0 7dbf 7787 7abf
00000320: f00e 42be 18c3 953d 3c64 96bd 5eea 98bf
00000330: 39fe b13e a7a7 973f 3f30 653d 8b0a ee3c
00000340: bf9c 463f e676 8e3e 90e2 223f 51b6 a53e
00000350: e869 953f 5752 503e 327e 213f edcd b0be
00000360: 5e31 2f3f 897f 0abf aca8 7abf 05f4 5bbf
00000370: 8d94 babd acbe 3dbf 4b8e 4ebf 5c35 27be
00000380: 8b35 103f dca6 943f 4b09 ca3e bb94 6bbf
00000390: 2ee1 63bf 99a8 85bf 0592 11bf 650e 823f
000003a0: 661c 8fbf 88d0 5d3e e6db 1abe 096d c63e
000003b0: a493 93bf 26a0 5dbe a436 21bf aec7 71bf
000003c0: 6ea1 3d3f a9d3 ccbe f00d a33e 2fe4 51be
000003d0: 84d3 d0be 48f3 823f e0b4 873f cf7f 1d3f
000003e0: b34c 443f bad6 24bf ef75 5abf 3271 ba3d
000003f0: 42cd ea3e 8f82 f03e 364a 84bf 7f8c febe

input.bias f4 [64]
-0.055615254 -0.08135184 -0.024808351 -0.02751436 0.0052480632 -0.019787641 -0.019529248 0.061816342
0.038611386 0.07086997 0.06635455 -0.05517503 -0.08734857 0.0070045637 0.078456424 0.039011564
0.10009094 -0.038727302 0.07289464 0.052709404 -0.07198917 -0.048641384 -0.08565012 0.056429505
0.024190897 0.07996521 0.049108062 0.066172935 0.12677693 0.045604356 0.054402597 -0.017666161
-0.07675032 -0.067013755 0.056535773 0.0007533392 -0.059432562 0.02171869 -0.018608531 -0.04037134
-0.022475619 -0.063537106 0.022150276 -0.06988119 0.04530133 -0.02164182 -0.09409342 0.0009245757
-0.027070928 0.03171517 0.018724684 0.051761348 0.1059927 -0.003565743 0.073758215 -0.059752252
0.021664355 -0.09356223 -0.10386175 -0.10382289 0.07912508 -0.07536114 -0.11376365 0.015669236
00000000: d2cc 63bd cb9b a6bd e23a cbbc cc65 e1bc
00000010: f2f7 ab3b b119 a2bc cdfb 9fbc 2233 7d3d
00000020: f926 1e3d 4624 913d e5e4 873d 36ff 61bd
00000030: cfe3 b2bd 8a86 e53b c3ad a03d 97ca 1f3d
00000040: 7bfc cc3d 85a0 1ebd c949 953d d1e5 573d
00000050: 0f6f 93bd 303c 47bd 5569 afbd a022 673d
00000060: fd2b c63c cdc4 a33d 8925 493d ad85 873d
00000070: d0d1 013e a2cb 3a3d 42d5 5e3d a0b8 90bc
00000080: 462f 9dbd 823e 89bd 0e92 673d bd7b 453a
00000090: 8f6f 73bd 65eb b13c eb70 98bc 6b5c 25bd
000000a0: ca1e b8bc be1f 82bd 7f74 b53c df1d 8fbd
000000b0: e38d 393d 304a b1bc 0db4 c0bd 3a5f 723a
000000c0: dac3 ddbc c4e7 013d 8264 993c b503 543d
000000d0: b312 d93d 3eaf 69bb 8c0e 973d c7be 74bd
000000e0: 7279 b13c 8e9d bfbd 78b5 d4bd 18a1 d4bd
000000f0: 540c a23d f156 9abd ebfc e8bd c55c 803c

h1.weight f4 [64, 64]
0.047963805 -0.19842899 -0.23199825 0.06561558 -0.034360528 0.10073316 -0.03510188 0.2622155
-0.07680142 -0.2862313 -0.18679777 0.09933362 -0.018260034 -0.2700954 -0.090885796 0.090949655
-0.2594938 -0.04312266 -0.2546675 -0.19017494 -0.10344236 -0.27747282 0.2028954 -0.12450793
-0.040632024 -0.29660964 -0.000617286 0.29666206 -0.18886499 0.19921455 0.10637776 -0.27576885
-0.028690683 -0.0326546 -0.2445434 0.18629241 0.3041815 -0.20125327 0.23492235 -0.16930573
-0.042297024 0.18779871 -0.1920778 -0.15854053 -0.24118164 -0.19124556 -0.17404228 -0.14816304
-0.2652136 0.27921057 -0.08851033 -0.0841524 -0.28996298 -0.23955731 -0.25452712 -0.015292817
-0.23734479 0.17258537 -0.0731596 -0.275821 -0.095305815 -0.12264851 0.17458029 -0.18625021
-0.3025906 0.24254006 0.19587533 0.30552992 0.26399082 0.06474523 0.13911375 -0.010312054
-0.24036455 0.16827871 0.25027078 -0.0754259 -0.07172904 0.16307902 0.20759682 -0.054567438
-0.120400794 0.2189973 -0.16391608 0.13492307 0.2814842 0.019464156 0.14266957 -0.006997985
-0.1071099 0.26065028 0.17365277 0.29404944 0.026824096 0.08948496 -0.06020381 -0.09885285
0.034717005 0.21258968 -0.1620647 0.14758635 -0.12530386 0.17118165 -0.15334016 0.23639835
-0.08792785 0.28614703 0.1903785 -0.24027407 -0.13876842 0.24315529 -0.26236063 -0.18160489
0.15348272 -0.04988512 -0.19889517 -0.26916716 -0.20841731 0.27181643 0.17704259 -0.18224059
0.2927793 0.07445823 0.2599592 0.1338207 -0.18226664 -0.1669281 0.16007139 0.0059853164
-0.06711888 0.039364614 -0.1687356 -0.042534404 -0.098584995 0.13273881 0.14325105 -0.23830932
0.121634156 -0.07102152 0.22695248 -0.24339563 -0.016013606 0.035422105 0.07557717 -0.14764455
-0.012332575 -0.07583249 0.19458085 0.2610527 -0.10156914 -0.07218512 -0.013748912 -0.18079676
-0.26049232 -0.06786705 -0.20487188 -0.2882365 0.025516676 0.25551626 0.28460902 -0.1431446
-0.2804692 -0.03167772 0.1281261 -0.14459011 0.29360846 -0.20196275 0.13251556 -0.02427226
0.118763804 0.01172243 0.08400996 -0.024424084 0.01075663 -0.012026832 0.021338223 0.2361915
-0.2275064 -0.15799491 -0.06467886 -0.09438549 -0.0902899 -0.2093975 -0.10456381 0.20037887
-0.29213747 0.17021875 -0.020468082 -0.12567964 -0.20817545 0.01641567 0.12917104 0.30094597
-0.044585627 0.042074934 -0.08585106 0.24352734 0.037375648 0.07752726 -0.08937373 0.29276997
-0.2632345 0.07632334 0.2780649 -0.06493659 0.107385725 -0.19990994 0.06885908 0.25948745
0.14275494 0.16581318 0.03586167 0.3067445 -0.10166345 -0.20736864 0.20927535 0.0049413983
0.2603026 -0.26648176 0.12822972 -0.081921026 -0.18143955 0.26233095 -0.1289004 0.19440486
0.17488232 -0.22251268 0.27168566 -0.078564905 -0.2322597 -0.019341417 -0.23421218 0.24371246
0.036450926 -0.14756091 0.09414589 0.29283252 -0.3035725 -0.18948959 -0.20831561 -0.13681039
-0.072725736 0.055481672 -0.12600699 -0.21564257 -0.066940285 -0.0940004 -0.026777672 0.07113365
0.27889925 -0.16344059 -0.10330607 0.22565006 0.24609472 -0.2722613 -0.022997063 -0.038027443
00000000: b275 443d f830 4bbe f390 6dbe 7661 863d
00000010: a0bd 0cbd 304d ce3d fdc6 0fbd 1c41 863e
00000020: 104a 9dbd e98c 92be ea47 3fbe 6d6f cb3d
00000030: 1196 95bc f249 8abe 5522 babd d043 ba3d
00000040: 5fdc 84be 63a1 30bd c763 82be 38bd 42be
00000050: 97d9 d3bd eb10 8ebe d0c3 4f3e 03fe febd
00000060: c46d 26bd 38dd 97be 5dd1 21ba 17e4 973e
00000070: d365 41be e6fe 4b3e 95dc d93d 9331 8dbe
00000080: b908 ebbc d4c0 05bd 9669 7abe 70c3 3e3e
00000090: adbd 9b3e 5615 4ebe 7c8f 703e 7b5e 2dbe
000000a0: a53f 2dbd 4e4e 403e 0bb0 44be 7358 22be
000000b0: 52f8 76be e0d5 43be 2438 32be 0db8 17be
000000c0: 14ca 87be b0f4 8e3e e744 b5bd 1858 acbd
000000d0: 0776 94be 834e 75be 6151 82be b98e 7abc
000000e0: 830a 73be 38ba 303e b3d4 95bd 6938 8dbe
000000f0: b22f c3bd 242f fbbd 2dc5 323e 60b8 3ebe
00000100: 28ed 9abe 6c5c 783e 8b93 483e 6b6e 9c3e
00000110: ce29 873e 2699 843d d673 0e3e e4f3 28bc
00000120: 2022 76be 4151 2c3e 7e23 803e e578 9abd
00000130: ade6 92bd 30fe 263e 4394 543e 1b82 5fbd
00000140: b194 f6bd d440 603e 9ed9 27be 4629 0a3e
00000150: b21e 903e 4b73 9f3c f917 123e 5a4f e5bb
00000160: 6f5c dbbd f473 853e 08d2 313e a68d 963e
00000170: 35be db3c e443 b73d 4598 76bd 5d73 cabd
00000180: 6b33 0e3d 1cb1 593e 4af4 25be e020 173e
00000190: a84f 00be 3e4a 2f3e 3405 1dbe 6912 723e
000001a0: 8413 b4bd dd81 923e 95f2 423e 680a 76be
000001b0: 4f19 0ebe b3fd 783e 2254 86be a2f6 39be
000001c0: 932a 1d3e 5754 4cbd 2dab 4bbe 47d0 89be
000001d0: 596b 55be 862b 8b3e a74a 353e 479d 3abe
000001e0: 2be7 953e 8e7d 983d 5f19 853e 4b08 093e
000001f0: 1ba4 3abe 33ef 2abe c1e9 233e 7920 c43b
00000200: a075 89bd ca3c 213d 06c9 2cbe 8e38 2ebd
00000210: eee6 c9bd afec 073e 67b0 123e 5c07 74be
00000220: 541b f93d bb73 91bd 3b66 683e b43c 79be
00000230: f72e 83bc c516 113d 34c8 9a3d 2230 17be
00000240: 920e 4abc 114e 9bbd 3440 473e b3a8 853e
00000250: 7b03 d0bd cbd5 93bd 1e43 61bc c922 39be
00000260: 405f 85be e1fd 8abd efc9 51be bc93 93be
00000270: 5908 d13c 07d3 823e 46b8 913e 7f94 12be
00000280: a999 8fbe 7fc0 01bd 7d33 033e 6e0f 14be
00000290: d953 963e 53cf 4ebe 29b2 073e 9ed6 c6bc
000002a0: 703a f33d 6f0f 403c 6a0d ac3d 0415 c8bc
000002b0: 943c 303c 310c 45bc 7fcd ae3c 2fdc 713e
000002c0: 70f7 68be 6bc9 21be 5a76 84bd 2e4d c1bd
000002d0: e9e9 b8bd 4c6c 56be 8d25 d6bd 1e30 4d3e
000002e0: 0b93 95be d34d 2e3e aeac a7bc 2ab2 00be
000002f0: f22b 55be 287a 863c 6a45 043e 9715 9a3e
00000300: 6b9f 36bd c456 2c3d aed2 afbd 3b5f 793e
00000310: 3517 193d 9dc6 9e3d 9309 b7bd f2e5 953e
00000320: acc6 86be 694f 9c3d 865e 8e3e 7afd 84bd
00000330: 0ced db3d 31b5 4cbe fd05 8d3d 8adb 843e
00000340: 5a2e 123e eeca 293e b0e3 123d 9d0d 9d3e
00000350: ed34 d0bd 7258 54be 474c 563e 74eb a13b
00000360: 6246 853e 4c70 88be a74e 033e 36c6 a7bd
00000370: 4acb 39be 3e50 863e 77fe 03be 1112 473e
00000380: 5a14 333e 5dda 63be 621a 8b3e a3e6 a0bd
00000390: 7dd5 6dbe e471 9ebc 51d5 6fbe c28f 793e
000003a0: 914d 153d 351a 17be 8fcf c03d 25ee 953e
000003b0: db6d 9bbe 8f09 42be b050 55be 0618 0cbe
000003c0: 3bf1 94bd c040 633d fa07 01be 68d1 5cbe
000003d0: fd17 89bd 4883 c0bd d95c dbbc 85ae 913d
000003e0: e2cb 8e3e f85c 27be 2292 d3bd cf10 673e
000003f0: 4100 7c3e d565 8bbe 5664 bcbc aac2 1bbd

h1.bias f4 [64]
-0.03785214 -0.034093846 0.032013454 -0.013410375 0.08273542 0.075670965 -0.08480787 -0.049428683
-0.04971849 0.08319671 -0.023832403 0.005834427 -0.042595167 0.0029827647 0.057033077 -0.080061115
-0.10098785 0.0056961374 -0.010242959 -0.017843401 -0.039308406 0.04076358 0.03075215 0.09897529
0.016893234 -0.04499394 0.10965439 -0.08975853 -0.07919988 -0.025233904 -0.059324626 -0.02142526
-0.015039412 0.02267264 -0.04448986 0.08209855 0.02029404 0.023221143 -0.086491466 0.027953492
0.025739186 0.05030036 -0.058257908 0.010069764 -0.06485415 0.08587216 0.07186383 -0.029597564
0.066775806 -0.056402307 0.08243337 0.008151535 -0.07839524 0.051876675 0.011991686 0.08895982
0.023553682 0.013071142 0.029275281 0.0595635 0.020853836 -0.03424055 -0.053884447 0.072636835
00000000: d80a 1bbd fda5 0bbd 8a20 033d 31b7 5bbc
00000010: 3071 a93d 61f9 9a3d c0af adbd bb75 4abd
00000020: 9ea5 4bbd 0963 aa3d 2c3c c3bc b92e bf3b
00000030: 4578 2ebd 7d7a 433b 849b 693d 15f7 a3bd
00000040: b8d2 cebd aaa6 ba3b 15d2 27bc 532c 92bc
00000050: da01 21bd b6f7 263d efeb fb3c 8fb3 ca3d
00000060: ae63 8a3c 914b 38bd 7b92 e03d 52d3 b7bd
00000070: 8c33 a2bd 55b7 cebc 61fe 72bd 0784 afbc
00000080: de67 76bc f9bb b93c 003b 36bd 4923 a83d
00000090: b03f a63c 443a be3c 7022 b1bd b9fe e43c
000000a0: fcda d23c c007 4e3d d89f 6ebd a7fb 243c
000000b0: 41d2 84bd bedd af3d 582d 933d 9776 f2bc
000000c0: c1c1 883d 1b06 67bd d4d2 a83d 048e 053c
000000d0: af8d a0bd a37c 543d c778 443c 9130 b63d
000000e0: a7f3 c03c 5828 563c b7d2 ef3c dbf8 733d
000000f0: aad5 aa3c d23f 0cbd f0b5 5cbd 9fc2 943d

h2.weight f4 [64, 64]
0.16229722 0.22485788 0.29793397 -0.20799017 -0.2992635 0.1575978 -0.022294484 0.09468888
0.1233406 0.25919807 0.20805095 -0.17603286 -0.04579536 -0.05589183 -0.024503613 0.25980654
0.27580136 0.03352951 0.15932393 0.07047645 -0.010913536 0.24873754 0.11744482 -0.12351179
-0.24817754 -0.26035082 -0.28213087 0.14571084 -0.19738755 -0.0121791875 0.21414486 0.0006645968
0.14621896 0.24265102 -0.00088933663 0.25943926 -0.11118727 -0.054644797 -0.20724773 0.27307767
-0.16659692 0.16477954 0.10363514 0.14041421 0.039589796 0.22824068 -0.18648311 -0.22367175
0.12141382 -0.07807884 -0.029402357 0.25163907 -0.21446954 -0.00745543 -0.20827143 -0.13275753
0.17114103 0.045013998 -0.053073965 0.124012254 0.10049606 -0.19027601 0.058487806 -0.00074716297
0.13938107 0.19269057 0.23856814 0.16205381 -0.035626795 -0.00489896 0.29798076 -0.15630193
0.037498493 -0.15803114 -0.3015063 -0.115110435 0.16779257 0.1503978 -0.01453698 0.09231276
-0.29064956 -0.18424289 -0.16416323 0.14040942 -0.095175445 -0.20388994 0.21788327 -0.29783383
-0.011973047 0.008109676 0.001920089 -0.29018125 -0.11156227 -0.032127935 0.058290232 0.21910891
-0.15260912 0.27366436 -0.21826567 -0.06736907 0.23173042 -0.22688 -0.19966994 -0.007537232
-0.28818175 -0.14748414 0.039194454 -0.0008732683 -0.06647586 -0.22282971 0.19979298 -0.20699893
-0.21910575 0.2007409 -0.0057233516 0.064612 0.00056244404 0.10089054 0.23875566 -0.29063195
-0.039686855 -0.1251177 0.057342347 0.10795612 -0.16459721 -0.11992549 -0.034204524 -0.29303646
0.088047914 -0.2635323 0.20511356 0.27928132 0.25736374 0.25065893 0.20877999 -0.13238814
0.24023706 0.16107333 -0.1179689 -0.17260762 -0.09338754 -0.04127011 0.31848288 0.27119887
-0.16627203 -0.15235798 -0.17355947 -0.24691935 -0.10207023 -0.15326935 0.23765947 0.27194935
0.21647592 0.2432536 -0.15038505 0.03830494 0.1405814 -0.23485579 0.13677578 0.081752524
-0.24290371 -0.13064326 -0.12235287 -0.072465174 0.26970083 0.308508 0.07755816 0.28973836
0.12052361 -0.13574006 -0.24443719 -0.24041319 -0.07882534 0.29772064 0.19067386 -0.25818032
0.045387447 -0.1363908 -0.008584941 -0.2878085 -0.1208915 -0.07031181 0.08397853 0.21651098
0.08783694 -0.14848503 0.027718354 -0.25392696 -0.23476245 0.09517222 -0.26855665 -0.2739338
-0.19606079 -0.087306865 0.027152421 0.22284943 0.14504525 0.213179 -0.19583876 -0.26242733
-0.24389762 -0.043322977 -0.16882016 -0.018404955 0.19793902 -0.15194985 -0.29722458 0.1594569
-0.083540365 0.076591015 0.24476749 -0.2718528 0.054590896 0.16679461 0.03100962 0.18719828
-0.008523646 0.057570774 -0.11479388 -0.25131702 0.2476325 -0.283386 0.30464447 0.022974238
0.18950513 -0.13279201 -0.26585662 -0.06529098 -0.19883694 0.014044819 -0.13384943 -0.22924232
-0.13113956 -0.027049161 -0.12508199 0.25440884 0.06256737 0.16887596 0.2622771 -0.0376604
-0.05137515 0.16529004 -0.13971406 -0.24834806 -0.23188257 -0.038476147 0.11142922 0.08135966
-0.104285136 -0.11483119 0.24280159 0.14666447 -0.16666606 0.15500353 -0.12746714 -0.15774003
00000000: 3e31 263e 2541 663e cd8a 983e 60fb 54be
00000010: 1139 99be 5161 213e eca2 b6bc 3eec c13d
00000020: ff99 fc3d 9cb5 843e 4f0b 553e f541 34be
00000030: ea93 3bbd d5ee 64bd cdbb c8bc 5d05 853e
00000040: d635 8d3e 3d56 093d d025 233e f555 903d
00000050: b0ce 32bc 0eb5 7e3e e986 f03d c0f3 fcbd
00000060: 4122 7ebe b44c 85be 7573 90be 3935 153e
00000070: f61f 4abe 378b 47bc ca48 5b3e 5638 2e3a
00000080: 6cba 153e 8279 783e 5f22 69ba 39d5 843e
00000090: 27b6 e3bd 39d3 5fbd c038 54be d6d0 8b3e
000000a0: 6298 2abe f8bb 283e a93e d43d bec8 0f3e
000000b0: e928 223d edb7 693e 6ef5 3ebe 350a 65be
000000c0: cfa7 f83d cde7 9fbd 36dd f0bc d6d6 803e
000000d0: e79d 5bbe ae4c f4bb 1b45 55be 97f1 07be
000000e0: 983f 2f3e 9960 383d 1664 59bd 23fa fd3d
000000f0: e1d0 cd3d b7d7 42be e990 6f3d 42dd 43ba
00000100: e9b9 0e3e ad50 453e 354b 743e 6ff1 253e
00000110: 67ed 11bd 7487 a0bb ef90 983e 9d0d 20be
00000120: 0598 193d ead2 21be 095f 9abe 05bf ebbd
00000130: d1d1 2b3e e201 1a3e 832c 6ebc 790e bd3d
00000140: 05d0 94be 2baa 3cbe 681a 28be 7dc7 0f3e
00000150: 58eb c2bd 86c8 50be cb1c 5f3e ad7d 98be
00000160: 992a 44bc 72de 043c 7fab fb3a a392 94be
00000170: c27a e4bd 9598 03bd bdc1 6e3d 165e 603e
00000180: 9145 1cbe bc1d 8c3e 0981 5fbe ccf8 89bd
00000190: bd4a 6d3e 3b53 68be 4776 4cbe e2fa f6bb
000001a0: 8f8c 93be 1506 17be 5d8a 203d 0bec 64ba
000001b0: 7f24 88bd 792d 64be 8896 4c3e 87f7 53be
000001c0: 425d 60be 068f 4d3e f48a bbbb 4c53 843d
000001d0: fb70 133a b39f ce3d 5d7c 743e b6cd 94be
000001e0: af8e 22bd db1e 00be cfdf 6a3d 1918 dd3d
000001f0: 2c8c 28be 7f9b f5bd 0b1a 0cbd e008 96be
00000200: 7752 b43d b5ed 86be 4a09 523e f6fd 8e3e
00000210: 2ec5 833e 5e56 803e 6cca 553e c290 07be
00000220: b400 763e 68f0 243e ae99 f1bd 0dc0 30be
00000230: f741 bfbd d90a 29bd 3010 a33e 94da 8a3e
00000240: 3743 2abe bb03 1cbe 93b9 31be 6dd8 7cbe
00000250: 320a d1bd a4f2 1cbe 015d 733e f23c 8b3e
00000260: ddab 5d3e 7917 793e 8afe 19be a4e5 1c3d
00000270: 92f4 0f3e 097e 70be f30e 0c3e de6d a73d
00000280: c0bb 78be 59c7 05be 2494 fabd 9f68 94bd
00000290: 3a16 8a3e c3f4 9d3e d0d6 9e3d 9658 943e
000002a0: 15d5 f63d 71ff 0abe be4d 7abe e02e 76be
000002b0: 2e6f a1bd d76e 983e 0240 433e 3630 84be
000002c0: 30e8 393d 08aa 0bbe daa7 0cbc a35b 93be
000002d0: f695 f7bd a3ff 8fbd effc ab3d 0eb5 5d3e
000002e0: dbe3 b33d 760c 18be 9a11 e33c b702 82be
000002f0: 9165 70be a7e9 c23d 4280 89be 0d41 8cbe
00000300: 29c4 48be f1cd b2bd c16e de3c a432 643e
00000310: be86 143e 994b 5a3e f589 48be e05c 86be
00000320: 4cc0 79be 6f73 31bd 31df 2cbe fdc5 96bc
00000330: 87b0 4a3e be98 1bbe d22d 98be ab48 233e
00000340: 3617 abbd c0db 9c3d 54a4 7a3e 4a30 8bbe
00000350: b49a 5f3d 35cc 2a3e e307 fe3c e8b0 3f3e
00000360: c3a6 0bbc 55cf 6b3d 0e19 ebbd a0ac 80be
00000370: 6093 7d3e f817 91be 5cfa 9b3e 7834 bc3c
00000380: a20d 423e a1fa 07be 5c1e 88be 47b7 85bd
00000390: e99b 4bbe 3e1c 663c d30f 09be 80be 6abe
000003a0: 7349 06be 3496 ddbc 7e15 00be e041 823e
000003b0: 5223 803d d2ed 2c3e 2f49 863e cb41 1abd
000003c0: c06e 52bd cb41 293e 3411 0fbe f44e 7ebe
000003d0: a072 6dbe 2a99 1dbd 0135 e43d e59f a63d
000003e0: 7293 d5bd 9d2c ebbd fba0 783e 362f 163e
000003f0: 82aa 2abe 3fb9 1e3e bf86 02be 9a86 21be

h2.bias f4 [64]
0.019586463 0.023167655 0.053144168 -0.062402297 -0.02388512 0.03699669 -0.06083608 0.058713436
0.05827998 0.076468386 0.09332382 0.113596566 -0.009426323 0.055680547 0.07288977 0.04712106
-0.020051455 -0.023695108 -0.06945438 -0.03332715 -0.047768723 0.06304485 -0.08498261 0.06527933
-0.011870583 0.05025043 0.11782247 0.080425695 -0.084702246 -0.07068268 0.09408054 0.066022314
0.035643395 0.023258882 0.058805622 0.017627407 -0.050610732 0.08199416 -0.06220636 0.043088492
-0.045311507 0.03542058 0.0714253 0.0030634028 -0.09834226 -0.094773784 0.017362392 0.06339955
0.0016307785 0.037016917 0.053089347 0.030843807 0.08539068 -0.012438438 0.08882367 0.05990687
0.051889475 0.028693158 -0.053604387 0.10581467 -0.07095734 -0.013370307 0.09855822 -0.10246081
00000000: ca73 a03c 18ca bd3c b3ad 593d 8d99 7fbd
00000010: baaa c3bc d789 173d 412f 79bd 807d 703d
00000020: fdb6 6e3d 759b 9c3d 8f20 bf3d 51a5 e83d
00000030: dd70 1abc 4911 643d 3b47 953d 0302 413d
00000040: f342 a4bc 3e1c c2bc 193e 8ebd 0d82 08bd
00000050: 23a9 43bd a91d 813d 5d0b aebd 2bb1 853d
00000060: d57c 42bc 65d3 4d3d e84c f13d 3ab6 a43d
00000070: 5f78 adbd 15c2 90bd 4cad c03d b536 873d
00000080: cffe 113d 6989 be3c 2ade 703d 5a67 903c
00000090: 334d 4fbd 8eec a73d 19cc 7ebd 8f7d 303d
000000a0: 8f98 39bd 2c15 113d 6d47 923d 5fc3 483b
000000b0: ab67 c9bd c218 c2bd 933b 8e3c a0d7 813d
000000c0: d9bf d53a 0d9f 173d 3774 593d 27ac fc3c
000000d0: 4fe1 ae3d 97ca 4bbc 2fe9 b53d e860 753d
000000e0: 0f8a 543d ea0d eb3c 4690 5bbd 5db5 d83d
000000f0: 1552 91bd 220f 5bbc e4d8 c93d f9d6 d1bd

h3.weight f4 [4, 64]
-0.20308064 -0.29222682 -0.10813186 -0.25829428 -0.078469135 -0.2652012 -0.05459108 -0.225964
-0.06289846 0.255683 0.22907048 -0.004943958 -0.15801193 0.1351592 -0.11996294 -0.1494793
-0.2514488 -0.03708691 -0.22465184 0.26029834 0.15485808 0.26581112 0.28141132 -0.2994317
-0.30123112 -0.0053824717 0.10062212 -0.2459862 0.28878102 -0.2629396 0.13419366 -0.21595621
-0.16542454 0.24568003 -0.042360466 -0.28220028 -0.17705666 0.17254409 0.22438838 0.013537466
0.12238685 -0.0038708872 -0.22606961 -0.12557267 0.19168584 0.104611926 0.0059350124 0.011518893
0.129411 -0.13403477 0.10180925 0.28024307 0.048918355 -0.21417415 0.016772008 -0.21042345
-0.085739106 -0.07256288 -0.25808105 -0.20555499 0.008322274 -0.2569516 0.1917929 -0.15562901
0.07338826 0.010782738 0.3180971 -0.12816417 -0.109053485 -0.066392824 0.09502354 -0.07584214
-0.14847052 -0.041998144 -0.11355307 0.3202566 0.16427329 -0.09280044 0.041692797 0.28040022
-0.0050545 -0.19625184 0.10272256 -0.27907968 0.2111278 -0.19735213 0.25721127 0.30066893
0.3080249 0.28149158 0.2558524 0.038738415 -0.044444904 -0.10651669 -0.239518 0.14344761
-0.24036352 0.19011843 -0.011438629 -0.19177307 0.28065455 -0.06687369 -0.08151461 -0.19209191
0.17407343 -0.22414583 -0.08503435 0.24819879 -0.05959378 -0.21790113 -0.21006598 -0.096786305
0.14701551 0.11503098 -0.012393803 -0.045899175 -0.27421632 -0.26690823 -0.040668495 0.20616178
0.13454393 0.24370126 -0.109094046 0.15853758 0.3285327 0.20758036 0.26506218 -0.23469347
0.026044171 -0.008418212 0.09145104 0.08155552 -0.12904415 -0.13445847 -0.14856777 -0.21109828
0.22538899 0.22471605 -0.003759474 -0.031892553 -0.120345354 0.18166429 0.19733849 0.01436741
-0.0046810345 -0.11302184 -0.30815542 -0.14476088 0.07632788 -0.13996416 0.2669189 -0.05315269
-0.16468038 -0.19408098 -0.17097366 -0.01907831 0.21267651 -0.13372925 -0.10500559 0.02398797
-0.057980627 -0.15300089 -0.21989802 -0.16209853 -0.05028024 -0.20562258 -0.19412513 0.2458376
-0.13360456 0.01514891 0.11027695 0.12709951 -0.1235574 -0.033138532 -0.0031784046 0.08737177
-0.09854008 0.22393988 0.2143224 -0.18846647 0.09470666 -0.19717336 0.13403635 0.16420051
0.15462537 0.24079376 -0.19113576 0.2532642 0.25653422 -0.27682254 0.079270005 0.035695493
-0.30044997 0.15390554 0.12529057 -0.011922805 -0.008914872 0.2849864 0.014471546 -0.25464237
0.25709242 0.18592073 0.114888005 0.043989908 -0.09174006 0.013814207 0.29737902 -0.052083135
0.23039053 0.26138064 0.049347922 0.30016956 -0.29809156 -0.03669096 -0.08967968 -0.19066367
-0.22353503 0.25629792 0.0018139802 -0.24513276 -0.027418869 0.007157272 0.017825015 -0.09664347
-0.29732916 -0.14257003 0.24352065 0.022260366 -0.0772889 -0.20900713 -0.0424836 -0.08934226
0.27090803 -0.28190538 -0.028329993 -0.02849809 -0.013135177 0.28208253 0.01129562 0.070794776
-0.033522304 -0.2211376 0.20334454 0.06330337 -0.2720834 -0.02760276 0.24085075 0.04819981
0.0976335 -0.29377326 3.7645507e-06 0.09543688 0.2581582 0.06999408 -0.087316595 -0.04507554
00000000: 5ff4 4fbe c19e 95be 3d74 ddbd 263f 84be
00000010: 6db4 a0bd 74c8 87be e59a 5fbd 1b63 67be
00000020: e8d0 80bd e2e8 823e 7491 6a3e ed00 a2bb
00000030: e1cd 21be 2c67 0a3e 21af f5bd 1a11 19be
00000040: e6bd 80be 72e8 17bd 220b 66be d345 853e
00000050: 1e93 1e3e 6518 883e 2515 903e 1d4f 99be
00000060: f73a 9abe 725f b0bb f812 ce3d cee3 7bbe
00000070: 1bdb 933e 05a0 86be 106a 093e a023 5dbe
00000080: 0d65 29be 8c93 7b3e 2b82 2dbd 8e7c 90be
00000090: 574e 35be 66af 303e 11c6 653e 3fcc 5d3c
000000a0: f5a5 fa3d b6ae 7dbb cb7e 67be 1f96 00be
000000b0: 4b49 443e c73e d63d 7e7a c23b bdb9 3c3c
000000c0: 5184 043e 6940 09be 5e81 d03d 057c 8f3e
000000d0: 9d5e 483d 7850 5bbe 7365 893c 3f79 57be
000000e0: fc97 afbd d99b 94bd 3323 84be 027d 52be
000000f0: 265a 083c 298f 83be 5c65 443e 365d 1fbe
00000100: 964c 963d 15aa 303c a0dd a23e 783d 03be
00000110: 6f57 dfbd f6f8 87bd b49b c23d 2053 9bbd
00000120: a808 18be 3f06 2cbd 838e e8bd acf8 a33e
00000130: 4237 283e 280e bebd 11c6 2a3d 9e90 8f3e
00000140: 38a0 a5bb 3ef6 48be 3560 d23d 88e3 8ebe
00000150: e331 583e ad16 4abe 32b1 833e 47f1 993e
00000160: 71b5 9d3e aa1f 903e 16ff 823e 2cac 1e3d
00000170: dc0b 36bd 6c25 dabd 3544 75be eee3 123e
00000180: db21 76be 68ae 423e 1669 3bbc 2960 44be
00000190: f4b1 8f3e 13f5 88bd 22f1 a6bd beb3 44be
000001a0: 4e40 323e 7c86 65be 7d26 aebd d327 7e3e
000001b0: 9c18 74bd 7921 5fbe 891b 57be e637 c6bd
000001c0: 3c8b 163e 5d95 eb3d 610f 4bbc c600 3cbd
000001d0: 1566 8cbe 32a8 88be 0294 26bd 131c 533e
000001e0: e2c5 093e d38c 793e b36c dfbd ad57 223e
000001f0: 7035 a83e f28f 543e 3bb6 873e 7c53 70be
00000200: 965a d53c 8aec 09bc af4a bb3d 9506 a73d
00000210: 2624 04be 7baf 09be 2622 18be 262a 58be
00000220: 5fcc 663e f71b 663e 8261 76bb c4a1 02bd
00000230: a077 f6bd 3406 3a3e 1a13 4a3e 4965 6b3c
00000240: 5d63 99bb ff77 e7bd 8cc6 9dbe 323c 14be
00000250: cb51 9c3d c452 0fbe 98a9 883e a3b6 59bd
00000260: f9a1 28be 2abd 46be b813 2fbe 1e4a 9cbc
00000270: dfc7 593e 52f0 08be 2c0d d7bd 6b82 c43c
00000280: 187d 6dbd 44ac 1cbe f22c 61be 28fd 25be
00000290: a7f2 4dbd ba8e 52be bdc8 46be dabc 7b3e
000002a0: a2cf 08be 2233 783c e2d8 e13d 6026 023e
000002b0: aa0b fdbd 45bc 07bd c84c 50bb f8ef b23d
000002c0: 62cf c9bd 7f50 653e 5577 5b3e 5bfd 40be
000002d0: 91f5 c13d d0e7 49be d340 093e 2e24 283e
000002e0: 1d56 1e3e a492 763e 18b9 43be d8ab 813e
000002f0: 7458 833e afbb 8dbe 5058 a23d 7035 123d
00000300: 94d4 99be 6a99 1d3e 2c4c 003e de57 43bc
00000310: af0f 12bc bde9 913e 101a 6d3c 7c60 82be
00000320: 9ea1 833e 0162 3e3e 674a eb3d c32e 343d
00000330: 36e2 bbbd fc54 623c 1042 983e 2055 55bd
00000340: 7feb 6b3e afd3 853e 0c21 4a3d d3af 993e
00000350: 759f 98be 4349 16bd fba9 b7bd 563d 43be
00000360: 5ee6 64be 7b39 833e 13c3 ed3a 1504 7bbe
00000370: 899d e0bc 8d87 ea3b c405 923c 03ed c5bd
00000380: 873b 98be e1fd 11be 7a5d 793e 5f5b b63c
00000390: a549 9ebd f705 56be 4903 2ebd 13f9 b6bd
000003a0: 75b4 8a3e e755 90be 4d14 e8bc d474 e9bc
000003b0: ed34 57bc 1f6d 903e 4411 393c dafc 903d
000003c0: af4e 09bd e571 62be 8d39 503e 32a5 813d
000003d0: 844e 8bbe 2f1f e2bc 94a1 763e 2a6d 453d
000003e0: 13f4 c73d 7369 96be 7da2 7c36 6974 c33d
000003f0: 502d 843e 0e59 8f3d 0bd3 b2bd 21a1 38bd

h3.bias f4 [4]
0.05859406 0.04008323 -0.003871858 -0.0672104
00000000: 5300 703d 502e 243d ffbe 7dbb 9ba5 89bd
