weights/weights_LF=4_sparse/w=0.70_0.pth (torch, 38796 bytes, 8 tensors)

input.weight f4 [64, 4]
0.6311125 -0.5248905 1.0558078 0.052780144 0.65178406 -1.1713797 0.92168653 0.76320404
0.10160169 1.1386328 0.1859601 -0.95509577 -0.98460686 0.42977256 -1.2221564 0.13276373
0.66039085 0.44332734 0.72870284 -0.2282692 -0.0010578275 -0.13191338 -0.97567505 0.96533895
-0.2734635 -0.06429477 -0.12487946 0.03312073 -0.7417437 -0.6457956 0.3855648 0.22429149
0.16003191 0.09933137 0.84748596 1.0731009 -0.7777484 0.67406625 0.7437145 -0.84540427
-0.28620887 -0.5932478 -0.64030033 -0.9617063 0.8270543 0.2014213 -1.0996544 -0.43490955
0.6377061 -0.42843837 -0.9222299 0.80419904 1.1605748 0.064582534 -0.89208496 0.35921103
0.5640632 0.6291903 -0.92248106 -0.6753366 -0.9497319 0.13821056 0.26704952 -0.39650774
0.2436942 -0.6065171 -0.50825554 0.9851404 -0.7358653 1.049224 -0.85910755 -1.1300871
-0.67639405 -1.0169969 1.0889778 -1.000775 0.4456507 -0.74170786 -1.003561 1.1163377
0.933038 0.44015032 -0.653303 0.72105885 0.053707227 0.58505374 -1.0171447 -0.9006768
-0.23916803 -1.1788561 0.27682942 -0.26403025 -0.009555298 -0.32719836 -0.4672828 0.954071
1.0982625 -0.04329462 -0.28124487 -0.3176963 0.8543601 -1.0071466 -0.9787496 -0.107518524
-0.46337625 0.016955046 -0.302221 1.030056 0.323835 -0.008596725 -0.44248435 -0.9545499
-0.8692545 -0.6927731 0.4849507 0.95224506 0.57679284 1.2085423 -1.1846888 -0.40498066
0.5176774 0.36594784 0.21522349 0.91887087 1.0695119 -0.15259063 -0.09850785 -0.6002365
0.95024973 -0.027788846 -0.5621708 1.055278 0.48723292 -0.051876724 0.56800425 0.77608067
1.1202817 -1.1421455 -0.13228577 -0.4748101 1.0035497 0.96530557 -0.8910011 -0.568451
-0.1704949 1.1970925 0.13594636 -0.85327107 0.08141477 -1.0265274 0.6028724 0.23362175
-1.2176553 -0.5092109 -1.1996977 -1.1075187 0.5503814 -0.322397 -0.29716462 -0.52091426
-0.7204454 -0.27556413 -0.57561237 -0.39657977 -0.15604374 -0.23652951 0.17226766 0.38778406
0.011508808 1.0962481 0.8082778 -0.34644827 -0.0061383597 0.76447237 -0.73990446 -1.1255901
-0.84806913 -1.0119066 0.79983634 0.45141035 0.7471121 1.0536761 0.46384537 0.14475425
0.98148245 0.715321 -1.0524901 -1.0262556 -0.6606979 0.111329265 -0.46493742 -0.6513019
1.1279322 0.45292202 -1.0478338 -0.747228 0.205399 -0.5897395 -1.0034806 0.6293297
-0.97475266 -0.41140798 0.008638319 -0.75219035 -0.18712446 -1.112882 -0.6875572 -0.7198773
-1.1427808 -0.79642075 -0.82901126 -1.1323504 -0.24073856 -0.9255565 -0.8871236 -1.0179254
-0.9936038 -0.20720875 0.053227365 0.7246854 -0.1008559 -0.64148146 -1.1122323 -0.046684507
-0.3843144 0.47674844 -1.1228786 0.24898946 -0.14750114 -0.0093148025 -0.22808208 -0.049514547
0.9530023 0.33426818 -1.1215886 0.8425513 0.92337286 -0.4825648 0.32304212 -0.6604294
-1.1210047 1.1059842 -0.9445852 -0.7833802 -0.5557526 0.23015878 0.8915827 0.661118
-1.0145128 -0.40868205 1.107506 -0.5547104 0.21967152 0.2898235 1.1454122 -1.1749406
00000000: 9790 213f 395f 06bf b624 873f fe2f 583d
00000010: 52db 263f c5ef 95bf a6f3 6b3f 5761 433f
00000020: 8c14 d03d b8be 913f 536c 3e3e 2881 74bf
00000030: 320f 7cbf 260b dc3e 9f6f 9cbf 37f3 073e
00000040: 600f 293f cdfb e23e 458c 3a3f 67bf 69be
00000050: cda6 8aba 4d14 07be d7c5 79bf 7420 773f
00000060: 6803 8cbe faac 83bd cdc0 ffbd 9aa9 073d
00000070: eae2 3dbf dc52 25bf c068 c53e abac 653e
00000080: 68df 233e 3f6e cb3d d7f4 583f 5f5b 893f
00000090: 851a 47bf 9b8f 2c3f 1364 3e3f 6a6c 58bf
000000a0: f889 92be 16df 17bf b9ea 23bf 6232 76bf
000000b0: d5b9 533f 6341 4e3e 7ac1 8cbf 77ac debe
000000c0: b540 233f 465c dbbe 4217 6cbf fddf 4d3f
000000d0: b78d 943f d943 843d ae5f 64bf 82ea b73e
000000e0: 7266 103f 9e12 213f b827 6cbf dce2 2cbf
000000f0: a121 73bf 1287 0d3e b7ba 883e 1003 cbbe
00000100: f98a 793e b444 1bbf 091d 02bf 2932 7c3f
00000110: ab61 3cbf f94c 863f 79ee 5bbf b2a6 90bf
00000120: 2928 2dbf f42c 82bf a063 8b3f 6519 80bf
00000130: 542c e43e 91e0 3dbf b074 80bf 27e4 8e3f
00000140: 94db 6e3f 625b e13e de3e 27bf 5097 383f
00000150: 1cfc 5b3d 15c6 153f cc31 82bf c192 66bf
00000160: 77e8 74be c2e4 96bf 96bc 8d3e f92e 87be
00000170: d38d 1cbc 8b86 a7be b13f efbe ff3d 743f
00000180: de93 8c3f b355 31bd 54ff 8fbe 17a9 a2be
00000190: 58b7 5a3f 2eea 80bf 558f 7abf ac32 dcbd
000001a0: a73f edbe 4fe5 8a3c b6bc 9abe e0d8 833f
000001b0: b3cd a53e 47d9 0cbc 4f8d e2be 625d 74bf
000001c0: 7787 5ebf 9459 31bf 754b f83e 55c6 733f
000001d0: b2a8 133f 84b1 9a3f e2a3 97bf a059 cfbe
000001e0: 8286 043f 845d bb3e 8c63 5c3e 1f3b 6b3f
000001f0: c4e5 883f b840 1cbe 7cbe c9bd 19a9 19bf
00000200: 9143 733f 6fa5 e3bc 6dea 0fbf 5913 873f
00000210: 9876 f93e b07c 54bd ba68 113f 39ad 463f
00000220: 6465 8f3f d331 92bf ec75 07be 4f1a f3be
00000230: 5174 803f 441e 773f a618 64bf 0186 11bf
00000240: 3796 2ebe 543a 993f 8635 0b3e f96f 5abf
00000250: c9bc a63d 4065 83bf d855 1a3f 8a3a 6f3e
00000260: 21dc 9bbf a55b 02bf b28f 99bf 2cc3 8dbf
00000270: cce5 0c3f 3811 a5be f625 98be a35a 05bf
00000280: 1c6f 38bf be16 8dbe 555b 13bf 810c cbbe
00000290: eec9 1fbe cb34 72be ef66 303e a28b c63e
000002a0: 708f 3c3c dc51 8c3f 4beb 4e3f ab61 b1be
000002b0: 4b24 c9bb 76b4 433f 616a 3dbf 5613 90bf
000002c0: 0f1b 59bf 2886 81bf 13c2 4c3f 421f e73e
000002d0: bd42 3f3f dcde 863f 247d ed3e 753a 143e
000002e0: 6f42 7b3f 471f 373f ffb7 86bf 585c 83bf
000002f0: 7f23 29bf 9900 e43d 470c eebe b9bb 26bf
00000300: 1560 903f 65e5 e73e 6b1f 86bf 564a 3fbf
00000310: 1e54 523e 2bf9 16bf 0d72 80bf c01b 213f
00000320: 6489 79bf 11a4 d2be bc87 0d3c 8c8f 40bf
00000330: 8e9d 3fbe eb72 8ebf c003 30bf e149 38bf
00000340: a446 92bf 3be2 4bbf 153a 54bf dcf0 90bf
00000350: 2b84 76be 45f1 6cbf 881a 63bf 614b 82bf
00000360: d25c 7ebf 882e 54be f004 5a3d fb84 393f
00000370: 8a8d cebd 2138 24bf a15d 8ebf 4138 3fbd
00000380: dbc4 c4be 5f18 f43e 7cba 8fbf 18f7 7e3e
00000390: 8a0a 17be 1d9d 18bc 598e 69be c4cf 4abd
000003a0: f5f7 733f 3325 ab3e 3790 8fbf 71b1 573f
000003b0: 2a62 6c3f bc12 f7be c765 a53e e711 29bf
000003c0: 157d 8fbf e490 8d3f 56d0 71bf 9b8b 48bf
000003d0: cd45 0ebf beae 6b3e c43e 643f 073f 293f
000003e0: 8edb 81bf c63e d1be c2c2 8d3f 8001 0ebf
000003f0: 92f1 603e bf63 943e de9c 923f 7464 96bf

input.bias f4 [64]
0.094725065 0.08325125 -0.05120939 0.061579533 0.05332427 -0.047124423 -0.07912556 -0.0021804853
-0.016644187 -0.0036358798 -0.07957099 0.064924955 -0.069700465 -0.08399718 -0.07923417 -0.045931436
-0.075569466 -0.089301415 -0.0008758644 0.05270879 0.08454766 -0.008585167 0.046713922 -0.013014217
-0.07079634 0.069390394 0.047622293 -0.072537564 -0.052543793 0.027956642 0.05440634 0.07913561
0.093002625 -0.04610522 -0.013016763 0.00012440974 0.029988492 0.100175135 0.09856638 -0.08611227
0.09362725 -0.08464613 -0.044498403 -0.08612558 -0.08205951 -0.034485232 0.010106989 0.050450873
-0.006417019 0.042585008 0.03741612 0.018165383 0.056101765 -0.080907606 -0.057824902 -0.059190318
-0.01746684 -0.042154882 -0.018170198 0.06648799 -0.08960886 -0.07928715 -0.0572523 0.05216236
00000000: 37ff c13d a27f aa3d f0c0 51bd d23a 7c3d
00000010: 8d6a 5a3d 8a05 41bd 950c a2bd 79e6 0ebb
00000020: 6459 88bc f147 6ebb 1df6 a2bd 60f7 843d
00000030: 1ebf 8ebd b706 acbd 8645 a2bd 9a22 3cbd
00000040: 2ac4 9abd a9e3 b6bd 449a 65ba 2ce5 573d
00000050: 5327 ad3d cda8 0cbc 1957 3f3d 9539 55bc
00000060: acfd 90bd 8d1c 8e3d 980f 433d 938e 94bd
00000070: 2938 57bd 5405 e53c 2fd9 5e3d da11 a23d
00000080: 2978 be3d d4d8 3cbd 4344 55bc fc73 0239
00000090: 6daa f53c 9f28 cd3d 2cdd c93d a15b b0bd
000000a0: a5bf bf3d f35a adbd f543 36bd 9c62 b0bd
000000b0: d10e a8bd 6340 0dbd c997 253c 93a5 4e3d
000000c0: db45 d2bb 9e6d 2e3d a541 193d 92cf 943c
000000d0: f7ca 653d e3b2 a5bd ced9 6cbd 8c71 72bd
000000e0: 9e16 8fbc 99aa 2cbd abd9 94bc db2a 883d
000000f0: da84 b7bd 4d61 a2bd 6381 6abd 33a8 553d

h1.weight f4 [64, 64]
-0.21077105 -0.061269328 0.0069128885 0.0011518503 0.116156034 0.20125744 0.26855087 -0.074665144
-0.10449527 -0.267571 -0.080933355 0.17830195 -0.12603824 0.29901847 -0.28258693 0.2895101
-0.23869915 0.14998357 0.08918135 0.14212808 0.14313681 0.052696988 0.15894781 -0.17767535
0.017700976 0.16650914 -0.2600737 -0.20817849 -0.14504313 0.11615239 -0.18445694 -0.009205477
-0.15364611 0.23923558 -0.07438829 0.25013077 -0.014846936 0.012070956 -0.08503385 0.06967322
0.1177701 -0.14451814 -0.083278894 0.1590032 0.028809605 0.29349378 0.05154084 0.04585319
-0.2478494 -0.13125002 -0.1724781 -0.19256866 0.112876534 0.22175172 0.12093574 -0.1965567
0.015998382 -0.18523966 0.29177588 0.07785093 -0.060552854 -0.11119366 0.036274113 -0.009545326
0.2827916 -0.10174362 0.100468785 -0.14958693 -0.15091679 -0.25415573 -0.2600346 -0.18626735
-0.17632753 0.15364358 0.28075057 -0.23669828 0.27155563 0.07017528 0.30071592 0.060274836
-0.15965274 -0.27418143 0.12612388 -0.0048136036 -0.22801839 -0.117967896 -0.24434258 0.27299452
0.0895953 -0.19262466 -0.16379394 -0.19367957 -0.16818443 0.012682372 -0.07053118 0.3202973
0.15242133 -0.243675 0.14594881 -0.06771974 -0.28432474 0.20100519 0.19815859 -0.08692858
-0.23001061 0.03428677 0.21535328 0.26365757 -0.24595675 0.28999248 0.023111036 0.20428726
0.2559112 -0.0014904484 -0.26335374 0.23948042 0.154286 0.27108532 -0.26830336 -0.26575664
-0.21480937 0.097614825 0.22473954 0.2474381 0.22284767 -0.25106424 0.19198067 0.3041781
0.17692503 0.066217594 -0.019257935 0.02579534 -0.17700304 0.080699965 0.2470793 -0.22842799
-0.0828993 -0.07635313 -0.04483265 0.16673808 -0.21917845 -0.119866595 -0.105642505 0.2361502
0.17028898 -0.2450704 -0.007115808 0.2671337 0.2396852 0.09884595 0.11049422 0.14440578
-0.17903298 -0.039007973 -0.27621445 -0.14383243 0.2992204 -0.16209726 -0.23227361 -0.22056817
-0.036197584 0.15814257 -0.19892408 -0.24079555 0.23652966 0.11922545 0.024495978 -0.033456966
-0.1724386 -0.0008379058 -0.108403385 -0.23879518 0.18349068 0.060844313 -0.009136334 0.28015682
0.15510501 0.040725674 0.2607294 0.120041914 0.25341874 -0.3078102 -0.29917458 -0.07576936
0.014153447 -0.044781573 -0.023494782 -0.2693828 0.18026915 0.07039503 -0.15317625 -0.07587871
0.106435165 0.1513142 -0.10299383 -0.22159044 0.23243113 -0.13043849 0.11188532 0.19329168
0.26137108 -0.12701057 -0.14580344 -0.13144562 -0.16060446 -0.13486047 -0.14795068 0.287289
-0.20908712 0.056176834 -0.08476184 -0.19305567 0.28838995 -0.0012224908 -0.1954666 -0.21640109
0.086876854 -0.18160811 -0.0895931 0.13600476 -0.10095908 -0.009399484 -0.08120871 0.061940584
0.13707362 -0.0099649485 0.25644755 0.12539889 -0.12762116 0.2556274 0.073761076 -0.17005096
0.14292076 0.26810738 -0.24946569 -0.15425113 -0.012006474 -0.18534859 0.00034203214 -0.24795456
-0.28323558 -0.05041583 0.09773703 0.09961415 0.0001000555 -0.23096812 -0.15118437 -0.0527018
-0.08664287 0.06918856 0.2607888 0.25486055 -0.2213783 -0.28958395 0.15349278 0.14550553
00000000: 5ed4 57be 8cf5 7abd 8385 e23b aff9 963a
00000010: 37e3 ed3d 6e16 4e3e 807f 893e 0aea 98bd
00000020: 9e01 d6bd 11ff 88be 63c0 a5bd c994 363e
00000030: 2b10 01be f318 993e 3caf 90be ab3a 943e
00000040: 8d6d 74be 4b95 193e b6a4 b63d 068a 113e
00000050: 7592 123e ccd8 573d 37c3 223e 87f0 35be
00000060: a301 913c 5f81 2a3e 6128 85be be2c 55be
00000070: 3086 14be 4ee1 ed3d 48e2 3cbe 92d2 16bc
00000080: 6855 1dbe 2cfa 743e e358 98bd 2411 803e
00000090: 9040 73bc 42c5 453c 3a26 aebd d5b0 8e3d
000000a0: 7331 f13d 90fc 13be 208e aabd bcd1 223e
000000b0: 1f02 ec3c d144 963e 7d1c 533d 8ed0 3b3d
000000c0: 3ccc 7dbe 6866 06be 199e 30be b830 45be
000000d0: d02b e73d e212 633e 28ad f73d 2946 49be
000000e0: 0a0f 833c 77af 3dbe a663 953e 4f70 9f3d
000000f0: 4506 78bd 80b9 e3bd 2a94 143d 0064 1cbc
00000100: 10ca 903e f65e d0bd 94c2 cd3d 512d 19be
00000110: ee89 1abe b320 82be 4123 85be debc 3ebe
00000120: 348f 34be be54 1d3e 8abe 8f3e 0961 72be
00000130: 5709 8b3e 0fb8 8f3d 70f7 993e bfe2 763d
00000140: 027c 23be 8261 8cbe 9e26 013e 6fbb 9dbb
00000150: a77d 69be 2799 f1bd f134 7abe f0c5 8b3e
00000160: be7d b73d 663f 45be 99b9 27be f053 46be
00000170: 8a38 2cbe b9c9 4f3c a772 90bd 02fe a33e
00000180: 5614 1c3e f085 79be 9b73 153e a6b0 8abd
00000190: 0393 91be 4ed4 4d3e 16ea 4a3e 9d07 b2bd
000001a0: e787 6bbe 4970 0c3d 9285 5c3e 20fe 863e
000001b0: 16dc 7bbe e579 943e 5b53 bd3c ae30 513e
000001c0: cb06 833e 265b c3ba 4dd6 86be 5b3a 753e
000001d0: 26fd 1d3e b2cb 8a3e 0f5f 89be 4111 88be
000001e0: fdf6 5bbe 48ea c73d 1f22 663e 6a60 7d3e
000001f0: 2e32 643e 7e8b 80be 9596 443e 3bbd 9b3e
00000200: d62b 353e 179d 873d d1c2 9dbc c050 d33c
00000210: 4940 35be 0646 a53d 5b02 7d3e 07e9 69be
00000220: 1cc7 a9bd 085f 9cbd 71a2 37bd 63bd 2a3e
00000230: 5170 60be 9e7c f5bd 195b d8bd 5cd1 713e
00000240: 3c60 2e3e bcf3 7abe b92b e9bb c0c5 883e
00000250: 0970 753e bf6f ca3d cb4a e23d 1cdf 133e
00000260: 6c54 37be d3c6 1fbd fb6b 8dbe cf48 13be
00000270: 6b33 993e d3fc 25be 22d9 6dbe 9fdc 61be
00000280: eb43 14bd 20f0 213e c1b2 4bbe 1c93 76be
00000290: d534 723e 792c f43d caab c83c 2c0a 09bd
000002a0: bf93 30be e8a6 5bba 9802 debd b986 74be
000002b0: fbe4 3b3e e337 793d 90b0 15bc b770 8f3e
000002c0: d9d3 1e3e f7cf 263d 537e 853e 89d8 f53d
000002d0: 1ac0 813e 4c99 9dbe 692d 99be f72c 9bbd
000002e0: dce3 673c e26c 37bd 2178 c0bc 8bec 89be
000002f0: 7a98 383e 452b 903d 3cda 1cbe 4c66 9bbd
00000300: aefa d93d 1cf2 1a3e 6eee d2bd 9be8 62be
00000310: 6d02 6e3e ab91 05be 2124 e53d 41ee 453e
00000320: 6ed2 853e 0f0f 02be 7f4d 15be ae99 06be
00000330: 7f75 24be dd18 0abe 6280 17be 8b17 933e
00000340: ef1a 56be ae19 663d 9e97 adbd 63b0 45be
00000350: d9a7 933e fc3b a0ba 6528 48be 3f98 5dbe
00000360: 7eec b13d 7af7 39be 967c b7bd d544 0b3e
00000370: a2c3 cebd 4b00 1abc c150 a6bd 69b5 7d3d
00000380: 075d 0c3e 0644 23bc 184d 833e 9168 003e
00000390: 1faf 02be 98e1 823e 0c10 973d d721 2ebe
000003a0: d259 123e 5f45 893e ef73 7fbe 02f4 1dbe
000003b0: cdb6 44bc 05cc 3dbe c752 b339 cde7 7dbe
000003c0: 4104 91be d480 4ebd 5a2a c83d 8102 cc3d
000003d0: e3d4 d138 e882 6cbe 13d0 1abe d8dd 57bd
000003e0: d171 b1bd bbb2 8d3d 1c86 853e 157d 823e
000003f0: feb0 62be 5944 94be 362d 1d3e 67ff 143e

h1.bias f4 [64]
-0.08267161 0.016735872 0.013680238 0.06345827 0.007780515 0.0327236 0.0074672033 -0.016275605
-0.088638276 -0.06265938 -0.027328243 -0.04128488 -0.03867501 0.009571443 0.03298468 -0.081282854
-0.012530052 -0.021426983 0.05623889 0.08335595 -0.01910402 -0.028520064 0.07258638 -0.012548242
0.0668933 0.0031673035 -0.030351887 0.03477833 0.075177655 -0.07734497 0.028316125 0.043720197
0.10656122 -0.068521276 -0.040593576 0.018355608 0.047055256 0.052031327 -0.046421245 0.018280888
-0.0483942 -0.034857955 0.033939853 -0.096789025 -0.064487785 0.028863931 -0.062229797 0.08188853
0.1042738 -0.043275215 -0.020716356 0.027635757 0.03170618 0.047978584 0.020292496 0.06497019
0.040567055 -0.094471075 0.061044265 -0.046896018 -0.0010212213 0.09446075 0.004333468 -0.012422095
00000000: bc4f a9bd ab19 893c 1423 603c 69f6 813d
00000010: b1f3 fe3b 2e09 063d 71af f43b 6b54 85bc
00000020: fc87 b5bd 9053 80bd 7bdf dfbc 561a 29bd
00000030: b069 1ebd 8bd1 1c3c f21a 073d a077 a6bd
00000040: d94a 4dbc a487 afbc c05a 663d 86b6 aa3d
00000050: 0980 9cbc e9a2 e9bc 2ba8 943d 2497 4dbc
00000060: 5bff 883d 8992 4f3b 85a4 f8bc b973 0e3d
00000070: bef6 993d 0a67 9ebd 38f7 e73c f313 333d
00000080: c53c da3d e254 8cbd 7345 26bd 805e 963c
00000090: 03bd 403d cd1e 553d 3424 3ebd cdc1 953c
000000a0: ff38 46bd 37c7 0ebd 8404 0b3d 5339 c6bd
000000b0: 2c12 84bd 0d74 ec3c ace4 7ebd 2cb5 a73d
000000c0: 818d d53d 5a41 31bd 59b5 a9bc 6264 e23c
000000d0: 57de 013d 3185 443d 733c a63c 170f 853d
000000e0: a429 263d 0d7a c1bd 8d09 7a3d 0a16 40bd
000000f0: 80da 85ba a374 c13d c4ff 8d3b 0b86 4bbc

h2.weight f4 [64, 64]
-0.09580279 0.15658411 0.01644284 -0.16568677 -0.27040467 -0.10122622 0.20836991 0.29192525
0.032306753 -0.18252015 0.19300938 0.08514596 -0.2587171 0.07746369 0.048266627 0.024274852
0.0883384 0.30791923 0.18880804 0.079597235 -0.08000158 0.16970731 -0.09988119 0.24661501
0.1697163 0.2094021 0.14951581 0.0040499335 -0.19827352 -0.24015124 -0.054850705 -0.20760931
-0.030371329 -0.2340787 0.3056099 0.21219505 0.2395138 0.2326809 0.0041926634 -0.04580957
-0.23116925 -0.12805086 0.26717123 -0.19242547 0.17039832 0.017152049 -0.2400554 -0.22426943
0.25882503 -0.08255709 -0.14856112 0.15225445 0.21125095 -0.019266017 0.2654354 -0.19853503
-0.19309504 -0.08032598 0.07226506 -0.0007620886 0.30832934 -0.13482329 -0.007794763 0.29471424
-0.053799108 -0.3150372 -0.27246284 0.19280627 -0.23205166 -0.15467025 -0.19052294 0.04728475
0.20582636 -0.14207354 0.2821633 -0.1353446 0.10474936 -0.026166806 -0.10226601 0.19800168
-0.2886379 0.2349612 -0.0002869284 0.0022739875 0.06947982 0.27486432 -0.26380473 0.22530226
-0.11409335 -0.26344132 0.19455914 0.17547354 -0.083754346 -0.31947434 0.020482587 -0.017610691
0.18655652 0.20794097 0.029209945 0.13355535 0.10785905 0.037909217 -0.12220633 -0.04572907
0.22653599 0.0022284763 0.23759364 0.05257143 -0.21103162 0.15644106 0.285471 0.05427744
-0.16941732 0.2384351 0.26347125 -0.01160012 -0.0016306229 -0.32002878 -0.107328705 0.06461709
-0.08429012 0.26176357 -0.07396791 0.071629174 0.27121496 0.05507408 -0.30010322 -0.25624886
-0.2598574 -0.014138223 0.22501568 0.26449737 -0.054600548 -0.16012716 -0.081980646 -0.17529306
-0.07849213 -0.1456526 0.1527362 -0.15717676 -0.27538794 0.30027235 0.03044359 -0.30332646
0.030274732 0.019105814 -0.23147558 0.11047023 -0.035267547 0.14167684 0.0811343 -0.24761762
0.18768823 0.08540117 0.15731515 0.10158582 0.119216755 -0.049587533 0.04840923 -0.11356195
0.0780901 0.24469997 0.2214412 -0.06300843 -0.011569142 -0.11597074 0.20862305 -0.047462307
-0.12553827 -0.12525822 -0.2877032 0.29067346 0.19875601 0.19413677 0.1993208 0.27585253
0.04720193 0.0506114 0.29272386 0.08648561 -0.17999892 0.26846954 -0.19339332 -0.022371912
0.2559337 -0.21367438 -0.28542873 0.18306111 -0.17006499 0.2429586 -0.23741825 -0.101280786
-0.030468578 -0.27058738 -0.011859692 -0.25029403 -0.14179263 -0.22919483 0.16884473 0.21340245
-0.030067157 -0.17457052 0.22445372 -0.26349455 0.069948904 -0.2140572 0.2504202 -0.07313135
0.02516863 -0.03086171 -0.26979986 0.010987926 0.025699195 -0.2323134 -0.102041945 0.06788259
0.17187731 0.047478605 -0.24986668 0.091822356 0.1707282 -0.19269526 0.13617964 0.081712894
0.08621083 0.25201026 -0.113278784 0.26955637 -0.020016506 -0.105957165 -0.09784671 -0.0068850014
-0.30467248 -0.05862713 -0.17957254 -0.09355385 0.11937681 -0.19813609 -0.22290209 -0.01827986
0.190272 -0.22015333 0.053847764 0.18074399 -0.069077365 -0.1840546 0.13499969 -0.2818044
0.06581284 0.30475035 -0.24547991 -0.08531103 -0.24002257 0.19990088 -0.25199282 -0.2136019
00000000: 4134 c4bd 9657 203e 23b3 863c cba9 29be
00000010: 7b72 8abe b14f cfbd ec5e 553e 3a77 953e
00000020: 1654 043d 90e6 3abe 40a4 453e 0161 ae3d
00000030: 9176 84be 48a5 9e3d 3ab3 453d 0edc c63c
00000040: c3ea b43d 97a7 9d3e e556 413e e003 a33d
00000050: ded7 a3bd c1c7 2d3e 828e ccbd a588 7c3e
00000060: 1cca 2d3e 816d 563e ac1a 193e 4eb5 843b
00000070: 3708 4bbe 35ea 75be 22ab 60bd 8997 54be
00000080: 4bcd f8bc 54b2 6fbe e778 9c3e a949 593e
00000090: 1b43 753e e743 6e3e 9c62 893b d1a2 3bbd
000000a0: a2b7 6cbe c41f 03be abca 883e 2f0b 45be
000000b0: e67c 2e3e 7482 8c3c 15d1 75be e3a6 65be
000000c0: b784 843e b113 a9bd 6820 18be 97e8 1b3e
000000d0: 2b52 583e c4d3 9dbc 26e7 873e c44c 4bbe
000000e0: b5ba 45be f381 a4bd b4ff 933d e6c6 47ba
000000f0: 58dd 9d3e 1e0f 0abe 366b ffbb c9e4 963e
00000100: 745c 5cbd 8e4c a1be 4080 8bbe 026f 453e
00000110: f39e 6dbe e161 1ebe 7218 43be a7ad 413d
00000120: 25c4 523e ba7b 11be b577 903e c697 0abe
00000130: d586 d63d c55b d6bc d870 d1bd f4c0 4a3e
00000140: 59c8 93be ab99 703e e16e 96b9 2e07 153b
00000150: 704b 8e3d 04bb 8c3e 6a11 87be a3b5 663e
00000160: c6a9 e9bd c8e1 86be 833a 473e 56af 333e
00000170: 6687 abbd 2492 a3be 19cb a73c 4c44 90bc
00000180: ac08 3f3e 7aee 543e b249 ef3c bcc2 083e
00000190: 35e5 dc3d b246 1b3d 5047 fabd 684e 3bbd
000001a0: 0df9 673e a10b 123b bf4b 733e 2455 573d
000001b0: ac18 58be 1632 203e 4129 923e 0552 5e3d
000001c0: bc7b 2dbe 5528 743e b4e5 863e 6e0e 3ebc
000001d0: a0ba d5ba d0da a3be 27cf dbbd f755 843d
000001e0: 4ca0 acbd e005 863e 7d7c 97bd 51b2 923d
000001f0: b0dc 8a3e 5c95 613d 21a7 99be 0d33 83be
00000200: 070c 85be 01a4 67bc 836a 663e 336c 873e
00000210: d3a4 5fbd 60f8 23be 78e5 a7bd 0680 33be
00000220: 7bc0 a0bd f525 15be e166 1c3e f2f2 20be
00000230: a6ff 8cbe 4cbd 993e d664 f93c 9b4d 9bbe
00000240: b702 f83c cc83 9c3c ef07 6dbe 373e e23d
00000250: b474 10bd bc13 113e bd29 a63d 798f 7dbe
00000260: 5831 403e cfe6 ae3d 3917 213e 3a0c d03d
00000270: ea27 f43d 4c1c 4bbd c248 463d 2b93 e8bd
00000280: b4ed 9f3d a192 7a3e 7bc1 623e 900a 81bd
00000290: 808c 3dbc 1182 edbd 48a1 553e d667 42bd
000002a0: 1b8d 00be b143 00be d54d 93be 27d3 943e
000002b0: b286 4b3e cacb 463e c01a 4c3e 8b3c 8d3e
000002c0: d056 413d e64d 4f3d e7df 953e 5e1f b13d
000002d0: a351 38be d774 893e e608 46be 4d45 b7bc
000002e0: be09 833e 75cd 5abe b723 92be 5f74 3b3e
000002f0: 8425 2ebe 24ca 783e c51d 73be 4d6c cfbd
00000300: 3d99 f9bc 6e8a 8abe 274f 42bc 8a26 80be
00000310: 1632 11be 0db2 6abe a2e5 2c3e 2c86 5a3e
00000320: 664f f6bc 9dc2 32be 32d7 653e c2e8 86be
00000330: 5f41 8f3d d031 5bbe 1437 803e e4c5 95bd
00000340: 712e ce3c b2d1 fcbc 3523 8abe b406 343c
00000350: 1e87 d23c 90e3 6dbe 5efb d0bd 0706 8b3d
00000360: 9b00 303e ed78 423d 0ddd 7fbe 5c0d bc3d
00000370: 60d3 2e3e e851 45be ad72 0b3e 1759 a73d
00000380: 4e8f b03d 7d07 813e b5fe e7bd 4b03 8a3e
00000390: a8f9 a3bc 1200 d9bd db63 c8bd 949b e1bb
000003a0: 08fe 9bbe 0023 70bd dde1 37be 2999 bfbd
000003b0: d47b f43d 30e4 4abe 7240 64be a5bf 95bc
000003c0: aad6 423e e06f 61be 798f 5c3d f414 393e
000003d0: 6f78 8dbd cf78 3cbe 5c3d 0a3e ab48 90be
000003e0: e2c8 863d 3d08 9c3e 165f 7bbe 8db7 aebd
000003f0: 7ac8 75be d1b2 4c3e 3405 81be 75ba 5abe

h2.bias f4 [64]
0.038210984 -0.09335832 -0.09213675 -0.08886307 0.022283694 -0.07669579 -0.043629035 -0.008607988
0.045246314 0.012447146 -0.07623707 -0.05562055 -0.024925936 0.078761235 0.076123156 -0.027429912
0.06924383 0.082699925 -0.07592859 0.051943216 0.010838998 -0.04496783 -0.076949924 0.007965083
-0.06532001 0.04605956 0.07772999 -0.066502586 0.03776049 0.021165209 0.045294497 -0.067122556
0.04615654 -0.038969498 -0.003654328 0.040745884 0.08470785 0.05589569 0.04213911 0.049493086
0.06424919 0.0077596717 -0.0154310465 0.008624776 -0.021810869 0.08645569 0.014484026 -0.048308607
0.008123565 0.10519352 0.08017286 -0.0052216537 -0.0964807 0.051587857 0.0029094107 0.033330396
-0.044812433 -0.037248224 -0.06473661 0.07543673 -0.0027725655 0.033765502 0.04068335 0.049073685
00000000: 1f83 1c3d a632 bfbd 31b2 bcbd d7fd b5bd
00000010: 4b8c b63c af12 9dbd 5cb4 32bd 8508 0dbc
00000020: 3354 393d 1def 4b3c 2e22 9cbd 60d2 63bd
00000030: 7a31 ccbc 924d a13d 75e6 9b3d b2b4 e0bc
00000040: b6cf 8d3d 945e a93d 7380 9bbd 69c2 543d
00000050: 0d96 313c 3030 38bd ec97 9dbd fb7f 023c
00000060: 7fc6 85bd f3a8 3c3d e730 9f3d 8232 88bd
00000070: beaa 1a3d a962 ad3c b986 393d 8d77 89bd
00000080: a40e 3d3d 7b9e 1fbd 737d 6fbb 28e5 263d
00000090: 4f7b ad3d e1f2 643d 0f9a 2c3d 43b9 4a3d
000000a0: 1495 833d d844 fe3b 80d2 7cbc ef4e 0d3c
000000b0: b5ac b2bc ae0f b13d 684e 6d3c 3fdf 45bd
000000c0: b418 053c b36f d73d ab31 a43d 681a abbb
000000d0: ac97 c5bd ca4d 533d d0ab 3e3b 7485 083d
000000e0: 3e8d 37bd 9891 18bd a194 84bd 937e 9a3d
000000f0: eeb3 35bb b24d 0a3d 96a3 263d 7d01 493d

h3.weight f4 [4, 64]
0.21218506 -0.11181745 0.041047804 0.004471198 0.11618399 0.06490813 0.050885703 0.118940145
-0.15237176 -0.21129838 0.09760002 0.19884606 -0.21099333 -0.12404715 -0.24041629 0.022090392
0.026088791 0.06254581 -0.12933142 0.0039263256 -0.09650478 0.28962642 0.18823937 0.18819867
-0.25896528 -0.089055784 0.072361596 0.29520148 0.31125012 -0.1959866 0.2045948 -0.123386264
0.03186656 0.10853356 0.17258038 0.13694979 0.14349668 -0.006534784 0.3008522 -0.14054891
0.23371129 0.15211017 0.18573807 -0.21745332 -0.062762395 0.05100163 0.32959074 -0.0570604
-0.18347842 -0.12772155 -0.073558144 0.19967121 -0.046461914 0.044908695 0.08609847 0.21603946
-0.19079597 0.29278317 -0.15445407 -0.23932186 -0.26401323 -0.27491572 -0.14102688 -0.20499116
0.25143966 -0.2435044 -0.15828463 -0.22686733 0.23458874 0.08266149 0.02771133 -0.10350256
-0.11008038 -0.2692706 0.22729313 0.03508761 0.014393341 0.16579583 0.32282996 -0.21558829
-0.14462379 0.14389414 0.13762537 0.14226961 0.23066883 0.07603165 -0.1585218 0.26813975
-0.28872657 -0.25096434 -0.04661912 0.0697047 -0.059192803 0.10197324 0.16184087 0.11115598
0.0031879656 -0.052432183 0.0562233 0.10086646 -0.10123858 -0.08073964 -0.17043543 0.051632643
-0.20717292 0.3168328 -0.17211115 0.18748318 -0.12784283 0.008763679 0.029531922 -0.26601443
0.3060589 0.18195157 0.11167096 0.25129452 -0.28291023 0.1833789 -0.21562384 -0.025125328
0.22509831 0.3194144 0.31645542 0.27787527 0.11867339 -0.12512313 0.21601579 -0.08039452
-0.19159569 0.29227224 -0.16865116 -0.04261031 -0.27984604 -0.11942713 -0.17722166 -0.21840228
0.1780586 -0.29744148 0.24775085 0.009380964 -0.2691228 -0.11079388 -0.15724221 -0.26518497
-0.28094724 -0.19095343 0.14063719 -0.07687075 0.2766245 0.056283265 0.15177149 -0.28025135
0.012297735 -0.16056234 -0.2680471 0.2155523 0.11255052 -0.044007137 -0.09932581 -0.14480409
-0.21028256 -0.045336362 0.0629453 0.09015863 0.11940679 -0.11836073 0.08357175 0.12641867
0.09161221 -0.09623045 0.10740395 0.2510233 0.17993598 -0.16529818 0.17028622 0.07705201
0.12141698 0.08112085 -0.0125395125 -0.24789019 -0.023695774 0.2918992 0.29511824 0.20025446
0.16326237 -0.25908652 -0.29608715 0.035954855 0.013450084 0.24294381 -0.24755897 -0.008980665
0.106175594 -0.054636307 0.19762929 0.037479434 -0.045817602 0.28245428 -0.21986349 0.18256651
-0.03739004 -0.06600338 0.19619513 -0.062535614 0.03226447 -0.15507627 0.05496592 0.02684155
-0.084273815 -0.014155578 -0.043137558 -0.28303388 -0.2037779 0.2824182 -0.30117503 0.2455261
-0.27071133 0.26582578 -0.017589297 0.30277935 -0.09371321 -0.18895358 0.071138956 -0.026413145
-0.117082454 0.06601632 0.2062532 -0.077074975 0.27776766 -0.27722302 -0.05598479 0.110241964
0.08486341 -0.16663076 0.20138526 0.068020396 0.0891891 -0.19223426 0.1627596 0.1393434
0.19332002 -0.12746362 0.06963187 0.16336085 -0.075896 -0.11093409 0.07746484 -0.29563645
0.13422005 0.15391949 0.019884754 0.0051076636 0.15065317 0.20152424 -0.17216396 -0.0018941357
00000000: 0a47 593e 8c00 e5bd be21 283d 2183 923b
00000010: dff1 ed3d 8eee 843d 876d 503d e496 f33d
00000020: 5807 1cbe 9a5e 58be 85e2 c73d 4d9e 4b3e
00000030: a30e 58be 6f0c febd b02f 76be e9f6 b43c
00000040: 29b8 d53c 0518 803d 756f 04be 68a8 803b
00000050: 4ca4 c5bd ea49 943e d2c1 403e 27b7 403e
00000060: 1997 84be e162 b6bd 5132 943d a624 973e
00000070: 2d5c 9f3e b6b0 48be 4d81 513e f0b1 fcbd
00000080: 8386 023d d846 de3d e9b8 303e 913c 0c3e
00000090: cbf0 123e be21 d6bb 4d09 9a3e 0eec 0fbe
000000a0: 0352 6f3e c5c2 1b3e 1f32 3e3e 15ac 5ebe
000000b0: 9289 80bd 16e7 503d 1ec0 a83e 2ab8 69bd
000000c0: c4e1 3bbe 70c9 02be a7a5 96bd 9c76 4c3e
000000d0: d94e 3ebd 2ef2 373d 6554 b03d 7339 5d3e
000000e0: 0560 43be ade7 953e 3529 1ebe ca10 75be
000000f0: be2c 87be c1c1 8cbe 5a69 10be 34e9 51be
00000100: b3bc 803e 3859 79be 5e15 22be e94f 68be
00000110: 0838 703e 6d4a a93d df02 e33c 26f9 d3bd
00000120: d371 e1bd d6dd 89be 88bf 683e 07b8 0f3d
00000130: 0cd2 6b3c 62c6 293e f849 a53e 2dc3 5cbe
00000140: 4218 14be fc58 133e aaed 0c3e 20af 113e
00000150: 7334 6c3e 7bb6 9b3d 8a53 22be 9d49 893e
00000160: f8d3 93be 667e 80be b1f3 3ebd 56c1 8e3d
00000170: 2774 72bd 59d7 d03d 9db9 253e bfa5 e33d
00000180: 30ed 503b 21c3 56bd 674a 663d 1393 ce3d
00000190: 2c56 cfbd d35a a5bd a086 2ebe c07c 533d
000001a0: 2325 54be e937 a23e e83d 30be 97fb 3f3e
000001b0: 3be9 02be 8995 0f3c eeec f13c 0b33 88be
000001c0: c1b3 9c3e 8351 3a3e bfb3 e43d ada9 803e
000001d0: 9cd9 90be aec7 3b3e 7fcc 5cbe a2d3 cdbc
000001e0: 2c80 663e 498a a33e 7206 a23e ab45 8e3e
000001f0: 090b f33d 4720 00be 3e33 5d3e e2a5 a4bd
00000200: a931 44be b5a4 953e e4b2 2cbe 2688 2ebd
00000210: fb47 8fbe 3696 f4bd 9879 35be d9a4 5fbe
00000220: fe54 363e 404a 98be 66b2 7d3e 9db2 193c
00000230: 77ca 89be e7e7 e2bd 1a04 21be 53c6 87be
00000240: 51d8 8fbe 4c89 43be 3203 103e 696e 9dbd
00000250: baa1 8d3e 4889 663d fc69 1b3e 1b7d 8fbe
00000260: 707c 493c 746a 24be 783d 89be beb9 5c3e
00000270: e380 e63d d440 34bd 556b cbbd 8647 14be
00000280: 5054 57be 9fb2 39bd 77e9 803d 16a5 b83d
00000290: 8c8b f43d 1c67 f2bd aa27 ab3d e573 013e
000002a0: 2f9f bb3d 7814 c5bd 9af6 db3d 2086 803e
000002b0: 2341 383e ed43 29be 835f 2e3e 72cd 9d3d
000002c0: 77a9 f83d b022 a63d 8772 4dbc edd6 7dbe
000002d0: a41d c2bc d073 953e bd19 973e 810f 4d3e
000002e0: 402e 273e fda6 84be bc98 97be 6645 133d
000002f0: be5d 5c3c 43c6 783e 1980 7dbe a423 13bc
00000300: 9772 d93d 52ca 5fbd 555f 4a3e 0984 193d
00000310: 3dab 3bbd d99d 903e e523 61be b7f2 3a3e
00000320: 4c26 19bd c82c 87bd 60e7 483e ac12 80bd
00000330: c027 043d 50cc 1ebe f223 613d cfe2 db3c
00000340: c097 acbd ccec 67bc 02b1 30bd d1e9 90be
00000350: 27ab 50be 1e99 903e 9d33 9abe 326b 7b3e
00000360: ad9a 8abe 511a 883e 6e17 90bc e505 9b3e
00000370: b6ec bfbd 0c7d 41be 4db1 913d 6160 d8bc
00000380: edc8 efbd 9033 873d 0a34 533e 7cd9 9dbd
00000390: 9037 8e3e 2df0 8dbe 4f50 65bd 8ac6 e13d
000003a0: decc ad3d 41a1 2abe f037 4e3e 474e 8b3d
000003b0: c6a8 b63d 0fd9 44be 74aa 263e 09b0 0e3e
000003c0: aff5 453e d385 02be 279b 8e3d 1148 273e
000003d0: 5d6f 9bbd 6a31 e3bd e3a5 9e3d a95d 97be
000003e0: fb70 093e 129d 1d3e 5ae5 a23c 305e a73b
000003f0: d344 1a3e 5f5c 4e3e c04b 30be a644 f8ba

h3.bias f4 [4]
-0.060588248 -0.070583485 -0.07940795 0.039139938
00000000: 622b 78bd 138e 90bd a3a0 a2bd 3351 203d
