weights/weights_LF=8_sparse/w=0.70_3.pth (torch, 39820 bytes, 8 tensors)

input.weight f4 [64, 4]
0	0xbf184655	-0.5948232
1	0x3f99bfb6	1.201163
2	0x3f784140	0.96974564
3	0xbebc0274	-0.36720622
4	0xbf8672a8	-1.050374
5	0x3f986dea	1.1908543
6	0x3f9a41f5	1.2051378
7	0x3eb887d6	0.36041135
8	0xbe913ebf	-0.28368184
9	0xbf014c3a	-0.5050694
10	0xbf37282d	-0.7154568
11	0x3ed2411a	0.41065294
12	0x3f34cccf	0.70625013
13	0x3f3856fa	0.72007716
14	0xbf12581c	-0.57165694
15	0xbec395dd	-0.38200274
16	0x3f32d8a3	0.6986181
17	0x3f91b40c	1.1383071
18	0x3f51c415	0.8193982
19	0xbe3994ee	-0.18123218
20	0x3f2130f6	0.62965333
21	0x3e706ee6	0.23479804
22	0xbead6355	-0.33864847
23	0x3de0aff1	0.10971058
24	0xbed79178	-0.4210317
25	0xbf5ac920	-0.8546314
26	0xbf967bcf	-1.1756533
27	0x3ee7dfac	0.45287836
28	0x3f8312ad	1.0240074
29	0x3f02392f	0.50868505
30	0x3eacc4fa	0.3374403
31	0x3d129ec0	0.035795927
32	0xbdc2d7db	-0.095138274
33	0x3dcf132c	0.101110786
34	0x3f08fd84	0.53511834
35	0x3eb2a356	0.3489024
36	0x3f65882e	0.8966092
37	0xbf15dda4	-0.5854132
38	0xbeb89034	-0.36047518
39	0xbdca2cf2	-0.09871854
40	0xbf97abad	-1.1849266
41	0x3ebdb9b1	0.37055734
42	0x3f1593d9	0.5842872
43	0x3dd8ac86	0.10579781
44	0xbf542c3c	-0.82879996
45	0xbf1a00b9	-0.6015735
46	0xbf3e3f23	-0.7431509
47	0x3f72f180	0.9489975
48	0x3f194e95	0.5988553
49	0x3ec97231	0.39344934
50	0x3f8d6d66	1.1049011
51	0xbf95dfc5	-1.1708914
52	0xbf266274	-0.6499398
53	0xbc91a98e	-0.017781045
54	0xbf994b16	-1.197604
55	0xbf36a2c1	-0.7134209
56	0xbf9454b5	-1.158835
57	0x3d733168	0.05937329
58	0xbed4231a	-0.4143303
59	0x3f8ef34a	1.1167996
60	0xbf55c7cd	-0.83507997
61	0x3f2e17b4	0.6800492
62	0xbefd5005	-0.49475113
63	0xbe7d13bd	-0.24714561
64	0xbd518577	-0.051152673
65	0xbd5c4570	-0.05377716
66	0x3f8424ea	1.0323765
67	0xbf4fa015	-0.8110364
68	0xbf290adc	-0.66032195
69	0x3d9a5510	0.07535756
70	0xbec00b51	-0.37508634
71	0x3e33f992	0.17575672
72	0xbf9ab931	-1.2087766
73	0xbebc28ea	-0.36749965
74	0x3f87ee42	1.0619586
75	0xbe289806	-0.16464242
76	0xbf98faca	-1.1951535
77	0xbeb7944f	-0.35855338
78	0x3e07793c	0.13229841
79	0x3ea063f9	0.31326273
80	0xbe2e0163	-0.16992716
81	0xbf07a5dc	-0.52987456
82	0xbf80e4e9	-1.0069858
83	0xbed1549c	-0.40884864
84	0x3e8fec0f	0.28109786
85	0x3dc10e9e	0.09426616
86	0x3f3fe522	0.74959004
87	0x3f89b50b	1.0758375
88	0x3f260f93	0.64867514
89	0x3d48f96f	0.049066003
90	0x3e999cf6	0.30002564
91	0x3f6ed4a7	0.9329323
92	0xbf25470e	-0.64561546
93	0x3ee15dca	0.44016868
94	0x3ee282e5	0.4424049
95	0xbeb7054d	-0.35746232
96	0x3f33fd23	0.7030813
97	0x3f2e44b7	0.680736
98	0x3f0aabec	0.5416858
99	0xbf9845fa	-1.1896355
100	0xbf834652	-1.0255835
101	0x3f0c8496	0.5488981
102	0xbf8b281f	-1.0871619
103	0xbdf887c1	-0.12135268
104	0xbe9cb694	-0.30608046
105	0x3e8a7b4f	0.27047202
106	0xbf7c9cd2	-0.9867679
107	0x3f2f5d2f	0.6850156
108	0xbf357c75	-0.7089303
109	0x3e8102a7	0.25197336
110	0x3f254c68	0.6456971
111	0xbe58d5fd	-0.2117538
112	0x3f27d8cc	0.6556518
113	0xbf0e7c3b	-0.5565831
114	0xbf51c27f	-0.819374
115	0x3f99c59d	1.2013432
116	0x3f35b9a3	0.70986384
117	0xbf18f97d	-0.5975569
118	0xbcedcdd4	-0.02902881
119	0xbb6bed07	-0.0035999434
120	0xbebf60ef	-0.37378642
121	0xbea272b3	-0.31728134
122	0x3f9694eb	1.1764196
123	0x3f4602a6	0.7734779
124	0xbf2e1f91	-0.68016917
125	0xbf739b09	-0.9515844
126	0x3f831237	1.0239934
127	0x3f807c4b	1.0037931
128	0xbea6b709	-0.3256152
129	0x3f1edde8	0.6205735
130	0xbf8b4629	-1.0880786
131	0x3eddea63	0.43342885
132	0x3e703b2b	0.23460071
133	0x3ea2f429	0.31826904
134	0x3ee588c6	0.44830912
135	0x3f13a888	0.57679033
136	0xbe9c295b	-0.30500302
137	0xbf7d0c18	-0.9884658
138	0x3eb2ef82	0.34948355
139	0xbf84d355	-1.0376993
140	0xbf5b43e6	-0.8565048
141	0x3e956598	0.29179072
142	0xbf147ff3	-0.58007735
143	0x3ee27164	0.44227135
144	0x3e605fc7	0.21911536
145	0xbf656dea	-0.8962084
146	0xbe82360d	-0.25431862
147	0x3f01c374	0.5068886
148	0x3f3a791b	0.7284104
149	0x3d18aa38	0.03727171
150	0x3f96b4d9	1.177394
151	0xbf475ceb	-0.77876157
152	0xbe32de77	-0.17467676
153	0x3d205c10	0.039150298
154	0xbe21812f	-0.15771936
155	0x3f704cd9	0.9386726
156	0x3f164e0d	0.58712846
157	0xbf5ecb62	-0.8702909
158	0x3f84e733	1.0383056
159	0x3f30aeee	0.6901692
160	0x3f29ccee	0.6632832
161	0xbf3bc418	-0.7334609
162	0x3e88fa9f	0.2675371
163	0x3f9c4ef6	1.2211597
164	0x3f76687c	0.9625318
165	0xbf1f03de	-0.62115276
166	0x3eb2832c	0.348657
167	0xbf350f22	-0.70726216
168	0x3ea3a52a	0.31961948
169	0x3f2da66d	0.6783207
170	0xbeff34a5	-0.49844852
171	0x3f97e211	1.1865865
172	0xbf68d283	-0.90946215
173	0x3ea84755	0.32866922
174	0x3ecdd0e7	0.40198442
175	0xbf591d10	-0.8480997
176	0xbee532a6	-0.44765204
177	0x3f81d152	1.0142004
178	0xbd027c59	-0.03185687
179	0xbedced7f	-0.43149945
180	0x3e97eeee	0.29674476
181	0xbed504c3	-0.41605195
182	0x3e3ca767	0.18423234
183	0x3edd90da	0.43274575
184	0x3f590aa9	0.8478189
185	0x3f7adbe0	0.9799175
186	0xbf945a0b	-1.1589979
187	0x3f06fb6d	0.52727395
188	0xbe56c6ab	-0.20974223
189	0x3e8461c0	0.25855827
190	0x3df7a758	0.12092465
191	0x3e24a342	0.16077903
192	0x3f0549b2	0.52065575
193	0xbed5c1e8	-0.417495
194	0xbf8f6d98	-1.120532
195	0xbf96f5b6	-1.1793735
196	0x3e871e17	0.26390144
197	0x3e6e35e6	0.23262748
198	0x3f952e2a	1.1654713
199	0xbc9c4f4e	-0.019080784
200	0x3f11cf23	0.5695669
201	0x3efe3df5	0.49656644
202	0xbf5940dd	-0.848646
203	0x3e46c447	0.19410811
204	0x3f8a0b7d	1.0784756
205	0xbd17876b	-0.03699438
206	0x3f8092da	1.0044816
207	0xbee31cd0	-0.4435792
208	0xbf217051	-0.63062006
209	0x3f2e30b7	0.6804308
210	0xbf8d6156	-1.104533
211	0xbf1eb128	-0.6198907
212	0x3f6371af	0.8884534
213	0xbf1a2662	-0.6021482
214	0xbf326c6f	-0.69696707
215	0xbea95d6f	-0.33079097
216	0x3f9e35dd	1.2360188
217	0xbf918f33	-1.1371826
218	0x3f9c4903	1.2209781
219	0x3e070169	0.13184132
220	0xbf97974a	-1.1843045
221	0xbf8f46a7	-1.1193436
222	0xbf09e0de	-0.53858745
223	0xbf5f09dd	-0.87124425
224	0xbea89a53	-0.3293024
225	0x3f85d243	1.0454792
226	0x3f59591c	0.84901595
227	0x3f50f665	0.8162597
228	0xbd8a344f	-0.06748258
229	0x3f3270b4	0.6970322
230	0xbdd9f021	-0.10641504
231	0xbf070101	-0.52735907
232	0xbf8d6cfb	-1.1048883
233	0xbf247720	-0.6424427
234	0x3e9b994e	0.303904
235	0xbf5e4215	-0.86819583
236	0xbdc522a4	-0.09625748
237	0xbf0e753c	-0.55647635
238	0x3f0115b9	0.5042377
239	0xbf1b545f	-0.60675615
240	0xbf928df1	-1.1449567
241	0x3e1c53c1	0.15266325
242	0x3f84da23	1.037907
243	0x3f7dd6aa	0.99155676
244	0x3f033662	0.51254857
245	0x3e54b9c7	0.20773993
246	0x3f9a34d7	1.2047375
247	0xbf1ae755	-0.60509235
248	0xbe0782bc	-0.13233465
249	0x3cc4f652	0.024043236
250	0x3ec543d8	0.38528323
251	0xbdd677a2	-0.10472037
252	0xbee0cf7c	-0.43908298
253	0x3f85a3cd	1.0440613
254	0x3f43bf5c	0.76463866
255	0xbf6c018e	-0.9218987

input.bias f4 [64]
0	0x3ddd9a2e	0.10820423
1	0xbdc8f7fa	-0.09812923
2	0x3dce6b9f	0.10079121
3	0x3d844819	0.06459064
4	0xbb9fd098	-0.0048771612
5	0xbd049be1	-0.03237522
6	0x3d5b88a5	0.05359711
7	0x3d0af6d6	0.033926807
8	0xbb3a3806	-0.002841474
9	0xbd19b5f5	-0.037527043
10	0x3cf5945a	0.029977966
11	0xbd9f190d	-0.0776845
12	0x3dd17861	0.102280386
13	0xbda827cc	-0.08210716
14	0x3d0b1b0d	0.033961345
15	0x3bcad75e	0.0061902246
16	0x3dbba580	0.09162426
17	0x3c8d42b1	0.017243715
18	0x3d8698c3	0.06572106
19	0x3d3d7e88	0.046263248
20	0xbd5ac8f4	-0.0534143
21	0xbc818531	-0.01581058
22	0x3d2094c8	0.03920439
23	0x3d8b88e9	0.06813223
24	0xbd884fd4	-0.06655851
25	0x3d279cda	0.04092107
26	0x3db8efa9	0.090300865
27	0xbc364a32	-0.011126088
28	0x3d9eb388	0.077490866
29	0x3dc7f366	0.097632214
30	0xbd580e87	-0.05274823
31	0x3d8aabcf	0.06771051
32	0x3d3c0e84	0.04591228
33	0xbc71681c	-0.014734294
34	0xbc27443a	-0.010209138
35	0x3d1ec0df	0.038758155
36	0xbd918071	-0.071045764
37	0x3d4afc42	0.049556978
38	0x3c9e0c5c	0.019293003
39	0x3d48d30d	0.0490294
40	0xbd17cec9	-0.03706244
41	0x3c983bb1	0.01858315
42	0x3b81daec	0.003962865
43	0x3d9e815f	0.07739519
44	0xbd948964	-0.07252768
45	0x3d3365ce	0.04379826
46	0xbc64f32f	-0.013973995
47	0xbda6114e	-0.08108769
48	0xbdd063cc	-0.10175285
49	0x3be2fba1	0.006926969
50	0xbda32fbc	-0.07968089
51	0x3c89d4fa	0.016825188
52	0x3cea21a9	0.028580504
53	0x3d176c64	0.036968604
54	0xbcbf0126	-0.023315977
55	0xbd055aa6	-0.032557152
56	0x3d74c558	0.059758514
57	0x3d3bb748	0.045829087
58	0x3d6a9d42	0.05727888
59	0xbc9dfa7e	-0.019284483
60	0xbdb8dff1	-0.090270884
61	0x3d5e5e54	0.054289177
62	0x3b8a99f8	0.0042297803
63	0xbd1c1888	-0.038109332

h1.weight f4 [64, 64]
0	0xbdcf691d	-0.10127471
1	0xbc15e3ca	-0.009148547
2	0xbe8e2346	-0.27761286
3	0x3e51e561	0.20497657
4	0xbe33fa94	-0.17576057
5	0xbc828cd6	-0.015936296
6	0xbdf8ad83	-0.1214247
7	0x3e24d7fe	0.1609802
8	0x3d872390	0.0659858
9	0x3e20565f	0.15657948
10	0xbe3a9822	-0.18222097
11	0xbd01d20b	-0.031694453
12	0xbc0c81eb	-0.008575897
13	0x3e6d417c	0.23169512
14	0x3d907e7f	0.07055377
15	0x3e57f56d	0.21089716
16	0x3cbdc6a9	0.023166018
17	0xbe17ad3e	-0.1481218
18	0x3e35c8d0	0.17752385
19	0xbe9216a2	-0.28532892
20	0x3e4287b9	0.18997087
21	0xbe76e5a9	-0.24111046
22	0x3e5cbcbf	0.21556376
23	0xbe9eafbd	-0.30993453
24	0xbe8a4479	-0.27005365
25	0xbe2e9c05	-0.17051704
26	0xbd33d3a2	-0.043903
27	0xbe5f663d	-0.21816345
28	0xbe7185d8	-0.23586214
29	0xbdc84123	-0.09778049
30	0x3e8a13b1	0.26968148
31	0xbe640c55	-0.2227033
32	0xbdde995c	-0.10869095
33	0x3e83b3e4	0.25723183
34	0xbcb011e0	-0.021492898
35	0x3e97db8e	0.29659694
36	0x3c03d981	0.008047462
37	0x3e857929	0.26069
38	0xbd121ef9	-0.03567407
39	0xbe0c257d	-0.13686176
40	0x3e8a053c	0.2695712
41	0xbe309b41	-0.17246725
42	0x3e5d07c4	0.21584994
43	0xbd15ae80	-0.03654337
44	0xbe36634b	-0.17811315
45	0x3cf0c4fe	0.029390808
46	0x3e471c4e	0.19444391
47	0x3d8a45ca	0.067515925
48	0xbe92aba1	-0.28646567
49	0x3d3a35e0	0.045461535
50	0x3e928fb1	0.28625253
51	0x3c9c02f7	0.019044382
52	0xbdb45d67	-0.088068776
53	0x3e0eb120	0.13934755
54	0xbddf9214	-0.10916534
55	0xbe0c2185	-0.13684662
56	0xbe57ba2e	-0.21067116
57	0x3e9259c1	0.28584102
58	0xbe3b1c20	-0.18272448
59	0x3e403413	0.18769865
60	0x3dc2a4e4	0.09504107
61	0x3d6ec2a1	0.05829108
62	0x3e662658	0.22475564
63	0x3e7c13c5	0.24616916
64	0x3e7da481	0.24769785
65	0xbdaa0feb	-0.08303817
66	0x3e9679b1	0.29389718
67	0xbd0584a7	-0.03259721
68	0x3e98b0e8	0.2982247
69	0x3d48d6e1	0.04903305
70	0xbe3eded8	-0.18639696
71	0x3e6fbdca	0.23412243
72	0x3df23062	0.118256345
73	0xbd7fe981	-0.062478546
74	0xbdfaf5fe	-0.122539505
75	0x3df2b18e	0.11850272
76	0xbd07d5ab	-0.033162754
77	0xbe951b7a	-0.29122525
78	0x3e6cb440	0.23115635
79	0x3e78d185	0.24298675
80	0x3d172073	0.03689618
81	0xbe04291f	-0.12906311
82	0xbe7cd49a	-0.24690476
83	0xbe8730cf	-0.26404426
84	0x3e0fcabe	0.14042184
85	0x3dd1e4ac	0.10248694
86	0xbdfa9565	-0.12235526
87	0x3d70f19f	0.058824178
88	0x3e678755	0.22610219
89	0xbe68cbf0	-0.22734046
90	0x3e1e4928	0.15457594
91	0xbe88b94d	-0.26703873
92	0x3de13dbc	0.10998103
93	0x3e347f4b	0.17626683
94	0xbdc5dbd7	-0.09661072
95	0xbe90df56	-0.28295392
96	0xbdb1f2fe	-0.08688925
97	0xbb27cc2a	-0.002560387
98	0xbe905372	-0.28188664
99	0xbd733acb	-0.05938224
100	0xbe77b522	-0.2419019
101	0x3df99026	0.12185697
102	0xbd24efef	-0.04026788
103	0x3d26f6f3	0.040762853
104	0x3e5cde57	0.21569191
105	0x3e75a4c7	0.23988639
106	0xbb9eb07e	-0.004842817
107	0x3e1c2017	0.15246616
108	0x3d8c4dbf	0.068507664
109	0xbe279d2b	-0.16368549
110	0x3df7892e	0.12086712
111	0xbe5f9a5d	-0.21836229
112	0xbdd4bd22	-0.10387637
113	0xbe43fade	-0.19138667
114	0xbdfefd0a	-0.12450607
115	0x3dd229c4	0.102618724
116	0x3cd8c1e2	0.026459638
117	0x3e73df0c	0.23815554
118	0xbe2c6eca	-0.16839138
119	0xbdf7a651	-0.12092269
120	0xbe0f3e79	-0.13988675
121	0x3e1e9732	0.15487364
122	0xbe9165dc	-0.28398025
123	0xbe249526	-0.1607252
124	0x3d77b4b7	0.060475077
125	0xbdbbdf77	-0.09173482
126	0x3e0f1f22	0.1397672
127	0x3e987029	0.2977307
128	0xbe134d4d	-0.14384957
129	0xbe1e65e0	-0.1546855
130	0xbe4241b2	-0.18970373
131	0xbe8a77a3	-0.270444
132	0x3e7f7038	0.24945152
133	0x3c83b0bc	0.016075484
134	0xbe9e64d6	-0.30936307
135	0x3ea01169	0.31263283
136	0x3e01e2c0	0.12684155
137	0xbe9b0432	-0.30276638
138	0xbcae27ad	-0.021259153
139	0xbc04ccd8	-0.008105479
140	0x3dce22b1	0.100652106
141	0xbe0651a6	-0.13117084
142	0x3e1fa90e	0.15591833
143	0xbe989690	-0.2980237
144	0xbd790b65	-0.060801882
145	0x3d7f5559	0.062337253
146	0xbdf5f369	-0.120093174
147	0xbe23ff0b	-0.1601526
148	0xbe91849c	-0.28421485
149	0xbe2f4132	-0.17114714
150	0x3e903bc6	0.28170604
151	0x3d786285	0.06064083
152	0xbe8ae82f	-0.27130267
153	0x3e1f0f16	0.15533099
154	0x3c978d28	0.018499926
155	0x3e29d6e9	0.16585888
156	0x3e3e34a1	0.18574764
157	0x3e56c8a8	0.20974982
158	0x3d1e8bb1	0.03870744
159	0xbe88aeb7	-0.26695797
160	0x3dad3d5d	0.0845897
161	0x3e5ea633	0.21743087
162	0x3e2e17b1	0.17001225
163	0x3e0c6b61	0.13712837
164	0xbda87775	-0.082259096
165	0x3e5e48cf	0.21707462
166	0x3e255c54	0.16148502
167	0xbcb4dc48	-0.022077695
168	0xbe2e76a8	-0.17037451
169	0xbe990348	-0.29885316
170	0x3d476cd4	0.04868777
171	0xbe1df245	-0.1542445
172	0xbe0b6c9f	-0.13615654
173	0x3dc224ab	0.0947965
174	0x3e99364c	0.29924238
175	0x3e9f9106	0.31165332
176	0x3e03e5b6	0.12880597
177	0x3e114f36	0.14190373
178	0x3df6b8d1	0.1204697
179	0xbd9cafd3	-0.07650723
180	0xbe54ab0f	-0.20768379
181	0xbe8690f7	-0.26282474
182	0xbe129c75	-0.14317496
183	0x3c31147e	0.010808108
184	0x3e5ca1b1	0.21546055
185	0xbe42a704	-0.19009024
186	0x3e0a9e5c	0.13536972
187	0x3d9ff372	0.078101054
188	0x3d3bd380	0.045856
189	0xbe67e667	-0.22646485
190	0xbc03a385	-0.008034592
191	0xbcf15a5f	-0.029462038
192	0x3e13821b	0.144051
193	0xbe569314	-0.20954543
194	0x3e1255e1	0.14290573
195	0x3bc9db28	0.0061601587
196	0x3cbffc80	0.023435831
197	0xbd666828	-0.056251675
198	0xbea74fc8	-0.32678056
199	0x3e051e57	0.12999855
200	0x3df59e1f	0.1199305
201	0xbe11aa1e	-0.14225051
202	0xbde13be6	-0.10997753
203	0xbe2141c3	-0.15747742
204	0xbe6b8e32	-0.23003462
205	0xbe873152	-0.26404816
206	0x3dc26e54	0.094937
207	0xbd34d753	-0.04415066
208	0x3e7a59c2	0.24448302
209	0xbe4ad463	-0.19807582
210	0x3ddb05e6	0.106944844
211	0xbd0f861b	-0.035040002
212	0xbdbd17ff	-0.092330925
213	0xbdd365a4	-0.10322121
214	0xbe88d98c	-0.26728475
215	0xbdbf04df	-0.09327101
216	0xbdbf6105	-0.09344677
217	0x3da49c93	0.08037677
218	0xbe61368f	-0.21993469
219	0xbdbd3ce9	-0.09240133
220	0xbe8d3ee2	-0.27587038
221	0x3e9a7f6c	0.3017534
222	0x3d72b664	0.059255973
223	0xbdcdc42d	-0.10047183
224	0xbe2b3a30	-0.16721416
225	0x3e2620ef	0.162235
226	0xbe8036ed	-0.25041905
227	0x3e01af97	0.12664638
228	0x3d2be323	0.04196466
229	0x3dc8710a	0.097871855
230	0x3cfefd7e	0.031126734
231	0xbe555798	-0.20834196
232	0x3dd9a6ea	0.106275395
233	0xbe939a2c	-0.2882856
234	0xbdcadd16	-0.0990545
235	0x3daccb36	0.08437197
236	0xbe3c25b7	-0.18373762
237	0xbcc855e1	-0.024455013
238	0x3e99cd41	0.3003941
239	0xbda5ce6c	-0.080960125
240	0xbc8c444f	-0.017122416
241	0xbe715560	-0.23567724
242	0xbdc573f3	-0.09641256
243	0xbdd9bd65	-0.10631827
244	0x3e7bd311	0.24592234
245	0x3df3e40e	0.11908732
246	0x3e60bfff	0.2194824
247	0x3dc13e90	0.09435761
248	0x3e2bdf49	0.16784395
249	0x3e9b6bc5	0.3035566
250	0xbdf95755	-0.121748604
251	0xbe222e63	-0.15838008
252	0x3e6c0d63	0.23051982
253	0xbdbb2deb	-0.091396175
254	0x3e9a8d2a	0.30185825
255	0x3ea4d08f	0.32190368

h1.bias f4 [64]
0	0x3dc9812f	0.09839093
1	0x3d2472c0	0.040148497
2	0x3c7da32e	0.0154808
3	0x3d80b241	0.06283999
4	0x3d79a7db	0.060951095
5	0x3d09c269	0.03363267
6	0x3baa47f4	0.0051965658
7	0xbc10dcb9	-0.008841687
8	0xbd94fcab	-0.07274755
9	0x3d671625	0.056417603
10	0x3c7ea992	0.015543358
11	0xbdb83184	-0.08993819
12	0xbdbc0f8b	-0.09182652
13	0xbd23ce1c	-0.039991483
14	0x3da5df72	0.080992594
15	0x3dcd9628	0.10038406
16	0xbdcde84e	-0.10054074
17	0xbd972c11	-0.07381452
18	0x3d6faded	0.058515478
19	0x3da9c19c	0.08288881
20	0xbd950309	-0.072759695
21	0xbcf30a3e	-0.02966797
22	0x3d64c4af	0.055851635
23	0x3dcc421e	0.09973548
24	0xbd409e52	-0.047025986
25	0xbdb02122	-0.086000696
26	0xbcb90a6e	-0.022587981
27	0xbd8807c5	-0.06642107
28	0xbc5cf1b1	-0.013485358
29	0x3d569fd5	0.05239852
30	0xbd617b1b	-0.055049043
31	0x3b7dd996	0.0038734428
32	0x3d437802	0.04772187
33	0x3da2a6b2	0.07941951
34	0x3d845944	0.064623386
35	0x3bd4a3d7	0.006489258
36	0x3d730d90	0.059339106
37	0xbce1816f	-0.027527539
38	0xbd146fd2	-0.036239453
39	0xbd18b351	-0.037280384
40	0xbdc380ca	-0.09546049
41	0xbd464d57	-0.0484136
42	0x3d25a10a	0.040436782
43	0x3d819126	0.06326513
44	0x3da20a7b	0.07912155
45	0xbda374ed	-0.07981286
46	0xbdb18855	-0.086685814
47	0x3d8ff116	0.07028405
48	0x3ceba59d	0.028765494
49	0xbc1cbf4e	-0.009567095
50	0xbd4a1acc	-0.04934196
51	0x3d229523	0.03969301
52	0xbdad25ff	-0.08454513
53	0x3d978660	0.07398677
54	0xbd91ee6d	-0.07125554
55	0xbcc052e1	-0.02347702
56	0x3d427984	0.047479168
57	0xbbdaf159	-0.006681603
58	0xbd2ddae7	-0.04244509
59	0x3daeb27a	0.085301355
60	0x3cb534c9	0.022119896
61	0x3d23cb02	0.039988525
62	0x3d7198bc	0.05898355
63	0x3d177eda	0.03698621

h2.weight f4 [64, 64]
0	0x3e92ed14	0.286965
1	0xbd7974c6	-0.06090238
2	0xbe03a126	-0.12854442
3	0xbd788b08	-0.060679466
4	0x3d2f3fc9	0.04278544
5	0xbe932dfc	-0.2874602
6	0xbd97ebd5	-0.07418028
7	0xbe351175	-0.1768244
8	0x3e80d15a	0.25159723
9	0x3df5558e	0.11979209
10	0xbe685546	-0.22688779
11	0x3e71256b	0.2354943
12	0x3e271a24	0.16318566
13	0x3e231b25	0.15928324
14	0x3d97c917	0.07411402
15	0xbd5e9de3	-0.05434979
16	0x3e48af69	0.19598164
17	0x3e4b9e15	0.19884522
18	0xbdc61aca	-0.09673078
19	0x3e47c9f3	0.19510631
20	0x3e939499	0.2882431
21	0x3e3449c9	0.17606272
22	0x3e6332ec	0.22187394
23	0xbe45e3e9	-0.19325222
24	0xbe8d0810	-0.27545214
25	0x3e841e80	0.2580452
26	0xbe6c0fc8	-0.23052895
27	0xbe3e14f3	-0.18562679
28	0x3e135db6	0.14391217
29	0xbe6f1a93	-0.23349981
30	0x3e7237da	0.23654118
31	0xbe4a06f9	-0.19729222
32	0x3e6a2121	0.228642
33	0x3e13a308	0.1441766
34	0xbe478d3b	-0.19487469
35	0xbe68ee1a	-0.22747079
36	0x3e8e13e1	0.2774954
37	0x3e10b4c8	0.14131463
38	0xbe919fe4	-0.284423
39	0x3e552a19	0.2081684
40	0xbe8fa2f9	-0.28054026
41	0xbe7253a0	-0.23664713
42	0x3d3324ed	0.043736387
43	0xbe3d9eaa	-0.18517557
44	0x3d758f2c	0.059950992
45	0xbd3220b3	-0.043488216
46	0xbc14256e	-0.009042127
47	0xbe050a6a	-0.12992254
48	0x3e1db458	0.15400827
49	0xbcdda97e	-0.02705836
50	0x3e463cbf	0.1935911
51	0x3e858756	0.26079816
52	0x3d8a41d3	0.06750836
53	0x3e49e0f0	0.19714713
54	0xbe8e4a11	-0.27790883
55	0x3db4ec1e	0.08834098
56	0x3e6b9ebc	0.23009771
57	0x3dc1030b	0.094244085
58	0xbe30a4a4	-0.17250305
59	0x3e92f79c	0.28704536
60	0xbc81dae8	-0.015851453
61	0xbe900001	-0.28125003
62	0x3c07d1f0	0.008289799
63	0xbc009ea2	-0.007850321
64	0xbe8c7473	-0.27432594
65	0xbe8b3b7f	-0.2719383
66	0x3dc6e412	0.0971147
67	0x3e76ca8b	0.24100702
68	0x3d162ecf	0.036665734
69	0xbe9c539a	-0.30532533
70	0xbd680fc8	-0.056655675
71	0xbdaa7a8f	-0.083241574
72	0x3ddb7167	0.10714989
73	0x3cee8eae	0.02912077
74	0x3e152ad2	0.14567116
75	0xbe70e2f8	-0.23524082
76	0x3cfa4305	0.030549536
77	0x3e94bd68	0.29050756
78	0xbc963d5a	-0.018339802
79	0x3d137ef6	0.03600975
80	0xbd9b2fe9	-0.075774975
81	0x3d8a2bb9	0.06746621
82	0xbe73cbbf	-0.23808192
83	0xbde26427	-0.11054259
84	0xbdc3f2fd	-0.09567831
85	0xbce77cbd	-0.028257722
86	0xbdeaeb96	-0.11470716
87	0xbc0e2ea7	-0.008678115
88	0x3e93b183	0.28846368
89	0x3d42a484	0.047520176
90	0x3e703cd5	0.23460706
91	0xbe9210fb	-0.2852858
92	0xbe560224	-0.20899254
93	0x3d5ea017	0.054351892
94	0x3dbf032f	0.09326779
95	0xbe90386b	-0.28168043
96	0x3e1acdf6	0.1511763
97	0xbda7681f	-0.081741564
98	0xbe37f3ec	-0.17964143
99	0xbe16c85a	-0.14724866
100	0x3e5be975	0.21475776
101	0x3d05462e	0.03253763
102	0x3c903d9a	0.017607499
103	0x3caa9fd7	0.02082817
104	0xbdfe85ac	-0.1242784
105	0x3e03dc73	0.12877063
106	0xbdaea51f	-0.08527588
107	0xbcc46873	-0.023975587
108	0xbdd1754e	-0.10227452
109	0xbd79e9a7	-0.061013844
110	0x3e19d846	0.15023908
111	0x3d3dcadb	0.046336036
112	0xbe943db5	-0.2895333
113	0x3e08c12e	0.13354942
114	0x3d7a33dd	0.061084617
115	0xbe2d230f	-0.16907905
116	0x3dd6cc7b	0.1048822
117	0x3d72b88e	0.059258036
118	0x3d86e631	0.06586874
119	0xbdd1789d	-0.10228083
120	0x3e5fb622	0.21846822
121	0x3e2f4af3	0.17118435
122	0xbe788367	-0.24268876
123	0xbd98a099	-0.074525066
124	0x3e1ea249	0.15491594
125	0x3e967bb1	0.29391244
126	0xbe4356bd	-0.19076057
127	0x3e527c82	0.20555308
128	0x3daed62f	0.08536946
129	0x3ba1dfcb	0.0049400083
130	0xbe1e54b8	-0.15462005
131	0x3e518252	0.2045987
132	0xbe9ec3bd	-0.3100871
133	0x3e210c08	0.15727246
134	0x3e03ca4d	0.1287014
135	0xbd7f8be7	-0.06238928
136	0x3e36289a	0.17788926
137	0xbd8cefa2	-0.06881644
138	0x3e348f8e	0.17632887
139	0x3d240f6e	0.040053777
140	0x3e8b5096	0.2720992
141	0x3e0c3602	0.13692477
142	0x3e449d81	0.19200708
143	0xbe85ad42	-0.26108748
144	0x3e8b9834	0.2726456
145	0x3e52012e	0.20508263
146	0x3d9fba12	0.07799162
147	0xbe3b12af	-0.18268846
148	0x3e59a455	0.21254094
149	0xbdfba34d	-0.122870065
150	0xbd683316	-0.056689344
151	0x3e7948d0	0.24344182
152	0x3d531e37	0.051542487
153	0xbe7c13f2	-0.24616984
154	0xbdb9e57e	-0.09076975
155	0xbd9d413b	-0.07678457
156	0x3dfed1ba	0.12442346
157	0x3d4fbbb3	0.050716113
158	0x3d332ba3	0.043742787
159	0x3e930827	0.28717157
160	0x3e843d09	0.25827816
161	0x3e470ba8	0.1943804
162	0xbdd170e2	-0.10226609
163	0x3e58014a	0.21094242
164	0xbbfb5047	-0.007669482
165	0x3c3ec973	0.011644709
166	0x3e6b92ed	0.23005266
167	0xbe165653	-0.14681368
168	0xbe2dbd6d	-0.16966791
169	0xbd937de4	-0.07201746
170	0xbe934629	-0.28764465
171	0xbe63971a	-0.2222561
172	0x3e89fe04	0.2695161
173	0xbe21022b	-0.15723483
174	0x3d960aeb	0.07326301
175	0xbdc49378	-0.0959844
176	0x3e3bbb90	0.18333268
177	0xbe99690f	-0.29962966
178	0xbd925be0	-0.0714643
179	0xbe930ed9	-0.28722265
180	0xbe634dfc	-0.22197717
181	0x3a25d39a	0.00063257816
182	0xbe9de981	-0.30842212
183	0xbdd06630	-0.10175741
184	0xbe131878	-0.14364803
185	0x3e4a0d57	0.19731651
186	0x3e229c0d	0.15879841
187	0x3d0d63e2	0.034519084
188	0xbddb3c71	-0.10704888
189	0xbe0ce931	-0.1376083
190	0x3d1a373c	0.03765033
191	0x3e98764c	0.29777753
192	0x3e2fbd2a	0.17162004
193	0x3e87cfab	0.26525626
194	0x3e8ed8ee	0.2789988
195	0x3e1a5748	0.15072358
196	0xbcc37907	-0.023861421
197	0x3df3e137	0.11908191
198	0xbe836669	-0.2566407
199	0xbdfe2d4c	-0.124109834
200	0x3e9afe3a	0.30272084
201	0x3e408a70	0.1880281
202	0xbdc65432	-0.09684028
203	0x3dfcf414	0.12351242
204	0x3e45f7d5	0.19332822
205	0xbe5a9ebe	-0.21349618
206	0xbe75a7f9	-0.23989858
207	0x3d56e7aa	0.052467026
208	0xbc80fa0b	-0.01574423
209	0x3d6040b1	0.054749195
210	0x3d20de8e	0.039274745
211	0xbdd9a8b2	-0.10627879
212	0x3de1603d	0.11004684
213	0x3d24655c	0.040135726
214	0x3da86b84	0.08223632
215	0xbcf7856b	-0.030214986
216	0x3e90a599	0.2825134
217	0xbe2345d7	-0.1594461
218	0xbd25db44	-0.04049231
219	0x3e86e353	0.2634531
220	0xbe1a4350	-0.1506474
221	0x3e835f45	0.25658622
222	0x3dd09574	0.10184756
223	0x3d5519a7	0.052026417
224	0xbe409d86	-0.1881009
225	0xbdc73f1a	-0.097288325
226	0xbe71d1f3	-0.23615246
227	0x3e9ab8b4	0.30219042
228	0x3e1a5ded	0.15074892
229	0x3d77c822	0.060493596
230	0x3e0a5c5c	0.13511795
231	0x3e782be7	0.24235497
232	0x3e8ab131	0.2708831
233	0x3c41e513	0.011834401
234	0x3e794a36	0.24344715
235	0xbe8eb4e1	-0.27872375
236	0x3cca71b2	0.024712417
237	0xbe195d59	-0.14977016
238	0xbe08b7d8	-0.13351381
239	0x3e61815b	0.22022001
240	0xbe33c42a	-0.175553
241	0xbe419a68	-0.18906558
242	0x3e92e6a7	0.286916
243	0xbe9414e4	-0.28922188
244	0xbdf9de23	-0.12200572
245	0xbaab5a13	-0.0013073109
246	0xbe2fee94	-0.17180854
247	0x3e2d7b4a	0.16941562
248	0x3e8d2071	0.27563813
249	0xbce30354	-0.027711548
250	0xbdff734e	-0.124731645
251	0x3e8c91fa	0.2745512
252	0xbe6de5e4	-0.23232228
253	0xbe29ab0c	-0.16569155
254	0xbe56b992	-0.20969227
255	0xbd5dd59b	-0.05415879

h2.bias f4 [64]
0	0xbc7562bd	-0.014977154
1	0xbcc4c1cd	-0.024018193
2	0x3d382ca5	0.04496445
3	0x3d15dcbb	0.036587458
4	0xbdc3976e	-0.09550367
5	0x3dadaaf5	0.08479873
6	0xbb0a0ad5	-0.0021063585
7	0x3d9c7a33	0.07640495
8	0xbdab3682	-0.08360006
9	0xbdba5568	-0.09098321
10	0x3bb6a089	0.0055733365
11	0x3d842ca3	0.06453826
12	0xbdb52e0d	-0.08846674
13	0x3d014f4e	0.03156977
14	0xbcd753c4	-0.02628506
15	0xbc2214eb	-0.009892683
16	0x3d139705	0.036032695
17	0xbcdb1954	-0.026745476
18	0xbdaf5a2b	-0.0856212
19	0x3cb5ea0f	0.022206334
20	0xbce06f84	-0.027396925
21	0x3d9c8052	0.07641663
22	0xbd374167	-0.044740107
23	0xbd9dde49	-0.07708413
24	0x3d6b114f	0.057389554
25	0xbd9193b9	-0.07108254
26	0xbdc1fd8d	-0.09472189
27	0xbb565d23	-0.0032709322
28	0xbda41fdd	-0.0801389
29	0x3d7f7e7b	0.06237648
30	0xbcef372a	-0.029201109
31	0x3c89673a	0.016772855
32	0x3db85adf	0.09001707
33	0xbca1da94	-0.019757546
34	0xbcf90e68	-0.030402377
35	0x3d215216	0.039384924
36	0x3d0b2643	0.033972036
37	0x3d806963	0.06270101
38	0x3d00271c	0.031287298
39	0x3daca801	0.08430482
40	0xbd194145	-0.03741576
41	0xbd8fd152	-0.070223466
42	0x3c27bc32	0.01023774
43	0x3d15b165	0.03654613
44	0x3c52aa19	0.012857937
45	0xbd98e43f	-0.074654095
46	0xbde67740	-0.11253214
47	0x3dd68121	0.10473848
48	0xbcbf72ad	-0.023370111
49	0x3cd83480	0.026392221
50	0xbdbda9df	-0.09260916
51	0xbcded2a7	-0.027200056
52	0x3d2a43b0	0.041568458
53	0xbb5af797	-0.0033411735
54	0xbd493312	-0.04912097
55	0xbcfe4fde	-0.031043943
56	0x3dd6c920	0.1048758
57	0x3d2845a3	0.041082036
58	0xbd12d6f9	-0.035849545
59	0xbc68384a	-0.014173577
60	0x3dac8a6c	0.084248394
61	0x3bee6081	0.0072746878
62	0x3da106c8	0.078626215
63	0xbc04e6af	-0.00811164

h3.weight f4 [8, 64]
0	0x3e59bc0a	0.21263137
1	0xbdbc70b6	-0.092011854
2	0xbd2fc1a8	-0.042909294
3	0x3e4e619c	0.20154423
4	0x3d58b0f9	0.05290315
5	0x3e94f306	0.29091662
6	0xbde0231e	-0.10944198
7	0x3e64de06	0.2235032
8	0xbe80432a	-0.25051242
9	0xbd1e01d4	-0.038575962
10	0x3e5e1049	0.216859
11	0xbe907e5a	-0.282214
12	0x3e598970	0.21243834
13	0x3ea20edd	0.31651965
14	0xbe128de3	-0.14311938
15	0x3cd33182	0.025780443
16	0xbe7ab9de	-0.24484965
17	0x3dba04d8	0.09082955
18	0x3c01aa47	0.007914132
19	0x3e8cb4e3	0.27481756
20	0xbd3b85df	-0.045781966
21	0xbd5f4b3d	-0.054515112
22	0xbdd1823a	-0.10229917
23	0x3e3b2511	0.18275858
24	0x3e841954	0.25800574
25	0x3cd97ee2	0.02654976
26	0x3e94e40a	0.2908023
27	0xbe7152d9	-0.2356676
28	0xbe8990a4	-0.26868165
29	0xbe0eacd0	-0.1393311
30	0x3dbcef71	0.09225357
31	0x3ded8524	0.1159766
32	0xbe25620d	-0.16150685
33	0xbe26d9da	-0.16294041
34	0x3e83b487	0.2572367
35	0xbe46c6b3	-0.19411735
36	0xbe64e286	-0.22352037
37	0x3e6e976f	0.23299955
38	0x3e834872	0.2564121
39	0xbde30645	-0.1108518
40	0x3cdbba70	0.026822299
41	0x3d345e2e	0.04403513
42	0x3e22bc69	0.15892185
43	0xbdcd1975	-0.10014621
44	0x3e48de9a	0.19616166
45	0x3d581245	0.0527518
46	0xbc9fc61e	-0.01950365
47	0x3e675b8b	0.22593515
48	0xbd3b5ec8	-0.045744687
49	0x3dc91416	0.09818284
50	0x3cf6376e	0.030055728
51	0xbe3ad413	-0.18244962
52	0x3dc480a7	0.09594851
53	0xbdc74a9c	-0.097310275
54	0xbe3ddf92	-0.18542317
55	0xbe2a15ec	-0.16609925
56	0x3d7dfca3	0.06200851
57	0xbde3e0de	-0.111268744
58	0x3e2db174	0.16962224
59	0x3e9380f8	0.28809333
60	0xbde9e72a	-0.11421044
61	0x3ddb0dc5	0.10695986
62	0xbd8b69f4	-0.06807318
63	0xbe4cff39	-0.20019235
64	0x3e73efb9	0.23821916
65	0x3dfc712d	0.12326274
66	0xbcfa8263	-0.030579751
67	0x3e84ec0e	0.25961345
68	0x3e82aede	0.25524038
69	0x3e810fad	0.25207272
70	0x3e3ce577	0.18446909
71	0x3e99f0b2	0.30066448
72	0xbe37329f	-0.17890404
73	0xbcdf913b	-0.027290931
74	0x3da591be	0.08084439
75	0xbe3a6eb5	-0.18206294
76	0x3e84254e	0.2580971
77	0xbe95392b	-0.29145178
78	0xbde08d92	-0.109645024
79	0xbe5d31f0	-0.21601081
80	0xbe17aef9	-0.1481284
81	0x3e91039a	0.2832306
82	0xbbe97874	-0.007124955
83	0x3dea628d	0.11444578
84	0x3da24632	0.07923545
85	0x3e60b940	0.21945667
86	0x3db5d3ff	0.08878326
87	0x3e7deea9	0.24798073
88	0xbdc70d00	-0.097192764
89	0x3c35285e	0.011056988
90	0xbe2b0e86	-0.16704759
91	0xbe2ecd10	-0.17070413
92	0x395612c5	0.00020415623
93	0xbdcc56c4	-0.09977487
94	0x3d18125f	0.037126895
95	0x3e9e77fb	0.30950913
96	0xbe1b9174	-0.15192205
97	0x3e8f3557	0.27970383
98	0x3e07a820	0.13247728
99	0xbe2b94ca	-0.16755977
100	0xbe8b11e1	-0.27162078
101	0x3e2c58d6	0.16830763
102	0x3e3382c8	0.17530358
103	0xbe261373	-0.16218357
104	0x3e183373	0.14863376
105	0xbe54f60c	-0.20796984
106	0xbe73034e	-0.2373173
107	0xbd79fb17	-0.061030474
108	0x3e3de69e	0.18545005
109	0xbdd8e3e0	-0.10590339
110	0x3e42953f	0.19002245
111	0xbd37704a	-0.04478482
112	0x3dc9c825	0.09852628
113	0xbd9bd416	-0.076088116
114	0xbd59c5c8	-0.053167135
115	0xbda005e8	-0.078136265
116	0xbe2a792d	-0.16647787
117	0xbe1a6da2	-0.15080884
118	0xbe33b7ea	-0.17550626
119	0xbe14be97	-0.1452583
120	0xbbe9e5cd	-0.00713799
121	0xbc039554	-0.008031208
122	0x3de31753	0.11088433
123	0x3d1e3f80	0.038634777
124	0xbe3de4b2	-0.18544272
125	0xbd92fe97	-0.071774654
126	0x3e01f34b	0.12690465
127	0x3e7cf9a6	0.24704608
128	0xbdce27b6	-0.10066168
129	0xbe7e73af	-0.24848817
130	0xbda144d2	-0.078744546
131	0x3e206fdc	0.15667671
132	0x3da5d972	0.08098115
133	0x3d3ffbbb	0.04687093
134	0xbc6f3f3d	-0.0146024795
135	0xbda1b3e4	-0.078956395
136	0xbe81fed3	-0.25389728
137	0xbcb2d705	-0.021831045
138	0x3e2b21c4	0.167121
139	0x3e68d1f6	0.22736344
140	0x3df1bd4a	0.11803682
141	0x3c0f490c	0.008745443
142	0xbb47970f	-0.0030455028
143	0xbe7aa908	-0.24478543
144	0xbe3935bd	-0.18086906
145	0xbe758db3	-0.23979835
146	0x3e0fb4d1	0.1403382
147	0x3e56fe46	0.20995435
148	0x3dfcf1ee	0.12350832
149	0x3d0448e1	0.032296065
150	0x3cf52126	0.029923033
151	0xbe3e5b14	-0.18589431
152	0x3b9f0095	0.0048523643
153	0xbd806c3b	-0.06270643
154	0x3e376316	0.17908892
155	0x3a8b79d6	0.0010641168
156	0x3e8e1f0c	0.27758062
157	0x3da93ece	0.08263932
158	0x3e3873a4	0.18012863
159	0x3e09b778	0.13448894
160	0x3d7ad1c4	0.061235204
161	0x3e249d08	0.16075528
162	0x3dab56fb	0.083661996
163	0xbd0fb595	-0.03508528
164	0xbe0e467d	-0.13894077
165	0xbd841200	-0.06448746
166	0x3e5f173b	0.21786205
167	0x3d8bcfeb	0.068267666
168	0x3e87bd42	0.2651158
169	0x3e454894	0.19265968
170	0x3e7cc5b3	0.24684791
171	0x3e80e274	0.2517277
172	0xbdbf5e10	-0.09344113
173	0xbdff95c6	-0.12479739
174	0xbd99706a	-0.074921444
175	0xbdcee414	-0.10102096
176	0x3d021458	0.031757683
177	0x3e7925e4	0.2433086
178	0x3ea154c7	0.31509992
179	0xbdc110c6	-0.094270274
180	0xbe09c56d	-0.13454218
181	0x3e37c651	0.17946745
182	0xbe3e7f3c	-0.18603224
183	0x3e330296	0.17481455
184	0x3e9a6f68	0.3016312
185	0x3e74d6a8	0.2391001
186	0x3e5cb3ca	0.21552959
187	0xbd650e74	-0.055921987
188	0xbe329863	-0.17440943
189	0x3e2a847e	0.16652104
190	0x3e06990b	0.13144319
191	0xbe79106f	-0.24322675
192	0xbda762c8	-0.08173138
193	0x3e8c7ac2	0.27437407
194	0xbe89f75f	-0.26946542
195	0x3e11b38d	0.1422865
196	0xbe7b0f35	-0.2451752
197	0x3d66b623	0.056326043
198	0xbce9a51c	-0.028521113
199	0xbe7b682b	-0.24551456
200	0xbe34b1ee	-0.17646
201	0xbe1ca549	-0.15297426
202	0x3e632e0e	0.22185537
203	0x3e40dfc5	0.18835361
204	0xbe801a08	-0.2501986
205	0xbdcf3a77	-0.10118573
206	0xbe57691e	-0.21036193
207	0x3e1bccad	0.15214796
208	0x3ea26f6e	0.3172564
209	0xbd0b9aee	-0.0340833
210	0x3e6443a7	0.22291432
211	0xbe7fa720	-0.24966097
212	0xbe92e764	-0.28692162
213	0x3c7092df	0.014683454
214	0xbdf6e203	-0.12054827
215	0x3d8e2725	0.0694106
216	0xbdb38fed	-0.08767686
217	0x3e0009a6	0.1250368
218	0x3e2afe0c	0.16698474
219	0xbe69d09f	-0.22833489
220	0xbe745a6c	-0.23862618
221	0x3d9d16c7	0.0767036
222	0x3d606a99	0.05478916
223	0xbe85abc3	-0.26107606
224	0x3dfede7c	0.12444779
225	0xbdbaeb12	-0.09126867
226	0x3e032f67	0.12811051
227	0x3e2b192b	0.1670882
228	0x3dcb0ba6	0.09914331
229	0xbdda3b58	-0.1065585
230	0xbd8e6228	-0.069523156
231	0x3e8d00dc	0.27539718
232	0xbe85bdfa	-0.26121503
233	0xbd51f087	-0.051254775
234	0xbe3e09d8	-0.18558443
235	0x3e92ed6a	0.28696758
236	0x3e5afddf	0.21385907
237	0x3e93721b	0.28797993
238	0xbe183e5d	-0.1486754
239	0x3d3d3ca4	0.04620041
240	0xbe28a622	-0.16469625
241	0x3df13e16	0.1177942
242	0xbe159799	-0.14608611
243	0xbe5cf4b2	-0.21577719
244	0xbe129241	-0.14313604
245	0x3d9798a7	0.07402163
246	0x3cffa1ba	0.031205047
247	0x3e0e1dc0	0.13878536
248	0x3dbc2cc8	0.09188229
249	0x3de8b3fa	0.11362453
250	0xbe8691e0	-0.2628317
251	0xbe0da31f	-0.13831757
252	0xbe0a7b02	-0.13523486
253	0xbe497d8e	-0.19676802
254	0x3de84e06	0.11343007
255	0x3dd88b35	0.10573427

h3.bias f4 [8]
0	0xbd9d2614	-0.076732785
1	0xbd3e6f07	-0.046492603
2	0x3dd59e66	0.10430603
3	0xbc9d3739	-0.019191371
4	0x3c6d2567	0.014474249
5	0xbc54a437	-0.012978605
6	0xbc8ccab7	-0.017186506
7	0xbd88ffee	-0.0668944
