weights/weights_LF=8_sparse/w=0.10_2.pth (torch, 39820 bytes, 8 tensors)

input.weight f4 [64, 4]
0	0xbf1badbd	-0.6081198
1	0x3f992d30	1.1966915
2	0xbf008098	-0.5019622
3	0x3f2160d4	0.63038373
4	0x3ec52c9f	0.38510606
5	0xbf3b5f89	-0.7319265
6	0x3c27aa41	0.010233463
7	0xbf958d98	-1.1683836
8	0x3ec1b0a0	0.37830067
9	0xbf716e95	-0.9430936
10	0xbf2b8dc0	-0.6701317
11	0xbe2d3dcc	-0.16918105
12	0x3eea068f	0.4570813
13	0xbf94b07d	-1.161636
14	0xbf00fc3e	-0.5038489
15	0xbebaef01	-0.3651047
16	0x3f9043d7	1.1270703
17	0xbdcc4b18	-0.099752605
18	0x3da733ff	0.08164214
19	0xbf480288	-0.7812886
20	0x3f2609fe	0.64858997
21	0xbd7cc376	-0.061709844
22	0xbf51d4c1	-0.8196526
23	0x3f5c9245	0.8616069
24	0xbf724d02	-0.94648755
25	0x3e9908d8	0.2988956
26	0x3dcf16f7	0.10111802
27	0xbf61caa4	-0.8819983
28	0xbe8ffaed	-0.2812113
29	0x3f1de902	0.61683667
30	0x3f8a6780	1.0812836
31	0xbf1ee10d	-0.6206215
32	0xbf3ee659	-0.7457023
33	0xbeaba32d	-0.3352293
34	0xbf990c56	-1.195689
35	0xbd289098	-0.04115352
36	0x3ee6c947	0.45075437
37	0xbf8c247b	-1.0948633
38	0xbe9958c0	-0.29950523
39	0x3c429d9a	0.011878395
40	0x3f2396fc	0.6390226
41	0x3f5f6d2f	0.87275976
42	0xbd106b03	-0.035258304
43	0xbefd1eb4	-0.49437487
44	0xbeb1d2d1	-0.34731153
45	0x3f7d47c4	0.9893763
46	0x3f86a2f2	1.0518477
47	0xbf089ef5	-0.5336755
48	0xbd521b4f	-0.051295575
49	0xbe9f1f3c	-0.31078517
50	0x3f3f9358	0.74834204
51	0xbf4cf933	-0.8006775
52	0x3f8e6a79	1.1126243
53	0x3e567dda	0.20946446
54	0x3f6eba0a	0.93252623
55	0xbcdeadc6	-0.027182471
56	0xbef73b93	-0.4828764
57	0xbf2d78b1	-0.67762285
58	0xbe9d460d	-0.30717507
59	0x3f5dedd4	0.8669102
60	0xbf1f8d71	-0.623252
61	0xbf769cda	-0.96333086
62	0x3f741b5d	0.95354253
63	0x3d5f80f7	0.05456635
64	0xbd8c36cd	-0.0684639
65	0x3ebf3797	0.373471
66	0xbd63de2d	-0.055631805
67	0xbf494246	-0.7861675
68	0xbf605676	-0.8763193
69	0xbea6a010	-0.32543993
70	0xbf644f74	-0.89183736
71	0xbf3265ad	-0.69686395
72	0xbf9118e3	-1.133572
73	0xbed1bfc1	-0.4096661
74	0xbef867a2	-0.48516566
75	0xbf8df981	-1.1091768
76	0x3ed01199	0.40638426
77	0x3f27f969	0.65614945
78	0x3d340adb	0.043955665
79	0xbeab4190	-0.33448458
80	0xbecbcdb4	-0.39805377
81	0xbd6e805f	-0.058227893
82	0x3f9760e9	1.182645
83	0xbf9553e3	-1.1666225
84	0x3e853032	0.26013333
85	0x3f62c3db	0.885801
86	0xbf7f8dd9	-0.9982582
87	0xbf86ea50	-1.0540257
88	0x3eeeb69e	0.466237
89	0x3f65e0e5	0.89796287
90	0x3f1f8d75	0.6232522
91	0x3f7931f7	0.97341865
92	0x3f9266a8	1.1437578
93	0x3e3bdd8f	0.18346237
94	0x3f716161	0.94289213
95	0x3f5c929b	0.861612
96	0xbdd092ec	-0.10184273
97	0xbf128ccb	-0.57246083
98	0x3f40254a	0.750569
99	0xbed2ef9a	-0.41198426
100	0x3e772481	0.24135019
101	0x3dae71ce	0.085178
102	0xbf9db38a	-1.2320416
103	0xbf8b0313	-1.0860313
104	0x3f964e6e	1.1742685
105	0xbeb385b9	-0.3506296
106	0x3f8ccb7f	1.0999602
107	0xbf32c6ea	-0.6983477
108	0x3d888a55	0.0666701
109	0x3f1d01e4	0.6133101
110	0x3f80a360	1.0049858
111	0xbf88be8b	-1.0683149
112	0x3ede161d	0.43376246
113	0x3f82b2a8	1.0210772
114	0x3f4c083c	0.79700065
115	0x3f3ed3c5	0.74541885
116	0xbf927ac6	-1.1443717
117	0xbf401da4	-0.7504523
118	0xbf94db78	-1.1629477
119	0x3ef20f3a	0.47277242
120	0xbe287c0b	-0.16453569
121	0x3f6bcc48	0.92108583
122	0x3f828424	1.0196576
123	0xbeb6c620	-0.35698032
124	0x3f90c7f8	1.1311026
125	0x3f954f12	1.1664755
126	0xbe4b9d4a	-0.1988422
127	0xbf785a32	-0.9701263
128	0x3f72b1b2	0.9480239
129	0xbda1580e	-0.07878123
130	0xbda535cb	-0.08066901
131	0xbf3c06de	-0.7344798
132	0x3f7bfd71	0.98433596
133	0xbf8bfb31	-1.0936033
134	0xbf8fa266	-1.1221435
135	0x3f4f4a25	0.8097251
136	0xbdafc0c0	-0.08581686
137	0xbf35a1c6	-0.7094997
138	0x3f60ccb3	0.87812346
139	0x3f96eee6	1.1791656
140	0xbe6de251	-0.23230864
141	0xbf327d0e	-0.6972207
142	0xbbb870fa	-0.005628702
143	0xbf6f950a	-0.9358679
144	0xbf5c0ac7	-0.85953945
145	0xbeb24358	-0.34817004
146	0x3e2893af	0.16462587
147	0x3f16d07a	0.5891186
148	0xbf8deeb5	-1.1088473
149	0xbebb72f7	-0.3661115
150	0x3e3cc78e	0.18435499
151	0xbe519b57	-0.20469414
152	0x3c94203e	0.01808178
153	0xbf2b2a84	-0.6686175
154	0xbe965d08	-0.29367852
155	0xbf5b0128	-0.8554864
156	0xbee2cd10	-0.44297075
157	0xbee795f8	-0.45231605
158	0xbf85ad34	-1.0443482
159	0x3f599ea1	0.85007674
160	0xbf1380c0	-0.5761833
161	0xbf467b42	-0.77531826
162	0xbf3bd535	-0.73372203
163	0xbe33320b	-0.17499559
164	0x3f579814	0.8421643
165	0x3f8ca714	1.0988488
166	0x3f49a4d5	0.7876714
167	0xbf4854cb	-0.78254384
168	0xbf8efb2b	-1.11704
169	0x3f8fa0e2	1.1220973
170	0x3d587bf8	0.0528526
171	0x3f1d1d85	0.6137317
172	0x3f11c32a	0.5693842
173	0xbf2982df	-0.6621532
174	0xbf7f5d54	-0.9975178
175	0x3f46a1c3	0.7759058
176	0xbf3b58a3	-0.73182124
177	0x3f52c432	0.8233062
178	0xbf7cd6a7	-0.98765033
179	0x3f918490	1.136858
180	0x3e998c90	0.29990053
181	0xbedef4e6	-0.43546218
182	0x3f83b340	1.0289078
183	0xbec5702d	-0.38562146
184	0x3ec7f0d9	0.3905094
185	0x3f8baa74	1.0911393
186	0xbf702b8b	-0.9381644
187	0x3e66968c	0.22518367
188	0x3f96d77a	1.1784508
189	0x3f84906b	1.0356573
190	0x3ed44b2c	0.41463602
191	0xbea0b01e	-0.31384367
192	0x3e20e9c9	0.15714182
193	0xbe69acee	-0.22819874
194	0x3ed51080	0.4161415
195	0x3f560b4e	0.83611
196	0x3f169b59	0.5883079
197	0x3d4ae138	0.04953119
198	0x3f64a3ec	0.89312625
199	0x3f3a9415	0.72882205
200	0xbf431d79	-0.76216847
201	0x3e003ef3	0.12524013
202	0xbf9958fe	-1.1980283
203	0x3eab1ca4	0.3342029
204	0x3edd2ea8	0.43199658
205	0xbf9d1717	-1.2272671
206	0xbda9e7e3	-0.08296182
207	0x3f577bb1	0.84173113
208	0x3e6c544d	0.23079033
209	0xbf9f6945	-1.2454001
210	0x3f448e87	0.7677998
211	0xbed3445b	-0.4126309
212	0xbf69223f	-0.9106788
213	0x3f1d4e2c	0.61447406
214	0xbf81b2e0	-1.0132713
215	0x3f8a37c7	1.0798272
216	0x3f9fdbcd	1.2488953
217	0x3f89f0c2	1.0776598
218	0xbe027adc	-0.1274218
219	0xbe8c1176	-0.27357072
220	0xbf0fcded	-0.5617359
221	0xbf6ea410	-0.9321909
222	0xbedeb4f5	-0.43497434
223	0x3ebb5ce5	0.3659431
224	0xbef2d032	-0.47424465
225	0xbf814aa9	-1.010091
226	0xbef55a34	-0.47920382
227	0x3f5803ac	0.843806
228	0xbe77abfc	-0.241867
229	0xbf9829a5	-1.1887709
230	0x3dc1a82f	0.094559066
231	0xbf198d2a	-0.59981024
232	0x3c8cf80f	0.017208127
233	0x3f4ae806	0.7926029
234	0xbf8e5f1b	-1.1122774
235	0xbf8e5f9a	-1.1122925
236	0xbf71ec64	-0.9450133
237	0x3f8ccafb	1.0999445
238	0xbf468eb7	-0.77561516
239	0x3f393fb7	0.72362846
240	0xbed1a45f	-0.40945718
241	0x3f483976	0.7821268
242	0x3f4dcf54	0.8039448
243	0xbf213fd6	-0.6298803
244	0xbef00ac3	-0.4688321
245	0x3f9ea794	1.2394891
246	0x3f53694b	0.8258254
247	0x3fa21b2e	1.2664545
248	0x3f927214	1.1441064
249	0xbf919784	-1.1374364
250	0xbf95d068	-1.1704226
251	0xbd326803	-0.043556225
252	0x3da972ae	0.082738265
253	0xbf53a529	-0.8267389
254	0xbf9a98d1	-1.2077886
255	0x3e4be53f	0.19911669

input.bias f4 [64]
0	0x3d30f978	0.043206662
1	0x3d461414	0.04835899
2	0xbdf207a2	-0.11817862
3	0x3d9723fe	0.07379912
4	0x3d274f20	0.040846944
5	0xb896d219	-7.191691e-05
6	0xbd927bd7	-0.07152527
7	0xbda6fa3b	-0.081531964
8	0xbe0d6535	-0.13808139
9	0xbda36fed	-0.079803325
10	0xbd317650	-0.043325722
11	0x3da1c782	0.07899381
12	0x3db70d2c	0.08938059
13	0x3e0b8e99	0.13628615
14	0xbbc63f1a	-0.0060500028
15	0x3d18f581	0.037343506
16	0x3c441431	0.011967705
17	0xbc34c33a	-0.011032874
18	0xbd16342e	-0.036670856
19	0x3d3c2448	0.045933038
20	0xbd2e5581	-0.04256201
21	0xbce8c4c7	-0.028414143
22	0xbd53187c	-0.051537022
23	0xbdbfc290	-0.09363282
24	0xbca10f17	-0.019660516
25	0x3d869317	0.06571024
26	0x3dfb302b	0.12265047
27	0x3dcee237	0.10101741
28	0xbd10095e	-0.035165183
29	0xbd02a072	-0.031891294
30	0x3cb3be14	0.021941222
31	0xbcc56d38	-0.024099931
32	0xbdb1b38d	-0.08676825
33	0xbc9a36c8	-0.01882495
34	0x3da4622a	0.08026536
35	0xbcff89b1	-0.031193586
36	0x3dc98660	0.09840083
37	0x3b8a038a	0.0042118477
38	0xbe07710c	-0.13226718
39	0xbdb004d7	-0.08594673
40	0xbd183ba4	-0.037166253
41	0x3d0cf586	0.034413837
42	0xbdcf43a6	-0.10120325
43	0x3cec8ff0	0.028877228
44	0x3d10da1c	0.035364255
45	0x3d913b0b	0.0709134
46	0x3d6c8e9a	0.057753183
47	0xbdcf9023	-0.10134914
48	0xbc9cfaca	-0.019162554
49	0x3d3656ef	0.0445165
50	0xbda8b334	-0.08237305
51	0xbc81e6ec	-0.015857182
52	0xbbe30ac6	-0.0069287745
53	0xbcb95faf	-0.022628633
54	0x3b21c4ab	0.0024683874
55	0x3cc88b38	0.024480447
56	0xbc002dcb	-0.007823418
57	0xbdeed210	-0.1166116
58	0xbd21b468	-0.03947869
59	0xbba1e535	-0.0049406537
60	0x3d32f161	0.043687228
61	0x3db96e33	0.09054222
62	0xbdbc3bf0	-0.0919112
63	0xbe0b61ce	-0.13611528

h1.weight f4 [64, 64]
0	0xbd8e5014	-0.069488674
1	0x3d5aebb9	0.05344746
2	0xbea6df1b	-0.3259209
3	0xbe411c48	-0.18858445
4	0x3e82e657	0.2556636
5	0x3eaef198	0.34168696
6	0xbea33f83	-0.31884393
7	0x3ea6d926	0.32587546
8	0xbe20d34f	-0.15705608
9	0x3e80084a	0.25006324
10	0x3e0a327e	0.13495824
11	0xbe1ab23b	-0.15107052
12	0xbd28cdf8	-0.041212052
13	0x3e9d015e	0.30665106
14	0xbe5f62c4	-0.2181502
15	0xbe3e1494	-0.18562537
16	0x3d9fe524	0.07807377
17	0xbbbff636	-0.005858208
18	0x3e5e21aa	0.2169253
19	0x3d04cec3	0.032423746
20	0xbea229d7	-0.31672546
21	0xbe4dda65	-0.20102842
22	0x3e621ffb	0.22082512
23	0xbe234dd3	-0.15947656
24	0xbcbdb9ed	-0.023159945
25	0xbd834653	-0.06409898
26	0x3e679c62	0.22618249
27	0x3e84bbd4	0.2592455
28	0x3e531fca	0.20617595
29	0xbe00c0e4	-0.12573582
30	0x3ead8c20	0.3389597
31	0xbe302cc0	-0.17204571
32	0x3d983860	0.07432628
33	0xbea3ac67	-0.3196747
34	0xbe844c5c	-0.25839508
35	0x3e81f0af	0.2537894
36	0xbe88be99	-0.26707914
37	0x3e23d622	0.15999654
38	0xbe1e9973	-0.15488224
39	0x3e0fac64	0.14030606
40	0xbc039b0c	-0.0080325715
41	0xbe1d30ef	-0.15350698
42	0xbe44e269	-0.19226994
43	0xbdd762bb	-0.10516878
44	0x3ea81dc1	0.328352
45	0x3e3a2827	0.1817938
46	0x3eade215	0.3396155
47	0x3da3cea5	0.07998399
48	0xbdb5ce4f	-0.08877241
49	0x3e264d82	0.16240504
50	0xbd911bc9	-0.07085378
51	0xbe68bafb	-0.22727577
52	0x3d2256c0	0.039633512
53	0xbde113dc	-0.10990116
54	0xbdd06bc9	-0.101768084
55	0xbe396129	-0.1810347
56	0xbdbb2a0e	-0.09138881
57	0x3e1304a7	0.14357243
58	0x3db65f7d	0.08904932
59	0xbe92561b	-0.28581318
60	0xbc8422e5	-0.01612992
61	0x3e06658d	0.13124676
62	0xbd77d38a	-0.060504474
63	0xbe664c26	-0.22489986
64	0xbe658909	-0.22415556
65	0xbe665367	-0.22492753
66	0xbe50d66d	-0.20394297
67	0xbe82e3a9	-0.25564316
68	0x3e95ae5e	0.29234594
69	0xbcd158c3	-0.02555502
70	0x3e4f00bf	0.20215128
71	0xbdb101de	-0.08642934
72	0xbe26e5d3	-0.16298608
73	0x3e6086e5	0.21926458
74	0x3e91ac86	0.28451937
75	0x3e54491a	0.20731011
76	0x3e1f3efe	0.15551373
77	0xbe0fc24c	-0.14038962
78	0xbe6e38d3	-0.23263864
79	0xbe23996d	-0.15976496
80	0x3e851f29	0.26000336
81	0xbda2b3b8	-0.07944435
82	0x3d78175d	0.060569156
83	0xbbb5da3b	-0.0055496967
84	0x3e86978f	0.26287505
85	0xbcee155b	-0.029062917
86	0x3e00a850	0.12564206
87	0x3c8b2846	0.016986977
88	0x3cd5dc4e	0.026106026
89	0xbe48985b	-0.19589369
90	0x3e91a506	0.28446215
91	0x3e855912	0.26044518
92	0x3e4a0d19	0.19731559
93	0x3e5726f9	0.2101096
94	0x3c4988f9	0.012300723
95	0xbe68b56a	-0.22725454
96	0x3e41bf4b	0.18920629
97	0x3e9124e1	0.2834845
98	0x3e4f317f	0.20233725
99	0x3d11e9d5	0.03562339
100	0x3e02b2b4	0.12763482
101	0x3e8f0e39	0.2794054
102	0x3de29211	0.11063016
103	0x3b522216	0.0032063774
104	0xbe4440b7	-0.19165312
105	0xbded78fd	-0.11595342
106	0xbe47f86a	-0.19528356
107	0x3d57b225	0.052660126
108	0x3d6e610a	0.058198012
109	0x3e6c33cb	0.23066632
110	0x3e2b1ffe	0.16711423
111	0xbd08843e	-0.03332924
112	0xbd671af9	-0.056422208
113	0x3e229adb	0.15879385
114	0x3cfa8ada	0.030583788
115	0xbd9997ff	-0.07499694
116	0x3d66e4f4	0.05637069
117	0xbd5772d3	-0.05259974
118	0xbe1cce53	-0.15313081
119	0x3ce4ee92	0.02794579
120	0x3e1922d0	0.14954686
121	0xbd08ac20	-0.033367276
122	0x3d277781	0.040885452
123	0xbdfd010f	-0.123537175
124	0xbde36115	-0.11102501
125	0x3e66b79e	0.22530982
126	0xbe83e289	-0.2575877
127	0x3da551dc	0.08072254
128	0x3e4f76dd	0.20260186
129	0x3dd37349	0.10324723
130	0x3e829d85	0.25510803
131	0xbe2cd03c	-0.1687631
132	0xbe649824	-0.22323662
133	0x3d47f6b1	0.048819248
134	0xbe8508b7	-0.2598321
135	0xbe83bf04	-0.2573167
136	0x3de3e11e	0.11126922
137	0x3e745d22	0.23863652
138	0xbdb8a205	-0.09015278
139	0x3b25e79b	0.002531505
140	0x3d112117	0.035431948
141	0xbdeda73b	-0.11604162
142	0x3c98bb9c	0.018644147
143	0xbe957531	-0.29190972
144	0x3e29f17a	0.16596022
145	0x3e0f4cce	0.13994142
146	0xbe78726a	-0.24262396
147	0xbe79ff59	-0.24413814
148	0x3e4e142f	0.20124887
149	0xb9fcf2ed	-0.0004824618
150	0xbdc63e79	-0.096798845
151	0x3e913555	0.28361002
152	0x3c5dfb56	0.013548693
153	0xbdabaf3c	-0.08383033
154	0x3e0858ca	0.1331512
155	0x3e371e66	0.1788269
156	0x3c5d9861	0.0135250995
157	0xbda2100e	-0.079132184
158	0xbdf19dc6	-0.11797671
159	0x3dfc50aa	0.12320073
160	0x3e60d36a	0.21955648
161	0xbe86f36f	-0.263576
162	0x3e73a7ed	0.23794527
163	0xbe5c89e9	-0.21536984
164	0x3e2bfd33	0.16795807
165	0xbdb35a94	-0.08757511
166	0x3e0c937e	0.13728139
167	0x3d8918db	0.06694194
168	0xbe23d6e8	-0.15999949
169	0xbe6d9000	-0.23199463
170	0x3e80b068	0.25134587
171	0xbe97be68	-0.29637456
172	0xbda5d0ed	-0.0809649
173	0x3e9bef01	0.30455783
174	0x3e2307a8	0.1592089
175	0xbc01653a	-0.007897669
176	0x3e5c9ca5	0.2154413
177	0x3ca04679	0.019564854
178	0xbdab7bf5	-0.08373252
179	0xbb94acb7	-0.004537191
180	0x3e0519b1	0.12998082
181	0xbe8dbfef	-0.27685496
182	0x3dc4d9e5	0.096118726
183	0x3e6c5277	0.23078333
184	0xbda84e9a	-0.08218117
185	0xbe15367f	-0.1457157
186	0x3e141f0d	0.1446497
187	0x3d7d0b80	0.061778545
188	0xbdfa2fe8	-0.12216169
189	0xbe098a52	-0.13431671
190	0x3e81d8bf	0.25360677
191	0xbe890c4e	-0.267672
192	0xbe82934d	-0.25503007
193	0x3da499a6	0.080371186
194	0x3e83e9cd	0.25764313
195	0xbe53238c	-0.20619029
196	0x3e16b138	0.14716041
197	0x3d67cbe2	0.056590922
198	0x3e4a142a	0.19734254
199	0x3e950d78	0.29111838
200	0xbe42c78a	-0.1902143
201	0x3c5ab59f	0.013348966
202	0x3e90044f	0.28128287
203	0x3e887422	0.26651102
204	0x3e53cd0f	0.20683692
205	0x3e796e9e	0.24358603
206	0x3e79b6b5	0.24386103
207	0x3c8a0edb	0.016852787
208	0x3e2f290c	0.17105502
209	0xbe59e79e	-0.21279761
210	0x3d37dd1c	0.0448886
211	0xbda84a23	-0.082172655
212	0x3e177551	0.14790846
213	0xbe8c0298	-0.2734573
214	0xbe8011b4	-0.25013506
215	0xbe010a56	-0.12601599
216	0xbe92a8ba	-0.28644353
217	0x3d030771	0.03198952
218	0xbe3f8ed9	-0.18706836
219	0xbdacbb0c	-0.08434114
220	0x3ba257d6	0.0049543185
221	0xbe47b4f9	-0.1950263
222	0x3e155997	0.14584957
223	0x3e831327	0.2560055
224	0xbdfa449e	-0.12220119
225	0x3d8c82ae	0.06860863
226	0xbdbcdbe9	-0.09221632
227	0xbe62edf9	-0.22161092
228	0xbe88e6d3	-0.26738605
229	0xbda11a13	-0.078663014
230	0x3e8c0515	0.27347627
231	0x3dbcf0c5	0.09225611
232	0xbe704ce5	-0.23466833
233	0x3e81c67c	0.25346744
234	0xbe891a5b	-0.2677792
235	0xbe56d702	-0.20980456
236	0xbe7395b5	-0.23787577
237	0x3dfbddf7	0.12298196
238	0x3e25f5d7	0.16207062
239	0x3df62c63	0.12020185
240	0x3e66ae3f	0.22527407
241	0x3c948806	0.018131267
242	0xbd42c533	-0.047551345
243	0x3e13646b	0.14393775
244	0xbe2fba5d	-0.17160936
245	0xbda1feca	-0.07909925
246	0xbe1d5ad9	-0.15366687
247	0xbc79e2ae	-0.015251799
248	0xbdf5080f	-0.11964428
249	0x3dbdc141	0.09265376
250	0x3befdd71	0.007320099
251	0xbe62f088	-0.22162068
252	0x3cf8ec69	0.030386167
253	0x3e2b2908	0.16714871
254	0xbe8ecba6	-0.27889746
255	0xbe4f5a3b	-0.20249264

h1.bias f4 [64]
0	0x3d357fe0	0.044311404
1	0x3dd9b80e	0.10630809
2	0x3c877f03	0.016540056
3	0x3d793a5d	0.060846675
4	0xba6d3ad7	-0.00090496003
5	0x3d570269	0.052492533
6	0x3d8806ed	0.06641946
7	0x3d84ecd1	0.06490482
8	0x3cbd7fca	0.023132224
9	0x3c981613	0.018565213
10	0xbc830557	-0.015993757
11	0xbcc7f2b1	-0.024407716
12	0x3a771ea1	0.00094268663
13	0xbb74a60b	-0.0037330415
14	0x3d41b454	0.047291115
15	0xbc82d142	-0.015968923
16	0x3d5bc7c4	0.05365731
17	0x3d8e1250	0.069370866
18	0xbd8deca3	-0.069299005
19	0xbcf28dbf	-0.029608605
20	0x3dd42fd7	0.10360687
21	0xbd8d7d97	-0.0690872
22	0xbdbe4bf7	-0.09291833
23	0x3cbab26d	0.022790158
24	0xbddbc5a4	-0.10731056
25	0x3d22aca1	0.039715413
26	0xbca96755	-0.020679155
27	0x3dd8f548	0.10593659
28	0xbd2cf496	-0.042225443
29	0x3dd28f31	0.10281218
30	0xbd5bc022	-0.05365003
31	0x3d8ec563	0.06971242
32	0x3dbd6761	0.092482336
33	0x3dea2e20	0.11434579
34	0x3da9dc92	0.082940236
35	0xbd025a78	-0.03182456
36	0x3c154aba	0.0091120545
37	0x3a91b2cd	0.0011115909
38	0x3d1f2ab0	0.03885907
39	0x3d8a3e15	0.067501225
40	0x3d9100b6	0.07080214
41	0x3d949a9e	0.072560534
42	0x3c1edfbc	0.009696897
43	0x3c1cdbda	0.009573901
44	0xbd153b87	-0.036433723
45	0xbd0bd98f	-0.034143027
46	0xbcd61ba4	-0.026136227
47	0x3d8cfb55	0.06883875
48	0x3dd67ae3	0.104726575
49	0xbd1a6a2f	-0.03769892
50	0x3ddd5c2b	0.10808595
51	0xbd78bdc6	-0.060727857
52	0x3aaf1ae1	0.0013359451
53	0xbdd8db30	-0.10588682
54	0x3c803805	0.015651712
55	0x3d834292	0.06409182
56	0xbd859d86	-0.06524186
57	0x3ceb654d	0.028734827
58	0xbd4bf46d	-0.04979365
59	0xbd100cda	-0.035168506
60	0xbd5e5fa0	-0.054290414
61	0x3dff93b5	0.12479345
62	0xbda1ebb6	-0.079062864
63	0xbd89e9b2	-0.06734027

h2.weight f4 [64, 64]
0	0x3e5ba705	0.21450432
1	0x3eadf1fb	0.3397368
2	0x3ea42f6c	0.3206743
3	0xbdf19c23	-0.11797359
4	0x3e7b42c3	0.24537186
5	0x3d54cbae	0.051952057
6	0xbd60d86a	-0.05489389
7	0x3dd59aa8	0.10429889
8	0xbe7d6d66	-0.24748763
9	0x3e87d951	0.26532987
10	0x3ea2621b	0.31715474
11	0x3e657c28	0.22410643
12	0x3e690bae	0.22758362
13	0xbe6be183	-0.23035245
14	0x3da7eca1	0.0819943
15	0x3cf9d507	0.030497087
16	0xbe76a608	-0.24086773
17	0x3e6ef89e	0.23337027
18	0xbe5ed12a	-0.21759477
19	0xbe62aa60	-0.22135305
20	0x3e367cf6	0.17821106
21	0x3e2b6808	0.16738904
22	0xbe778504	-0.24171835
23	0x3b8ddea8	0.004329521
24	0x3e4a885f	0.19778584
25	0xbcd1e2f4	-0.025620915
26	0xbe42790e	-0.18991491
27	0x3ea9b59e	0.33146375
28	0xbd7baa5d	-0.061441768
29	0x3d943e79	0.07238478
30	0xbdf6c5a1	-0.120494135
31	0x3e9bf04d	0.30456772
32	0xbd0632b6	-0.032763205
33	0x3e645f4c	0.22301978
34	0xbdaa22ef	-0.08307444
35	0x3e408066	0.1879898
36	0x3d715330	0.058917224
37	0x3e225404	0.15852362
38	0x3e077b3a	0.13230601
39	0xbe0b9fb1	-0.13635136
40	0xbe17d1e0	-0.14826155
41	0x3e8e4c51	0.277926
42	0x3dbca3db	0.092109405
43	0xbb22bae8	-0.0024830643
44	0x3e58f222	0.21186116
45	0xbc946a78	-0.018117175
46	0xbe842fbb	-0.25817665
47	0x3ea04481	0.31302264
48	0x3b944bc2	0.0045256326
49	0xbde04b2b	-0.10951837
50	0x3e9725a4	0.29520905
51	0x3df68a76	0.12038128
52	0xbe8197fc	-0.25311267
53	0xba9c4b6f	-0.0011924336
54	0xbd727fb3	-0.059203815
55	0x3e9a85ee	0.30180305
56	0xbe9413f1	-0.28921464
57	0xbe0fc7ae	-0.14041016
58	0x3c89b001	0.016807558
59	0x3e95bedc	0.29247177
60	0xbe812b5a	-0.25228387
61	0x3e938983	0.2881585
62	0x3e5f7a71	0.21824051
63	0xbe11ad1f	-0.14226197
64	0xbcd617b1	-0.026134344
65	0xbda34282	-0.0797167
66	0xbdc3714c	-0.09543094
67	0x3da06cfb	0.078332864
68	0x3e522664	0.20522457
69	0x3e92695a	0.28596002
70	0x3d9d6065	0.076844014
71	0xbe5e729d	-0.21723409
72	0x3decd280	0.11563587
73	0xbbc6359d	-0.0060488717
74	0x3eaff0b1	0.3436332
75	0x3db326cd	0.08747635
76	0xbe3ea702	-0.18618396
77	0xbd4e93c0	-0.050433874
78	0xbdbd9765	-0.09257392
79	0xbdd3732d	-0.103247024
80	0x3e0ec785	0.13943298
81	0x3d9f8962	0.077898756
82	0x3cece774	0.02891896
83	0xbd99e31f	-0.07514023
84	0xbe0c9a91	-0.13730837
85	0xbe808a42	-0.25105482
86	0x3e12b860	0.14328146
87	0x3e5ede0f	0.21764396
88	0x3dc2f096	0.095185444
89	0x3e4d6dbf	0.20061396
90	0xbe416cfe	-0.18889233
91	0xbe52413a	-0.20532694
92	0xbde2f317	-0.11081522
93	0x3cd3374e	0.025783207
94	0xbe86f041	-0.26355174
95	0xbe35db57	-0.17759453
96	0x3e6f96a8	0.23397315
97	0x3e93c183	0.28858575
98	0xbd427d71	-0.04748291
99	0xbdeab68e	-0.11460601
100	0xbe5e39fe	-0.2170181
101	0x3e51be12	0.20482662
102	0xbe5cdf9a	-0.21569672
103	0xbb90a368	-0.004414011
104	0x3e931185	0.28724304
105	0xbc81bda3	-0.015837496
106	0xbe82fcc9	-0.25583485
107	0x3d1df9e1	0.03856838
108	0x3d8b88bd	0.0681319
109	0x3e9784ee	0.29593605
110	0xbe01d140	-0.12677479
111	0x3e9a4b88	0.3013575
112	0x3de3b183	0.11117842
113	0x3e1f7222	0.15570882
114	0x3a880671	0.0010377896
115	0x3e856459	0.26053122
116	0xbe6b2341	-0.22962667
117	0x3e551323	0.20808081
118	0x3daba787	0.08381563
119	0xbe43fe4a	-0.19139972
120	0xbd31309d	-0.043259252
121	0xbc8f460c	-0.017489456
122	0x3e4fdca6	0.20299014
123	0x3e19a22c	0.1500327
124	0xbcada36d	-0.021196092
125	0x3e00a4c0	0.12562847
126	0x3d5f8cfb	0.05457781
127	0x3ded0716	0.11573617
128	0x3e5c29e4	0.21500355
129	0x3d890eb2	0.06692256
130	0xbe08d141	-0.13361074
131	0x3c669178	0.014072768
132	0x3e17f465	0.14839323
133	0xbe033a72	-0.12815264
134	0xbe51c668	-0.20485842
135	0xbd7a2f08	-0.06108001
136	0xbb5a3f35	-0.0033301834
137	0xbc3225e7	-0.010873294
138	0xbd6a8260	-0.05725324
139	0xbe876b2e	-0.2644896
140	0x3e13b7be	0.14425561
141	0x3e2bc0b2	0.16772726
142	0x3e3309ec	0.17484254
143	0x3e1dbf56	0.1540502
144	0x3df10adc	0.117696494
145	0xbe931d43	-0.28733262
146	0xbe90827b	-0.2822455
147	0x3e8bbf24	0.27294266
148	0xbe71390a	-0.23556915
149	0xbe6287d3	-0.22122125
150	0x3e867276	0.26259202
151	0x3c4e4a5c	0.012590971
152	0xbe8b2708	-0.27178216
153	0x3cdbb107	0.026817812
154	0x3e21aff8	0.15789783
155	0xbe121a00	-0.1426773
156	0xbda916d3	-0.082563065
157	0xbe325a96	-0.17417368
158	0x3d7d7c6e	0.061886244
159	0x3e8be279	0.27321222
160	0xbe424d6c	-0.18974847
161	0xbcd99496	-0.02656011
162	0xbe343fc4	-0.1760245
163	0xbe2df6ae	-0.16988632
164	0xbe09eb72	-0.13468722
165	0x3ddc3338	0.10751957
166	0xbb665c60	-0.0035150275
167	0xbd9d81aa	-0.07690747
168	0x3deee267	0.116642766
169	0xbc2b2d75	-0.0104478495
170	0x3e514e1a	0.2043995
171	0xbe8e6117	-0.2780845
172	0xbe6c12fd	-0.23054118
173	0x3e1c2bd8	0.152511
174	0xbe88a73a	-0.26690084
175	0x3e70ef15	0.23528703
176	0x3e090f93	0.13384847
177	0x3e169d82	0.14708522
178	0x3e7039a8	0.23459494
179	0xbda6604d	-0.08123837
180	0xbe015154	-0.1262868
181	0xbe9c10e2	-0.3048163
182	0x3d9e0c6b	0.07717212
183	0xbe1cbcc7	-0.15306388
184	0x3ca1ab97	0.01973514
185	0xbe9ac293	-0.30226573
186	0xbc8af231	-0.016961189
187	0xbe8dea9c	-0.27718055
188	0xbe431c3a	-0.19053736
189	0xbdf19144	-0.11795285
190	0xbe6a4382	-0.22877315
191	0x3e743d13	0.23851423
192	0x3e7eb4eb	0.24873702
193	0xbe9717e2	-0.2951041
194	0x3e8ec96e	0.27888054
195	0xbb22cfe7	-0.0024843158
196	0x3c615729	0.013753691
197	0x3e1ea62f	0.15493082
198	0xbe46d4c2	-0.19417098
199	0x3d994343	0.07483532
200	0xbe3b25d0	-0.18276143
201	0x3e6ae92a	0.22940508
202	0xbe255905	-0.1614724
203	0xbe6313f7	-0.22175585
204	0x3df55ec8	0.11980969
205	0xbe69e0d5	-0.22839673
206	0x3cbf163a	0.023326028
207	0x3dba61b9	0.0910067
208	0x3e851c3f	0.25998113
209	0xbe2c3e49	-0.16820635
210	0x3d3c9592	0.04604108
211	0xbe1be570	-0.15224242
212	0xbe7d15c8	-0.2471534
213	0xbd7a70da	-0.06114278
214	0xbe8ffce7	-0.28122637
215	0xbe062c54	-0.13102847
216	0xbd3b9920	-0.04580033
217	0xbd84ded0	-0.064878106
218	0x3dfabfae	0.12243591
219	0xbdf7b3e9	-0.12094862
220	0xbe07feca	-0.13280788
221	0xbe4d90e0	-0.20074797
222	0xbdfdc80d	-0.12391672
223	0x3e354d3f	0.17705248
224	0xbdd04dd4	-0.101710945
225	0x3df2f421	0.1186297
226	0xbe8a555f	-0.27018258
227	0xbe9799bb	-0.29609475
228	0xbcc8e313	-0.02452234
229	0x3e8174e1	0.25284484
230	0x3d0cd93e	0.034386866
231	0xbdebc86d	-0.115128376
232	0x3da589aa	0.08082898
233	0xbd2f572c	-0.042807743
234	0xbde49a06	-0.1116219
235	0x3e5dc67f	0.21657752
236	0xbdeae959	-0.11470289
237	0x3e90cbc5	0.28280464
238	0x3bf08221	0.0073397313
239	0x3e2c0954	0.16800433
240	0x3e840d6f	0.257915
241	0x3e8a9cc1	0.2707272
242	0x3e8d3e38	0.27586532
243	0x3ce78334	0.028260805
244	0x3e4e12cb	0.20124356
245	0x3e57af35	0.2106293
246	0x3e31f161	0.17377235
247	0xbe8303c5	-0.25588813
248	0xbd83bb65	-0.06432227
249	0xbe643b85	-0.2228833
250	0xbdc08707	-0.094007544
251	0xbe44d42a	-0.19221559
252	0x3dad1162	0.08450581
253	0xbe71eb73	-0.23624973
254	0xbdf17fd0	-0.117919564
255	0x3e815980	0.25263596

h2.bias f4 [64]
0	0x3dc14c3f	0.09438371
1	0xbc8c9594	-0.017161168
2	0xbdcd7ea3	-0.1003392
3	0xbd47ccb3	-0.0487792
4	0x3da147c2	0.07875015
5	0x3cc22b23	0.02370221
6	0xbd3e498c	-0.04645686
7	0x3d60d787	0.054893043
8	0xbcea8735	-0.028628925
9	0x3d15aef9	0.03654382
10	0xbb8d1252	-0.0043051625
11	0x3b67cdfc	0.003537058
12	0xbd8910bb	-0.06692644
13	0x3d8a9102	0.06765939
14	0x3da4e0f3	0.08050718
15	0x3c4a6b5d	0.012354699
16	0x3b606c75	0.0034244333
17	0x3db8b404	0.0901871
18	0x3d4ac5aa	0.049504913
19	0x3ba468e7	0.005017388
20	0xbcbd8305	-0.023133764
21	0x3d19cd8c	0.03754954
22	0x3d308da3	0.043103825
23	0x3df16366	0.11786537
24	0x3d940000	0.072265625
25	0xbd4a944d	-0.049457837
26	0x3da1d266	0.079014584
27	0xbd429560	-0.047505736
28	0x3d7c5548	0.061604768
29	0x3b37cc3e	0.0028045322
30	0xbd87de67	-0.06634217
31	0xbde3adfc	-0.11117169
32	0x3dc4540c	0.09586343
33	0x3db08987	0.08619981
34	0xbc18d670	-0.00932847
35	0x3dc10aa1	0.094258554
36	0x3dc8d731	0.098066695
37	0xbd99b282	-0.07504751
38	0x3ba63f14	0.0050734375
39	0x3d38a9d4	0.045083836
40	0x3d959617	0.07304018
41	0x3e0b83b6	0.13624462
42	0xbd8a9895	-0.06767384
43	0x3da33941	0.07969905
44	0xbb4cd443	-0.0031254448
45	0x3dd8fa5f	0.105946295
46	0x3b082d33	0.0020778894
47	0xbd28f8c5	-0.04125287
48	0xbd2574a8	-0.040394455
49	0xbd54dc2a	-0.051967777
50	0xbb23f830	-0.0025019757
51	0x3d4c51c3	0.04988266
52	0xbce33737	-0.02773629
53	0x3d51c4b1	0.05121297
54	0x3d4eb8a7	0.050469067
55	0x3d4875fd	0.048940647
56	0xbda1a432	-0.07892646
57	0x3bb71574	0.005587274
58	0xbb9046e9	-0.0044029844
59	0xbd5fce70	-0.054640234
60	0xbdb49fa9	-0.08819515
61	0xbd353aef	-0.044245657
62	0xbd19ded6	-0.03756603
63	0x3d8c1ce1	0.06841446

h3.weight f4 [8, 64]
0	0x3d4d6545	0.050145406
1	0xbdfd2b81	-0.12361813
2	0x3e3fa1ce	0.18714067
3	0xbb579fdf	-0.0032901687
4	0x3e290dac	0.16509122
5	0xbd568a73	-0.05237813
6	0x3e1b6350	0.15174603
7	0xbdfff379	-0.124976106
8	0x3dd3fce4	0.103509694
9	0x3b031a7b	0.0020004797
10	0x3e7f6ab5	0.24943049
11	0x3a1a9e86	0.00058982556
12	0x3e6b6fc0	0.22991848
13	0xbda62d7b	-0.081141435
14	0x3e0bba3e	0.13645265
15	0xbd86c668	-0.06580812
16	0xbe3367b2	-0.17520025
17	0xbe6131b0	-0.2199161
18	0xbe460bac	-0.1934039
19	0x3db73a73	0.08946695
20	0x3db2e598	0.08735198
21	0x3dc6cdcd	0.09707222
22	0xbd4f19e2	-0.050561793
23	0xbe6767ea	-0.22598234
24	0xbe58f1b6	-0.21185955
25	0x3d1972ed	0.037463117
26	0xbe315d86	-0.17320833
27	0xbd8c8776	-0.068617746
28	0x3e4a9607	0.19783793
29	0xbe80fe9a	-0.25194246
30	0xbdc6bbdc	-0.097038
31	0xbe2c947e	-0.1685352
32	0x3e7cb10d	0.24676915
33	0x3e05c4f5	0.13063414
34	0x3e97d99f	0.2965822
35	0x3d69f881	0.057121757
36	0xbe6bf4f7	-0.23042665
37	0x3dbb4136	0.091432974
38	0x3e81e672	0.25371128
39	0xbe7e31c3	-0.2482367
40	0xbe3cb6e4	-0.18429142
41	0xbe9e7aab	-0.30952963
42	0x3e53d64c	0.20687217
43	0x3d9f043b	0.07764479
44	0x3e39fbcf	0.18162464
45	0xbe88e6ef	-0.26738688
46	0x3b88a48d	0.0041700066
47	0xbe7fc39f	-0.24976967
48	0xbd7caee5	-0.06169023
49	0x3e71b974	0.23605901
50	0xbcb2a74e	-0.021808293
51	0xbe9394e6	-0.28824538
52	0xbe31f356	-0.17377982
53	0x3e513402	0.20429996
54	0xbbd6b01f	-0.006551757
55	0x3e286c5f	0.1644759
56	0x3e678b5a	0.22611752
57	0xbdc7c2a0	-0.09753919
58	0xbdc66dae	-0.096888885
59	0x3dab57b7	0.0836634
60	0x3d1ad50b	0.03780083
61	0xbe8c12a4	-0.27357972
62	0x3e2c12de	0.16804072
63	0x3d566a72	0.052347608
64	0xbd4ed76d	-0.050498415
65	0x3d7a7b49	0.06115273
66	0xbd981b25	-0.074270524
67	0x3e92abcb	0.28646693
68	0xbe9885e7	-0.2978966
69	0xbe958b80	-0.29207993
70	0x3e06930d	0.13142033
71	0xbdf1b3da	-0.11801882
72	0x3dd95916	0.10612695
73	0xbe4ae4b6	-0.19813809
74	0x3e57ee08	0.21086895
75	0x3e66dc6d	0.22545023
76	0xbe15de72	-0.14635637
77	0x3e8887f5	0.26666227
78	0xbe12e6f2	-0.14345911
79	0xbe8fae20	-0.28062534
80	0x3d3d297f	0.046182152
81	0x3d5fb6f2	0.05461783
82	0x3e8cd70e	0.27507824
83	0x3e0fbc77	0.14036737
84	0xbcc2eebe	-0.023795482
85	0xbe0bf161	-0.13666297
86	0xbe8dc4b6	-0.2768914
87	0x3e3f89bd	0.18704887
88	0xbe2c54db	-0.16829245
89	0x3e13f0ff	0.14447401
90	0xbde9bbc3	-0.11412766
91	0x3d68b04f	0.056808766
92	0xbe01715f	-0.12640904
93	0xbdb4ab15	-0.08821694
94	0x3db787df	0.08961462
95	0xbe145b1a	-0.14487877
96	0x3d9d245d	0.07672951
97	0xbe585d79	-0.21129407
98	0xbd23115b	-0.039811473
99	0x3e8d3ddd	0.2758626
100	0x3e1ab8fe	0.15109631
101	0xbdc76865	-0.097367086
102	0xbdd0a9f8	-0.10188669
103	0x3baf4456	0.0053487225
104	0x3e71f6f2	0.23629358
105	0xbd154e00	-0.03645134
106	0x3e2f65a4	0.17128617
107	0xbe8b81d2	-0.27247483
108	0x3e2da8b8	0.16958892
109	0x3e92f42e	0.2870192
110	0x3e056419	0.13026465
111	0x3ddd4e2d	0.108059265
112	0xbe52f688	-0.20601857
113	0xbe7f3b3c	-0.2492494
114	0x3e7bdf3f	0.2459688
115	0xbd370372	-0.04468102
116	0x3e836666	0.2566406
117	0xbe973e07	-0.2953951
118	0xbdb72a64	-0.08943632
119	0x3d0b04ca	0.033940114
120	0x3e8c2514	0.27372038
121	0xbc8ed0ec	-0.017433606
122	0xbe84b439	-0.2591875
123	0x3e8f6c83	0.28012475
124	0xbcce80f4	-0.025207974
125	0xbe0e851a	-0.13917962
126	0xbe9ee65e	-0.3103513
127	0xbd94f892	-0.072739735
128	0xbe9bb277	-0.30409595
129	0x3de4f50c	0.111795515
130	0x3e9a2665	0.30107418
131	0xbe1989bf	-0.14993952
132	0xbe6fb213	-0.23407774
133	0x3df1368d	0.11777983
134	0xbe97350c	-0.2953266
135	0x3e3adf70	0.18249297
136	0x3e645dbe	0.22301385
137	0xbd8fc44d	-0.07019863
138	0xbdf63881	-0.12022496
139	0x3de877fa	0.11351009
140	0x3e726b49	0.23673739
141	0xbd9250e2	-0.071443334
142	0xbdd7651b	-0.10517331
143	0x3e3d954a	0.1851398
144	0xbe3a3921	-0.18185855
145	0xbe7ed610	-0.24886346
146	0x3e67215c	0.2257132
147	0xbe1cb68c	-0.15304011
148	0x3e43b412	0.1911166
149	0x3d15c8b0	0.036568344
150	0xbbf0b268	-0.0073454864
151	0xbe9bb6c1	-0.30412868
152	0xbda3b679	-0.07993788
153	0xbd6157d8	-0.055015415
154	0x3e7c70ad	0.24652357
155	0x3e4e9814	0.201752
156	0x3e887fa8	0.26659894
157	0x3df76e9d	0.12081645
158	0xbe0a27f7	-0.13491808
159	0xb994f94a	-0.00028414495
160	0xbe6424b3	-0.22279625
161	0x3e0fd043	0.1404429
162	0xbe5510ac	-0.20807141
163	0xbe1b863c	-0.15187925
164	0xbe755bc6	-0.2396079
165	0xbdb3558f	-0.087565534
166	0x3c85166a	0.01624604
167	0x3d8398cd	0.06425629
168	0xbd143f18	-0.036192983
169	0x3e5f3b1c	0.21799892
170	0xbdc5eb4e	-0.096640214
171	0x3e120797	0.14260708
172	0xbe5a6725	-0.21328409
173	0x3e82ac1e	0.2552194
174	0xbe704cee	-0.23466846
175	0xbdf8dd82	-0.12151624
176	0x3e906ea5	0.28209415
177	0x3e9939b6	0.29926842
178	0xbe4d50c9	-0.20050348
179	0x3e5cc016	0.2155765
180	0x3e857291	0.2606397
181	0x3e76c871	0.240999
182	0x3e37c584	0.1794644
183	0xbe4e0a63	-0.2012115
184	0x3dd8b85a	0.10582037
185	0x3e9534dc	0.2914189
186	0x3e65e7f1	0.2245176
187	0xbe29671a	-0.16543236
188	0x3e8df468	0.2772553
189	0x3e5386bd	0.20656867
190	0xbe8e583b	-0.2780169
191	0xbe9b6244	-0.30348408
192	0x3c605205	0.01369143
193	0x3e0b0c46	0.135789
194	0xbe4ee5ca	-0.20204845
195	0xbdcd50ce	-0.10025178
196	0x3e084bff	0.1331024
197	0xbda18546	-0.07886748
198	0xbe6c2a23	-0.23062949
199	0x3ea15561	0.3151045
200	0xbe5213c4	-0.20515352
201	0xbde09943	-0.10966732
202	0xbe4ef236	-0.20209584
203	0x3d320a84	0.04346706
204	0x3e3343f2	0.17506388
205	0xbc3bdd70	-0.011466369
206	0x3e73db8a	0.23814216
207	0x3eb666c9	0.35625294
208	0x3e3fd3cf	0.18733142
209	0xbdbd0c5a	-0.092308715
210	0x3e39b0af	0.18133806
211	0x3e97897d	0.29597083
212	0x3ea12b57	0.31478378
213	0xbe8fecfb	-0.2811049
214	0x3ea31619	0.31852797
215	0x3ebb1e77	0.3654668
216	0xbe39955d	-0.18123384
217	0x3e91e156	0.2849223
218	0xbe810257	-0.25197098
219	0x3e1a09fa	0.15042868
220	0xbdde371e	-0.108503565
221	0xbdf6f8eb	-0.12059196
222	0xbe891ead	-0.26781216
223	0xbdb948e2	-0.090471044
224	0xbe124b40	-0.14286518
225	0xbd0f8761	-0.035041217
226	0x3e6ed4bd	0.2332334
227	0x3e551c11	0.20811488
228	0x3e707fc7	0.23486243
229	0x3dcd93ef	0.10037982
230	0x3e2ad50c	0.16682833
231	0xbe1397db	-0.14413397
232	0x3e82b3b1	0.2552772
233	0x3e1d4e8d	0.15361996
234	0x3b9cb3bf	0.0047821696
235	0x3ceb0f7d	0.028693909
236	0x3d877f81	0.06616116
237	0xbdc838a4	-0.09776428
238	0xbd4ec1ea	-0.0504779
239	0xbb324fcd	-0.002720821
240	0xbe786880	-0.24258614
241	0xbe389e90	-0.18029237
242	0xbe216412	-0.1576083
243	0xbe3b3835	-0.1828316
244	0xbd9c9959	-0.07646436
245	0x3e0ce985	0.13760956
246	0xbe1334d1	-0.14375617
247	0xbe10813d	-0.141118
248	0xbe4508b0	-0.19241595
249	0xbe8ebe66	-0.27879637
250	0x3e21d4ed	0.15803881
251	0xbe8a0f3d	-0.2696475
252	0xbe00a3ab	-0.12562434
253	0xbe789715	-0.24276383
254	0x3ea05a64	0.31318963
255	0x3e680e68	0.22661746

h3.bias f4 [8]
0	0x3b6f5196	0.0036517135
1	0xbdad9b06	-0.08476834
2	0xbdcc4d11	-0.09975637
3	0xbc75ec5f	-0.015009969
4	0xbd646c7c	-0.05576752
5	0xbd836441	-0.06415606
6	0x3c11c245	0.008896415
7	0xbc2cbe8c	-0.010543477
