weights/weights_LF=8_sparse/w=0.99_4.pth (torch, 39820 bytes, 8 tensors)

input.weight f4 [64, 4]
0	0x3f41cc89	0.7570272
1	0xbf9923b8	-1.1964025
2	0xbdfcc07c	-0.12341401
3	0x3e76827b	0.24073212
4	0x3f7c0131	0.9843932
5	0x3f51e92d	0.81996423
6	0xbe9562cd	-0.29176942
7	0x3f585ac1	0.8451348
8	0xbd3107ca	-0.04322032
9	0xbedc4b33	-0.43026122
10	0x3f29c2bc	0.66312766
11	0xbec2ad8a	-0.38023025
12	0xbea1376a	-0.3148759
13	0xbf834a88	-1.025712
14	0x3ee622ca	0.44948417
15	0x3f7c2f40	0.985096
16	0x3f72509b	0.94654244
17	0x3eb0cf22	0.3453303
18	0x3c907fc6	0.017639052
19	0xbf1cb9f1	-0.61221224
20	0xbe515d32	-0.20445707
21	0x3f415990	0.75527287
22	0x3f9bc389	1.2169048
23	0xbf523aae	-0.8212079
24	0xbf915429	-1.1353809
25	0x3edaf8a8	0.42767835
26	0x3d8cced3	0.06875386
27	0xbd526990	-0.051370203
28	0xbf0edd5e	-0.5580653
29	0x3f0ca2b0	0.5493574
30	0xbee4a61c	-0.4465798
31	0x3f1c406b	0.61035794
32	0xbf74a768	-0.9556794
33	0x3f7c79dd	0.9862345
34	0x3f2750b5	0.65357524
35	0x3f566adb	0.837568
36	0x3ebf08a1	0.3731127
37	0x3ec8cdce	0.39219517
38	0x3f525718	0.82164145
39	0x3dc93117	0.09823816
40	0x3f8cc9e5	1.0999113
41	0x3f69b66a	0.91293967
42	0xbf31e303	-0.6948702
43	0xbf600c88	-0.8751912
44	0xbf8815d4	-1.0631661
45	0x3ea758c1	0.326849
46	0xbf8f9975	-1.1218706
47	0x3f48a22a	0.7837244
48	0xbee82ac0	-0.45345116
49	0xbe845c33	-0.25851592
50	0x3f5227b9	0.8209186
51	0x3f7b6297	0.9819731
52	0xbe48b250	-0.19599271
53	0x3f933de9	1.1503268
54	0x3e8a1af7	0.26973698
55	0xbd13778b	-0.036002677
56	0xbf3de4d0	-0.74177265
57	0xbf6f1c4c	-0.9340255
58	0x3b5bda9e	0.0033547054
59	0xbf8c54e6	-1.0963409
60	0x3f879e6e	1.0595224
61	0xbf8f56cd	-1.1198364
62	0x3ed949e9	0.424392
63	0xbf78c49a	-0.9717499
64	0x3f803f8d	1.0019394
65	0x3f2e8a68	0.6817994
66	0x3ec9aab8	0.3938806
67	0xbf99028a	-1.19539
68	0x3b35383b	0.0027651924
69	0xbee1682c	-0.4402479
70	0xbf55626c	-0.83353305
71	0xbf2320d1	-0.6372195
72	0xbf47dc25	-0.7807029
73	0xbe1c2542	-0.15248588
74	0x3f97c15a	1.1855881
75	0xbef1e384	-0.47243893
76	0xbf03294e	-0.512349
77	0x3f21494c	0.6300247
78	0xbef3d9f6	-0.47627228
79	0x3e99e99e	0.30061048
80	0xbdbf3d00	-0.09337807
81	0x3d678e65	0.056532282
82	0xbf11133b	-0.5666997
83	0xbe9e6e47	-0.3094351
84	0xbf434c5f	-0.7628841
85	0xbf1ee2b8	-0.62064695
86	0x3e7e8d68	0.2485863
87	0xbecda81f	-0.4016733
88	0x3e6afd6c	0.22948235
89	0x3f879642	1.059273
90	0x3f7e4c17	0.99334854
91	0xbed364bb	-0.4128779
92	0xbf4e9dba	-0.8070942
93	0x3d645f20	0.05575478
94	0x3d8202ae	0.06348167
95	0x3f13df9d	0.5776308
96	0xbf256205	-0.6460269
97	0x3f564578	0.8369975
98	0x3d4cceaf	0.050001796
99	0x3ea25a38	0.31709456
100	0xbf41021e	-0.75393856
101	0xbf2d0fca	-0.6760222
102	0x3f83559d	1.0260502
103	0x3f4f44b2	0.80964196
104	0xbea00154	-0.31251013
105	0xbf8b81e7	-1.0899018
106	0x3f8542f8	1.0411062
107	0xbed5742e	-0.416902
108	0xbee77d4a	-0.45212775
109	0xbf792875	-0.9732736
110	0x3de23a29	0.110462494
111	0x3f3290e0	0.6975231
112	0xbe5aed2a	-0.21379533
113	0x3f58bd52	0.8466388
114	0xbf395cab	-0.72407025
115	0xbf90d97e	-1.1316373
116	0xbdec53cc	-0.115394205
117	0x3e21c733	0.15798645
118	0x3f3c34be	0.7351798
119	0xbf807dac	-1.0038352
120	0xbcb41f95	-0.021987716
121	0xbf03cf86	-0.5148853
122	0x3ee8f431	0.45498803
123	0xbf5b8b6f	-0.85759634
124	0x3f22008f	0.632821
125	0xbeea2e21	-0.4573832
126	0xbf3a050c	-0.7266395
127	0x3f0b0e47	0.5431866
128	0x3ed43d9e	0.4145326
129	0x3f94d39b	1.1627077
130	0x3e15e4d0	0.14638066
131	0xbf183924	-0.5946219
132	0x3f8fd514	1.1236901
133	0x3e34561d	0.17610975
134	0x3e6718d9	0.22568072
135	0x3f681d1b	0.9066941
136	0x3f0eaa5d	0.55728704
137	0xbf9d4056	-1.2285259
138	0xbf5650a7	-0.83716816
139	0x3f6616a3	0.8987829
140	0xbeceb3c5	-0.40371528
141	0xbf7c98b2	-0.98670495
142	0x3eb28d1d	0.34873286
143	0xbf85b939	-1.044715
144	0xbe07f77a	-0.13277999
145	0x3f4f260e	0.8091744
146	0xbf6e158c	-0.9300163
147	0x3f5d23a5	0.86382514
148	0xbd47f693	-0.048819136
149	0x3e9385eb	0.2881311
150	0xbf965e82	-1.1747591
151	0xbd04892e	-0.032357387
152	0x3f1a3956	0.6024374
153	0xbf212bc4	-0.62957406
154	0x3ed6dc84	0.41965115
155	0x3ee13b87	0.43990728
156	0x3f128611	0.5723582
157	0xbf1d3fb0	-0.61425304
158	0x3f0de194	0.5542233
159	0xbf8d7f96	-1.1054561
160	0xbf2e39ba	-0.68056834
161	0x3ef8e089	0.48608807
162	0x3f599ffb	0.85009736
163	0xbf1e1b3f	-0.61760324
164	0x3dd58c12	0.10427107
165	0x3f25c2b9	0.6475025
166	0x3f4c3095	0.7976163
167	0x3f8cb544	1.0992818
168	0x3ec71870	0.38885832
169	0x3f138380	0.5762253
170	0xbee7a94e	-0.45246357
171	0x3e65048a	0.22365013
172	0x3f662ad6	0.8990911
173	0x3ecc0192	0.39844948
174	0x3e2f2fa1	0.17108013
175	0x3e68f6ce	0.22750399
176	0x3f25cfdc	0.64770293
177	0xbf9091ae	-1.1294458
178	0xbf930914	-1.1487145
179	0x3d18dcf0	0.037320077
180	0xbdf811dc	-0.121127814
181	0x3f1375bb	0.5760152
182	0x3f4bb26e	0.7956914
183	0x3f6a5d51	0.9154864
184	0x3f5fbce5	0.87397605
185	0xbf733b9a	-0.9501282
186	0xbf42a39a	-0.76030886
187	0xbecba84a	-0.39776832
188	0xbf353f4a	-0.70799696
189	0xbf7161da	-0.94289935
190	0xbf979640	-1.1842728
191	0x3e54261f	0.20717667
192	0x3f732255	0.9497426
193	0xbe03f321	-0.12885715
194	0x3f764932	0.9620544
195	0x3f90e34f	1.1319369
196	0x3e62caba	0.22147647
197	0xbe4106a7	-0.18850194
198	0xbf0ee138	-0.55812407
199	0xbf1ecc10	-0.62030125
200	0xbf7fafe2	-0.9987775
201	0xbf94de3b	-1.1630319
202	0xbf0b0940	-0.5431099
203	0x3e0ff98d	0.1406004
204	0xbf08fad6	-0.53507745
205	0x3f275e82	0.6537858
206	0xbf1c4c05	-0.61053497
207	0xbf37b4ee	-0.7176045
208	0x3f1d383f	0.6141395
209	0xbf915adb	-1.1355852
210	0xbf045357	-0.51689667
211	0x3e320e37	0.17388235
212	0xbf63366e	-0.8875493
213	0x3f98c597	1.19353
214	0x3f4d8ea9	0.8029581
215	0x3e17cb33	0.14823608
216	0x3f4d3cee	0.80171096
217	0xbe0265c4	-0.12734133
218	0xbea568c3	-0.3230649
219	0x3ed3b173	0.4134632
220	0x3f2c7b96	0.6737608
221	0xbdf80e6c	-0.12112126
222	0x3f8c3661	1.0954095
223	0x3f656a96	0.8961576
224	0x3f11cc1d	0.5695208
225	0x3f4303a2	0.7617742
226	0xbe6313b9	-0.22175492
227	0xbf329320	-0.69755745
228	0x3dbba9dd	0.09163258
229	0xbf905120	-1.1274757
230	0xbdc2fa37	-0.09520381
231	0xbee5e14d	-0.44898453
232	0x3f8938fa	1.0720513
233	0xbe4f9d2a	-0.20274797
234	0xbf0e9d2c	-0.55708575
235	0x3f7baf3a	0.9831425
236	0x3f99ff75	1.2031084
237	0xbf0c60cc	-0.548352
238	0x3e2eefcc	0.17083663
239	0x3eae1c00	0.34005737
240	0xbf72814b	-0.94728535
241	0x3f7761d9	0.9663368
242	0x3ed2825e	0.41115087
243	0xbe809ebd	-0.25121108
244	0x3f81ec34	1.0150208
245	0xbe77af40	-0.24187946
246	0x3f913ece	1.1347291
247	0xbf5dfbde	-0.86712444
248	0x3f4760d4	0.77882123
249	0xbe8c8fb5	-0.2745339
250	0xbed09a76	-0.40742844
251	0x3f0d557d	0.5520857
252	0xbec88ee4	-0.39171517
253	0x3e45ee78	0.1932925
254	0x3cf0c640	0.029391408
255	0xbe7f9c3b	-0.24961941

input.bias f4 [64]
0	0xbdcb9754	-0.09940973
1	0x3d4f7985	0.050653
2	0x3d063b9f	0.032771703
3	0x3d057cbc	0.03258966
4	0xbc250569	-0.010072091
5	0x3bdc2bff	0.006719112
6	0x3dba1a49	0.09087045
7	0xbde73f3e	-0.11291359
8	0xbad3bfad	-0.0016155146
9	0x3cad4319	0.021150159
10	0x3d7e32a8	0.06206003
11	0xbd973d47	-0.073847346
12	0x3d5a699d	0.053323377
13	0x3d537f4f	0.051635083
14	0x3d8d0640	0.06885958
15	0xbd80310a	-0.062593535
16	0xbdd5feea	-0.104490116
17	0xbd1c3593	-0.03813703
18	0x3dbba405	0.091621436
19	0x3cae0b29	0.021245556
20	0xbd4def2b	-0.050276916
21	0x3d05a536	0.03262826
22	0xbaa80a27	-0.0012820408
23	0x3bac183c	0.0052519124
24	0x3db48cf1	0.08815945
25	0xbdc9abd6	-0.09847228
26	0x3c641126	0.013920104
27	0xbdb776ad	-0.089581825
28	0x3c501efc	0.0127027
29	0x3da9d081	0.08291722
30	0xbd27729c	-0.040880784
31	0xbd3f056b	-0.046636026
32	0xbd4a5674	-0.049398854
33	0xbb7bd81d	-0.0038428374
34	0xbd209d17	-0.039212313
35	0xbca9309c	-0.020653062
36	0xbd8545ce	-0.06507455
37	0xbd68faa6	-0.056879662
38	0x3c4c329a	0.012463236
39	0xbd86dfb5	-0.065856375
40	0xbd784a42	-0.060617693
41	0x3ce9a5cd	0.028521443
42	0x3d8f9885	0.07011513
43	0x3bea30b9	0.0071469215
44	0xbda5d86f	-0.08097922
45	0x3ddaa153	0.106753014
46	0x3d71e43d	0.059055556
47	0xbd687c8c	-0.056759402
48	0xbc77ad45	-0.015116994
49	0xbd1c5aed	-0.03817265
50	0xbdb06487	-0.08612924
51	0xbcf30148	-0.029663697
52	0xbd8bc3c6	-0.0682445
53	0xbd300367	-0.042971995
54	0x3d1ada26	0.0378057
55	0x3cf931b2	0.030419204
56	0x3d3ff66c	0.046865866
57	0xbd9bb1ad	-0.07602248
58	0xb9148f94	-0.00014167867
59	0x3c3f34f5	0.011670341
60	0xbc10b607	-0.008832461
61	0x3bd58702	0.0065163383
62	0xbdae8702	-0.085218444
63	0xbd7aba37	-0.061212745

h1.weight f4 [64, 64]
0	0xbd984f42	-0.07436992
1	0xbda42f62	-0.0801685
2	0x3e883bd4	0.26608145
3	0x3df17237	0.11789363
4	0x3e65c226	0.22437343
5	0x3d0a20d8	0.03372273
6	0x3e1baa34	0.15201646
7	0x3dd64f9b	0.10464402
8	0x3d882f40	0.06649637
9	0x3e224740	0.15847492
10	0x3e91ee68	0.28502202
11	0xbe15b7a5	-0.14620836
12	0xbe8bf8f3	-0.2733837
13	0xbe48c911	-0.19607951
14	0x3cde847f	0.027162788
15	0x3db13c74	0.08654109
16	0x3cafc6ec	0.021457158
17	0xbe32035d	-0.17384095
18	0x3ddb0cf9	0.10695834
19	0x3d96bb40	0.07359934
20	0x3e97ae90	0.29625368
21	0x3e6cd2ee	0.23127338
22	0x3e637724	0.22213417
23	0x3c49b75f	0.0123117855
24	0x3e6e20a8	0.23254645
25	0xbddaeca5	-0.106896676
26	0x3dcd8cad	0.100365974
27	0xbe8df5af	-0.27726504
28	0x3e882d9a	0.2659729
29	0x3d075566	0.033040427
30	0xbe8c88c7	-0.27448103
31	0xbe50eb59	-0.20402278
32	0xbdad25e2	-0.08454491
33	0xbdba1a27	-0.090870194
34	0x3c677e10	0.014129177
35	0x3e8b207e	0.27173227
36	0xbd107761	-0.0352701
37	0xbd875f37	-0.06609958
38	0x3e5c0d11	0.2148936
39	0x3e923c8c	0.2856182
40	0xbe794dfb	-0.24346153
41	0xbe883668	-0.2660401
42	0xbdc8324b	-0.097752176
43	0xbe428c38	-0.18998802
44	0xbe50ccb0	-0.20390582
45	0xbdf66605	-0.120311774
46	0xbb5f2ba5	-0.0034053114
47	0x3e2a6527	0.16640149
48	0x3e2d8c61	0.16948082
49	0xbe454dd9	-0.19267978
50	0xbc94dc85	-0.018171558
51	0xbe5d8abf	-0.21634959
52	0xbe0fae1c	-0.14031261
53	0xbd2ccce5	-0.04218759
54	0xbe8bbe96	-0.27293843
55	0x3b5453a9	0.0032398498
56	0xbe349058	-0.17633188
57	0x3e2158dc	0.15756553
58	0x3db15b4d	0.08659992
59	0xbe7f7dff	-0.24950407
60	0x3e75afc6	0.23992833
61	0x3d590d4a	0.05299119
62	0xbe592b50	-0.21207929
63	0x3e288fdc	0.16461128
64	0xbce4833c	-0.027894609
65	0xbe1f858a	-0.15578285
66	0xbe835468	-0.25650334
67	0xbe93dad8	-0.28877902
68	0xbe06fb55	-0.13181813
69	0x3e06b99f	0.13156746
70	0xbd06bd40	-0.032895327
71	0x3d92c039	0.0716557
72	0xbe34c648	-0.17653763
73	0xbdba7630	-0.09104574
74	0xbd815c3c	-0.063164204
75	0x3e491aff	0.19639204
76	0xbe8df2b7	-0.2772424
77	0xbda469a0	-0.08027959
78	0x3dbcedf6	0.09225075
79	0x3e934178	0.28760886
80	0xbd32f21e	-0.043687932
81	0xbe8fd5ee	-0.28092903
82	0xbe35ec8f	-0.17766021
83	0xbe93d441	-0.28872874
84	0xbe80e9d0	-0.25178385
85	0x3e7eabbb	0.24870197
86	0xbe95d106	-0.29261035
87	0xbe261d17	-0.16222034
88	0x3c7aa913	0.0152990995
89	0x3e952061	0.29126266
90	0x3e943631	0.28947595
91	0xbde5be82	-0.11217977
92	0xbe7ae1d6	-0.24500212
93	0xbd3d4f6c	-0.04621832
94	0x3e5bfa0e	0.21482107
95	0xbde168c8	-0.110063136
96	0xbe03c9b2	-0.1286991
97	0x3db533f1	0.08847798
98	0xbd75ff14	-0.060057715
99	0x3d045b5b	0.032313686
100	0x3d6763a9	0.056491528
101	0x3e481891	0.19540621
102	0x3e1f5923	0.15561347
103	0xbda6ba0e	-0.08140956
104	0xbe05d715	-0.13070329
105	0x3d53e686	0.051733516
106	0x3c685df9	0.014182561
107	0xbe1814b9	-0.14851655
108	0xbe605f63	-0.21911387
109	0x3ca7cbb0	0.020482868
110	0x3d960482	0.073250785
111	0xbe46a9ea	-0.19400755
112	0x3ca86e8d	0.020560527
113	0xbe13c330	-0.14429927
114	0x3e058928	0.13040602
115	0xbe3bc3ba	-0.18336383
116	0xbe682083	-0.22668652
117	0x3e8f48dd	0.27985278
118	0xbd06b660	-0.03288877
119	0xbe57ae8c	-0.21062678
120	0xbd3d0c14	-0.046154097
121	0x3e793d15	0.24339707
122	0xbe8c7ff1	-0.27441362
123	0xbe60cab8	-0.21952331
124	0xbcb61d4b	-0.022230765
125	0xbe871c80	-0.2638893
126	0x3d8fa7e6	0.07014446
127	0x3db390a1	0.0876782
128	0xbbadff5b	-0.0053099818
129	0x3df87e88	0.12133509
130	0xbe58541b	-0.21125834
131	0xbe4e9813	-0.20175199
132	0xbe4c6ad8	-0.19962633
133	0x3e85f906	0.26166552
134	0x3e863653	0.2621332
135	0x3e28db46	0.16489896
136	0x3e3728dd	0.17886682
137	0x3baf3b00	0.0053476095
138	0x3e130845	0.14358623
139	0x3df44150	0.1192652
140	0xbca25e8a	-0.01982047
141	0xbe75bc55	-0.23997624
142	0xbe74e895	-0.23916848
143	0xbdff55a0	-0.124675035
144	0x3db00df5	0.08596412
145	0x3e05b7bb	0.13058369
146	0xbcb94306	-0.022614967
147	0x3e60ed18	0.21965444
148	0xbdadf22d	-0.08493457
149	0x3e69ec96	0.22844157
150	0xbe838a41	-0.25691417
151	0x3e315923	0.17319159
152	0x3e256721	0.16152622
153	0x3d5e6a77	0.05430075
154	0xbd9a338d	-0.07529364
155	0xbd9264e6	-0.07148151
156	0xbcaded79	-0.0212314
157	0x3cd6c2db	0.026215961
158	0xbe119a4a	-0.14219013
159	0x3cc95d66	0.024580669
160	0xbe8e62a2	-0.27809626
161	0x3dd8bf6d	0.105833866
162	0xbe28e20e	-0.16492483
163	0x3e7329a4	0.23746353
164	0x3d325d9b	0.0435463
165	0xbdaad52b	-0.0834144
166	0x3b8efe2e	0.0043637967
167	0xbe2e4478	-0.17018306
168	0x3dd91146	0.10598998
169	0xbe5a288f	-0.21304534
170	0x3e29b683	0.16573529
171	0xbd69b6f3	-0.05705924
172	0xbd1ff968	-0.03905621
173	0x3d74b91f	0.059746858
174	0x3e83dd13	0.25754604
175	0x3e29a789	0.16567816
176	0xbe790478	-0.24318111
177	0x3e6e0cb9	0.23247041
178	0x3e8a5aa5	0.2702228
179	0x3e21141c	0.15730327
180	0xbe9d869a	-0.30766755
181	0xbe0c5f4d	-0.1370823
182	0x3e9c6e6d	0.30552998
183	0xbe840a5b	-0.2578915
184	0x3dc8443c	0.0977864
185	0xbdb63946	-0.08897643
186	0x3e848ed5	0.25890222
187	0x3dba3396	0.090918705
188	0xbdc4c020	-0.096069574
189	0x3aad3f8d	0.0013217792
190	0x3e94d8ac	0.29071558
191	0xbcaa0552	-0.02075449
192	0x3e26bf42	0.16283897
193	0x3c3dbae5	0.011580204
194	0x3e677ad1	0.22605444
195	0x3e5ba72e	0.21450493
196	0x3d863b21	0.06554247
197	0x3d8bfeb6	0.06835692
198	0xbc77b3eb	-0.015118579
199	0xbdae37bf	-0.085067265
200	0x3e88b417	0.26699898
201	0xbdca0669	-0.09864504
202	0x3e6c51c2	0.23078063
203	0x3d85ed78	0.06539434
204	0x3e4b9641	0.19881536
205	0xbe68c0b6	-0.22729763
206	0x3d1e3954	0.03862889
207	0x3dc30ba3	0.09523704
208	0x3e39e5e0	0.18154097
209	0x3e03f560	0.12886572
210	0xbe572f6b	-0.21014182
211	0x3dcba110	0.099428296
212	0x3e839b51	0.25704435
213	0xbd1d4f45	-0.038405675
214	0xbda07995	-0.0783569
215	0xbe7a98bb	-0.24472325
216	0xbe965ad7	-0.2936618
217	0x3e03a4ff	0.1285591
218	0x3e5e9f8a	0.21740547
219	0x3ce98ae0	0.028508604
220	0xbc9efdbc	-0.0194081
221	0x3da45eec	0.080259174
222	0xbe3d56af	-0.18490098
223	0xbe1e8d0b	-0.15483491
224	0xbd46c5f0	-0.04852861
225	0x3d40a482	0.047031887
226	0x3db087e8	0.08619672
227	0x3cb939cd	0.02261057
228	0x3ddbec15	0.107383884
229	0xbd54f7cf	-0.05199414
230	0x3de05c34	0.10955086
231	0xbe529fa7	-0.20568715
232	0x3e9b608a	0.3034709
233	0x3e9804eb	0.29691252
234	0xbe0be7d5	-0.13662656
235	0x3d9c0e15	0.076198734
236	0x3ac6b49f	0.001516003
237	0x3e25cb98	0.16190946
238	0xbe93c56c	-0.28861558
239	0x3d55c4f0	0.052189767
240	0x3e59906c	0.21246499
241	0x3d1595cf	0.03651982
242	0x3e37046a	0.17872778
243	0x3e6e601a	0.23278847
244	0x3e7eee4c	0.2489559
245	0xbd9eff47	-0.07763534
246	0x3e46f25d	0.19428392
247	0x3de1ad36	0.110193655
248	0xbdf9c331	-0.12195433
249	0xbddcab83	-0.10774901
250	0x3d9250cf	0.07144319
251	0xbe944713	-0.28960475
252	0xbdaef1f8	-0.085422456
253	0xbe4e66e6	-0.2015644
254	0xbe35d099	-0.17755355
255	0x3e85495b	0.26032528

h1.bias f4 [64]
0	0x3d83dde4	0.06438807
1	0xbddba1af	-0.10724198
2	0x3d860fcd	0.065459825
3	0xbd96a7e0	-0.07356238
4	0xbce408a7	-0.027836157
5	0x3d812dec	0.06307587
6	0xbc89a761	-0.016803445
7	0x3ba020dc	0.0048867296
8	0xbd24b6b0	-0.040213287
9	0x3d815d28	0.06316596
10	0xbd0586de	-0.032599322
11	0x3dc2c929	0.095110245
12	0x3ce72f74	0.02822087
13	0x3d719ff2	0.058990426
14	0xbd648bc7	-0.055797365
15	0x3dab5ccb	0.08367308
16	0xbd77652d	-0.060399223
17	0xbd0dbb4c	-0.03460245
18	0xbd7a77a0	-0.06114924
19	0xbd57328c	-0.05253844
20	0x3db58827	0.088638596
21	0xbc58c617	-0.013230822
22	0xbda62ac6	-0.08113627
23	0x3dacc9db	0.084369384
24	0xbaeb1076	-0.0017933983
25	0x3ddb8847	0.10719352
26	0xbc033b1f	-0.008009701
27	0x3dc516fc	0.096235245
28	0x3d9cd406	0.07657628
29	0x3c8636c1	0.01638353
30	0x3dd20c5e	0.10256265
31	0xbcb2249a	-0.021745969
32	0xbd6ec130	-0.058289707
33	0xbda9d9bc	-0.08293483
34	0x3c806baf	0.015676348
35	0xbdbc369f	-0.09190106
36	0xbd992c87	-0.07479196
37	0xbcd931cf	-0.026513008
38	0xbc4430e7	-0.01197455
39	0x3d88f5d1	0.06687511
40	0xbc8b929e	-0.017037686
41	0xbd7662d9	-0.060152862
42	0x3c92f5ae	0.017939415
43	0xbd62de74	-0.05538793
44	0x3cd696bd	0.026194924
45	0x3d6a522a	0.057207264
46	0xb9a76c5e	-0.00031933462
47	0xbcf1935a	-0.029489208
48	0xba2c8cb4	-0.00065822457
49	0x3c2521fa	0.010078901
50	0x3d07a2bb	0.033114176
51	0xbd166215	-0.036714632
52	0xbd3fe8cc	-0.04685287
53	0xbd831eaa	-0.06402333
54	0xbdb2eea1	-0.08736921
55	0xbd80e24a	-0.06293161
56	0xbdb396a8	-0.0876897
57	0xbcf25ab5	-0.029584268
58	0x3cb61a0d	0.022229219
59	0x3cd16e7b	0.025565377
60	0xbb1b4667	-0.0023693086
61	0x3dd536c5	0.10410837
62	0x3d50d141	0.05098081
63	0x3c6a1fa1	0.0142897675

h2.weight f4 [64, 64]
0	0x3e3b25d4	0.18276149
1	0x3b846992	0.0040409053
2	0x3df377e6	0.11888103
3	0x3d0a19e8	0.033716112
4	0xbc4cf7bf	-0.012510239
5	0x3dd2a303	0.10284998
6	0xbe1e8348	-0.15479767
7	0x3d3e5051	0.046463314
8	0xbd12ccc3	-0.035839807
9	0xbb08037f	-0.0020754037
10	0x3d4517bd	0.04811834
11	0x3e36db6d	0.17857142
12	0xbe996945	-0.29963127
13	0xbd876551	-0.066111214
14	0xbe6f8d6b	-0.2339379
15	0xbe1e0e28	-0.15435088
16	0x3e905c3c	0.2819537
17	0xbdb60529	-0.08887703
18	0x3dec4796	0.115370914
19	0x3dfb60c0	0.12274313
20	0xbe8d7ada	-0.2763279
21	0x3e9a3fac	0.30126703
22	0x3e755c4c	0.2396099
23	0x3e75902b	0.23980777
24	0xbd9cc7ed	-0.0765532
25	0xbe8c8639	-0.27446154
26	0xbd567d9a	-0.052365877
27	0xbe93f5a2	-0.2889834
28	0x3e5cfb7e	0.21580312
29	0x3e663da7	0.22484456
30	0xbe85dfbf	-0.26147267
31	0xbe97c720	-0.29644108
32	0x3e331df4	0.17491895
33	0x3d8aef65	0.06783942
34	0xbe85174e	-0.25994343
35	0xbe94856d	-0.29008046
36	0x3d79a13d	0.060944784
37	0x3e983697	0.2972915
38	0x3e02de61	0.12780143
39	0xbd6fadce	-0.058515362
40	0x3c894202	0.016755108
41	0xbde2dbd6	-0.11077087
42	0x3e20e213	0.1571124
43	0x3dc8b781	0.098006256
44	0xbcaae966	-0.020863246
45	0x3d251bf0	0.040309846
46	0x3e9749d1	0.29548505
47	0xbe94712f	-0.28992602
48	0xbe892704	-0.2678758
49	0x3de430d0	0.11142123
50	0x3e62fe91	0.22167422
51	0xbdf348f0	-0.11879146
52	0xbe89a4dc	-0.2688359
53	0x3dca4e23	0.09878185
54	0x3d26bb2a	0.040705837
55	0xbe6c8616	-0.23098025
56	0xbe814942	-0.25251204
57	0x3c81b1d7	0.015831871
58	0xbe295678	-0.16536891
59	0x3e1441b7	0.14478193
60	0xbd8f50c9	-0.069978304
61	0x3de2a852	0.11067261
62	0xbd162d16	-0.03666409
63	0xbe99e12a	-0.300546
64	0xbe667a5a	-0.22507611
65	0xbe810d59	-0.25205496
66	0x3e8118c6	0.25214213
67	0x3e3a04c0	0.18165874
68	0x3cd56b2a	0.026052076
69	0x3e92dea8	0.28685498
70	0x3cdb6d81	0.026785614
71	0x3e44cd11	0.19218852
72	0x3d922293	0.07135501
73	0xbe7e9c60	-0.2486434
74	0x3e716f3b	0.23577587
75	0x3c3445fb	0.011003013
76	0x3e57a6f7	0.21059786
77	0xbd7dda94	-0.06197603
78	0x3d9aea62	0.07564236
79	0x3e8af2a9	0.2713826
80	0xbe093850	-0.13400388
81	0x3dc01785	0.09379486
82	0xbe5d9bfe	-0.21641538
83	0x3e721035	0.23638995
84	0x3be9de67	0.007137108
85	0x3e01c1b7	0.12671553
86	0x3c456afe	0.012049435
87	0x3e2e7d98	0.17040098
88	0xbe961d83	-0.2931939
89	0xbda2238f	-0.079169385
90	0x3e742a9d	0.2384438
91	0x3d8d7f59	0.06909055
92	0x3e609d40	0.21934986
93	0x3e616e8e	0.2201483
94	0xbe2ee7fc	-0.17080683
95	0xbe5e64a4	-0.21718079
96	0xbe001e23	-0.12511496
97	0xbd6765e9	-0.056493673
98	0xbc9a3a65	-0.018826673
99	0xbe37a4cf	-0.17933963
100	0xbe122395	-0.14271386
101	0x3e923712	0.2855764
102	0xbe69a003	-0.22814946
103	0x3cf5cf30	0.030006021
104	0xbdfa737a	-0.12229057
105	0x3cafbd2b	0.021452507
106	0x3e9b1ab3	0.30293807
107	0xbdd76521	-0.10517336
108	0xbd623522	-0.055226453
109	0x3d921d32	0.07134475
110	0xbe529857	-0.20565926
111	0x3e818882	0.2529946
112	0x3da71ab9	0.08159394
113	0xbd7ae353	-0.06125195
114	0x3e266c33	0.16252212
115	0x3e69428c	0.22779292
116	0x3cab9094	0.020942964
117	0xbce3792a	-0.027767736
118	0x3dbb1335	0.09134523
119	0xbe4c95a2	-0.19978955
120	0x3d9eea51	0.07759536
121	0xbe25e0e8	-0.16199076
122	0x3e86048e	0.2617535
123	0xbc55e272	-0.013054477
124	0x3e29b338	0.16572273
125	0x3e5e33e7	0.21699487
126	0xbc6a2855	-0.0142918425
127	0xbe21acb2	-0.15788534
128	0x3e8382c8	0.25685716
129	0x3dc05b90	0.09392464
130	0xbe626186	-0.22107515
131	0xbe8486fa	-0.2588423
132	0xbc39f660	-0.011350244
133	0x3e99aa9f	0.30012986
134	0x3dda273d	0.10652015
135	0x3d95906b	0.07302936
136	0xbe2cff15	-0.16894181
137	0x3e1b28ae	0.15152237
138	0x3e8db332	0.27675778
139	0xbde39a6e	-0.111134395
140	0x3cb04461	0.02151698
141	0xbe0b324f	-0.1359341
142	0xbdb6ef18	-0.08932322
143	0x3ddc152c	0.10746226
144	0xbe769e71	-0.24083878
145	0xbd92750c	-0.07151231
146	0x3e87c30e	0.26516002
147	0xbdc62e3c	-0.09676787
148	0x3dc4b587	0.09604936
149	0xbe255741	-0.16146566
150	0xbe278722	-0.16360143
151	0xbe91d557	-0.28483078
152	0x3e0e1830	0.13876414
153	0x3e8ef56b	0.27921614
154	0xbe37fdee	-0.1796796
155	0xbc698745	-0.014253442
156	0xbe3dc4d4	-0.18532115
157	0x3e1e2127	0.15442334
158	0xbe8568c2	-0.26056486
159	0x3e3e6ea5	0.18596895
160	0xbe98de8e	-0.29857296
161	0xbe58ea4f	-0.21183132
162	0xbe9a5fc8	-0.301512
163	0x3ce40595	0.027834693
164	0x3e88156a	0.26578838
165	0xbe963123	-0.29334363
166	0x3d9fa787	0.07795625
167	0xbdc68e44	-0.09695104
168	0xbe1b23bd	-0.15150352
169	0x3e809853	0.25116214
170	0x3e6e8c82	0.23295787
171	0xbd77a895	-0.060463507
172	0x3e98fa49	0.29878452
173	0x3e922648	0.2854483
174	0x3d692799	0.05692253
175	0xbe5ed2c4	-0.21760088
176	0x3d1a4a5f	0.037668582
177	0x3e696242	0.22791389
178	0xbe8a7a48	-0.27046418
179	0x3df4338c	0.11923894
180	0xbe568d07	-0.20952235
181	0xbd38b14c	-0.04509096
182	0x3e75421c	0.23951
183	0x3e33c65d	0.17556138
184	0xbe950f0c	-0.29113042
185	0x3badd979	0.005305466
186	0xbdca52a9	-0.098790474
187	0xbe0f8674	-0.14016134
188	0x3ba0bf31	0.0049056043
189	0xbda055ed	-0.07828889
190	0xbe9a39a8	-0.30122113
191	0xbe1805d8	-0.14845979
192	0x3e4c4206	0.19947061
193	0xbe97e957	-0.29670212
194	0x3e0e21b0	0.13880038
195	0xbc9a3759	-0.01882522
196	0xbe5fb878	-0.21847713
197	0x3d24ee2a	0.040266193
198	0xbd62f8cf	-0.055413064
199	0xbe8829d5	-0.26594415
200	0x3dd0b900	0.10191536
201	0x3dfa0935	0.12208787
202	0xbca52645	-0.02015985
203	0x3dd0a495	0.101876415
204	0x3e87c8a3	0.2652026
205	0xbe00e95d	-0.12589021
206	0x3c01de29	0.007926502
207	0x3d58ec59	0.052959774
208	0xbe72bec1	-0.2370558
209	0x3ca46e8f	0.02007225
210	0xbe104a53	-0.14090852
211	0x3e9b3a72	0.30318028
212	0xbdd0d5c3	-0.10197022
213	0x3d912806	0.07087712
214	0xbdcd0ce4	-0.10012224
215	0xbe23a253	-0.1597989
216	0x3e89ae7d	0.26890936
217	0xbe0a9049	-0.13531603
218	0x3e31c0e9	0.17358746
219	0xbe8d8646	-0.27641505
220	0x3e59bfa5	0.21264513
221	0x3dddeb93	0.10835948
222	0xbe3a2d21	-0.18181278
223	0x3c4a3699	0.012342119
224	0x3dcdd7e0	0.100509405
225	0x3e973d41	0.2953892
226	0x3dee9e0c	0.11651239
227	0xbd5d668e	-0.054052882
228	0xbe81984d	-0.2531151
229	0xbe779a79	-0.2418002
230	0xbe099739	-0.13436593
231	0xbe021d15	-0.12706406
232	0xbe6c1ad8	-0.23057115
233	0x3e1ca2d9	0.15296496
234	0xbe828ca1	-0.25497916
235	0xbe683a1f	-0.22678421
236	0xbe22307d	-0.1583881
237	0xbe8566bb	-0.2605494
238	0x3e80ba3f	0.25142094
239	0x3c8c6621	0.017138543
240	0x3e9a40c8	0.3012755
241	0x3e89c5e2	0.26908785
242	0x3d4a4ffa	0.049392678
243	0x3dbb8658	0.091564834
244	0xbe8a3fbb	-0.27001747
245	0x3e666e3e	0.22502992
246	0xbe2ac18f	-0.16675399
247	0xbe2fb1ca	-0.17157665
248	0x3e558b75	0.2085398
249	0xbe8d5cc3	-0.27609834
250	0xbd0af08b	-0.033920806
251	0xbe5e1e15	-0.21691163
252	0xbe1e46a1	-0.1545663
253	0x3d5b2b53	0.053508114
254	0xbe762a1a	-0.24039498
255	0xbe835627	-0.25651667

h2.bias f4 [64]
0	0xbda1afa2	-0.078948274
1	0x3bdd4212	0.006752261
2	0xbb9184a6	-0.0044408618
3	0x3d0864d7	0.033299293
4	0x3d0e66a9	0.034765873
5	0x3d39b917	0.04534253
6	0xbd9c7e5e	-0.0764129
7	0x3ccc1b3b	0.024915328
8	0x3c4e063a	0.012574727
9	0x3d5ff1bb	0.05467389
10	0x3d345dca	0.044034757
11	0x3d131dac	0.03591697
12	0x3be67433	0.007032895
13	0xbc4bed49	-0.01244671
14	0x3d4d5de0	0.050138354
15	0xbd21c07a	-0.0394902
16	0xbd6da863	-0.058021914
17	0x3da2b4b6	0.07944624
18	0xbd772006	-0.060333274
19	0xbd33d1bd	-0.043901194
20	0x3bb0f877	0.005400713
21	0xbd5e9ea8	-0.054350525
22	0xbd9be988	-0.07612902
23	0xbc486955	-0.012232144
24	0xbdac041a	-0.0839922
25	0xbcac0908	-0.0210004
26	0xbcd96165	-0.0265357
27	0x3d34e7e0	0.044166446
28	0x3d7a9edb	0.061186653
29	0xbdae660e	-0.08515559
30	0x3cb582a0	0.022157013
31	0xbd1aa58c	-0.037755534
32	0xbbd55f0b	-0.006511574
33	0x3da322cd	0.07965622
34	0x3d1440a3	0.036194455
35	0x3c8b67db	0.017017296
36	0x3baa1370	0.0051903054
37	0xbd2e2898	-0.042519182
38	0xbc88752d	-0.016657436
39	0xbbb27883	-0.005446495
40	0x3d77cf04	0.06050016
41	0x3c3c2be5	0.011485075
42	0x3c99845e	0.018739875
43	0xbd9284f3	-0.07154264
44	0xbc5f5336	-0.013630679
45	0x3d5c6370	0.05380577
46	0xbcfa7125	-0.03057153
47	0x3db17d34	0.08666459
48	0x3df24eab	0.11831411
49	0x3d577eb8	0.052611083
50	0xbc2e98e3	-0.010656568
51	0xbd86cba0	-0.06581807
52	0xbda9a6b5	-0.0828375
53	0xbd8868bc	-0.066606015
54	0x3da5c0d7	0.08093422
55	0x3df822e4	0.1211603
56	0xbd0e87f9	-0.034797642
57	0xbd70da15	-0.05880173
58	0xbd506c2c	-0.05088441
59	0x3d30c94a	0.043160714
60	0x3d413276	0.047167264
61	0xbc515980	-0.012777686
62	0xbc25b3ca	-0.010113666
63	0xbdaec84b	-0.085342966

h3.weight f4 [8, 64]
0	0xbe22b437	-0.15889059
1	0x3e134735	0.14382632
2	0x3dec0773	0.11524858
3	0xbe543480	-0.20723152
4	0x3cfa6c26	0.030569147
5	0x3d8391b4	0.06424275
6	0xbe0c51af	-0.13703035
7	0xbe966cc8	-0.29379869
8	0xbe44550f	-0.19173072
9	0x3e6ae559	0.22939052
10	0xbdb2f28d	-0.08737669
11	0xbe094b8a	-0.13407722
12	0xbe4194cc	-0.18904418
13	0xbe1e669a	-0.15468827
14	0xbd5cd8f6	-0.053917848
15	0xbd66cb7a	-0.056346394
16	0xbe3df31e	-0.18549773
17	0x3e7b32ec	0.24531144
18	0x3c275047	0.010212011
19	0xbe4f4db3	-0.20244484
20	0x3e22b4ba	0.15889254
21	0xbe1d48b3	-0.15359764
22	0x3e63d060	0.22247458
23	0x3d766fa7	0.060165074
24	0xbe73fc43	-0.23826699
25	0x3e2ba836	0.16763386
26	0x3e0a1cee	0.13487598
27	0xbdf18f30	-0.11794889
28	0xbdea4782	-0.1143942
29	0xbd28e26f	-0.04123157
30	0xbe5d38dd	-0.21603723
31	0x3e40c814	0.18826324
32	0x3e623074	0.22088796
33	0xbde14e84	-0.11001304
34	0x3dea4256	0.11438434
35	0xbd3c4d55	-0.045972187
36	0xbe63eba4	-0.22257859
37	0x3e3ff6a2	0.18746427
38	0x3d364dee	0.044507913
39	0x3c459657	0.01205977
40	0xbe1da9fb	-0.15396874
41	0xbe51105c	-0.20416397
42	0x3e403be3	0.18772845
43	0xbe03f778	-0.1288737
44	0xbe98a248	-0.2981131
45	0xbe542b38	-0.20719612
46	0xbe99715e	-0.29969305
47	0x3e143c3e	0.14476106
48	0x3e1087ea	0.14114347
49	0xbe3c58e6	-0.18393287
50	0x3e5023c8	0.2032615
51	0xbbd4639d	-0.0064816014
52	0xbe93af01	-0.28844455
53	0x3c3c7976	0.011503568
54	0x3d932933	0.071855925
55	0x3c521159	0.012821519
56	0xbc8e4e4e	-0.017371323
57	0xbe98b3d2	-0.29824692
58	0x3e07df85	0.1326886
59	0x3e23003f	0.15918063
60	0xbe65fd41	-0.2245989
61	0xbd8b002c	-0.06787142
62	0xbe4528f9	-0.19253911
63	0xbe0d8861	-0.13821556
64	0x3df8174f	0.12113821
65	0x3e553e96	0.20824656
66	0x3ddfde1a	0.109310344
67	0x3e970b3a	0.29500753
68	0x3dffe058	0.12493962
69	0x3e470a98	0.19437635
70	0xbe77a4f1	-0.24184014
71	0x3e2dd384	0.16975218
72	0x3cde7b40	0.02715838
73	0x3e87bd58	0.26511645
74	0x3bc889f5	0.0061199614
75	0xbe6ce686	-0.23134813
76	0x3d9a9ea5	0.0754979
77	0x3cb4a832	0.022052858
78	0xbe6c561d	-0.23079725
79	0xbe286737	-0.16445623
80	0x3d4e3dff	0.050352093
81	0x3e212cce	0.15739748
82	0xbe1e5820	-0.15463305
83	0xbe94b289	-0.29042462
84	0xbe289e28	-0.16466582
85	0x3ea23ed6	0.31688565
86	0x3ce818ac	0.028332077
87	0x3def256d	0.1167706
88	0xbe129c4b	-0.14317434
89	0x3e75abd7	0.23991333
90	0xbdc23e6c	-0.09484562
91	0xbe2b2b4a	-0.16715732
92	0x3d8073dc	0.062720984
93	0xbdc2e213	-0.095157765
94	0x3ea02a0d	0.31282082
95	0xbe7cfb65	-0.24705274
96	0x3d20dffd	0.039276112
97	0xbe0c06d4	-0.1367448
98	0x3e8eba18	0.27876353
99	0xbe7ed29f	-0.24885033
100	0xbe94c33f	-0.2905521
101	0x3e7bf47c	0.24604982
102	0x3e723098	0.2365135
103	0x3d5f308d	0.05448966
104	0x3d9eec35	0.07759897
105	0xbe5083c4	-0.20362765
106	0xbe834fb6	-0.25646752
107	0x3d909bd7	0.07060974
108	0x3e1cb895	0.15304787
109	0x3e9c7c0d	0.30563393
110	0x3e418682	0.18898967
111	0x3e6c386b	0.23068397
112	0x3e97cdaf	0.29649112
113	0xbe413dae	-0.18871185
114	0x3e1b9db0	0.15196872
115	0xbdc3cbf7	-0.095603876
116	0x3e9a94a4	0.3019153
117	0x3e637f64	0.22216564
118	0x3e0fd9ec	0.14047974
119	0xbe226982	-0.1586056
120	0xbd1736fb	-0.036917668
121	0x3e600d40	0.21880054
122	0x3e9999ea	0.3000024
123	0xbe16fd10	-0.14744973
124	0x3d8eb8cd	0.06968842
125	0xbbd11480	-0.0063806176
126	0x3d902e4a	0.07040079
127	0xbddd21c1	-0.10797454
128	0x3d741acf	0.05959588
129	0x3bffdacb	0.0078080646
130	0x3e55eea2	0.20891812
131	0x3e17058d	0.14748211
132	0x3dd712f3	0.10501661
133	0x3e9e2cd5	0.3089358
134	0x3e31aca7	0.17351018
135	0x3e603d33	0.21898346
136	0x3cdc9797	0.026927752
137	0x3e88bd3a	0.26706868
138	0x3e9c0a02	0.30476385
139	0xbe26146f	-0.16218732
140	0xbc8f89de	-0.017521795
141	0x3d3f9fce	0.04678326
142	0x3e7d2071	0.24719407
143	0x3c845f89	0.016158836
144	0xbe3b9826	-0.18319759
145	0xbe75613b	-0.23962872
146	0xbe58b1dd	-0.211616
147	0xbbe686a4	-0.0070350934
148	0x3e9d229b	0.30690464
149	0x3e892d76	0.26792496
150	0xbd8051a0	-0.06265569
151	0x3d1ba2db	0.037997108
152	0x3d29eb87	0.041484382
153	0x3d694ea1	0.056959752
154	0x3af0677a	0.0018341385
155	0xbdfab58d	-0.12241659
156	0xbe867554	-0.2626139
157	0xbe530bb7	-0.20609938
158	0x3d6c4950	0.057687104
159	0xbd4ad13e	-0.049515955
160	0xbc94befe	-0.018157478
161	0x3cf04d8e	0.029333856
162	0xbe2f078e	-0.17092726
163	0xbd935b64	-0.07195166
164	0xbe8594df	-0.26090142
165	0x3ea7a58e	0.32743496
166	0x3d95338d	0.07285223
167	0xbd621212	-0.055193014
168	0x3e1fff9e	0.15624854
169	0x3e878efd	0.2647628
170	0xbe64f2e0	-0.22358274
171	0xbe93e8eb	-0.2888864
172	0xbe2de337	-0.16981207
173	0xbda7085c	-0.08155891
174	0x3e328f23	0.17437415
175	0xbd2b718a	-0.041856326
176	0x3ea0b8c7	0.31390974
177	0xbdadd796	-0.084883854
178	0x3c6e528f	0.014546051
179	0x3d5d3155	0.054002125
180	0xbe947311	-0.2899404
181	0xbe54f3bd	-0.20796104
182	0xbe8b6405	-0.27224746
183	0xbe822744	-0.25420582
184	0xbe86f876	-0.26361436
185	0x3e1df5db	0.15425818
186	0x3dbaef08	0.09127623
187	0x3c46b68c	0.0121284835
188	0x3db5f5c1	0.088847645
189	0xbde8028e	-0.11328612
190	0xbcc1a2d7	-0.023637218
191	0xbdf07de3	-0.11742761
192	0xbe105d08	-0.14097989
193	0x3e84a09a	0.2590378
194	0xbe1904f0	-0.1494329
195	0xbe603fc9	-0.21899332
196	0xbde30d9c	-0.1108658
197	0x3ea53991	0.32270482
198	0xbdd255ef	-0.10270297
199	0x3e82dec7	0.2556059
200	0xbe7a174b	-0.24422948
201	0x3dbc5aff	0.09197044
202	0xbdb90b26	-0.090353295
203	0xbcdf1950	-0.02723375
204	0xbe73b1fb	-0.23798363
205	0x3c5d68ab	0.013513724
206	0xbe422c0e	-0.18962118
207	0x3e2ce279	0.16883267
208	0x3e54eeb8	0.20794189
209	0x3de136d8	0.10996789
210	0xbd8fc4cd	-0.07019959
211	0xbe9b2d94	-0.3030821
212	0x3e3640d5	0.17798169
213	0x3d99c0bc	0.07507464
214	0x3e8154a3	0.25259885
215	0x3de541d2	0.11194195
216	0xbd445416	-0.047931753
217	0x3e27fdb3	0.16405372
218	0x3e7a9110	0.244694
219	0xbe3c88a0	-0.18411493
220	0x3e2c75dc	0.16841835
221	0xbe3f73d6	-0.18696532
222	0xbe8aa69e	-0.27080244
223	0x3bff4878	0.0077906214
224	0xbe870d8e	-0.2637753
225	0xbe58ff99	-0.21191253
226	0x3e221676	0.1582888
227	0xbe596f84	-0.21233946
228	0x3e5b3aa5	0.2140909
229	0xbe358d52	-0.1772969
230	0xbe3d9eda	-0.18517628
231	0x3bfffb14	0.0078119133
232	0xbe174bd6	-0.14775023
233	0xbe412442	-0.18861488
234	0x3b95de55	0.004573623
235	0xbe7c155c	-0.24617523
236	0x3e60d8e8	0.21957743
237	0x3da4c21c	0.08044836
238	0xbc8da72e	-0.017291632
239	0xbe07aa14	-0.13248473
240	0xbd0c2bdd	-0.03422152
241	0x3e8de907	0.27716848
242	0xbe8d0e2a	-0.2754987
243	0x3e2e0634	0.16994554
244	0xbd58ed4d	-0.052960683
245	0x3e5f2560	0.21791601
246	0xbe8ec69c	-0.27885902
247	0x3e8e9479	0.2784765
248	0xbe63be59	-0.2224058
249	0xbd2c8f6e	-0.042128973
250	0x3daeae80	0.08529377
251	0x3d3a9f1e	0.045561902
252	0xbe1504b5	-0.14552577
253	0x3ddfaa95	0.10921208
254	0x3e90a2f3	0.2824932
255	0x3e2a73e5	0.16645773

h3.bias f4 [8]
0	0xbc2e3d51	-0.010634736
1	0xbd3c7197	-0.046006765
2	0x3c5d755d	0.013516751
3	0x3d47a8ec	0.04874508
4	0x3dcc39fb	0.099719964
5	0x3d646822	0.05576337
6	0xbddb320c	-0.10702905
7	0xbca3bc0b	-0.019987127
