weights/weights_test_sparse/w=0.99_1.pth (torch, 3916 bytes, 8 tensors)

input.weight f4 [8, 4]
00000000: 552c 01c0 8846 f6bf 65c3 a63e 3af4 463e
00000010: 032a 113f 6405 d73f bc71 ad3f c517 a9ba
00000020: c62c edbf dcad 2abf bccd 26bf 3644 94bf
00000030: add8 8e3e f36d 3abe a2e1 f7be ac67 c23f
00000040: ffef 0d3f 6856 ff3e 7ab9 c2bf cb1f 4bbf
00000050: fc98 ff3f 6105 5f3d de30 e63e c712 f43f
00000060: 96ef dfbf e86a 20be 9e29 89bf f8e2 cbbf
00000070: ee37 d9bf 9bc8 8dbe 9401 123f a01b 32bf
-2.0183308 -1.9240274 0.3257095 0.19429103 0.5670473 1.679852 1.3550334 -0.0012900761
-1.8529289 -0.6667154 -0.65157676 -1.1583316 0.27899686 -0.18206005 -0.48414332 1.5187888
0.5544433 0.4987061 -1.5212853 -0.7934539 1.9968562 0.05444849 0.44959158 1.906823
-1.7494991 -0.15665781 -1.0715826 -1.592864 -1.6970193 -0.27692112 0.5703366 -0.695734

input.bias f4 [8]
00000000: 3229 5dbf 19c0 6c3f 4344 18bf fa6c 123f
00000010: fb55 a8bd 1b65 373f 1ccf 45bf b07f 1cbf
-0.86390984 0.9248062 -0.5947916 0.57197535 -0.082195245 0.7163865 -0.7726915 -0.61132336

h1.weight f4 [8, 8]
00000000: d809 c43f c275 54bf fe56 2ebf 5bb2 1b3d
00000010: 8553 c1bd a53a 193f df58 75bf a602 ffbe
00000020: 3a6e 96be 1052 d3be 4693 d23e d902 1c3f
00000030: edee 493f 8386 49bf 0929 1b3f 664b ac3e
00000040: f819 f23e b14b c3bf dd73 12bf 3bf4 b23e
00000050: 2a2b c9bd a41d 8e3f 9be7 75bf 7a32 a6bf
00000060: 4cb9 f2be 5c23 323f 2bfa 50bf 6753 15bf
00000070: 772b 7bbf 7d6d bc3f 0fe4 b7bf a461 3fbf
00000080: 748e 933e b96a 233e 9088 103f 14e4 b6be
00000090: f033 26be d40a 44bf cdcb 573f 0ffb e43e
000000a0: 31c3 1bbf 6828 14bf 3ba0 173f d2a1 9a3e
000000b0: 988f d93d a297 02bf c4b6 a2be df61 383f
000000c0: 50da e3bf 6152 c53e 8e1f 9dbf c400 d2be
000000d0: 259b c93e 9548 ae3f c17b 07be ac6e 83bf
000000e0: 0b69 1d3f fbba 35bf 300d 97bf 62d5 05be
000000f0: 61a4 5fbf be48 5a3e d6da 5abf f2c5 99bf
1.5315504 -0.82992184 -0.6810149 0.03801189 -0.09439758 0.5985511 -0.9583873 -0.49806708
-0.2938097 -0.41273546 0.41127986 0.60941845 0.78880197 -0.78720874 0.6060949 0.33651274
0.47285438 -1.5257474 -0.57208043 0.34951958 -0.09822686 1.1102796 -0.96056527 -1.2984154
-0.47406995 0.69585204 -0.81631726 -0.58330387 -0.981132 1.4720913 -1.4366473 -0.7475836
0.2881962 0.1595868 0.5645838 -0.35720885 -0.1623075 -0.7657902 0.8429535 0.44722793
-0.60844713 -0.57874155 0.5922887 0.30201584 0.106230915 -0.51012623 -0.31780064 0.7202434
-1.7800999 0.38539413 -1.2275255 -0.4101621 0.39376178 1.36159 -0.13230802 -1.0268149
0.6148841 -0.70988435 -1.18009 -0.1306968 -0.873602 0.21316811 -0.8549017 -1.2013533

h1.bias f4 [8]
00000000: 8c73 fc3e 1ed2 523d 1f57 173e a4ed 553f
00000010: db96 07bf 7405 b33c 6f1a 343f b642 4a3f
0.49306905 0.051469915 0.14779328 0.83565736 -0.5296456 0.021853186 0.70352834 0.7900804

h2.weight f4 [8, 8]
00000000: 42b0 893f a02c e8bd dd18 6b3f 18bf da3f
00000010: ad02 0b3f b906 373f 6d7c 9a3f 79c1 e03f
00000020: f22c aabe 9468 b9be 2ba8 28bf 53d6 b9be
00000030: baee a4bf f4b3 55bf 05b4 91bf 4ace 92bf
00000040: ce40 76bf 2764 233f c904 cebe dbf7 69bf
00000050: e23c 06be c989 bcbe 88aa c83e b81c 93bb
00000060: 26b2 f63e 30b6 5bbe 2eaf b23e aaa4 5ebe
00000070: 3d64 953d c0a2 9c3d 3d3a 433e 81a2 7b3e
00000080: 591e 94bf 2998 3bbf dd32 04bf 20e5 31bf
00000090: 6e6a 47bf b829 e73d 19b2 cabe 3a8d e3be
000000a0: 26b2 d63e 6a71 80be b997 5b3f bbbf 5a3f
000000b0: bd7c 833f b4d2 5bbe 0af3 dc3f 4815 0f3f
000000c0: e12e 4bbf aa1d 3abf 39f1 d3be 2df0 50bf
000000d0: 487a 22be b041 e5be e0c2 5b3d 486a b4be
000000e0: 9e0e 803f d469 2dbf d095 8f3e 6bfe 1c3f
000000f0: a44d 07bf e051 e3bc 71db c13f 0adc e03e
1.0756915 -0.113366365 0.91834813 1.7089567 0.5430096 0.7149463 1.2069222 1.7559043
-0.33237416 -0.362126 -0.65881604 -0.3629633 -1.2885354 -0.8347771 -1.1383063 -1.1469204
-0.96192634 0.63824695 -0.40238026 -0.9139382 -0.13109162 -0.36823872 0.39192605 -0.0044895075
0.4818279 -0.21456218 0.34899276 -0.21742502 0.072945096 0.076482296 0.19065185 0.24573709
-1.1571761 -0.7327905 -0.5164011 -0.6949024 -0.77896774 0.11287254 -0.39589003 -0.44443685
0.4193279 -0.25086528 0.85778385 0.8544881 1.0272442 -0.21467096 1.726167 0.5589185
-0.79368407 -0.72701514 -0.41394976 -0.8161648 -0.15866959 -0.44776678 0.053652644 -0.35237336
1.0004461 -0.67739606 0.28043985 0.6132571 -0.52852845 -0.027749002 1.5145093 0.43917876

h2.bias f4 [8]
00000000: b23e 583f 56c5 febe 91d2 13bf c5c3 433e
00000010: d38a f2be e7f3 663f 0d1b bbbd 9981 153f
0.84470665 -0.4975993 -0.57743174 0.19117649 -0.4737154 0.90215915 -0.09136019 0.58400875

h3.weight f4 [4, 8]
00000000: da51 853f 3d26 e03e 50f9 e33e 6bee 803d
00000010: 5164 a93e ae66 b23f 008c bdbd f607 fa3f
00000020: 86d0 803f 0172 6b3f d339 2f3f a3fb ce3f
00000030: 94cc 6c3f baf8 4b3e 203a ad3c 0910 873f
00000040: 4324 0fbf 68dc 31be 70cb a7bd 73e9 7dbf
00000050: 3396 943e dbc4 42bf 6c9c 44be bfcb 91bf
00000060: 16de 61bf cde7 573f 200d 48be d2b1 f23e
00000070: 1d6f 3b3f 5f5a 99bf 922e aa3e dfbd 4f3f
1.0415604 0.43779173 0.44526148 0.062954746 0.33084348 1.3937585 -0.092552185 1.953368
1.0063636 0.9197083 0.6844761 1.6170543 0.9249966 0.199191 0.02114588 1.0551769
-0.55914706 -0.17369235 -0.081930995 -0.9918434 0.29020843 -0.7608163 -0.19200295 -1.1390303
-0.882295 0.84338075 -0.19536257 0.4740129 0.7321642 -1.1980704 0.33238655 0.81149095

h3.bias f4 [4]
00000000: a0a9 3a3f 68e4 0d3f 39f5 7abf b0c3 18bf
0.7291508 0.55426645 -0.9803043 -0.59673595
