weights/weights_test_sparse/w=0.00_0.pth (torch, 38732 bytes, 8 tensors)

input.weight f4 [64, 4]
000000 10 77 37 be 82 13 c5 be 34 4d 1e 3f 06 4d 94 be
       -0.17916512 -0.38491446 0.6183655 -0.28965014
000010 ba 96 85 bf f4 7c 88 bf 23 60 97 3f 4e 63 0d 3f
       -1.0436623 -1.0663133 1.1826214 0.5522965
000020 0d 0c 9c bf e2 9c 80 bf 15 03 46 bf 05 f8 8d 3f
       -1.2191178 -1.0047877 -0.7734845 1.1091315
000030 f6 98 2a 3f 08 b1 cc 3e 04 80 31 3f 88 70 54 3e
       0.6663965 0.39978814 0.6933596 0.20746052
000040 42 8d 5f 3f c5 71 7c bf 42 61 76 3f d2 50 0f 3f
       0.8732492 -0.986111 0.96242154 0.55982697
000050 e0 24 d0 3e 46 7e 48 3f 64 05 75 be 45 f2 14 bf
       0.40653133 0.7831768 -0.23927838 -0.58182174
000060 5e 96 aa be ac 30 6b bf 00 c2 08 3c 00 44 21 3f
       -0.33317846 -0.9187114 0.008347034 0.62994385
000070 a8 76 69 3e 00 65 2d bd 34 3c ed 3e 3e f4 8e bf
       0.2279917 -0.04233265 0.46334994 -1.1168287
000080 be 23 4e bf 46 d8 88 bf e3 da 9b 3f 1e 7e 8e bf
       -0.8052329 -1.0691001 1.2176174 -1.1132238
000090 78 f0 14 3f 7e 5e 61 3f e8 c6 b1 be 70 a3 45 be
       0.58179426 0.8803481 -0.34722066 -0.19300628
0000a0 d1 c7 80 3f 83 23 80 bf 1e 5d 9c bf e8 dd 37 be
       1.0060979 -1.0010837 -1.2215917 -0.17955744
0000b0 68 95 20 be c5 54 00 bf 60 ab c3 3d 8e d3 26 3f
       -0.15681994 -0.5012935 0.095541716 0.65166557
0000c0 54 c0 27 3f b4 a9 b6 3e 0a 6e 5d 3f 3a 2a 12 bf
       0.65527844 0.35676348 0.8649603 -0.5709568
0000d0 40 8c a7 3d 30 3a d2 3e 04 aa c9 3e b4 f9 e0 be
       0.081810474 0.4106002 0.39387524 -0.43940508
0000e0 32 9c 7e 3f 8d 99 6f bf e7 bf 14 bf 42 61 96 bf
       0.99457085 -0.93593675 -0.5810532 -1.1748431
0000f0 20 0f 16 3e 9a 99 73 bf 96 1e 5f 3f 16 f0 51 bf
       0.14654207 -0.9515625 0.87156045 -0.8200697
000100 c0 54 a5 3e 3f 33 8b 3f 4f a3 8e 3f 64 36 d0 3e
       0.32291222 1.0875014 1.1143588 0.40666497
000110 7c 03 e5 3e f0 04 5f 3e cc a3 34 3f 70 43 ae bd
       0.4472922 0.21779227 0.70562434 -0.085089564
000120 34 11 6b bf 73 74 8a 3f 22 13 6c bf 29 77 98 3f
       -0.91823125 1.0816787 -0.92216694 1.1911365
000130 20 4f 8a 3d 18 d3 0f 3f a0 1d 0b 3d 8a 7d 05 3f
       0.06753373 0.5618148 0.0339638 0.5214468
000140 fe a5 55 3f 42 f2 93 bf b6 62 32 3f 0c f7 d3 be
       0.8345641 -1.1558306 0.6968187 -0.4139942
000150 67 1f 8d bf aa 63 7b bf 00 ea e0 3d e6 05 74 3f
       -1.1025208 -0.9819895 0.10982132 0.953215
000160 77 54 94 bf 78 d9 b5 3e c4 16 fd 3e e2 74 90 bf
       -1.1588277 0.35517478 0.4943143 -1.128567
000170 9c ad 8a 3e e1 dc 19 bf f8 ef 43 3e 38 7b ee be
       0.27085578 -0.6010266 0.1913451 -0.46578383
000180 46 e7 7e 3f 33 eb 8f bf 64 e4 23 3f 84 dd eb be
       0.99571645 -1.1243652 0.6402037 -0.4606744
000190 28 5f b0 3e 10 31 fb 3d 37 ff 91 bf f4 05 15 bf
       0.34447598 0.12265217 -1.140601 -0.5821221
0001a0 40 8e 53 3d a0 dd 19 3d ff 9d 1e bf 32 44 33 3f
       0.051649332 0.037564874 -0.6195983 0.7002593
0001b0 92 49 16 bf a7 5b 26 bf 78 21 09 3f 70 99 06 be
       -0.5870601 -0.649836 0.53566694 -0.1314447
0001c0 8c e9 c3 3e 98 ac 42 3f 3e b2 f6 be 98 35 b2 3e
       0.3826412 0.7604461 -0.48182863 0.34806514
0001d0 52 09 7a 3f 50 4e 47 3e 43 19 88 3f a6 31 08 3f
       0.9767047 0.19463468 1.0632709 0.5320076
0001e0 06 34 66 3f 32 2b 74 3f 38 92 3c 3f d8 32 aa 3e
       0.8992313 0.9537841 0.7366061 0.33241916
0001f0 8e 45 1d 3f 5a f0 3f 3f 50 93 a9 3d 30 8a 55 3e
       0.6143426 0.7497612 0.08280051 0.20853496
000200 2a 7b f0 be e0 70 2a bd f8 9d 20 3f 50 4a c4 bd
       -0.46968967 -0.041611552 0.6274104 -0.095844865
000210 de 8a c9 be 6c 1a 9b 3e 60 87 22 bd 40 37 d4 3d
       -0.3936376 0.30293596 -0.039679885 0.103621006
000220 72 92 86 be 80 c5 46 bc e8 2c 97 be 4b d4 83 3f
       -0.26283604 -0.012132049 -0.29526448 1.0299162
000230 7c 95 54 bf 0a 0f 6f bf 00 f4 73 be 80 5e ba 3d
       -0.83040595 -0.9338232 -0.23823547 0.09100056
000240 a2 34 4e 3f d8 88 ad 3e 00 c0 a4 bc ed 56 94 bf
       0.8054906 0.33893466 -0.020111084 -1.1589028
000250 01 11 14 bf ac 61 a3 3e b4 cd c8 be a2 fb 3f bf
       -0.57838446 0.31910455 -0.3921944 -0.74993336
000260 20 1e 9e 3e 12 c2 5f 3f 48 46 1a 3e 7a d2 6a 3f
       0.3088236 0.874055 0.15065873 0.9172741
000270 4f 3a 87 3f c0 b4 f8 3c e3 bf 9c 3f 84 1b cf 3e
       1.0564669 0.030359626 1.2246059 0.4045068
000280 94 d8 ce 3e f4 53 e3 3e 6e 24 91 bf 24 7b ff 3e
       0.4039961 0.4439999 -1.1339242 0.49898636
000290 2b a7 83 3f 20 ed 69 3e 20 dc 96 3d 18 40 56 be
       1.0285391 0.22844362 0.07366204 -0.20922887
0002a0 02 45 76 bf 60 16 1f 3e 00 a9 fc 3e 8c 2d ef 3e
       -0.9619905 0.15535879 0.49347687 0.46714437
0002b0 43 64 8e 3f 17 97 3b bf f9 06 8a 3f 2a 6b 8c be
       1.1124347 -0.7327742 1.0783378 -0.2742551
0002c0 04 e6 b6 be 07 92 1e bf 84 a8 51 bf 78 aa 86 3e
       -0.35722363 -0.6194157 -0.8189776 0.26301932
0002d0 bc b0 85 be 88 72 66 3e ff 96 98 bf b0 3d cb be
       -0.261114 0.22504628 -1.192108 -0.396955
0002e0 e4 11 21 3f 9f 6c 18 bf e9 d6 90 3f 4e 23 50 bf
       0.62917924 -0.5954074 1.1315585 -0.8130387
0002f0 c0 85 34 bf b2 85 50 3f 19 04 87 3f d0 d2 0a 3f
       -0.70516586 0.81454 1.0548126 0.54227924
000300 2c ba 26 3f f2 41 5e bf c0 e8 6c 3e 90 32 ea bd
       0.65127826 -0.86819375 0.23135662 -0.11435425
000310 52 82 13 bf 08 35 85 3e 68 5a fe 3e 5a e5 58 bf
       -0.5762073 0.26017022 0.4967835 -0.8472496
000320 90 d3 19 be c8 44 a4 3e 83 c2 97 3f bc 86 7c bf
       -0.15022111 0.32083726 1.1856235 -0.9864309
000330 cf 60 8a 3f 10 cc f2 bd fc 81 8b 3e e0 41 87 bf
       1.0810794 -0.11855328 0.27247608 -1.0566978
000340 ba e5 89 bf 3b 88 20 bf a0 c5 b8 bd 88 7d 6e 3e
       -1.0773232 -0.6270787 -0.09022069 0.23290074
000350 87 33 8c 3f 50 85 4f be da 20 58 3f 1c 81 83 bf
       1.0953225 -0.20265698 0.8442513 -1.0273776
000360 00 8b 2f 3f 4a 81 87 bf 20 cb 94 bf 38 2a 3c 3f
       0.6857147 -1.0586331 -1.1624489 0.7350192
000370 f2 a9 4c bf dd 4a 2d bf 82 28 39 bf 66 24 ad be
       -0.79946816 -0.6769236 -0.72327435 -0.33816832
000380 50 1b 19 3f 3a f2 1c 3f 09 02 6c bf b0 32 ca 3d
       0.598073 0.6130711 -0.92190605 0.09872949
000390 7e a3 81 bf d1 1a 85 bf de 2b a0 be 70 5d d7 bd
       -1.0128019 -1.0398809 -0.31283468 -0.10515869
0003a0 d8 6e 1c 3f 84 1b 08 3f 30 6a 9c 3e a6 36 6f 3f
       0.61106634 0.53166986 0.30549765 0.9344276
0003b0 68 a4 0f be 70 8c de bd 35 80 97 3f 60 c3 ab 3d
       -0.1402756 -0.1086663 1.1836001 0.08386874
0003c0 72 80 55 3f a6 3e 1c bf 1e 22 49 3f 32 56 3b 3f
       0.83399117 -0.61033094 0.78567684 0.731784
0003d0 a2 9a 76 3f 95 ea 39 bf 1f 8c 95 bf 20 4c 5e 3e
       0.963297 -0.7262357 -1.1683387 0.21708727
0003e0 c0 69 1f be ab 5e 94 3f 64 8a d1 be ee 61 09 bf
       -0.15567684 1.159139 -0.40925896 -0.53665054
0003f0 08 bd 43 3e f6 77 7a bf 59 d2 80 bf a6 e1 49 3f
       0.19115078 -0.97839296 -1.0064193 0.7885994

input.bias f4 [64]
000000 4d 16 21 bd 4b 85 c0 3d 92 5a 62 3d 8c f4 c3 3c
       -0.03932791 0.094004236 0.055262156 0.02392032
000010 88 e6 d2 bc a3 22 27 bd 74 fe a7 3c b9 46 93 3d
       -0.025744691 -0.040804517 0.020507075 0.07191224
000020 5a 00 9e bd fb 63 9f 3d 0f 20 c5 bd c0 21 b9 bd
       -0.07714911 0.07782742 -0.09625255 -0.090396404
000030 3d 55 c3 bd 72 8f 04 3d 00 8e 86 3b 00 43 cc 3c
       -0.09537742 0.032363363 0.004106283 0.024934292
000040 7d 3d 96 bd 3a 63 77 bd 02 b7 2c 3d 91 18 92 3d
       -0.07335947 -0.060397364 0.042166717 0.07133592
000050 3b d0 ab bd 20 02 b6 3b 30 8b d9 bb 0c 6f c7 bc
       -0.08389326 0.0055544525 -0.006638907 -0.024344943
000060 da a8 0d 3d 02 21 9c bd 4a 30 49 3d 3d 84 1f bd
       0.034584858 -0.07623483 0.049118318 -0.03894447
000070 05 3b 8a 3d 6c 1c cb bc 1b 90 8f 3d 20 cc 88 bd
       0.06749538 -0.024793826 0.07009908 -0.06679559
000080 55 f0 b9 bd c7 58 c9 3d 64 1c 0b bd 00 11 5e 3a
       -0.09079043 0.09831386 -0.033962622 0.0008471161
000090 59 f3 95 3d 7d e8 b6 3d 08 f2 ab 3c 2d 18 bf bd
       0.073218055 0.08931062 0.020989433 -0.09330783
0000a0 0a de 7d bd fe f1 7e 3d 92 ec 01 3d ee 7a 5e 3d
       -0.06197933 0.0622425 0.03171975 0.054316454
0000b0 bd c0 19 bd f8 fc bd bd f4 4f 83 bc 42 ca 23 3d
       -0.037537325 -0.092767656 -0.016029336 0.03998781
0000c0 61 fb 8e 3d 76 02 88 bd 03 f6 48 bd 9d dc aa 3d
       0.069815405 -0.066410944 -0.04906274 0.0834286
0000d0 39 0d a8 3d 57 aa c6 3d 13 24 92 3d 14 6c db 3c
       0.08205647 0.097004585 0.07135787 0.026784934
0000e0 00 c0 77 b9 c3 4f 98 bd 96 42 13 bd dd b0 c8 bd
       -0.00023627281 -0.07437088 -0.035952173 -0.09799359
0000f0 47 b8 85 3d 8e a3 7c 3d 82 ae 38 3d 58 94 91 bc
       0.06529289 0.061679415 0.0450883 -0.017770931

h1.weight f4 [64, 64]
000000 a8 42 8f 3d 00 01 77 3d f8 40 3f bd 04 f6 2e 3e
       0.069951355 0.060303688 -0.04669282 0.17086035
000010 d0 82 ec bd bc 48 be 3d a0 3a d1 3d 28 64 9f 3d
       -0.11548388 0.09291217 0.1021626 0.07782775
000020 da 23 56 be 8b 31 91 be ac 7d 15 be 21 d3 85 be
       -0.20912114 -0.2835811 -0.14598721 -0.2613764
000030 1b dc 87 be 8e 82 d8 bd 78 bb 04 bd b0 1e 39 3d
       -0.26535115 -0.10571776 -0.032405347 0.04519528
000040 1a cb 21 be 0a bc 49 be 74 b0 a5 bd 32 e7 36 3e
       -0.15800133 -0.19700637 -0.080902964 0.17861632
000050 98 6f 24 3e 3d ee 91 3e c6 cb 10 3e 5a 85 60 3e
       0.16058195 0.28502074 0.14140233 0.2192587
000060 00 31 a2 3b de 3b 41 be 64 ed c0 3d 47 68 88 3e
       0.004949689 -0.18870494 0.09420279 0.26642057
000070 92 c4 db bd c0 57 1c bc be 83 8b be a6 fa 71 3e
       -0.10730852 -0.009542406 -0.2724895 0.23630771
000080 2e a9 7e be 44 dd 0b be 80 4e 3a 3b d2 a7 15 be
       -0.24869224 -0.13658625 0.0028428137 -0.146148
000090 00 82 a7 3a 62 ae 2a be 45 f0 97 3e b9 17 36 be
       0.0012779832 -0.16668084 0.296755 -0.17782487
0000a0 d0 3b 4a 3d 78 d7 95 be 28 87 31 3d c2 0a 50 3e
       0.049373448 -0.29265952 0.043341786 0.20316604
0000b0 54 53 44 be 2c 67 78 bd 80 9c 3e bc a0 53 36 bc
       -0.19172412 -0.060645267 -0.011633992 -0.011128336
0000c0 78 53 73 3d 6a 1f 7d 3e f2 73 b8 bd f8 e7 cf 3d
       0.059405774 0.24719015 -0.0900649 0.101516664
0000d0 80 cf 80 be 94 fb 39 be 37 f8 61 be c4 c7 90 3d
       -0.2515831 -0.18162376 -0.22067343 0.07069352
0000e0 b8 67 56 3d 97 36 99 3e 38 11 dd 3d 70 75 e5 bc
       0.052345008 0.2992446 0.107943 -0.0280101
0000f0 d4 08 fa bd 00 73 f3 3c 80 c3 12 be 00 d0 45 3d
       -0.12208715 0.029717922 -0.1433239 0.048294067
000100 0e 68 8d bd 52 5c 4a be 30 5b 8c 3c d0 0d f2 3d
       -0.069046125 -0.1976178 0.017133325 0.11819041
000110 a4 04 67 bd 80 ce b7 3b 20 73 9b be 8a 0c d6 bd
       -0.05640091 0.0056093335 -0.3036127 -0.104516104
000120 fb 08 9c be c1 b3 9b 3e e3 bc 85 3e 16 e1 87 be
       -0.30475602 0.3041058 0.26120672 -0.26538914
000130 2a 29 71 be b7 f1 84 be cc 95 34 3e e8 45 83 3d
       -0.23550859 -0.25965664 0.17635268 0.06409818
000140 73 d6 90 be 24 3d c2 bd 5e 84 6b 3e 00 9a 48 bb
       -0.28288612 -0.09484318 0.22999713 -0.003060937
000150 1d a4 8d be d0 8e d9 3d d7 da 9b 3e 0f f4 8e 3e
       -0.2766427 0.106229424 0.304404 0.27920577
000160 50 3c db 3c c0 5c ac bd 98 fe 02 3d 1e 50 67 3e
       0.026762158 -0.08416128 0.03198108 0.22589156
000170 ce 5b 07 3e 74 08 82 be 74 31 25 3e 3e 1e 4c 3e
       0.13218614 -0.25397074 0.16132146 0.19933411
000180 50 33 85 be c6 8d 5c be aa 66 56 3e 00 27 26 3e
       -0.2601571 -0.21538457 0.209376 0.16225815
000190 8a f7 88 be 20 e0 ac 3d 06 56 3d 3e b8 00 7e 3d
       -0.26751357 0.08441186 0.18489847 0.062012404
0001a0 72 3d 27 3e 28 7e ca 3d e8 28 b4 3d 62 c3 36 3e
       0.16332033 0.09887344 0.08796865 0.1784797
0001b0 60 a2 d5 bd 00 b9 db 3a ec d4 97 bd 38 68 63 bd
       -0.10431361 0.0016763508 -0.074136585 -0.055519313
0001c0 e8 c7 f1 3d 48 e4 f2 bd f0 10 84 bc 17 8e 85 3e
       0.11805707 -0.118599474 -0.016121358 0.26084968
0001d0 d8 fd cd 3d 4d a2 99 3e e0 6a 68 bc 54 ec e2 bd
       0.100581825 0.30006638 -0.014185637 -0.11080232
0001e0 21 e2 89 3e e4 0e 45 be 32 4d 12 3e ed 90 84 3e
       0.26930335 -0.19243962 0.1428726 0.2589182
0001f0 4c 41 31 be f4 b2 7c bd 67 89 8d 3e 00 97 ca bc
       -0.17310065 -0.0616941 0.27643892 -0.024730206
000200 90 86 89 be 28 de 2d be 5c 9a 93 be ac 08 74 bd
       -0.26860476 -0.16979277 -0.28828704 -0.059578583
000210 6c 6d 2d 3e d8 87 27 bd 48 13 6a bd d0 f5 cc 3c
       0.16936272 -0.040901035 -0.057147294 0.025019556
000220 00 5c ca bc 90 ca 5e bd f6 ab c6 bd a8 c9 1a 3d
       -0.024702072 -0.054392397 -0.09700768 0.03778997
000230 b0 76 98 bc 28 cf 33 bd ce b1 9e bd 3c 5d a3 3d
       -0.018611282 -0.04389873 -0.07748757 0.079767674
000240 3a 1d ef bd c0 70 90 bc 40 fa 3f bd b6 dd 5c 3e
       -0.116754964 -0.017631888 -0.046869516 0.21568951
000250 dc 6d 03 3e 68 60 03 3e 00 0d f6 ba 5f a5 46 be
       0.12834877 0.12829745 -0.0018772185 -0.19399022
000260 d0 ea a7 3c 54 4a 76 be 40 47 db 3b a1 d5 99 3e
       0.02049771 -0.24051791 0.0066918433 0.30045798
000270 50 4e 34 bd 81 bd 95 3e d4 41 43 be 0a 5a 76 3e
       -0.044019997 0.29246143 -0.1906808 0.24057785
000280 f0 6f eb 3d f3 97 08 be 7b b9 9a be 0b 0a 0d be
       0.1149596 -0.13339214 -0.30219635 -0.13773362
000290 92 9a 13 3e a5 62 97 3e 1a 2c 7c be aa ff 0c be
       0.14414433 0.29567447 -0.24626198 -0.13769403
0002a0 14 13 df 3d b6 1f 9c bd cd 9e 85 be fa f3 d2 bd
       0.10892311 -0.07623236 -0.26097718 -0.10300441
0002b0 a8 c7 c7 3d 2a 81 98 be 48 fe e8 bd bc 2e 38 3e
       0.09754878 -0.29786044 -0.11376625 0.17986578
0002c0 04 65 15 3e 05 05 06 be 2b e1 91 3e a0 b5 49 3d
       0.14589316 -0.13087852 0.28492102 0.049245477
0002d0 72 00 16 3e a0 39 d8 bc ec 42 ee bd d5 da 87 3e
       0.14648607 -0.026394665 -0.11633858 0.26534143
0002e0 d4 a5 92 be 18 cc db 3d 17 a3 09 be 7c 55 c6 bd
       -0.28642142 0.10732287 -0.1344112 -0.096842736
0002f0 46 58 6f 3e 61 e3 8e be d8 81 28 bd 28 dc d4 bd
       0.23373517 -0.2790785 -0.041139454 -0.10393554
000300 4a d2 65 3e 5b 88 6d be 00 d9 75 bd 34 2d fa bd
       0.224435 -0.23196547 -0.0600214 -0.12215653
000310 ae 57 69 3e b6 3d 76 3e 40 1b cf 3b 94 c6 fb 3d
       0.22787353 0.24046978 0.006320387 0.12293735
000320 e7 9e 9c 3e ff a9 86 be 80 2e bc 3b 23 03 8f 3e
       0.30589983 -0.26301572 0.005742848 0.2793208
000330 14 f1 a3 bd dc 24 68 be 73 d7 8a 3e e7 85 94 3e
       -0.080049664 -0.2267031 0.271175 0.2900841
000340 9c ed 38 3e 66 ad 6b 3e c0 1c d7 bc 3a 9d 59 be
       0.18059391 0.23015365 -0.026258826 -0.21251383
000350 fa a2 8a be 2e 46 02 3e d8 a4 af bd bb 48 99 3e
       -0.27077466 0.12722084 -0.08576363 0.299383
000360 08 fe 0b 3d 72 5a 4b 3e 30 ad a1 3c f2 19 90 bd
       0.03417781 0.19858721 0.019735903 -0.07036199
000370 8e 21 f1 bd a9 da 85 be f0 68 98 be bc 62 80 bd
       -0.11773978 -0.26143387 -0.2976756 -0.06268832
000380 f3 29 88 be 21 a6 9c be 54 48 1c 3e 76 dc 09 be
       -0.26594505 -0.30595496 0.15261966 -0.13463005
000390 00 1c b5 39 70 d8 a0 bd 1a 14 6c be 1c 9c bf bd
       0.00034543872 -0.07853782 -0.23054543 -0.093559474
0003a0 c4 59 49 be 48 16 62 3d 7d 40 93 3e 12 ff 94 bd
       -0.19663149 0.05519703 0.28760138 -0.07275213
0003b0 c0 c0 32 3d 56 f1 32 3e 2e fe 08 3e 70 5e d6 3c
       0.043640852 0.17474875 0.13378212 0.026168078
0003c0 40 1a d7 bd 00 73 75 bd d8 90 2c bd a9 82 9c 3e
       -0.10503054 -0.059924126 -0.04213032 0.30568436
0003d0 30 13 31 3d 92 38 4d 3e b6 c4 32 3e 33 29 81 3e
       0.04323119 0.20041111 0.17457852 0.25226745
0003e0 60 6b 58 3d 80 90 ad 3b a0 5c b5 bd 52 63 48 3e
       0.052836776 0.0052967668 -0.088555574 0.19569138
0003f0 9e 99 69 3e e2 a8 73 3e 46 30 8b be a0 2d b2 3c
       0.22812507 0.23794892 -0.27185267 0.021750271

h1.bias f4 [64]
000000 57 52 ad bd 1b 9a b2 3d 08 e4 b9 3c 38 2c ad 3c
       -0.08462971 0.087207995 0.022691742 0.02113925
000010 00 91 d0 bc 72 ec 93 bd 18 e9 34 3c 80 fc 80 bc
       -0.025459766 -0.07222833 0.011041902 -0.015745401
000020 15 ce b8 3d a2 19 18 3d f2 cd 09 3d 2d 60 96 3d
       0.09023682 0.03713382 0.03364367 0.07342563
000030 27 76 57 bd 01 ae 89 3d 00 20 18 3a 5a 3b bc bd
       -0.052602913 0.06722642 0.0005803108 -0.09191008
000040 11 7b 80 3d de df 89 bd de 37 7b 3d 59 e3 9e 3d
       0.06273473 -0.067321524 0.061332576 0.07758207
000050 20 2b f1 bb 3c d1 06 bd 74 12 8a 3c 91 15 99 3d
       -0.007359877 -0.032914385 0.016854502 0.074748166
000060 ba df 4f 3d 43 3c 9c 3d 60 47 3e bb 2a c2 9a bd
       0.05075047 0.076286815 -0.0029034242 -0.07556565
000070 46 f6 35 3d 80 25 f1 3b 08 8d c3 3c 91 ab be 3d
       0.044424318 0.0073592067 0.02387096 0.093100674
000080 14 a0 bb bc b7 3c ba 3d c7 e2 71 bd 0a 88 84 bd
       -0.02290348 0.09093612 -0.059054162 -0.0647126
000090 25 ed 85 3d 09 b9 9b 3d 03 91 1b bd 6c 45 96 3c
       0.06539372 0.07603652 -0.03798009 0.01834365
0000a0 40 54 3c 3c 92 cc 02 3d c0 9d 77 bc 9b 8c c7 bd
       0.011494696 0.031933375 -0.015113294 -0.09743615
0000b0 8a c6 08 3d 1f cf c6 bd e0 2e 8d bd b5 5c a1 bd
       0.033392467 -0.09707474 -0.06893706 -0.078790106
0000c0 a6 26 21 3d b6 31 32 3d 80 9b 6e bd e7 60 b7 3d
       0.0393435 0.04350444 -0.058253765 0.089540295
0000d0 f6 c2 8f bd 41 8c 95 3d c6 33 33 3d ec 8c b3 bc
       -0.07019608 0.07302142 0.043750547 -0.021917783
0000e0 85 00 a2 3d 59 c2 96 3d 4d 3f a7 3d 92 5f a6 bd
       0.07910255 0.073612876 0.081663705 -0.08123697
0000f0 2c 36 19 bd 0a f9 90 bd 3f 8e a3 3d 34 8f b7 3c
       -0.037405178 -0.070787504 0.07986116 0.022407152

h2.weight f4 [64, 64]
000000 fd f8 81 3e 38 bc 45 3e 0e ba ed bd 47 dc 9a 3e
       0.25385275 0.19310081 -0.11607753 0.30246183
000010 08 e5 64 3d 26 a7 28 be 20 72 3c bc 52 c9 63 3e
       0.055882484 -0.16470012 -0.011501819 0.22244766
000020 dd f5 8f be 74 ab 8f bd 42 b8 69 3e 64 d8 ac bd
       -0.28117266 -0.07015124 0.22824195 -0.08439711
000030 6c 39 fd bd 46 0e a9 bd 90 7c cd 3d ee ee 71 be
       -0.12364468 -0.082546756 0.10033524 -0.236263
000040 18 aa 1e 3d fc 2b a1 3d 40 8d a5 3d c0 47 cb bb
       0.038736433 0.078697175 0.08083582 -0.0062036216
000050 8a 49 1a 3e e0 0e 94 bc 3a 30 73 3e de 92 4f 3e
       0.15067115 -0.0180735 0.23748866 0.20270869
000060 53 a6 58 be 80 14 75 bd e2 d9 73 3e 20 7a fb bc
       -0.21157198 -0.059834003 0.23813584 -0.030697882
000070 52 ce bf bd 50 0f 9d bc 50 1e 90 bd 02 d0 da bd
       -0.09365524 -0.01917234 -0.07037032 -0.106842056
000080 18 c0 8a 3d 05 19 84 3e 80 cc 35 3d 36 4d 30 3e
       0.0677492 0.25800338 0.04438448 0.17216954
000090 a2 15 72 3e 46 08 4c be 5b 02 5f be 88 d3 38 bd
       0.23641065 -0.19925031 -0.21778242 -0.045123607
0000a0 f0 cc ba 3d 30 2a 18 bd 54 f0 12 be ef ca 57 be
       0.0912112 -0.037149608 -0.1434949 -0.21073507
0000b0 60 81 12 3c 2a 45 69 3e 20 66 58 3c 77 54 95 3e
       0.008941978 0.2278029 0.013207942 0.29166004
0000c0 31 62 14 be 23 c2 90 3e d8 02 49 be 46 1a 79 3e
       -0.14490582 0.28273115 -0.19629991 0.24326429
0000d0 58 ed 08 3d ab ed 9b 3e d5 2e 95 3e e8 91 d6 bd
       0.033429474 0.30454764 0.29137293 -0.10477048
0000e0 00 6c b7 bc fc 46 aa bd a4 7f 8b 3d 20 8b 1a be
       -0.022390366 -0.083143204 0.06811455 -0.15092134
0000f0 76 b9 91 bd ff 09 3e be 3a f3 3e 3e 5e b8 77 3e
       -0.07115452 -0.185585 0.18647471 0.24191424
000100 c8 0e 0a 3d e0 ab 18 bc 86 29 6b be 0c d4 8e be
       0.033705503 -0.009318322 -0.22965059 -0.27896154
000110 ed eb 71 be d6 25 68 be 91 fc 80 be ec 01 13 3e
       -0.23625155 -0.22670683 -0.25192693 0.14356202
000120 26 2b 6f be 0a 40 16 3e 82 9f 50 3e 00 25 a2 ba
       -0.23356304 0.14672866 0.20373347 -0.0012370646
000130 04 8e 94 3d 8c b0 43 3e 29 29 8e be 43 69 87 3e
       0.0725365 0.19110316 -0.27765778 0.26447496
000140 41 60 9a 3e 03 98 95 3e a4 ca f4 bd f2 79 40 3e
       0.3015156 0.29217538 -0.11952713 0.18796518
000150 64 a5 e6 bd 38 16 43 3d 03 1a 83 3e 8c 60 83 3d
       -0.112620145 0.04762861 0.25605783 0.06414899
000160 8c 51 e5 3d ce f0 a6 bd 3f d4 14 be 9a cc 7f 3e
       0.111971945 -0.081513986 -0.1453409 0.24980393
000170 d8 7b 8d be 48 52 5b 3d e0 89 f2 bc 56 a0 b0 bd
       -0.27633548 0.053545266 -0.02960676 -0.08624332
000180 d0 24 99 be a0 70 3a be 1d f5 32 be e8 03 3d 3d
       -0.29910898 -0.18207026 -0.17476316 0.046146303
000190 68 95 f4 3d e2 7e 8e be c6 23 f1 bd 5c 7b 95 be
       0.119425595 -0.2783118 -0.11774401 -0.29195678
0001a0 4e 6a 56 3e a1 08 90 be f0 c4 27 bd 28 fd 32 bd
       0.2093899 -0.28131583 -0.0409593 -0.04369846
0001b0 2d ea 2b be be 3d 61 3e 8a 23 06 3e ac 9a 23 3e
       -0.1678855 0.21996209 0.13099495 0.15976971
0001c0 aa 06 5d 3e 18 9a 1c be 94 b1 17 3e 72 70 7d 3e
       0.21584573 -0.15293157 0.14813834 0.24749926
0001d0 d8 f8 8f bd f0 4c cd bc c0 4c ed 3c d9 f1 99 be
       -0.07029885 -0.0250611 0.028967261 -0.30067328
0001e0 c8 78 05 bd e8 08 16 bd 2a f3 63 be f2 5c 65 3e
       -0.03258589 -0.036629587 -0.22260728 0.22398737
0001f0 84 ef 89 be 7a 22 fb bd 68 a0 38 3e 48 87 42 3d
       -0.26940548 -0.12262435 0.1802994 0.047492296
000200 dc 37 fe 3d e0 08 58 3c cc e0 91 be fa 29 61 be
       0.12412998 0.01318571 -0.2849182 -0.21988669
000210 96 4d d4 bd 53 1d 53 be 12 4d 43 be 00 f7 ca bd
       -0.10366361 -0.20616655 -0.19072369 -0.09910393
000220 db bb 8b 3e 0a ff 72 3e b0 0c 7c 3d 04 22 49 be
       0.2729176 0.23730102 0.061535537 -0.19641882
000230 c8 f5 3c be f9 82 99 3e 10 63 1b 3d 38 02 0e 3d
       -0.18453133 0.29982737 0.03793627 0.034670085
000240 d7 af 31 be ea 12 20 be c4 22 1a 3e 10 2e d7 bc
       -0.17352234 -0.15632215 0.15052325 -0.026267081
000250 78 ef 02 bd 42 76 1a be 04 56 68 be d4 52 4a be
       -0.031966656 -0.15084174 -0.22689062 -0.19758159
000260 0e 56 9a be 77 92 8f 3e 50 16 38 3d d0 94 2f 3d
       -0.3014378 0.2804143 0.044943154 0.042866528
000270 d2 68 6b 3e 0e 88 1d 3e 68 34 37 bd 08 21 42 3e
       0.22989205 0.15383932 -0.044727713 0.18957913
000280 00 fa a0 3b 3a d1 98 be 06 27 7e 3e 07 bb 38 be
       0.004912615 -0.29847127 0.24819574 -0.18040095
000290 0b ef 6c be 68 da 90 bd 18 10 99 3d 8a a2 76 3e
       -0.23138063 -0.07072908 0.07473773 0.24085441
0002a0 0b 30 9b be ae b5 92 be 2c f0 50 be 0e 29 37 be
       -0.3031009 -0.28654236 -0.20404118 -0.17886755
0002b0 fd 21 9a 3e 00 8e 9b bb 86 90 63 3e 58 ce b0 3d
       0.30104056 -0.0047471523 0.222231 0.08633107
0002c0 cc 31 37 3e 6c 8e 22 be 68 80 08 3e 9c 9d e3 3d
       0.1789009 -0.15874642 0.13330233 0.11114046
0002d0 c8 d8 d7 3d 83 66 6b be 9e 10 d8 bd ef 28 85 3e
       0.105393946 -0.22988324 -0.105500445 0.26007792
0002e0 6a 36 89 bd 62 c6 63 be 61 bd 84 be a4 87 7e bd
       -0.06699832 -0.22243646 -0.25925735 -0.062141076
0002f0 4e 1a 11 3e 02 fb b8 bd 1e 9d 5f 3e 3c a1 05 3e
       0.1417019 -0.09032251 0.21837279 0.13049787
000300 4d d5 7a be 80 04 50 3b 43 ec 8e 3e 60 0a 43 3e
       -0.2449543 0.0031740963 0.27914628 0.19046926
000310 b0 2f e1 bd 0e b7 68 be 80 db a2 3d 28 82 16 3e
       -0.10995424 -0.2272608 0.079520226 0.14698088
000320 86 12 81 bd 66 c0 85 be e9 73 97 3e 6c 85 17 3e
       -0.06302361 -0.2612335 0.2958062 0.1479699
000330 1b 15 9c be 00 e0 5c 3c f6 f9 8c bd 4d 70 91 3e
       -0.30484852 0.01348114 -0.06883614 0.2840599
000340 7a 89 25 3e bc 2c a6 3d de e4 b8 bd 16 2c 67 be
       0.16165724 0.08114001 -0.09028028 -0.22575411
000350 9c 1c c4 3d 24 a4 fd 3d 00 9e d6 3b 0b cf 89 3e
       0.09575769 0.12384823 0.006549597 0.26915774
000360 9c f4 33 3e de 06 83 be 40 48 8a bc a5 ce 0b be
       0.1757378 -0.25591177 -0.016880155 -0.13653047
000370 a0 4f 67 bc 30 ae e4 3c 50 0c 1a 3d 34 3c 40 3e
       -0.014118105 0.02791509 0.0376094 0.18772966
000380 ca 25 58 3e d0 16 85 3c 1e 81 eb bd ad 11 1c be
       0.21108165 0.01624623 -0.114992365 -0.15241118
000390 7c 70 22 3e 20 0a e3 3d 23 cf 84 3e 77 28 84 be
       0.15863222 0.110859156 0.25939283 -0.25812122
0003a0 f3 5b 6f be 33 a0 3b be 96 62 0a 3e 22 d0 73 3e
       -0.2337492 -0.1832283 0.1351417 0.23809865
0003b0 20 2c ca bc 7e 34 83 be 88 97 47 3d 1b d5 86 be
       -0.024679244 -0.25625986 0.048728496 -0.26334462
0003c0 26 4c 48 3e 0c 58 6b be d0 30 36 3d 80 4f 5f 3b
       0.19560298 -0.22982806 0.044480145 0.0034074485
0003d0 24 d7 1d 3e c4 34 59 be 80 b8 0c 3e 20 34 0b 3c
       0.15414101 -0.21211535 0.13742256 0.008496314
0003e0 e8 3a 19 3d ca ae 54 be bf 1c 94 3e b0 57 62 bd
       0.037409693 -0.20769802 0.28928182 -0.055259407
0003f0 85 b0 36 be 32 b3 af bd 2c 49 ba bd cd df 9b 3e
       -0.17840774 -0.08579101 -0.09095988 0.30444184

h2.bias f4 [64]
000000 10 39 4f bd 40 34 57 bc d9 7d 8d 3d c1 36 bf 3d
       -0.05059153 -0.013135016 0.06908769 0.09336615
000010 00 3b 58 3a 35 a8 b9 bd 53 02 3b bd d7 c1 8f 3d
       0.0008248538 -0.09065286 -0.045656513 0.07019394
000020 70 54 79 3c 2b d7 88 3d db c6 a8 3d 40 4f 0c bd
       0.015217885 0.06681665 0.08241054 -0.034255266
000030 42 c1 6d 3d d8 62 3d bc 2a 9e 35 bd c5 74 8d bd
       0.058045633 -0.011559211 -0.04434029 -0.06907038
000040 c0 f9 9f 3c 78 9d b2 3c 8f 62 86 3d 19 eb c8 3d
       0.01952827 0.021803603 0.06561767 0.09810466
000050 48 a4 a0 bd a0 c8 83 bc c0 d9 f7 bc 42 98 51 3d
       -0.07843834 -0.016086876 -0.030255198 0.051170595
000060 b2 bc 47 3d a3 bc b9 3d 79 08 8d 3d 27 1c 8b 3d
       0.04876394 0.09069183 0.06886382 0.06792479
000070 68 6b 9b bd e5 a4 87 bd 08 19 a4 bd ad f1 49 bd
       -0.075888455 -0.06623248 -0.08012587 -0.049302746
000080 a0 a5 49 bd b5 16 8f 3d 90 c2 46 bd 49 ad af 3d
       -0.049230218 0.06986753 -0.048525393 0.085779734
000090 af d1 ac 3d ce 60 7f 3d 8e 4a 70 3d eb 70 91 3d
       0.084384315 0.06234818 0.05866485 0.071016155
0000a0 94 44 86 3c bc 12 88 bd 61 08 99 3d db 3a 95 3d
       0.016390122 -0.06644198 0.07472301 0.072866164
0000b0 91 60 8b 3d c0 f9 8e bd b0 80 4e bc 3f cc 84 3d
       0.06805528 -0.0698123 -0.012603924 0.06484269
0000c0 00 f5 4f bb 50 a9 e7 bb 1d e1 5a bd 22 17 4d 3d
       -0.0031731725 -0.007069744 -0.05343734 0.05007089
0000d0 62 a5 34 3d 08 cd b2 bc 79 27 97 3d 10 f8 70 bd
       0.044103034 -0.021826282 0.07380576 -0.05883032
0000e0 fe 0c 55 3d e0 90 89 bb 03 82 25 bd 90 88 7d 3c
       0.052014343 -0.0041981786 -0.040407192 0.015474454
0000f0 17 bd b2 bd bd 36 a7 3d 80 2c ad bc cd c9 52 bd
       -0.08727472 0.081647374 -0.021139383 -0.051461983

h3.weight f4 [4, 64]
000000 07 13 90 3e a4 b0 16 be 86 63 61 3e a4 57 95 3d
       0.28139517 -0.1471582 0.22010621 0.07292107
000010 00 5b 13 3b 8c e6 f1 3d fd 61 0f be 93 d0 05 be
       0.002248466 0.118115515 -0.14002223 -0.13067846
000020 77 a6 84 be c3 53 81 3e 9c 21 04 be e6 a5 75 3e
       -0.25908253 0.25259218 -0.12903446 0.23989066
000030 d8 de 23 3d 80 7d a0 bc 51 b6 89 3e d4 dd 1c 3e
       0.040007442 -0.019591093 0.2689691 0.15318996
000040 ca 59 2c 3e 80 80 2f bd cc 12 03 3e 94 94 96 be
       0.16831127 -0.042847157 0.12800139 -0.2941023
000050 c0 75 f0 bb 00 18 8b ba 2d 70 82 be 58 ca 65 bd
       -0.0073382556 -0.0010612011 -0.25476208 -0.056101173
000060 5c 08 d1 3d 96 a3 53 3e 90 de dd 3c 28 3d ee bd
       0.102066725 0.20667872 0.027083665 -0.116327584
000070 7c 78 14 be 3c af 4a be 70 ed e9 bd 81 fb 17 be
       -0.14499086 -0.19793409 -0.11422241 -0.14842035
000080 28 88 6e be 88 aa 75 3d 20 d9 49 be 40 16 e4 bb
       -0.23294127 0.059977084 -0.19711733 -0.00696066
000090 b2 80 61 3e c1 8e 50 be d8 b0 44 3e c3 c1 7d be
       0.2202175 -0.20366956 0.19208086 -0.24780945
0000a0 55 b6 84 be 6f f0 96 3e 96 bc 19 be 03 cf 85 3e
       -0.25920358 0.2948031 -0.15013346 0.261345
0000b0 75 a9 8c 3e d4 1e ad 3d c7 5a 1c be 0c 0b a2 3d
       0.27473035 0.084531456 -0.15269004 0.07912263
0000c0 10 80 82 3d d0 95 82 3d 40 36 1c 3d cb 09 9a 3e
       0.06372082 0.06376231 0.038137674 0.30085596
0000d0 70 de 2c 3d 24 9e 1b 3e 50 99 e9 bd e6 da cd bd
       0.04220432 0.15197045 -0.11406195 -0.10051517
0000e0 f1 0c 82 3e c0 64 d3 bc 20 7a 02 3e dd f9 09 be
       0.25400499 -0.025804877 0.127419 -0.13474222
0000f0 18 41 72 3d 03 63 73 be f8 4d 2f 3d 58 41 41 3d
       0.05914411 -0.23768239 0.042798966 0.047181457
000100 60 cc d3 bc 3c d4 fc 3d c4 31 28 3e de d3 5e 3e
       -0.02585429 0.12345168 0.16425234 0.21760508
000110 0f 12 8f be 00 db c3 bc f2 34 35 3e 0a 60 50 3e
       -0.27943465 -0.023908138 0.17695978 0.20349136
000120 fe b4 75 be 00 90 b2 b8 40 29 81 bc d0 81 50 bd
       -0.23994824 -8.5145235e-05 -0.01576674 -0.05090505
000130 0e 5d 06 3e a0 38 03 3e 47 77 8e be 40 ab 48 3d
       0.13121435 0.1281457 -0.27825376 0.04899144
000140 35 e1 28 be b2 be 21 3e 80 88 e5 bb 58 e0 59 3d
       -0.1649216 0.157954 -0.0070047975 0.053192466
000150 80 2e 2f bd 86 d3 79 3e bb f5 81 be f2 44 08 3e
       -0.042768955 0.24397096 -0.2538279 0.1330755
000160 fb 8f 98 3e b4 b7 f7 bd 80 50 a1 3d 8e ce 1a be
       0.29797348 -0.120955855 0.07876682 -0.15117857
000170 f9 69 17 be e4 1f 2b be 5e fa 1a 3e 06 38 4a 3e
       -0.14786519 -0.16711384 0.1513457 0.19747934
000180 18 c5 25 bd a0 89 18 bd c1 4d 62 be be 42 29 3e
       -0.040471166 -0.037240624 -0.22099973 0.16529366
000190 86 a3 0e 3e a0 d4 62 bc 5e 03 45 be 12 4b 1d 3e
       0.13929567 -0.013844639 -0.19239566 0.15360668
0001a0 ee b8 4c be 22 33 4c 3e 34 66 79 be 48 1e dc 3d
       -0.1999242 0.1994138 -0.24355394 0.10747963
0001b0 06 06 54 be c8 5e 13 3d e9 8f 97 3e fa 6d 5c 3e
       -0.20705423 0.035979062 0.29601982 0.21526328
0001c0 50 37 6a be 74 78 95 bd e0 1b 50 3d 2e 44 d1 bd
       -0.22872663 -0.07298365 0.050807834 -0.10218082
0001d0 20 f0 66 bd 1a e8 6c 3e c6 9a 6a be 84 c4 75 be
       -0.056381345 0.23135415 -0.22910604 -0.24000746
0001e0 86 b4 80 be 80 8e b6 bb 10 86 56 bd 24 ef a2 3d
       -0.25137728 -0.0055711865 -0.052373946 0.07955769
0001f0 ce b6 2b be a3 fa 21 be 51 96 0e be 78 2a f1 3d
       -0.16768953 -0.15818267 -0.13924529 0.117756784
000200 4b 67 97 3e 68 71 87 be b6 76 2c 3e 7e f7 4e 3e
       0.29570994 -0.2645371 0.1684216 0.20211598
000210 22 04 5d be b5 ff 36 be da 7f 73 3e 1e f7 f3 bd
       -0.21583608 -0.17870982 0.2377924 -0.11912368
000220 28 95 28 3e c0 ea c5 3c 72 ca 8b be 8e e9 28 3e
       0.16463149 0.02415979 -0.2730289 0.16495344
000230 88 b5 08 3d c4 d5 3e be f0 c8 5b 3d e2 67 ed bd
       0.033376247 -0.18636233 0.053658426 -0.1159208
000240 f0 e1 31 be be d7 c2 bd dd 36 80 be 0c a8 91 be
       -0.17371345 -0.09513806 -0.25041857 -0.28448522
000250 80 43 d2 bb ce 7f 4c be b0 53 d5 3d 12 1f 54 3e
       -0.006416738 -0.19970629 0.10416353 0.20714977
000260 38 c9 0f bd e7 85 84 be bb 5f 8f be fa bb 24 3e
       -0.035104007 -0.2588341 -0.28002724 0.16087332
000270 40 7a a4 3c fc 50 88 be 3b 2c 09 be 08 f9 c3 3d
       0.020077825 -0.26624286 -0.13395779 0.09568983
000280 20 c6 cb 3c 94 d4 16 3e 2f 94 93 3e e8 ff e0 bd
       0.024874747 0.1472953 0.28823993 -0.1098631
000290 a2 6f bf bd df 37 9b be c5 92 8f 3e 30 87 d7 bc
       -0.09347464 -0.30316064 0.28041664 -0.02630958
0002a0 e4 84 b5 bd 20 5a e3 bc e7 d2 07 be 90 03 02 3d
       -0.088632375 -0.027752936 -0.13264047 0.03174168
0002b0 5e c5 68 3e 64 e6 da 3d 58 61 9b 3d 22 e7 0f be
       0.2273154 0.10688475 0.07586926 -0.14053014
0002c0 72 b1 2d 3e e5 fd 9b 3e 12 d6 85 be 25 91 31 be
       0.16962221 0.30467144 -0.26139885 -0.17340524
0002d0 31 55 98 3e 82 51 72 3e dc ca a3 3d 2d 6a 8f 3e
       0.29752496 0.23663905 0.07997677 0.28010693
0002e0 40 86 cf bb 7c 27 94 3d 7e 86 15 3e ff 65 92 3e
       -0.0063331425 0.072340935 0.14602086 0.28593442
0002f0 e7 6c 6b be 76 57 0c 3e 14 2b ff 3d 1a 17 03 be
       -0.22990762 0.13705239 0.124593884 -0.12801781
000300 ed c1 05 be f8 40 ef 3d 6e bb 3a be 3a 21 29 3e
       -0.13062258 0.11682314 -0.18235561 0.16516581
000310 3a 73 4d 3e da eb 19 3e 2e 14 2c be 81 8b 93 3e
       0.20063487 0.15031376 -0.16804573 0.2881737
000320 54 ee ee 3d fe d8 99 be be 45 97 be a4 4c de 3d
       0.11666551 -0.30048364 -0.29545397 0.10854462
000330 8c a4 10 3e 13 fd 87 3e 02 ae 72 3e 58 b0 42 3e
       0.1412527 0.26560268 0.23699191 0.19012582
000340 26 ad bc bd 60 2d aa bc 31 60 44 be e0 34 27 3c
       -0.09212713 -0.02077359 -0.19177319 0.0102054775
000350 18 73 84 3d 36 05 0f 3e fc 39 81 3d 78 96 63 3d
       0.06467265 0.13966832 0.06309888 0.05556342
000360 00 f0 86 39 c1 c2 75 be dc a6 08 be 6a 80 91 bd
       0.00025737286 -0.24000074 -0.13344902 -0.07104571
000370 00 a1 a7 3d 00 31 42 3c f9 65 30 be 7c d2 11 be
       0.08185005 0.011852503 -0.172264 -0.1424045
000380 8a e7 9a bd 63 af 85 3e 02 27 51 3e 86 b9 86 be
       -0.07563694 0.26110372 0.20425037 -0.26313418
000390 14 ec 29 be 0c 6e e9 3d b4 12 d8 bd 3c 8d c3 bd
       -0.16593963 0.11397943 -0.10550442 -0.09548423
0003a0 aa 60 7f be a8 30 00 bd c4 53 d8 3d 25 1b 8b 3e
       -0.24939218 -0.031296402 0.10562852 0.27169147
0003b0 64 2c aa bd 28 17 f8 bd 48 d1 67 3d d0 dc c6 3c
       -0.08309248 -0.12113792 0.05659607 0.024275213
0003c0 18 0b 18 3d c9 72 91 be da cf 74 3e 00 99 6c bb
       0.037119955 -0.28407887 0.23907414 -0.0036101937
0003d0 00 47 d7 bc 5a d3 ca bd 69 77 90 be 76 59 cf bd
       -0.026278973 -0.09903593 -0.28216103 -0.10124485
0003e0 19 eb 8f be 6e 00 01 3e db 7c 24 be a3 36 8e be
       -0.28109053 0.1259782 -0.16063254 -0.2777606
0003f0 9f d6 1e be 88 52 f5 3d a8 7e 2e be 7c 4f 72 be
       -0.15511559 0.11978632 -0.17040503 -0.23663133

h3.bias f4 [4]
000000 f0 bf 20 3c 3e b3 6b 3d d9 4b 98 3d 81 70 87 3d
       0.0098113865 0.057543986 0.07436342 0.06613255
