weights/weights_test_sparse/w=0.30_2.pth (torch, 38732 bytes, 8 tensors)

input.weight f4 [64, 4]
1.5099647 1.2307304 2.1740034 1.5057651 0.52753013 0.93473226 2.5520692 2.7449965
-4.158789 -3.090971 -2.4206085 -1.2805384 2.9353564 2.453632 2.9238398 2.629054
2.6268833 1.1973782 2.889331 3.1934638 -2.350091 -0.558338 -1.783596 -2.3480256
-3.3216453 -3.0463352 -3.5132227 -3.3449833 -1.8286935 -1.7190545 -1.739496 -3.214496
-2.1561139 -2.3805075 -0.062449418 -2.823637 2.2793221 2.5530016 2.0471706 1.6759344
-2.0564477 -4.090455 -4.098987 -3.1298254 -2.8059373 -2.9250715 -2.1695209 -1.8001128
3.3725975 3.1146653 3.408741 2.4559546 2.3832161 2.4408872 2.3632166 1.7209657
-2.746849 -4.520084 -3.9957125 -4.481324 -2.6791945 -3.7482889 -2.0528014 -4.0871882
3.8024485 3.8947017 4.2173467 3.8174658 1.6580142 2.5261338 1.9664348 2.3504677
2.2605553 4.1626425 2.9887013 4.9284425 3.1895323 3.4765944 3.1074715 3.609693
2.8798616 0.8723274 2.7846975 2.298262 -3.221025 -3.5174127 -3.9824967 -1.9318165
-3.8831341 -2.2131128 -2.1428664 -4.5964284 -2.493861 -3.2257612 -1.8930291 -3.1041472
3.0123208 0.6295435 2.4644418 2.4659922 -2.4034421 -2.75945 -4.1004796 -3.6059778
-4.0331545 -4.377764 -3.4545105 -3.2754905 -3.4302716 -3.9270432 -2.1661816 -3.0649424
1.0805683 1.3392843 0.13192606 1.4775264 3.0437803 2.0137222 3.0587404 2.6950967
3.6919582 3.8923476 3.4206176 3.1613195 1.0443938 0.93399245 0.31729996 0.90608084
-2.313784 -2.0631304 -1.1873726 -2.6887536 2.2465732 3.025151 2.803899 3.094379
3.377409 2.670014 3.1032355 4.6318536 -4.435807 -4.5109053 -3.199279 -3.2875135
5.0729275 5.026173 3.4497292 3.4951658 -1.5376431 -0.51980525 -1.6392893 -2.3564897
2.7905698 3.0340865 2.2175653 3.2696898 3.1616802 2.08911 3.0707893 2.612979
5.307006 4.163556 2.7801032 4.3356643 4.0443773 3.528805 3.2422824 2.950005
-6.029703 -4.210733 -5.060682 -3.1650205 3.0246983 0.6338585 3.1023812 1.92922
-3.5993075 -3.9529426 -3.6508732 -2.6803188 -2.737437 -1.9894131 -3.8121989 -3.1788163
-0.39601195 -1.591945 0.1661443 -2.1216457 2.6005626 4.137444 4.2000713 3.4498012
-3.3586254 -4.2407756 -3.4920027 -4.215888 -4.3597455 -2.6187365 -2.7944858 -4.9588804
4.181195 5.2294073 6.4187846 3.261197 4.465404 3.4272113 3.7002423 2.3728442
-4.2482324 -3.8446681 -3.0925093 -2.8166385 0.80054164 -0.5139809 0.5399328 -1.228202
0.7836908 -0.7867616 -0.95848244 0.7485254 -2.8328025 -2.5278282 -2.3760824 -2.542556
0.7545871 0.5655755 -0.6321546 0.4398436 -1.6465528 -1.4033337 -0.8718667 -1.2121416
3.569865 3.4707143 3.115379 3.5225885 2.6366441 2.5033655 3.6427524 2.8096557
3.3831942 1.6171268 3.410748 3.5513954 0.74320465 -0.6905774 -1.1950606 -0.47285226
-3.4279673 -1.9373255 -3.6750329 -3.5148125 -1.0242413 -1.9492593 -2.0052466 -1.450096
00000000: 8646 c13f 9388 9d3f df22 0b40 e9bc c03f
00000010: 370c 073f 9d4a 6f3f 1a55 2340 06ae 2f40
00000020: cd14 85c0 78d2 45c0 40eb 1ac0 afe8 a3bf
00000030: e1dc 3b40 4f08 1d40 3120 3b40 6c42 2840
00000040: db1e 2840 b043 993f cdea 3840 b661 4c40
00000050: e467 16c0 3def 0ebf e04c e4bf 0d46 16c0
00000060: d695 54c0 28f7 42c0 a4d8 60c0 3514 56c0
00000070: a112 eabf fa09 dcbf cea7 debf 4dba 4dc0
00000080: c5fd 09c0 3c5a 18c0 f6ca 7fbd 78b6 34c0
00000090: 6ae0 1140 6164 2340 d804 0340 0585 d63f
000000a0: d79c 03c0 02e5 82c0 e72a 83c0 0f4f 48c0
000000b0: 7a94 33c0 5f34 3bc0 6ed9 0ac0 196a e6bf
000000c0: a3d8 5740 ad56 4740 d028 5a40 5c2e 1d40
000000d0: 9d86 1840 7f37 1c40 f13e 1740 9b48 dc3f
000000e0: 60cc 2fc0 87a4 90c0 c1b9 7fc0 0267 8fc0
000000f0: ec77 2bc0 f7e3 6fc0 1961 03c0 3fca 82c0
00000100: 515b 7340 cb42 7940 81f4 8640 5c51 7440
00000110: cf39 d43f 2dac 2140 23b4 fb3f 106e 1640
00000120: f0ac 1040 5e34 8540 e246 3f40 cdb5 9d40
00000130: 4c21 4c40 8680 5e40 d0e0 4640 3605 6740
00000140: a74f 3840 d950 5f3f 7c38 3240 b916 1340
00000150: 4625 4ec0 4a1d 61c0 3ae1 7ec0 c345 f7bf
00000160: 4585 78c0 a4a3 0dc0 b924 09c0 f115 93c0
00000170: 6b9b 1fc0 df72 4ec0 c74e f2bf 59aa 46c0
00000180: ddc9 4040 c329 213f 6ab9 1d40 d1d2 1d40
00000190: ffd1 19c0 d49a 30c0 2137 83c0 57c8 66c0
000001a0: 9a0f 81c0 a516 8cc0 b316 5dc0 a3a1 51c0
000001b0: 9289 5bc0 ad54 7bc0 b8a2 0ac0 0428 44c0
000001c0: 1050 8a3f ab6d ab3f a017 073e 961f bd3f
000001d0: 4ccd 4240 d3e0 0040 67c2 4340 777c 2c40
000001e0: 0b49 6c40 391c 7940 66eb 5a40 0f53 4a40
000001f0: b2ae 853f 211a 6f3f 2475 a23e eaf4 673f
00000200: 0915 14c0 540a 04c0 d3fb 97bf 8a14 2cc0
00000210: dbc7 0f40 139c 4140 1573 3340 4e0a 4640
00000220: 7827 5840 82e1 2a40 699b 4640 2538 9440
00000230: 22f2 8dc0 5659 90c0 fdc0 4cc0 9f66 52c0
00000240: 6c55 a240 69d6 a040 5dc8 5c40 ccb0 5f40
00000250: 7dd1 c4bf f511 05bf 3bd4 d1bf bad0 16c0
00000260: b298 3240 792e 4240 97ec 0d40 9942 5140
00000270: f858 4a40 fab3 0540 d087 4440 0c3b 2740
00000280: fed2 a940 da3b 8540 36ed 3140 c3bd 8a40
00000290: 8a6b 8140 f1d7 6140 8e81 4f40 e2cc 3c40
000002a0: 54f3 c0c0 53be 86c0 1bf1 a1c0 b28f 4ac0
000002b0: a894 4140 8d44 223f 6a8d 4640 aef0 f63f
000002c0: 0e5b 66c0 03fd 7cc0 e8a7 69c0 588a 2bc0
000002d0: 2b32 2fc0 17a5 febf 11fb 73c0 ba71 4bc0
000002e0: 14c2 cabe dbc4 cbbf bb21 2a3e 0bc9 07c0
000002f0: 9e6f 2640 f165 8440 fc66 8640 8bc9 5c40
00000300: b8f3 56c0 6fb4 87c0 f97c 5fc0 8ee8 86c0
00000310: 0983 8bc0 6199 27c0 dbd8 32c0 26af 9ec0
00000320: 59cc 8540 4e57 a740 af66 cd40 74b7 5040
00000330: 97e4 8e40 6e57 5b40 c5d0 6c40 aedc 1740
00000340: 85f1 87c0 0b0f 76c0 aceb 45c0 ce43 34c0
00000350: 4cf0 4c3f 4194 03bf 0939 0a3f b935 9dbf
00000360: f69f 483f 3569 49bf 1b5f 75bf 5c9f 3f3f
00000370: a34c 35c0 f0c7 21c0 bc11 18c0 3db9 22c0
00000380: 9f2c 413f 8ec9 103f e2d4 21bf 2e33 e13e
00000390: 3ec2 d2bf 70a0 b3bf a832 5fbf 7527 9bbf
000003a0: ab78 6440 2f20 5e40 5f62 4740 1772 6140
000003b0: c7be 2840 2437 2040 db22 6940 66d1 3340
000003c0: 4186 5840 03fe ce3f b249 5a40 104a 6340
000003d0: a942 3e3f aec9 30bf bff7 98bf b119 f2be
000003e0: d163 5bc0 48fa f7bf bd33 6bc0 b0f2 60c0
000003f0: 571a 83bf 5481 f9bf f655 00c0 bf9c b9bf

input.bias f4 [64]
1.6106943 1.8562136 -2.4141223 2.267081 2.122487 -1.7248901 -3.637478 -1.8563375
-1.481709 2.008919 -3.1005898 -2.5685089 2.5810971 2.1881638 -3.7489307 -2.93558
3.090487 1.8900253 3.7743042 3.1413398 2.038609 -2.7897317 -3.0387142 -2.6534903
2.1585221 -3.1245356 -4.007372 -3.010975 0.79701227 1.9876223 2.9020596 0.2773592
-2.1345444 3.0171993 3.949757 -3.6533573 4.7886634 -1.0368533 2.3244944 1.979877
4.239787 3.3093765 -4.6535206 1.9460549 -3.2887037 -2.6414695 -1.0580118 3.2926655
-3.463911 -3.5850515 4.5421195 3.238919 -3.0510685 -0.1680049 0.2530292 -1.8904921
0.14203203 -0.7022754 2.8016477 2.5595624 2.5867584 -0.0974387 -3.3504214 -1.2950867
00000000: 3b2b ce3f 6898 ed3f fb80 1ac0 db17 1140
00000010: d4d6 0740 33c9 dcbf 71cc 68c0 789c edbf
00000020: a4a8 bdbf 2192 0040 1070 46c0 7362 24c0
00000030: b230 2540 e00a 0c40 7bee 6fc0 8be0 3bc0
00000040: 8aca 4540 59ec f13f 338e 7140 b60b 4940
00000050: 9278 0240 f78a 32c0 4b7a 42c0 c9d2 29c0
00000060: 3a25 0a40 64f8 47c0 643c 80c0 d0b3 40c0
00000070: ff08 4c3f 686a fe3f 58bb 3940 0602 8e3e
00000080: 609c 08c0 cb19 4140 d2c8 7c40 9bd0 69c0
00000090: bb3c 9940 9cb7 84bf 84c4 1440 9c6c fd3f
000000a0: 56ac 8740 d3cc 5340 a4e9 94c0 5418 f93f
000000b0: 1f7a 52c0 d60d 29c0 ee6c 87bf 08bb 5240
000000c0: b8b0 5dc0 7c71 65c0 0b59 9140 734a 4f40
000000d0: b544 43c0 7a09 2cbe 0b8d 813e a5fb f1bf
000000e0: d870 113e 52c8 33bf 324e 3340 dfcf 2340
000000f0: 738d 2540 f18d c7bd 4e6d 56c0 67c5 a5bf

h1.weight f4 [64, 64]
2.7737222 2.6939325 -2.27003 2.0447302 2.0418282 -3.0136561 -3.9803333 -2.3786418
-2.0766828 2.926897 -2.2736096 -3.6108737 2.5092335 2.4616673 -2.3514838 -2.639859
1.7595538 2.0541997 5.128292 2.4751935 3.2725887 -3.4040325 -1.9735569 -4.8952584
2.773047 -2.4751246 -4.01207 -2.1058998 1.6587726 1.6856005 1.5209074 1.5032107
-3.1864579 3.2271898 3.1973948 -2.4192145 4.4321136 -1.9322321 2.1322608 1.5245427
3.639922 2.1825254 -4.419241 2.4015524 -2.5445325 -2.012337 -3.5271037 2.1132667
-3.8006313 -3.6682684 4.793059 3.1647363 -2.276467 -0.2310123 -0.5452464 -1.6527051
-0.56920993 -1.0218557 1.9865066 2.246779 1.7988421 -1.0764906 -2.5138705 -2.232724
0.5306177 0.4020649 0.6168296 -0.48150563 -0.65609294 -0.59406567 0.296071 0.4951462
0.29494026 -0.29558504 0.86089766 0.3341605 -0.8352005 -0.85933024 0.77604574 0.66378343
-0.88258386 -0.6945345 -0.3696717 -0.60275227 0.32292518 0.7059217 0.904098 0.878885
-0.5728078 0.5155282 -0.56766236 0.8255807 -0.46750495 -0.85366845 -0.438377 -0.40036052
0.3394709 -0.8132094 -0.3902859 0.76195425 -0.86715835 0.6841038 -0.4147984 -0.5376851
-0.43634215 -0.50081897 0.6873837 -0.42121172 0.49538025 0.60137004 -0.6737931 -0.6552129
0.7171058 0.48108527 -0.6157663 -0.33882028 0.70027643 -0.2996207 0.5854936 0.48889536
-0.33037648 0.40725815 -0.45682457 -0.34076574 -0.7727953 0.53797525 -0.32320085 0.5749581
-0.86819917 -0.76937157 0.3114097 -0.65927404 -0.43032852 -0.6405666 0.5425363 -0.57461053
0.5749776 -0.6540759 0.5026879 0.63741344 -0.61830527 -0.6435823 0.5222058 0.679214
-0.7164529 -0.61732435 0.5527644 -0.38399777 -0.47126293 0.72798705 0.5977932 0.40567324
-0.57915443 0.35917532 0.6063514 0.9001271 -0.64369774 -0.30723602 -0.7903785 -0.3591142
-0.48469764 -0.73286015 0.29732272 0.4619612 -0.4555144 0.8953622 -0.84595656 -0.73739135
0.7085991 -0.67592067 -0.86063725 -0.7026971 0.6972438 0.30183452 -0.7134537 -0.4198298
0.7453044 0.46734884 -0.31476977 -0.5504304 0.7461781 -0.626086 0.48335525 0.8650382
0.31317198 0.7070195 -0.73410624 -0.6965347 -0.3659581 0.32061374 -0.6407669 0.495759
0.224435 -0.23196547 -0.0600214 -0.12215653 0.22787353 0.24046978 0.006320387 0.12293735
0.30589983 -0.26301572 0.005742848 0.2793208 -0.080049664 -0.2267031 0.271175 0.2900841
0.18059391 0.23015365 -0.026258826 -0.21251383 -0.27077466 0.12722084 -0.08576363 0.299383
0.03417781 0.19858721 0.019735903 -0.07036199 -0.11773978 -0.26143387 -0.2976756 -0.06268832
-0.26594505 -0.30595496 0.15261966 -0.13463005 0.00034543872 -0.07853782 -0.23054543 -0.093559474
-0.19663149 0.05519703 0.28760138 -0.07275213 0.043640852 0.17474875 0.13378212 0.026168078
-0.10503054 -0.059924126 -0.04213032 0.30568436 0.04323119 0.20041111 0.17457852 0.25226745
0.052836776 0.0052967668 -0.088555574 0.19569138 0.22812507 0.23794892 -0.27185267 0.021750271
00000000: aa84 3140 6469 2c40 2c48 11c0 dcdc 0240
00000010: 50ad 0240 bedf 40c0 c8bd 7ec0 ab3b 18c0
00000020: 5fe8 04c0 4852 3b40 d282 11c0 8e18 67c0
00000030: 4897 2040 f58b 1d40 b67e 16c0 73f3 28c0
00000040: 0f39 e13f 0278 0340 f81a a440 9269 1e40
00000050: 1872 5140 abdb 59c0 839d fcbf f5a5 9cc0
00000060: 9a79 3140 7168 1ec0 e162 80c0 10c7 06c0
00000070: a952 d43f c2c1 d73f 18ad c23f 3569 c03f
00000080: edee 4bc0 478a 4e40 1ea2 4c40 69d4 1ac0
00000090: e0d3 8d40 6253 f7bf f676 0840 3724 c33f
000000a0: 7bf4 6840 7fae 0b40 6c6a 8dc0 09b3 1940
000000b0: 9fd9 22c0 21ca 00c0 11bc 61c0 c33f 0740
000000c0: 8b3d 73c0 e9c4 6ac0 bd60 9940 0a8b 4a40
000000d0: a3b1 11c0 7d8e 6cbe 4595 0bbf d78b d3bf
000000e0: beb7 11bf 2bcc 82bf d945 fe3f 3acb 0f40
000000f0: 7540 e63f 72ca 89bf 41e3 20c0 f3e4 0ec0
00000100: 90d6 073f 73db cd3e 8be8 1d3f e887 f6be
00000110: b5f5 27bf b014 18bf 9e96 973e cd83 fd3e
00000120: 6902 973e ec56 97be ca63 5c3f 1617 ab3e
00000130: b3cf 55bf 11fd 5bbf efaa 463f b6ed 293f
00000140: 04f1 61bf 03cd 31bf 9c45 bdbe f94d 1abf
00000150: 7356 a53e 49b7 343f f772 673f 9bfe 603f
00000160: 88a3 12bf a8f9 033f 5252 11bf 4259 533f
00000170: cf5c efbe 048a 5abf f372 e0be 0efc ccbe
00000180: 21cf ad3e 7e2e 50bf 8ed3 c7be 6f0f 433f
00000190: 17fe 5dbf 6d21 2f3f 7560 d4be bba5 09bf
000001a0: 3d68 dfbe ac35 00bf 61f8 2f3f 10a9 d7be
000001b0: 7ba2 fd3e 63f3 193f b47d 2cbf 08bc 27bf
000001c0: 3f94 373f cf50 f63e dca2 1dbf da79 adbe
000001d0: 5145 333f e267 99be e9e2 153f 7e50 fa3e
000001e0: 1b27 a9be 2484 d03e e9e4 e9be d978 aebe
000001f0: ead5 45bf bfb8 093f 957a a5be 7430 133f
00000200: 4d42 5ebf 89f5 44bf 1871 9f3e 2fc6 28bf
00000210: 0554 dcbe 2cfc 23bf a9e3 0a3f ad19 13bf
00000220: bb31 133f 8571 27bf 27b0 003f 872d 233f
00000230: 4149 1ebf cfc1 24bf 48af 053f f8e0 2d3f
00000240: 7569 37bf f808 1ebf f881 0d3f 5b9b c4be
00000250: 6049 f1be 5c5d 3a3f fa08 193f 67b4 cf3e
00000260: 7743 14bf d4e5 b73e d839 1b3f bb6e 663f
00000270: 60c9 24bf 0a4e 9dbe 3f56 4abf d1dd b7be
00000280: 4a2a f8be b99c 3bbf af3a 983e 2e86 ec3e
00000290: 2f39 e9be 7536 653f 9c90 58bf aec5 3cbf
000002a0: c066 353f 2309 2dbf b952 5cbf f5e3 33bf
000002b0: 927e 323f 0e8a 9a3e e7a4 36bf eef3 d6be
000002c0: 45cc 3e3f 5948 ef3e 8129 a1be 02e9 0cbf
000002d0: 8705 3f3f 2c47 20bf 577a f73e 2573 5d3f
000002e0: 1458 a03e 3bff 343f 63ee 3bbf 1950 32bf
000002f0: dc5e bbbe 7c27 a43e 4d09 24bf 20d4 fd3e
00000300: 4ad2 653e 5b88 6dbe 00d9 75bd 342d fabd
00000310: ae57 693e b63d 763e 401b cf3b 94c6 fb3d
00000320: e79e 9c3e ffa9 86be 802e bc3b 2303 8f3e
00000330: 14f1 a3bd dc24 68be 73d7 8a3e e785 943e
00000340: 9ced 383e 66ad 6b3e c01c d7bc 3a9d 59be
00000350: faa2 8abe 2e46 023e d8a4 afbd bb48 993e
00000360: 08fe 0b3d 725a 4b3e 30ad a13c f219 90bd
00000370: 8e21 f1bd a9da 85be f068 98be bc62 80bd
00000380: f329 88be 21a6 9cbe 5448 1c3e 76dc 09be
00000390: 001c b539 70d8 a0bd 1a14 6cbe 1c9c bfbd
000003a0: c459 49be 4816 623d 7d40 933e 12ff 94bd
000003b0: c0c0 323d 56f1 323e 2efe 083e 705e d63c
000003c0: 401a d7bd 0073 75bd d890 2cbd a982 9c3e
000003d0: 3013 313d 9238 4d3e b6c4 323e 3329 813e
000003e0: 606b 583d 8090 ad3b a05c b5bd 5263 483e
000003f0: 9e99 693e e2a8 733e 4630 8bbe a02d b23c

h1.bias f4 [64]
1.1839257 -0.5124766 -0.5769888 0.02113925 0.8152211 -0.6719004 -0.5884822 -0.6154156
0.09023682 1.32135 2.194926 -0.5261202 0.8981052 -0.53245175 -0.003268343 -0.6916046
-0.5368826 -0.61059177 1.4779987 -0.47326893 -0.007359877 1.0244498 1.0940711 0.9096643
0.80990875 0.076286815 -0.60252964 -0.07556565 -0.555258 -0.5923046 1.3409848 0.093100674
-0.6225737 0.9117199 1.159185 5.315511 -0.4116725 1.882697 -0.6376573 1.353095
-0.58818305 -0.56775975 -0.61480784 -0.696998 -0.5660521 1.6193844 1.087311 -0.08272113
0.93389845 1.0234665 1.1666628 1.0822642 -0.6130697 0.8842554 0.943332 0.7832089
-0.52057403 1.1735709 2.6420968 1.349925 1.1199244 0.71047497 0.07986116 2.3022058
00000000: e18a 973f ab31 03bf 8ab5 13bf 382c ad3c
00000010: 54b2 503f aa01 2cbf c5a6 16bf e08b 1dbf
00000020: 15ce b83d ff21 a93f ab79 0c40 d0af 06bf
00000030: 39ea 653f c24e 08bf b231 56bb 000d 31bf
00000040: 2371 09bf be4f 1cbf 102f bd3f 4e50 f2be
00000050: 202b f1bb 2c21 833f 860a 8c3f c2df 683f
00000060: 2e56 4f3f 433c 9c3d 623f 1abf 2ac2 9abd
00000070: 6325 0ebf 46a1 17bf 64a5 ab3f 91ab be3d
00000080: fd60 1fbf 7a66 693f 2d60 943f ab18 aa40
00000090: bdc6 d2be 37fc f03f 823d 23bf 3832 ad3f
000000a0: 2a93 16bf b458 11bf 0c64 1dbf 766e 32bf
000000b0: cae8 10bf fd47 cf3f 022d 8b3f b269 a9bd
000000c0: f813 6f3f f300 833f 3555 953f a287 8a3f
000000d0: 23f2 1cbf 905e 623f 357e 713f 6180 483f
000000e0: 5744 05bf 9237 963f 1d18 2940 58ca ac3f
000000f0: af59 8f3f b0e1 353f 3f8e a33d 5757 1340

h2.weight f4 [64, 64]
2.4387124 0.7927952 0.4836042 0.30246183 1.4391268 0.43499294 0.588184 0.8221128
-0.28117266 2.138588 3.8417683 0.51523846 1.4544027 0.51714975 0.100435026 0.36343345
0.6384298 0.6004169 1.0137306 0.4997484 0.15067115 0.92461205 2.1625834 1.3299598
0.9562817 -0.059834003 0.8376974 -0.030697882 0.5060417 0.580445 1.9639196 -0.106842056
0.6673876 1.3921154 1.3897364 5.903555 0.83716595 2.4146302 0.38191244 2.1912677
0.69089717 0.5625399 0.45620596 0.38776895 0.6082348 2.8916183 1.1177003 0.29232728
0.9518255 1.5670964 1.4654948 1.7349827 0.63407624 1.2715712 1.7702044 1.2602172
0.5772942 1.114498 4.354145 2.0958374 1.0625782 1.1921757 0.18647471 3.458734
0.033705503 -0.60890585 -0.8288131 -0.27896154 -0.83589226 -0.82605094 -0.851209 -0.456062
-0.23356304 -0.45278588 0.20373347 -0.6008372 -0.5270535 -0.40831903 -0.27765778 -0.33508837
-0.2981173 0.29217538 -0.71915716 0.18796518 -0.112620145 -0.5520385 -0.34341523 -0.5354989
-0.48735178 -0.081513986 -0.7386062 0.24980393 -0.8759004 -0.54492337 -0.02960676 -0.08624332
-0.8986151 -0.78169703 -0.77429074 0.046146303 -0.4802294 -0.87786233 -0.71732104 -0.29195678
-0.39016554 -0.88072836 -0.6406 -0.04369846 -0.7647178 -0.37950847 -0.46862185 0.15976971
-0.38380182 -0.7524152 -0.45143047 -0.35210073 -0.6699498 -0.62471926 -0.5705123 -0.90018076
-0.03258589 -0.63623244 -0.22260728 0.22398737 -0.8689723 -0.7221611 0.1802994 -0.55145085
2.044169 0.6127992 -0.2849182 -0.21988669 1.3863586 0.39346337 0.40867254 -0.09910393
0.2729176 2.2720332 3.573368 -0.19641882 1.3597212 0.89948124 0.038077503 0.6338799
-0.17352234 0.3754085 2.068706 0.4940816 -0.031966656 1.3249407 1.3771398 1.1023246
1.0699726 0.2804143 0.6445075 0.042866528 0.82953763 0.75332654 1.840822 0.18957913
0.004912615 1.1133819 1.8681874 5.6038604 0.39019987 2.2349455 0.6742586 2.3162768
-0.3031009 0.30111405 0.39561242 -0.17886755 0.30104056 3.4879353 1.7557918 0.087272435
1.5882885 1.3897582 1.6847321 1.5812278 0.72439027 1.1347673 1.4190434 1.5298482
0.5325456 1.369067 4.3369746 1.8981056 1.8090076 1.3420184 0.21837279 3.1588209
1.4961841 0.6028237 -0.32048112 0.19046926 1.3913381 0.37242165 0.67907774 0.746596
-0.06302361 1.5364406 3.166813 0.74742013 1.1597278 0.6131693 -0.06873172 -0.31558552
0.76126426 0.6162043 1.587658 0.29945588 0.09575769 1.504019 1.2970158 1.1496987
1.4258902 -0.25591177 0.58260953 -0.13653047 0.58556134 0.62754023 1.6717856 0.18772966
0.81065404 1.3431857 1.1015474 5.6227846 0.76590127 2.2044587 0.8590514 1.527761
-0.83337116 -0.78288186 0.734782 -0.36070594 -0.59011495 2.0708876 1.4679242 -0.26264706
1.5168983 1.1938732 1.4750457 1.412284 0.7614999 1.0930185 1.5427066 1.3284423
-0.56219906 0.7920387 4.3699374 1.4114287 1.3118843 1.2653776 -0.09095988 2.7339334
00000000: dd13 1c40 a0f4 4a3f f89a f73e 47dc 9a3e
00000010: 4f35 b83f 65b7 de3e 3a93 163f fc75 523f
00000020: ddf5 8fbe a0de 0840 88df 7540 abe6 033f
00000030: de29 ba3f ed63 043f e1b0 cd3d f313 ba3e
00000040: 2370 233f ecb4 193f edc1 813f 06df ff3e
00000050: 8a49 1a3e 60b3 6c3f c467 0a40 1f3c aa3f
00000060: e1ce 743f 8014 75bd 5673 563f 207a fbbc
00000070: f38b 013f 0b98 143f b861 fb3f 02d0 dabd
00000080: ead9 2a3f d630 b23f e2e2 b13f ece9 bc40
00000090: 8250 563f 4d89 1a40 078a c33e bb3d 0c40
000000a0: a3de 303f 9d02 103f d493 e93e a789 c63e
000000b0: 47b5 1b3f 4610 3940 ce10 8f3f ecab 953e
000000c0: d6aa 733f 9d96 c83f 5595 bb3f ea13 de3f
000000d0: d252 223f d8c2 a23f 0f96 e23f cc4e a13f
000000e0: 8dc9 133f dfa7 8e3f 2855 8b40 3322 0640
000000f0: 9002 883f 3799 983f 3af3 3e3e e65b 5d40
00000100: c80e 0a3d 41e1 1bbf 182d 54bf 0cd4 8ebe
00000110: 09fd 55bf 1378 53bf d5e8 59bf f580 e9be
00000120: 262b 6fbe 8dd3 e7be 829f 503e 77d0 19bf
00000130: faec 06bf 310f d1be 2929 8ebe b490 abbe
00000140: d5a2 98be 0398 953e af1a 38bf f279 403e
00000150: 64a5 e6bd 6552 0dbf 1fd4 afbe 7516 09bf
00000160: 2c86 f9be cef0 a6bd 4c15 3dbf 9acc 7f3e
00000170: 023b 60bf 1980 0bbf e089 f2bc 56a0 b0bd
00000180: a40b 66bf 4c1d 48bf eb37 46bf e803 3d3d
00000190: a1e0 f5be 96bb 60bf 5aa2 37bf 5c7b 95be
000001a0: c7c3 c7be 6a77 61bf 5dfe 23bf 28fd 32bd
000001b0: 8cc4 43bf ef4e c2be 34ef efbe ac9a 233e
000001c0: ac81 c4be 489e 40bf e521 e7be 8c46 b4be
000001d0: d581 2bbf 9aed 1fbf 180d 12bf 3f72 66bf
000001e0: c878 05bd 21e0 22bf 2af3 63be f25c 653e
000001f0: f874 5ebf 8ddf 38bf 68a0 383e e22b 0dbf
00000200: aad3 0240 69e0 1c3f cce0 91be fa29 61be
00000210: 3374 b13f 0874 c93e 873d d13e 00f7 cabd
00000220: dbbb 8b3e fe68 1140 10b2 6440 0422 49be
00000230: 580b ae3f 6744 663f 28f7 1b3d f445 223f
00000240: d7af 31be 8b35 c03e ae65 0440 43f8 fc3e
00000250: 78ef 02bd a897 a93f 1e46 b03f f918 8d3f
00000260: ddf4 883f 7792 8f3e 72fe 243f d094 2f3d
00000270: 945c 543f 02da 403f 0ea0 eb3f 0821 423e
00000280: 00fa a03b 4c83 8e3f c420 ef3f d352 b340
00000290: 47c8 c73e 5909 0f40 369c 2c3f e13d 1440
000002a0: 0b30 9bbe 9f2b 9a3e b68d ca3e 0e29 37be
000002b0: fd21 9a3e 553a 5f40 c9bd e03f e4bb b23d
000002c0: 0a4d cb3f 99e3 b13f 4da5 d73f ac65 ca3f
000002d0: a471 393f 0e40 913f 37a3 b53f 11d2 c33f
000002e0: e954 083f 963d af3f 7fc8 8a40 20f5 f23f
000002f0: 908d e73f 42c7 ab3f 1e9d 5f3e 1f2a 4a40
00000300: f682 bf3f a752 1a3f 1a16 a4be 600a 433e
00000310: 5e17 b23f 0dae be3e 0ad8 2d3f ea20 3f3f
00000320: 8612 81bd 16aa c43f 10ad 4a40 ed56 3f3f
00000330: f671 943f aaf8 1c3f 37c3 8cbd 6d94 a1be
00000340: 37e2 423f 91bf 1d3f 6138 cb3f 4852 993e
00000350: 9c1c c43d b283 c03f 9d04 a63f 5429 933f
00000360: 9283 b63f de06 83be e625 153f a5ce 0bbe
00000370: 59e7 153f 7aa6 203f 12fd d53f 343c 403e
00000380: 0687 4f3f 82ed ab3f 81ff 8c3f daed b340
00000390: 1b12 443f da15 0d40 cbea 5b3f ac8d c33f
000003a0: d057 55bf f26a 48bf ac1a 3c3f 73ae b8be
000003b0: c611 17bf 6c89 0440 f1e4 bb3f ad79 86be
000003c0: b929 c23f d6d0 983f 4cce bc3f b9c5 b43f
000003d0: a8f1 423f 08e8 8b3f 6977 c53f 660a aa3f
000003e0: 47ec 0fbf 0cc3 4a3f 87d6 8b40 b2a9 b43f
000003f0: d3eb a73f e5f7 a13f 2c49 babd c4f8 2e40

h2.bias f4 [64]
0.6083687 -0.6126897 1.0249933 0.99747485 -0.5986489 -0.6903497 -0.045656513 -0.5294884
0.6480799 0.7019114 0.7024312 -0.6339398 -0.5416279 1.3517702 -0.6440363 -0.66871434
-0.580163 0.8139149 -0.5339915 -0.5012193 -0.67809504 1.2520146 0.55749017 0.72878474
0.8853978 -0.50897527 -0.53073835 0.68692565 -0.67554486 -0.665922 0.5717539 0.5863926
-0.59079266 -0.5297826 0.8752793 1.3901284 0.9828201 -0.5373234 0.6972642 0.7082762
0.6083608 -0.66606224 -0.52494 -0.5268304 -0.5315188 0.6206592 0.6644652 -0.5348308
-0.12860028 0.9298218 -0.65313286 -0.5496253 0.6884716 0.6834873 0.6722795 0.53247267
-0.5462518 -0.60386634 0.59579235 0.67806304 -0.6867954 1.082079 0.5885432 0.6766619
00000000: 0dbe 1b3f 3bd9 1cbf fb32 833f 835a 7f3f
00000010: 0e41 19bf c2ba 30bf 5302 3bbd 8d8c 07bf
00000020: 90e8 253f 77b0 333f 88d2 333f e149 22bf
00000030: 20a8 0abf ce06 ad3f 90df 24bf dd30 2bbf
00000040: 9085 14bf ba5c 503f abb3 08bf e84f 00bf
00000050: a397 2dbf 0442 a03f adb7 0e3f a391 3a3f
00000060: 6ea9 623f 344c 02bf 78de 07bf 5cda 2f3f
00000070: 82f0 2cbf dd79 2abf 775e 123f d31d 163f
00000080: 303e 17bf d59f 07bf 4e12 603f baef b13f
00000090: 199a 7b3f 078e 09bf e87f 323f 9751 353f
000000a0: 89bd 1b3f 0e83 2abf 7862 06bf 5bde 06bf
000000b0: 9e11 08bf 85e3 1e3f 641a 2a3f acea 08bf
000000c0: cbaf 03be cd08 6e3f b733 27bf 3eb4 0cbf
000000d0: ad3f 303f 06f9 2e3f 821a 2c3f 2150 083f
000000e0: 28d7 0bbf fc96 1abf d985 183f 8a95 2d3f
000000f0: d3d1 2fbf 9181 8a3f c4aa 163f b739 2d3f

h3.weight f4 [4, 64]
-0.3183042 -0.7466476 -0.37847632 -0.52678055 -0.5973499 -0.48158696 -0.14002223 -0.7303725
-0.8587802 -0.34710932 -0.72871363 -0.35980934 -0.5596891 -0.019591093 -0.3307309 -0.4463672
-0.4313913 -0.64254814 -0.47160614 -0.89377135 -0.60703665 -0.0010612011 -0.85446256 -0.6558016
-0.49763507 -0.39300662 -0.57259446 -0.71574086 -0.74468845 -0.7976355 -0.7139217 -0.7481222
-0.23294127 -0.539693 -0.79681957 -0.00696066 -0.37947953 -0.8033492 -0.4076197 -0.8475096
-0.8589056 -0.30489355 -0.7498132 -0.33835644 -0.32496235 -0.5151622 -0.7523924 -0.5205784
0.06372082 -0.5358678 -0.5615597 -0.29884583 -0.5574982 -0.44771433 -0.7137436 -0.700043
-0.34566382 -0.6255068 -0.47228009 -0.734421 -0.5404706 -0.837368 -0.5567354 -0.55244654
2.0047743 0.12345168 3.0913732 2.629984 -0.27943465 0.57579386 0.17695978 0.8031866
1.9807739 2.0781627 2.843788 0.5487946 0.73090726 4.9828596 0.32143977 0.64856476
0.43478075 2.4069862 0.59256476 0.65287155 0.55693066 5.228275 1.6717739 2.2282064
2.3846297 0.47872677 0.67844397 2.691711 0.45182824 0.43258676 2.2000756 1.9469132
0.51382285 -0.037240624 1.9170767 4.9679775 2.2747314 0.5858339 2.518804 2.0542266
1.3563677 0.7991099 0.35598138 0.7071802 0.39264017 2.402141 1.8845576 0.81496376
0.3659462 2.4947453 0.65050054 0.4975207 1.5714242 2.2141025 1.9169276 2.1148956
0.34816256 0.5941307 2.005339 1.9583244 -0.16768953 3.1164286 2.9810696 4.654004
2.32835 0.33500922 3.2358527 1.5629673 0.3837903 0.420993 0.2377924 0.4805727
2.478481 1.5071523 2.8442268 0.76465446 0.6330744 4.3580647 0.6533594 0.4837029
0.4259894 1.7296821 0.34921443 0.31519285 0.5932832 4.4497356 1.8081313 2.0673442
1.3044986 0.34085685 0.3196579 3.385097 0.61977726 0.33345908 1.9460471 1.5513432
0.5785181 0.74697423 1.5482289 4.394878 2.1883337 0.29652935 2.2076144 1.7835777
1.1584284 0.5719454 0.46704727 0.6314436 0.82701087 2.646843 1.1954588 0.45917138
0.8834021 3.2028553 0.33830065 0.42629683 1.4230782 2.4449012 2.5001707 3.0213578
0.5933481 0.67204314 2.261326 2.4108846 0.36973056 3.5471706 3.6407602 4.1726637
-0.730324 -0.48277682 -0.7815817 -0.43453676 0.20063487 -0.4493892 -0.16804573 -0.31152526
-0.48303482 -0.90018606 -0.89514637 -0.4911569 -0.4584476 0.26560268 -0.36270994 -0.4095228
-0.6918299 -0.62047553 -0.7912959 -0.58947194 -0.53502774 0.13966832 -0.5366031 -0.5441384
-0.5994451 -0.8396773 -0.73312616 -0.67062557 -0.51785076 -0.58784986 -0.771965 -0.7421069
-0.07563694 -0.3385826 -0.39545244 -0.26313418 -0.76563597 -0.485714 -0.7052065 -0.69518614
-0.8490946 -0.6309969 -0.4940655 -0.32801104 -0.6827883 -0.72083503 -0.5431069 -0.575427
-0.562499 -0.28407887 -0.36062652 -0.60331255 -0.6259819 -0.6987232 -0.8818533 -0.7008736
-0.8807312 -0.4737244 -0.76033366 -0.8774542 -0.15511559 -0.4799079 -0.7700366 -0.8359823
00000000: c5f8 a2be 4c24 3fbf a6c7 c1be 17db 06bf
00000010: eceb 18bf 9192 f6be fd61 0fbe b1f9 3abf
00000020: 05d9 5bbf 50b8 b1be fa8c 3abf ee38 b8be
00000030: c947 0fbf 807d a0bc 8f55 a9be 3e8a e4be
00000040: 52df dcbe 097e 24bf 5c76 f1be 33ce 64bf
00000050: c166 1bbf 0018 8bba 0fbe 5abf 9de2 27bf
00000060: 06ca febe 2a38 c9be 8d95 12bf cb3a 37bf
00000070: e7a3 3ebf d731 4cbf 93c3 36bf f084 3fbf
00000080: 2888 6ebe 5229 0abf 5efc 4bbf 4016 e4bb
00000090: 244b c2be 4ba8 4dbf 88b3 d0be 64f6 58bf
000000a0: 3de1 5bbf 021b 9cbe c2f3 3fbf 0e3d adbe
000000b0: 7761 a6be ace1 03bf ca9c 40bf a044 05bf
000000c0: 1080 823d a22e 09bf 60c2 0fbf 5202 99be
000000d0: 34b8 0ebf d03a e5be e7b7 36bf 0536 33bf
000000e0: d9fa b0be 3721 20bf b2ce f1be 0403 3cbf
000000f0: 485c 0abf c05d 56bf 3686 0ebf 236d 0dbf
00000100: 394e 0040 3cd4 fc3d 0fd9 4540 a851 2840
00000110: 0f12 8fbe 3a67 133f f234 353e a39d 4d3f
00000120: 008a fd3f 9e00 0540 9f00 3640 ce7d 0c3f
00000130: bd1c 3b3f 9673 9f40 c193 a43e 5708 263f
00000140: 959b de3e 100c 1a40 53b2 173f 9722 273f
00000150: 0293 0e3f 074e a740 b0fc d53f ef9a 0e40
00000160: c69d 1840 ad1b f53e 81ae 2d3f fe44 2c40
00000170: 0856 e73e 037c dd3e 0ace 0c40 7434 f93f
00000180: e589 033f a089 18bd c562 f53f acf9 9e40
00000190: 3395 1140 36f9 153f 1634 2140 7378 0340
000001a0: 759d ad3f 7792 4c3f 3143 b63e c309 353f
000001b0: 2208 c93e aebc 1940 2f39 f13f 77a1 503f
000001c0: 4d5d bb3e e8a9 1f40 3487 263f 08bb fe3e
000001d0: 6e24 c93f dbb3 0d40 e25d f53f 735a 0740
000001e0: 5d42 b23e f318 183f 7957 0040 60aa fa3f
000001f0: ceb6 2bbe 9173 4740 d8c9 3e40 9aed 9440
00000200: b003 1540 5486 ab3e 3618 4f40 500f c83f
00000210: 2a80 c43e 658c d73e da7f 733e a00d f63e
00000220: 6f9f 1e40 5eea c03f d007 3640 65c0 433f
00000230: 2a11 223f 4475 8b40 9042 273f e8a7 f73e
00000240: 481b da3e 3966 dd3f 3ccc b23e f560 a13e
00000250: 68e1 173f 3c64 8e40 d970 e73f 5e4f 0440
00000260: cff9 a63f ca84 ae3e 33aa a33e 6ea5 5840
00000270: b9a9 1e3f 26bb aa3e 1218 f93f 6a92 c63f
00000280: c319 143f b439 3f3f 5d2c c63f d7a2 8c40
00000290: a90d 0c40 b2d2 973e 8e49 0d40 464c e43f
000002a0: 6247 943f 046b 123f d220 ef3e 4aa6 213f
000002b0: fcb6 533f e065 2940 cb04 993f 8318 eb3e
000002c0: a426 623f 95fb 4c40 be35 ad3e 9443 da3e
000002d0: 6d27 b63f 4379 1c40 cc02 2040 ed5d 4140
000002e0: a9e5 173f 050b 2c3f 91b9 1040 ef4b 1a40
000002f0: 534d bd3e d804 6340 3702 6940 7686 8540
00000300: 83f6 3abf 862e f7be bd15 48bf 9a7b debe
00000310: 3a73 4d3e 5716 e6be 2e14 2cbe 3d80 9fbe
00000320: 5750 f7be 9872 66bf 5028 65bf eb78 fbbe
00000330: a5b9 eabe 13fd 873e 1eb5 b9be f9ac d1be
00000340: c41b 31bf 7cd7 1ebf 5e92 4abf a2e7 16bf
00000350: 94f7 08bf 3605 0f3e d25e 09bf a74c 0bbf
00000360: 3c75 19bf 17f5 56bf 28ae 3bbf 1eae 2bbf
00000370: de91 04bf 547d 16bf 809f 45bf b8fa 3dbf
00000380: 8ae7 9abd b35a adbe be78 cabe 86b9 86be
00000390: b800 44bf 81af f8be 6a88 34bf b8f7 31bf
000003a0: 445e 59bf 0389 21bf 27f6 fcbe 10f1 a7be
000003b0: 37cb 2ebf a588 38bf 0e09 0bbf 2f4f 13bf
000003c0: efff 0fbf c972 91be 0aa4 b8be b172 1abf
000003d0: 5a40 20bf 86df 32bf 23c1 61bf 746c 33bf
000003e0: 9a77 61bf 018c f2be 3aa5 42bf d7a0 60bf
000003f0: 9fd6 1ebe 7db6 f5be 1e21 45bf f002 56bf

h3.bias f4 [4]
-0.5898876 0.72757894 0.6962626 -0.53356856
00000000: e002 17bf 9d42 3a3f 443e 323f f397 08bf
