weights/weights_test_dense/w=0.57_2.pth (torch, 3916 bytes, 8 tensors)

input.weight f4 [8, 4]
000000 b8 34 e6 3d 35 89 a0 3f f7 c6 61 3e 00 de f6 3e
       0.11240524 1.2541872 0.22048555 0.48216248
000010 8a c8 16 bd a3 f5 fb 3f fc f8 28 3f 3b 37 99 be
       -0.036812343 1.9684337 0.6600492 -0.2992495
000020 ab 92 99 bf ee f2 2c 3f 9d 39 0b 3f c7 7a 42 3f
       -1.1997885 0.6755818 0.54384786 0.75968593
000030 51 a8 05 3f fd b8 08 c0 a4 73 a8 bf ea 1f f7 3e
       0.52209955 -2.1362908 -1.3160291 0.48266536
000040 0d 3a 1c 3d 6c d6 43 bf de 33 4f bf 30 7a 83 bd
       0.0381413 -0.76499057 -0.8093852 -0.0641979
000050 1b f6 94 3f f7 2b c0 be 79 c4 0d 3f c4 25 51 bd
       1.1637605 -0.37533543 0.5537792 -0.051061407
000060 88 f8 5b 3d 63 e1 97 bf 13 53 47 3e 7c 85 1b bd
       0.053703815 -1.1865658 0.19465284 -0.037969097
000070 c3 da 8e bf 3d cd cc 3f e6 3e b8 3f b6 26 56 bf
       -1.1160511 1.6000134 1.4394195 -0.8365282

input.bias f4 [8]
000000 ac 27 27 3c 68 1b 24 3f 61 a9 15 be e7 39 32 bf
       0.01020233 0.6410432 -0.14615394 -0.696196
000010 48 10 fc be 3c a0 70 3e 89 e8 b7 bc b4 9e 8d 3e
       -0.49231172 0.23498625 -0.022449749 0.27660143

h1.weight f4 [8, 8]
000000 fd 15 9e bf 16 08 b5 3f 17 c0 46 3e a4 a1 15 be
       -1.235046 1.4143093 0.19409214 -0.14612442
000010 d2 f3 a4 be f5 07 50 3c 02 8d 94 3f 5a 1e bc 3e
       -0.3221727 0.01269721 1.1605532 0.36741906
000020 58 32 6a bf 23 60 97 3e ab ba 45 3e 8a 34 a2 be
       -0.9148307 0.29565534 0.1930949 -0.3168071
000030 87 e3 73 3e 55 0a 8b be a7 84 e4 3e 02 20 6f 3d
       0.23817264 -0.2715632 0.44632456 0.058380134
000040 37 4b 98 be b1 a9 50 bf 91 82 39 bf 14 b3 8f 3f
       -0.29744884 -0.8150893 -0.72464854 1.1226525
000050 f4 42 37 3f e6 a6 75 3e d5 3e 95 be 3c 8a 8b bf
       0.7158654 0.23989448 -0.291495 -1.0901561
000060 bc 2a 8a bf fa 0c fc 3d 38 39 1c bf cd dd a3 3e
       -1.0794291 0.123071626 -0.6102481 0.32005158
000070 3c 71 1e bf 5e 66 4d be 26 a7 0e 3e 43 80 ca 3e
       -0.6189153 -0.20058581 0.1393095 0.3955098
000080 86 c2 48 bf e3 af b7 bf 1b 08 7f 3e 34 c5 0e 3e
       -0.7842182 -1.4350551 0.24905436 0.13942415
000090 69 8d c6 3e 45 38 56 bf 1e c7 07 bf 58 33 59 3f
       0.38779762 -0.8367961 -0.53038204 0.8484397
0000a0 dc 2d b9 bd 98 0a 66 3f 29 c5 7b be 42 f2 96 bf
       -0.0904195 0.89859915 -0.2458693 -1.1792681
0000b0 80 c9 23 3e c6 9d d8 be 84 e4 95 bf 5f 5d ba 3f
       0.15994835 -0.42307872 -1.1710362 1.4559745
0000c0 bf fe f1 be a3 07 e4 be 3b 9e cb 3c 9d d1 35 3f
       -0.47264668 -0.44537076 0.024855724 0.7102297
0000d0 cf b9 48 bf 74 e0 97 3f bf 3d b8 be 3b 7b 8e bf
       -0.7840852 1.1865373 -0.3598461 -1.1131357
0000e0 5e 10 f5 be b3 d6 dd be 28 01 33 3f 1b 39 d2 bc
       -0.4786405 -0.43327865 0.6992364 -0.025661996
0000f0 09 03 5f bf 5a 81 a5 bf 20 c7 13 bf 15 93 5e 3e
       -0.87114006 -1.29301 -0.57725716 0.21735795

h1.bias f4 [8]
000000 e0 fd 05 bf cf 16 1e bf ce a1 67 3e cf b9 0a bf
       -0.5234051 -0.61753553 0.22620317 -0.5418977
000010 45 30 08 bf 32 ed ef 3d d9 05 a7 be 4c 83 a0 bf
       -0.53198653 0.11715163 -0.3262165 -1.2540069

h2.weight f4 [8, 8]
000000 60 c1 a6 3c 1c ee 83 bf d0 8e 0d bf f3 79 86 bf
       0.02035588 -1.030704 -0.5529604 -1.0505966
000010 65 10 25 bf f5 6c 64 bf ae 90 20 be e8 12 30 3e
       -0.6447814 -0.89228755 -0.15680191 0.17194712
000020 67 4f 61 be 8f 60 80 3f 4b e4 75 bf 1e 55 46 be
       -0.22002946 1.0029467 -0.9605147 -0.19368407
000030 8a d1 5f 3f 2c ed 88 bf f5 22 3d bf 65 05 06 be
       0.87429106 -1.0697379 -0.73881465 -0.13087995
000040 7f da 46 bf 32 a1 05 3e 21 74 78 bf 03 e8 82 bf
       -0.7767715 0.13049772 -0.970522 -1.0227054
000050 3a f0 bc be 41 43 4a bf a8 57 16 3f 2c b7 a9 bf
       -0.36902028 -0.7900887 0.587275 -1.3259025
000060 ea 87 26 bd 2f 42 ad 3d b7 b1 4b bf 77 10 a0 3f
       -0.04065696 0.08459889 -0.79568046 1.2505025
000070 98 93 37 3f 03 75 5e bf 1b 52 0a bf 50 68 a4 3e
       0.71709585 -0.86897296 -0.54031533 0.32110834
000080 83 02 38 3d 92 78 c4 3e c0 75 aa 3f cf bf b7 3e
       0.04492427 0.38373238 1.3317184 0.35888526
000090 f6 73 06 3f dc 79 43 bf 40 53 b0 3e 0d 89 9c 3e
       0.5252069 -0.7635782 0.34438515 0.3057331
0000a0 4c 29 27 be e7 af f1 3d 4d bc 89 bf 74 22 e8 bd
       -0.16324347 0.11801129 -1.076059 -0.113346964
0000b0 66 f4 a5 bf ce 16 4a bf d7 21 a5 bf 2e 8f 2f bf
       -1.296521 -0.7894105 -1.2900952 -0.6857785
0000c0 ef e8 1a bf 27 a5 7a bf d0 da ad 3b c9 83 e5 3d
       -0.6051168 -0.9790825 0.0053056255 0.11206777
0000d0 7e 65 65 3e 26 54 09 bf a6 5e e9 be ad 91 97 bf
       0.22401997 -0.53644025 -0.45580024 -1.1841332
0000e0 05 e8 04 3e 3e 2d 89 bf 19 88 00 be 73 cf 8e 3d
       0.12979133 -1.0716932 -0.12551917 0.069731615
0000f0 68 33 48 bd c7 a6 af bf d3 3a 8b bf 4e bf 86 3e
       -0.04887715 -1.3722771 -1.0877327 0.2631783

h2.bias f4 [8]
000000 ff 79 8f be ad 3e f3 3d 36 2a 87 be 54 20 19 3e
       -0.28022763 0.11877189 -0.26399392 0.14953738
000010 8f db d3 be 04 46 12 bf 5d 30 9b bf 14 82 29 bf
       -0.41378447 -0.57138085 -1.2124134 -0.6621411

h3.weight f4 [4, 8]
000000 4a 7a 90 3e c6 34 79 bf d7 64 50 bf 72 89 81 be
       0.282183 -0.9734615 -0.8140387 -0.25300175
000010 10 cd 01 bf 26 58 15 be af 36 f7 3d df 1e 92 bf
       -0.50703526 -0.14584407 0.12070977 -1.1415671
000020 bb eb 9e be a7 23 e5 3e 1d 8c 16 be 66 58 15 be
       -0.31039223 0.44753763 -0.14701886 -0.14584503
000030 bc 9d 8f 3d 7a 94 a0 3e b5 d1 e9 3e 85 59 50 3e
       0.07012507 0.3136328 0.45667806 0.20346649
000040 7b b3 09 bf e4 51 61 be 41 7a 8c bf 53 c6 5b bf
       -0.5378949 -0.22003895 -1.0974809 -0.85849494
000050 1a b5 61 be 9c 83 33 bf 22 43 59 bf 04 ad 3c 3e
       -0.22041741 -0.70122695 -0.8486806 0.18425375
000060 02 cd b3 3e b3 37 10 bf 76 aa 7c be bd 7c f8 3e
       0.35117346 -0.5633499 -0.246744 0.48532668
000070 92 50 55 3f 25 02 c1 bd 6b bd 58 3e c1 a4 0a bd
       0.83326066 -0.09424237 0.21166007 -0.033848528

h3.bias f4 [4]
000000 32 d7 25 bf 76 b2 05 bf f9 4c 25 bf 2c f8 c1 be
       -0.64781487 -0.52225435 -0.64570576 -0.37884653
