weights/weights_test_dense/w=0.60_2.pth (torch, 3916 bytes, 8 tensors)

input.weight f4 [8, 4]
00000000: 80f1 a53f 55a9 bc3e 746e 5ebe 3748 b5bf
00000010: af65 833f 6e90 8e3e 6a1f 553f 37a4 fbbe
00000020: e018 c0bf 65fd 4abf 0a35 523c 98cf 48bf
00000030: efca b43e 3a94 a13e 3d67 d7be 4279 0cc0
00000040: dfd3 bdbf f054 a3bf 4fdd 0ec0 61c3 0dc0
00000050: e7b6 e53e 4d05 db3f be96 313e 8ccd 49bf
00000060: 3149 6dbf 75a4 ca3e 570e 023f 276a a6bf
00000070: aa73 063f ca1c d0be 15e6 93be 9bfc e83e
1.2964325 0.3684794 -0.21721822 -1.4162663 1.0265406 0.27844566 0.8325106 -0.49148723
-1.5007591 -0.792929 0.012830028 -0.7844176 0.35311076 0.315584 -0.42070952 -2.194901
-1.4830283 -1.2760296 -2.2322576 -2.21505 0.44866106 1.7110993 0.1734266 -0.78829265
-0.92689806 0.39578596 0.5080313 -1.3001145 0.5252024 -0.40646964 -0.28886476 0.45505223

input.bias f4 [8]
00000000: a423 773c 2495 2a3f 47a4 36bf 5fca 7dbf
00000010: a317 b0bf 65d0 723e 3b84 4dbd 627f c43e
0.015084181 0.6663382 -0.7134442 -0.9913692 -1.3757213 0.23712309 -0.050174933 0.38378435

h1.weight f4 [8, 8]
00000000: e7a6 213f 6ebc ec3e 8e34 863e e034 9d3c
00000010: f529 0f3f 74f6 92be 7779 1b3f 00ba 85bc
00000020: 6b6a 40bf b11e acbe c46e 8ebf 6764 aabf
00000030: cf52 f3bf ea5f 7b3e c7f2 cdbf ea80 313d
00000040: b8c1 b7bf 92df 1e3f bcb3 6bbf 0495 99bf
00000050: 145e 983e 478c 1cbf cac2 42bf 5d5f 203e
00000060: 7659 ad3f 0df0 ce3f b62a 8bbf 6f27 0f3f
00000070: 8362 6ebf 7a07 9f3f 32c8 d93e b860 ebbe
00000080: 42cf 1dbf e0bc 753c c7da 943f 9ee5 20bf
00000090: afdf 433f 93b2 8ebf f477 003e d16d 823e
000000a0: 9480 643f 0380 653e bd47 ccbd 6b79 493f
000000b0: 1e9b a33f ad12 f4be 311e 57be 84b7 71bf
000000c0: 5e43 073f 0d9b 24bf bbb6 2a3e 05ec c5bd
000000d0: 18d1 483f 83e5 3f3f 1e21 7c3f 82de 0ebf
000000e0: 1abc 09bf 1dd7 633f d37f 223f 2ba0 f4be
000000f0: ed16 4c3f a0f7 21bf c3da b13e 2bb3 003f
0.631453 0.4623751 0.2621197 0.019190252 0.55923396 -0.28703654 0.60732216 -0.016324043
-0.7516238 -0.33617166 -1.1127553 -1.331189 -1.9009646 0.24548307 -1.6089715 0.043335833
-1.4355993 0.6205989 -0.9207113 -1.1998601 0.29759276 -0.61151546 -0.76078475 0.15661378
1.3542926 1.6167008 -1.0872409 0.55919546 -0.93119067 1.2424157 0.4253555 -0.45972228
-0.61644375 0.014998645 1.1629266 -0.6285037 0.7651319 -1.1148247 0.12545758 0.25474408
0.89258695 0.22412114 -0.099746205 0.78700894 1.2781713 -0.47670498 -0.21007611 -0.9442065
0.5283717 -0.6429909 0.16671269 -0.09664158 0.7844405 0.7495958 0.9848803 -0.5580827
-0.53802645 0.8900011 0.63476294 -0.47778448 0.7972248 -0.6326847 0.34737214 0.5027339

h1.bias f4 [8]
00000000: a7f0 51bd 71c0 a43f d54b 2a3e 487a d73e
00000010: bccd 0dbf e61e a23d 1ab6 6d3c 5bc7 35bf
-0.051254895 1.2871228 0.1663049 0.4208548 -0.5539205 0.0791605 0.014508748 -0.7100732

h2.weight f4 [8, 8]
00000000: 5d0a 583f dc7d c53f c8be 013f 2883 0a3f
00000010: b011 a43f e4aa fcbe c7e7 c63e 8534 863f
00000020: 70b4 22be ab9f bcbe 545a e2be a8c7 afbe
00000030: f01b 773d 546a 6a3e 1037 f3bd fadb 1abf
00000040: 1b28 103f 7098 7a3f dc63 183f 4d44 42be
00000050: 7c65 183e 78e0 063f cef8 83be babb 8e3f
00000060: 9613 a2be 245a 95be 30aa 6cbe 6665 0cbf
00000070: edee 493f 40d1 d4bc a516 3b3f 9e4f 823e
00000080: 7615 27bf 5495 9f3f 17fe 2a3f 8270 be3f
00000090: 6019 aa3f b8f2 633f 70c3 633f 2dd0 123f
000000a0: 1cfd 5cbe 3c82 1ebf 6f56 b83e 1467 713e
000000b0: c15a 833f d293 e3bf f4f4 3a3f 58bf 0d3e
000000c0: 12b9 53bf fa90 7fbe 01e2 fd3d c4c8 a2bf
000000d0: ef3d 4c3e d880 7bbe 24b1 5d3e 0696 853e
000000e0: 79cf 183f 9a2f 20bf 9cac 303e 140e a2be
000000f0: 7001 35bf 0e28 febe f490 e7be e059 ac3c
0.84390813 1.5429034 0.50681734 0.5410638 1.2817898 -0.4934913 0.38848707 1.0484778
-0.15889144 -0.36840567 -0.4420954 -0.34332013 0.060329378 0.22892123 -0.11875737 -0.6049191
0.56311196 0.9788885 0.59527373 -0.18971367 0.14882463 0.5268626 -0.2577576 1.115104
-0.31655568 -0.29170334 -0.23111796 -0.5484222 0.78880197 -0.025978684 0.7308143 0.25451368
-0.6526712 1.2467446 0.6679396 1.4878085 1.3288994 0.89042234 0.8897009 0.573489
-0.21580929 -0.6191747 0.36003444 0.23574477 1.0262071 -1.7779486 0.7303002 0.13842523
-0.8270427 -0.24957648 0.123966224 -1.2717519 0.19945501 -0.24560869 0.21649605 0.2609102
0.5969158 -0.62572634 0.17253345 -0.31651366 -0.7070532 -0.49639934 -0.45227778 0.02103895

h2.bias f4 [8]
00000000: 6608 6f3f 13d0 46bd bcef 25bf 2222 3e3d
00000010: 7922 483f 1bd2 e73e 4868 c9be 8008 d83a
0.9337219 -0.04853828 -0.6481893 0.04641927 0.781776 0.45277485 -0.39337373 0.0016482025

h3.weight f4 [4, 8]
00000000: 3292 803e 0a97 1fbf 0e23 ca3e 76b5 44bf
00000010: 48c7 30bf 1cc1 683e a1fd 41bf f081 4dbe
00000020: 48c3 8cbe ceb8 b63e dbae 38be 7316 fbbe
00000030: e1f6 0a3f 54fa 083d 53d9 58be a841 4abf
00000040: 3798 a4bf ff2c 32bf df39 1f3e a4d7 2cbe
00000050: 85f6 74bf 8d47 84bf 7055 4dbe 5ead 843e
00000060: 9dbc fb3f 473b 5b3f 7c4b 873f 9ba9 4c3f
00000070: b122 be3f 4cfb 313f e30a a73d a6bc 32bf
0.25111538 -0.6233984 0.3947987 -0.7683939 -0.6905408 0.22729915 -0.7577763 -0.20069098
-0.27492738 0.3568787 -0.18035452 -0.49040565 0.5428296 0.033441857 -0.21176653 -0.79006433
-1.2858952 -0.6959991 0.1554942 -0.16879135 -0.9568866 -1.0334336 -0.20052123 0.2591352
1.9666935 0.85637325 1.0569911 0.799463 1.4854337 0.69524074 0.08156373 -0.69819105

h3.bias f4 [4]
00000000: 6297 3b3d 39d9 1cbe 3cfa 14bf 50ed 883f
0.045798667 -0.15317239 -0.5819433 1.0697422
