weights_pretrained/w=0.9_LF_N=4.pt (torch, 38224 bytes, 8 tensors)

input.weight f4 [64, 4]
000000 2c 5a 0e bf fc ca 34 bf c4 07 60 be 17 61 56 bf
       -0.5560634 -0.7062223 -0.21877962 -0.837419
000010 1e 60 8a bf 7a e1 04 3f 02 c3 65 3f 39 6d 8f 3f
       -1.0810583 0.5190655 0.89750683 1.1205207
000020 18 69 80 3f 9b 43 4f 3f e5 6b 38 3e 6c 46 91 3f
       1.0032072 0.8096253 0.18009908 1.1349616
000030 eb 47 68 bf 82 77 ce 3e 3c 8d 33 3f 3d 03 37 3f
       -0.9073474 0.40325552 0.7013738 0.71489316
000040 70 0e 4e 3f 30 5f 5d be e7 f6 eb 3d 11 19 4d bf
       0.8049078 -0.21618342 0.11521702 -0.80116373
000050 1d ed 69 3f 5b cb 1a bf bc 31 79 3e fc e1 95 be
       0.9137743 -0.60466546 0.24335378 -0.29273975
000060 4e 48 7c 3f 43 00 53 3e bb f1 98 3f 39 92 21 3f
       0.9854783 0.20605569 1.194877 0.63113743
000070 f0 ce 66 3f b3 ae 55 bf e6 cf 64 3f 07 23 56 bf
       0.9015951 -0.83469695 0.8937973 -0.836472
000080 20 32 ba 3e 65 a8 78 3f a5 1c 04 be e7 60 5b 3f
       0.36366367 0.9713195 -0.12901552 0.85694736
000090 52 f4 51 3f 16 07 97 3d a5 4d 11 3f 4b 2b 81 bf
       0.8201343 0.073743984 0.567591 -1.0091337
0000a0 59 a2 79 3e 7a 0b 7c 3f 86 9f 82 3f f6 39 69 bf
       0.24378337 0.9845501 1.0204933 -0.91104066
0000b0 13 e3 06 3f 99 c2 84 bf b5 78 95 3f 7a 52 b9 3e
       0.5269024 -1.0371886 1.1677462 0.36195737
0000c0 c7 16 d6 3d cb 2d 95 bf 94 3c 82 bd 4a 53 63 be
       0.10453563 -1.16546 -0.063592106 -0.22199741
0000d0 2e c9 33 3f 93 d7 3e ba 63 39 d9 be aa bd 26 bf
       0.7022885 -0.0007280048 -0.42426595 -0.65133154
0000e0 b4 21 3b bf 25 97 e7 3d fc 36 99 3f f5 d5 d2 be
       -0.730983 0.113081254 1.1969905 -0.4117886
0000f0 ef 03 a4 be 74 8f 74 3d c0 0c 71 3f 48 cf 51 bf
       -0.3203425 0.05970712 0.9416008 -0.8195691
000100 03 d2 11 3f 4d e9 dc bd 91 f4 30 bf b3 a3 e4 3d
       0.5696108 -0.10786686 -0.6912318 0.11164036
000110 fa 3c 14 3e 71 d6 77 3f d2 2b 2a 3f d4 93 2d 3d
       0.14476386 0.96811587 0.66473114 0.042377308
000120 a1 d8 50 be f9 52 21 3f 0f 96 8d 3f 51 ee 98 bf
       -0.20395137 0.6301723 1.1061419 -1.1947728
000130 a0 e9 83 3f ae fc 87 3f ae bb 7b bf a5 be 6d bf
       1.0305672 1.0623987 -0.9833325 -0.92869025
000140 27 0e 92 3d 6f 52 be be 45 8a 6f 3f e1 81 91 3e
       0.071316056 -0.37172267 0.9357036 0.28419402
000150 3b 56 92 3f 8d dc 08 bf 09 8d 33 3f 69 2b 98 3f
       1.1432565 -0.53461534 0.7013708 1.1888248
000160 38 a9 58 3e 8e 05 76 3f 0f 72 1b bf fa 41 7b 3e
       0.21158302 0.96102226 -0.60720915 0.24536887
000170 96 64 a1 be d8 a1 07 3f 46 11 54 be ac c1 5d 3e
       -0.31522053 0.5298133 -0.20709714 0.21655911
000180 d8 38 7a 3f 20 38 14 bf 69 d8 32 be 32 83 cd 3d
       0.97742987 -0.5789814 -0.17465366 0.10034789
000190 0e 51 62 3f 19 87 5b bf 83 db be 3e 0f 92 4f 3f
       0.8840493 -0.8575302 0.3727685 0.8108224
0001a0 75 cb 81 3f ac 9e 84 bf 0a 58 b2 3e 53 a8 c8 be
       1.0140215 -1.0360923 0.34832793 -0.3919092
0001b0 3d b9 57 3f 42 28 fe be 63 df 56 bf 80 b5 0c 3f
       0.84267026 -0.4964009 -0.8393461 0.5496445
0001c0 bf 09 dd be e1 02 b4 bd 3d 11 9d bf 0f ed ef 3c
       -0.43171498 -0.087896116 -1.2270886 0.029287843
0001d0 f5 85 d6 be 6c 6d e3 bc 30 16 97 3f c0 77 f4 3e
       -0.41899076 -0.027762137 1.1803646 0.47747612
0001e0 f8 7e 84 bf c5 34 99 3f 7c a7 8f bf 87 e0 e0 3d
       -1.0351248 1.1969229 -1.1222987 0.10980325
0001f0 7a fb 80 3f 00 bd 4a be ae bc 12 3f 8f 63 c5 be
       1.0076745 -0.1979866 0.5731915 -0.3855252
000200 16 0d 4d bf 85 d5 59 3f f9 ad 51 3e a6 93 53 3f
       -0.8009809 0.8509143 0.20476522 0.8264717
000210 74 25 95 be 16 d7 35 bf a1 51 44 3f 24 51 98 3f
       -0.29130137 -0.7103132 0.76687056 1.1899762
000220 b8 e0 50 3e 11 10 88 be 5c 1a d2 be 70 2a 85 3e
       0.20398223 -0.26574758 -0.41035736 0.2600894
000230 4d 4e af be 76 73 12 3e ee 26 eb be 51 b9 b9 be
       -0.34239426 0.14301857 -0.45928138 -0.36274198
000240 86 ad 6a 3f f2 55 18 bf 64 78 73 bf db e7 1a 3f
       0.91671026 -0.5950614 -0.95105577 0.60510033
000250 51 6f 27 bf bc 1a 7b 3f ea 66 72 be 31 43 30 3f
       -0.6540423 0.9808767 -0.23672071 0.68852526
000260 d5 60 7c be b9 01 e5 be 22 a2 8a 3f 37 99 4d 3e
       -0.24646313 -0.44727877 1.0830729 0.20077978
000270 9f 20 85 3e fe 7a 54 3f d8 bc ca 3e 06 e9 83 3f
       0.2600145 0.8300017 0.395972 1.0305488
000280 51 01 23 bf 22 09 85 bf b3 81 75 bf 6b f1 fa 3e
       -0.63673884 -1.0393412 -0.9590103 0.49012312
000290 5c 3a 81 3f a1 0c 98 3d 1b df 2b bf 7f eb 35 3f
       1.0095935 0.07424284 -0.67137307 0.71062464
0002a0 eb 6a af 3b 7f ef 12 bf 02 8d 6f 3f fc 39 69 bf
       0.005353322 -0.5739669 0.93574536 -0.911041
0002b0 83 4b 24 bf 89 12 6e 3f 8e 5b 00 3f 29 2c 44 be
       -0.6417772 0.9299703 0.501397 -0.19157471
0002c0 f0 15 14 bf df d0 06 bf 2a e3 a7 be 43 df 9a bf
       -0.57845974 -0.5266246 -0.327905 -1.2099384
0002d0 36 ab 9d bd 3f d3 48 bf 33 dd 18 3c 00 b2 9c 3f
       -0.076986715 -0.78447336 0.009330082 1.2241821
0002e0 ef 7c 97 3f e7 ed 83 bf 7d b4 88 bf bb 83 95 3f
       1.1835002 -1.0306977 -1.0680081 1.1680826
0002f0 da 01 c6 be 62 56 b0 3e 0b b0 9c 3e 9d fc 0f 3f
       -0.38673288 0.34440905 0.3060306 0.5624483
000300 f2 e4 b7 be 1f 5d a3 3d be 7d 71 3f f9 a4 8d 3f
       -0.3591686 0.07976746 0.9433249 1.1065971
000310 35 19 5c bf 57 37 3d 3f aa 3a 10 bf eb d7 46 bf
       -0.8597596 0.73912567 -0.56339514 -0.77673215
000320 ea 56 83 bf 65 69 0b bf 85 f3 fc 3c c4 8a 2b be
       -1.0260899 -0.54457694 0.030877838 -0.16752154
000330 5c e3 98 3f fa c4 e2 3a 4d 8e eb be 00 40 9e 3e
       1.1944385 0.0017301135 -0.46007004 0.30908203
000340 f8 4a e7 3e a4 87 d9 bd d3 18 3e 3f ab 59 ef be
       0.45174384 -0.106215745 0.7425663 -0.467481
000350 df f1 34 bf 45 f1 84 3f 2e 3b 40 3f 16 9a 56 3f
       -0.70681566 1.038613 0.750903 0.83828866
000360 7c 6a 59 3f 09 a8 ae bd 82 b7 80 bf d9 df 15 3f
       0.8492811 -0.08528144 -1.0056002 0.5854469
000370 5c f2 4d bf 96 9d 63 3f aa ea 6f 3f c2 eb 13 be
       -0.80447936 0.8891233 0.93717444 -0.14445403
000380 a3 b6 da 3e 87 2f 15 3f a8 98 ff be e3 84 16 3f
       0.42717466 0.58275646 -0.49921155 0.5879652
000390 d8 eb 83 bf 70 fe 95 be 15 78 46 3f 35 32 5d 3d
       -1.0306349 -0.29295683 0.7752698 0.05400296
0003a0 a5 fa 93 3f 4d 9b 93 3f 67 2c 08 bf 80 56 81 be
       1.1560866 1.1531769 -0.5319275 -0.25261307
0003b0 39 a6 d1 3d 39 28 5b bf dd 79 7f bf ea fa 74 3f
       0.102367826 -0.8560825 -0.99795324 0.95695364
0003c0 b2 84 83 3f f1 8f d0 be 67 4f 3a 3e 69 39 0d 3f
       1.027487 -0.4073482 0.18194352 0.55165726
0003d0 43 91 88 3f 4c 7e 97 be 88 b0 07 bf d0 42 42 bf
       1.066933 -0.29588544 -0.5300374 -0.758832
0003e0 f4 a5 49 3f 6b 67 d9 be 84 f0 b1 bd 31 61 6a 3f
       0.7876885 -0.42461714 -0.08688453 0.9155455
0003f0 9e c8 6f be cb 1b 16 bf ba 74 3c bf cf 33 27 3f
       -0.23416373 -0.5863616 -0.7361561 0.6531343

input.bias f4 [64]
000000 e2 3c 2c 3c 77 c2 b9 3c e9 19 15 bd 3e f4 30 bd
       0.0105125625 0.022675736 -0.036401663 -0.043201678
000010 8b 1f f3 bc fb 6e 1f 3d 94 32 95 3d 52 98 84 3d
       -0.029678127 0.0389242 0.07285038 0.06474365
000020 15 6b 91 3c 47 f7 28 3d 25 a7 5b 3d 4c aa 48 3d
       0.017751256 0.041251447 0.0536262 0.048990533
000030 10 9c b3 3c 38 b1 3c 3d 53 b1 6c bd f2 56 60 bd
       0.021925002 0.046067446 -0.057786297 -0.054770418
000040 92 e9 b5 bc a7 43 43 bd a6 cd 45 3d e4 9c b4 3d
       -0.022206102 -0.04767194 0.048291825 0.08818987
000050 93 ad 55 3d 02 07 4d bd 14 02 8d 3d d7 37 4b bd
       0.052167486 -0.05005551 0.06885162 -0.0496138
000060 60 40 c3 3d 82 50 8c 3d d6 7d ca 3b 6d 3d a4 bc
       0.09533763 0.06851293 0.0061795516 -0.020048821
000070 c5 aa f1 bc be 3a c5 bd 08 8b c0 bc 8d 5b 80 bc
       -0.029500375 -0.09630345 -0.023503795 -0.015668655
000080 80 fa b9 bc e4 2f e6 3c 61 03 80 3d 15 46 9e bd
       -0.022702456 0.028099008 0.062506445 -0.07728211
000090 76 da 44 bd 49 2a 30 bd cb 8d 9e bd 27 b2 86 3d
       -0.048059903 -0.043009076 -0.077418886 0.065769486
0000a0 43 13 7e bd 14 f4 05 3c 2d e0 72 3d 85 ad 84 bb
       -0.06203009 0.008175869 0.059295822 -0.0040490055
0000b0 e3 2c 80 3d 03 09 92 bc f5 3c a4 bd 75 4c 25 bd
       0.062585615 -0.017826563 -0.08019439 -0.04035612
0000c0 e9 77 cb bb d8 e6 49 3d 25 1a f8 bc 3a bb 49 bd
       -0.0062093628 0.049292415 -0.030285904 -0.04925082
0000d0 0a 77 45 bc 25 47 1e 3d 28 fe 80 3d a1 0a b7 bc
       -0.012052307 0.038642067 0.062984765 -0.022343935
0000e0 7b ab 81 3b 51 ef 2f bd 0d 88 96 bd 48 14 11 3c
       0.0039572096 -0.04295284 -0.073501684 0.008854933
0000f0 25 6a b4 bc b1 f7 c6 3c 29 6d ae bd 95 5a 94 bd
       -0.02202327 0.02428803 -0.085169144 -0.0724384

h1.weight f4 [64, 64]
000000 1e cc 44 be c3 f8 2b 3e e8 48 0b 3c 07 23 49 3e
       -0.1921849 0.16794114 0.008501269 0.19642268
000010 78 87 3a 3e 17 ad 0e be c6 a6 aa bd 45 46 5c 3e
       0.1821574 -0.13933216 -0.08332591 0.2151118
000020 b6 a8 d5 bd 1e 6a 1c be 7e 4d 54 bd a1 68 75 3e
       -0.1043257 -0.15274855 -0.051831715 0.23965694
000030 ce ee 2c 3d 0e a5 fa bd b0 c2 71 3d 10 59 32 3e
       0.04221993 -0.12238513 0.05902356 0.17416787
000040 18 d6 6f be 34 91 05 3e b8 45 66 be cd 15 1f 3e
       -0.23421514 0.13043672 -0.22487533 0.1553566
000050 51 91 7b 3e 4a 7d 9a 3e 85 51 91 bd fb 87 41 3e
       0.24567153 0.30173713 -0.07095627 0.18899529
000060 5f 3b c2 bd ad d1 5d bd 1b f7 22 be 6a cc 69 be
       -0.094839804 -0.05415504 -0.15914576 -0.22831884
000070 e0 f2 33 3e ef ce 06 3e cb 74 87 3e e9 f3 11 3e
       0.17573118 0.13164876 0.26456293 0.142532
000080 3d a4 93 3d 62 64 6b 3e 07 15 29 3e b8 22 88 be
       0.0720906 0.22987512 0.16511928 -0.26588988
000090 48 5e 7c be 53 10 50 be a4 9c 65 be 9f 32 21 3e
       -0.2464534 -0.20318727 -0.22423035 0.15741967
0000a0 85 cf 0a be 72 4a 6a be 1f af e8 3d a9 5c 71 3e
       -0.13555725 -0.22879961 0.11361527 0.23570503
0000b0 a9 99 81 3e dd 52 2a be 54 1e 20 3e 03 7b ee 3d
       0.25312546 -0.16633172 0.1563657 0.116445564
0000c0 47 72 2f b9 90 0e 81 3e 41 fa 85 be 39 78 77 3e
       -0.00016731872 0.25206423 -0.2616749 0.24166955
0000d0 23 ab 8f 3e 32 34 9d bc 14 72 45 bd a8 a1 df bd
       0.28060254 -0.019189928 -0.048204497 -0.10919505
0000e0 d0 26 92 3e 02 16 b5 3d 43 80 d2 bd be e9 8c ba
       0.28545237 0.08842088 -0.1027837 -0.0010750813
0000f0 3e 2a 9e 3e 8a da 8f 3e 12 61 c7 3d 1c a8 9e bc
       0.30891603 0.2809642 0.097353116 -0.01936727
000100 27 11 24 3e ed d2 16 3e 16 74 93 be 27 a6 c0 bc
       0.16022168 0.147289 -0.28799504 -0.023516728
000110 f6 eb 73 3e 5b fd 54 3e 36 ed 6d bd 60 97 68 3e
       0.2382048 0.20799772 -0.05808755 0.22713995
000120 fe b8 82 be 70 c3 79 3d f1 e0 54 be 53 3c 8d 3e
       -0.25531763 0.0609774 -0.20788933 0.27585086
000130 3a e1 7e be 70 35 03 be d7 13 5a bd 39 1d 8e be
       -0.24890605 -0.12813354 -0.053241577 -0.2775667
000140 2c 1b c8 bd 82 bc 5d 3e b8 25 b3 3c 9f a1 ff bd
       -0.097708076 0.21653941 0.021868572 -0.12481999
000150 72 83 5c 3e 73 b4 bb bd e3 0c 94 be 56 26 5e 3d
       0.21534517 -0.09165277 -0.28916082 0.05423578
000160 95 c7 a5 bd bd b2 85 be 63 a2 13 3c 29 86 9a be
       -0.08094708 -0.2611293 0.009010884 -0.3018048
000170 55 3f 90 3c 19 c0 4b bd 7e 5d 87 3e aa e8 a8 bd
       0.017608324 -0.049743745 0.26438516 -0.08247502
000180 5b 15 1a 3d 5a 2c 1b 3e fa fa 88 3d f2 ab 35 3e
       0.037618022 0.15153638 0.06688495 0.17741373
000190 88 98 86 3e 96 b2 d1 3d ad d1 0b 3e c0 2b 77 bd
       0.26288247 0.10239141 0.13654204 -0.060344458
0001a0 72 3a 3e be e6 c0 7c be cc fc 89 3e 6e 38 42 3d
       -0.18576983 -0.2468296 0.2695068 0.047417097
0001b0 82 2d 91 be e9 fc 2d bc db fc 80 be f2 4a 3d be
       -0.28355032 -0.0106193805 -0.25192913 -0.1848562
0001c0 78 9e 96 3e d1 2d dc bd 93 39 8a 3e be 66 f4 bd
       0.29417777 -0.10750926 0.2699705 -0.11933659
0001d0 51 44 98 3d 0a a2 56 3e 34 54 22 be 30 22 01 3e
       0.07434905 0.2096025 -0.15852433 0.12610698
0001e0 76 7b 58 3d bf 2e 83 be 3d fa 5b be 86 64 22 be
       0.052852117 -0.25621602 -0.21482177 -0.15858659
0001f0 55 b2 32 be a0 d3 8e be 46 7d 6d bc 2e 17 90 3e
       -0.17450841 -0.27895832 -0.0144952 0.28142685
000200 f8 8c 2b bd 39 98 7e be 6f aa 92 3e d1 1e 2b 3e
       -0.041882485 -0.24862756 0.28645656 0.16710974
000210 7e 07 84 be 46 9c 78 be dc aa 4d be 74 90 79 3e
       -0.25786966 -0.24278364 -0.20084709 0.2437151
000220 fe d6 7d be 11 e0 8a be 8c 0c de 3c 7e 23 6f 3d
       -0.24789044 -0.27124074 0.027105592 0.058383457
000230 3d 29 ed 3d 11 42 6c be 60 59 1b be 44 32 96 3e
       0.11580131 -0.23072077 -0.15170813 0.29335225
000240 2d 9f 4e bc 4f 9d d7 3d e4 88 21 be b3 eb 85 3e
       -0.012611193 0.10528051 -0.15774876 0.26156387
000250 14 a9 4b be 38 35 93 3e 39 9c 5a 3e a3 9d 9e 3e
       -0.19888717 0.2875154 0.21348657 0.30979642
000260 02 b1 38 be 2b db b3 bc 97 85 65 3e c7 01 72 be
       -0.18036273 -0.021955093 0.22414242 -0.2363349
000270 fd ad 1e 3e ab ce c5 bd 72 d3 4a 3e 74 38 99 3d
       0.15496059 -0.096585594 0.19807222 0.07481471
000280 74 b1 ff 3a e7 49 79 bd 1f ca a9 bb ea 09 89 be
       0.0019507841 -0.060861494 -0.0051815654 -0.26765376
000290 c7 f9 23 3d 18 89 52 3e fd cf 65 3e 38 f3 99 3d
       0.040033128 0.2056011 0.22442622 0.075170934
0002a0 b1 b9 d2 3d b8 a9 bb 3d f6 d5 62 3e 7a a4 96 3c
       0.10289324 0.09163231 0.22151932 0.018388975
0002b0 92 d0 86 be 7f 3f 9d bd 58 2e aa 3d fe 70 af 3a
       -0.26331002 -0.076781265 0.083096206 0.0013385115
0002c0 d6 41 19 be 5d 25 65 3e 17 a2 25 be ce b0 af 3d
       -0.1496652 0.22377534 -0.16175114 0.08578645
0002d0 77 0b 8c be 75 22 8a bc 63 86 9e 3e bd d6 94 be
       -0.27352497 -0.016862134 0.30961904 -0.29070082
0002e0 bc f1 80 3e 04 06 68 3e ae 0b 52 3e 9e 11 21 be
       0.2518443 0.22658545 0.20512268 -0.15729377
0002f0 fd 3a f7 bc 32 08 8e bd 28 81 2a bd af f6 18 be
       -0.030179495 -0.06935157 -0.04162708 -0.14937852
000300 d9 60 68 bd 3b 27 dc bc 16 39 15 3e cf 04 16 3e
       -0.056732986 -0.026874175 0.14572558 0.14650272
000310 12 c1 4d bd 1c f9 d2 3d 1c 84 2e 3e c6 05 88 3e
       -0.050232954 0.1030142 0.17042583 0.26566905
000320 68 9d 89 3e d7 50 8b be 05 98 27 3e f6 aa db bd
       0.26877904 -0.27210113 0.16366585 -0.107259676
000330 90 d0 98 3e f9 1d 33 be 89 dd 84 3e 97 34 db 3d
       0.2984662 -0.17491902 0.25950268 0.1070339
000340 e5 11 4b 3e f1 5d 02 3e f9 74 fb bd 01 ed 56 bc
       0.19831045 0.12731148 -0.1227817 -0.01311803
000350 40 a5 db 3d 2a 44 71 bc 52 f5 55 bd 55 da 80 3d
       0.10724878 -0.014725724 -0.05223591 0.062916435
000360 43 51 92 be 38 99 97 bd 87 f3 91 3b 83 e2 7c 3d
       -0.28577623 -0.07402271 0.0044540795 0.061739456
000370 6b aa 90 3e d8 d0 22 be 5a e0 b2 3d 27 d1 25 be
       0.2825502 -0.1589998 0.08734198 -0.16193067
000380 ab 3e 40 be 61 b0 a1 bc 05 47 19 3e f7 79 12 bd
       -0.18773906 -0.019737424 0.14968498 -0.035760846
000390 60 9c 62 3e 32 8b e9 3c 75 d4 94 3e 28 1c 33 3e
       0.22129965 0.028508756 0.29068342 0.1749121
0003a0 85 e2 a3 bd 38 75 8e be 43 18 61 bd bb 03 95 3e
       -0.080021895 -0.27823806 -0.05495478 0.2910441
0003b0 be 91 2b 3c 44 25 6e bd b8 4d 6e 3e 05 50 1d be
       0.010471759 -0.058141008 0.23271835 -0.15362556
0003c0 e8 9d 5f 3e 61 49 fa 3d 4b 6d 90 be 81 84 b7 bc
       0.2183758 0.12221027 -0.28208384 -0.02240205
0003d0 8b 89 34 3d 27 bf d4 3d ca 6e 3e be 2f 4d 3b 3e
       0.044076484 0.10388022 -0.1859695 0.18291162
0003e0 65 f2 20 be 53 4b cd bd 5f a6 01 be ae da 53 be
       -0.15717466 -0.100241326 -0.12661122 -0.20688888
0003f0 3a b9 76 be c5 5a 11 bc 7d 37 11 bd 95 2d 8d be
       -0.24094096 -0.008871739 -0.03545331 -0.2757384

h1.bias f4 [64]
000000 e5 29 8e 3d 5d f6 84 bd 43 c8 9b bd 39 9e ab 3c
       0.069415845 -0.064923026 -0.07606556 0.02094947
000010 50 fb 1b bd ac 3d 00 bd 37 a8 4e bd f0 a9 54 bd
       -0.038081467 -0.031308815 -0.05045339 -0.051919878
000020 7e 96 3b 3d a5 38 82 bd 60 a8 76 3c 6e 5c 43 3c
       0.045797817 -0.0635846 0.015054792 0.011923892
000030 e5 9a 90 3d 69 fc c0 bd 5b a5 94 bd fd 7f 88 3b
       0.07060794 -0.094231434 -0.072581016 0.004165648
000040 95 b7 72 bd d7 6d 31 bd c5 4d fe 3c 0c 24 1a 3d
       -0.05925711 -0.043317642 0.031042943 0.037632033
000050 3b cb 9a bc b8 ee a4 3d 8d 86 a8 bd 1e 5c ec 3c
       -0.018895736 0.080533445 -0.082287885 0.028852519
000060 3c 07 8b 3c 6b a9 c1 3d c9 0b a8 3d 40 1e 1c bd
       0.016971223 0.09456142 0.08205373 -0.038114786
000070 4a 8c 59 bb b0 6c 3f 3c a6 0f 99 bd 34 42 6f bd
       -0.003319519 0.011683628 -0.07473688 -0.058412746
000080 b8 03 92 3d fd 30 bf bd 6f 33 22 3d 8e 3e 4f 3b
       0.071296155 -0.09335516 0.039599832 0.003162298
000090 43 b7 ca 3d 00 59 ac 3d ac cc de 3c bc 9d 72 3d
       0.09898236 0.08415413 0.027197205 0.05923246
0000a0 c9 67 1e bd db 25 57 bd 56 35 92 3d 88 6f 28 bd
       -0.038673196 -0.052526336 0.07139079 -0.04112199
0000b0 ef 00 6c 3d 47 b6 d9 bc a4 dd 1a 3d 34 8f cc bc
       0.057618078 -0.026576174 0.03780903 -0.024970628
0000c0 93 2f 79 bd 23 4d dd 3d 3f 77 d4 bc 8e 20 95 bd
       -0.060836386 0.10805728 -0.025935767 -0.072816
0000d0 33 7c b7 bd 8d f8 7d bb 14 1b 49 3d 6b c2 07 bd
       -0.08959236 -0.0038752884 0.04909809 -0.033144396
0000e0 67 10 aa bd 58 21 f7 bc d2 c2 a4 bd ac 18 80 3d
       -0.0830391 -0.030167267 -0.080449715 0.06254706
0000f0 c9 8c 9d 3d d3 12 65 3d 7e cd 79 3c b4 fe b0 3d
       0.07692868 0.055926155 0.015246747 0.08642331

h2.weight f4 [64, 64]
000000 07 80 0b 3e d8 7f 51 be 9e f0 25 be 41 8d 08 3e
       0.13623057 -0.20458925 -0.1620507 0.13335134
000010 dd b8 38 be e6 0a 5e 3e ee ce 96 3e 6f 90 89 3e
       -0.1803927 0.21683845 0.2945475 0.26868007
000020 a4 a5 8d be c1 42 80 bd f0 4d 87 3e a7 6a c0 3d
       -0.27665436 -0.06262732 0.2642665 0.09395342
000030 22 8a 84 be 8a 19 8b 3d e4 00 72 be e1 71 7b 3e
       -0.25886637 0.067919806 -0.23633152 0.2455516
000040 2b 29 4a 3e 63 54 35 be b2 62 43 3e 4a df 8d bd
       0.19742267 -0.17707972 0.19080618 -0.06927355
000050 5a fe ee 3d 7e b0 4b bd 6e f1 6b 3e 62 1e 81 3e
       0.116696075 -0.049728863 0.23041317 0.25218493
000060 d4 bb e1 bd 19 84 ec 3d 0f cc ff bc f1 0e f7 bc
       -0.110221535 0.11548633 -0.031225232 -0.030158492
000070 c7 49 83 3e c4 88 4f bd e6 61 d1 3d a7 dc 2b 3e
       0.25642225 -0.05066754 0.10223751 0.16783391
000080 a0 60 45 bd 18 1f 6e be 61 5a 50 be 71 b1 75 3d
       -0.048187852 -0.23254049 -0.20346977 0.059983674
000090 14 dd 53 be 49 94 ef 3d d5 f6 b8 bd 42 94 9a 3c
       -0.20689803 0.11698205 -0.090314545 0.018869523
0000a0 c1 91 41 be 18 18 8f 3e e2 2b 33 be 9f 24 5c bc
       -0.18903257 0.2794807 -0.17497209 -0.0134364655
0000b0 6d 17 f9 3d 15 1c ce 3c ce e8 c3 3d 2b 83 5c be
       0.12162671 0.025159875 0.09565888 -0.21534412
0000c0 3f 79 87 bd 2c 6e 97 be e3 95 59 be cd 4f 00 be
       -0.06614923 -0.29576242 -0.21248583 -0.12530442
0000d0 49 6a 4d 3d 0b 85 f3 3c 48 2f 50 be ef 54 4e be
       0.05015019 0.029726526 -0.20330536 -0.20149587
0000e0 f4 1e 05 3e 66 8f 74 3e d7 7d 93 3e 3a 96 12 3e
       0.13000089 0.23882827 0.28806946 0.1431512
0000f0 8e 55 c4 3d 4a 14 3d 3d 6d 1b a1 bd 37 70 62 be
       0.09586631 0.046161927 -0.07866559 -0.22113119
000100 14 69 72 be 9c 73 73 3e c6 36 84 be af 09 9c bc
       -0.23672897 0.2377457 -0.2582304 -0.019047586
000110 35 20 8e be 65 25 8d 3e 36 bd 15 3e 60 69 84 be
       -0.27758947 0.27567592 0.1462296 -0.25861645
000120 08 6a 83 be d5 dd 81 3e 1b 1f 8c be 1f 03 9e bc
       -0.25666833 0.25364557 -0.27367482 -0.019288598
000130 37 94 fe bd 8d e5 0b be a8 ea 1f bd 39 da 72 3d
       -0.124306135 -0.13661785 -0.039042145 0.059290145
000140 37 b5 17 be ee f7 50 be e0 82 70 bd a2 2a 82 3e
       -0.14815222 -0.20407078 -0.058718562 0.2542315
000150 07 30 75 be 40 1b 41 3d b8 9c c8 3d a1 05 40 bd
       -0.23944102 0.04714513 0.09795517 -0.04688037
000160 a9 85 9c bd 44 56 89 bd 91 40 2d 3e ef dd 1d be
       -0.07642681 -0.06705907 0.16919161 -0.15416692
000170 d6 e9 93 3e 84 d9 73 3e 59 50 a6 3c 30 8b 02 3d
       0.2888934 0.23813444 0.020301985 0.03187102
000180 9b f6 f7 bd 68 e9 39 3d 52 4d 8a be 91 d8 33 be
       -0.12107583 0.04538861 -0.27012116 -0.17563082
000190 8e 98 88 be 5a 9d a2 bd 2a da 83 bd f7 cd 17 3e
       -0.2667889 -0.07940169 -0.06438096 0.14824663
0001a0 a6 dc 59 3e 1b 3a 39 be 40 99 12 3c 27 09 ea bd
       0.21275577 -0.18088572 0.00894767 -0.11427527
0001b0 06 7e 08 3e eb 69 79 be e0 1b 8b bb 0c 56 ce 3d
       0.13329324 -0.24356811 -0.0042452663 0.10075006
0001c0 67 18 99 be 8d 8d 94 3e db 4f 6f be c3 81 91 3e
       -0.2990143 0.29014245 -0.23370306 0.28419313
0001d0 1a e6 8c be f6 1f 76 be 80 0e c0 3d 12 ef a5 bd
       -0.27519304 -0.2403563 0.09377766 -0.0810224
0001e0 4d 62 51 be 0e f8 e2 bd 33 8c 8e 3e c6 1b 91 3d
       -0.20447655 -0.11082469 0.2784134 0.070853755
0001f0 17 d4 e6 bc 38 65 9c bd 2f 8e 5a 3e 18 cb 0e 3d
       -0.028177304 -0.076364934 0.21343301 0.034861654
000200 1b b3 4e 3c c2 53 30 3e e8 cd b7 bd c3 d4 71 3e
       0.012615944 0.17219451 -0.089748204 0.23616318
000210 d8 41 4a bd f2 1b 0c 3e ba 27 90 3e ad eb 19 3e
       -0.0493792 0.13682535 0.2815531 0.1503131
000220 4a ba 94 3e c5 b7 64 3e 9a 41 85 3d e8 21 31 be
       0.29048377 0.22335728 0.06506653 -0.1729809
000230 6a e1 49 3e 6c 7d 1b be c0 6d db bc 5f bc 9e 3d
       0.19714895 -0.15184563 -0.026785731 0.07750773
000240 ed 54 7c 3e ea a0 2e 3e 41 29 69 bd 73 af 86 be
       0.24641772 0.17053571 -0.05692411 -0.26305732
000250 ad 95 30 3e ce 7f b9 bd f9 c2 99 3e 9e d7 ae bd
       0.17244597 -0.0905758 0.30031565 -0.085372195
000260 0b 5f 84 3d f3 b0 84 3e 49 f0 d2 3d 50 63 cf 3d
       0.064634405 0.25916252 0.10299737 0.10126364
000270 ba f0 8d 3e 59 f1 a4 3d 08 b9 03 be fc ef 8f bd
       0.27722722 0.08053846 -0.12863553 -0.07028195
000280 21 8a 2e 3e 40 5f 8f 3c db ed 8c be af 3c 5a be
       0.1704488 0.017501473 -0.2752522 -0.21312211
000290 10 fc a8 bc 1b 78 0a 3d ea ad 31 3e dd f3 d9 bd
       -0.020628005 0.033805948 0.17351499 -0.10642216
0002a0 b7 33 6f be 8e 6a 12 be a9 93 f3 3d ac 2a ef bd
       -0.23359571 -0.1429846 0.11893398 -0.11678061
0002b0 62 01 c9 bc 38 75 7a 3e c6 64 9c 3c 95 93 0b be
       -0.024536792 0.24458778 0.019091021 -0.13630517
0002c0 db 45 7e be 51 11 3e be 9a b6 68 be cc 77 9b 3e
       -0.24831335 -0.18561293 -0.22725907 0.30364835
0002d0 8b f6 06 be 9a f1 e8 bd ec 5a 52 be a2 8a 98 be
       -0.13179986 -0.11374207 -0.20542496 -0.29793268
0002e0 46 89 85 3e 50 96 b5 3d 13 ba 26 bd 0d de 4e 3e
       0.26081294 0.088665605 -0.040704798 0.20201893
0002f0 ce af ef bd b2 6d 89 3e f2 7e 5a be d6 6b 5a 3d
       -0.11703454 0.26841503 -0.21337488 0.053325497
000300 32 b8 21 3d 73 ad ef 3c 85 ad 61 be be 7c 29 3e
       0.039482303 0.029257512 -0.22038849 0.16551492
000310 d1 94 95 3e 8a 95 21 3e e3 d1 6f be 43 39 e6 3b
       0.292151 0.15779701 -0.23419909 0.007025869
000320 dc 98 16 3e e3 ec 89 3e c1 67 43 be 77 f5 63 3e
       0.14706749 0.26938543 -0.19082548 0.22261606
000330 21 20 19 3e ea 61 0a be e8 1c f5 3d a5 e4 6d 3e
       0.14953662 -0.13513914 0.11968404 0.23231752
000340 ff 39 3d bd 33 25 32 3d 60 31 86 3c 80 90 63 3c
       -0.046197888 0.043492507 0.016380966 0.013889432
000350 5a 04 54 be b4 19 09 3e 1f 43 89 3e b3 74 33 bd
       -0.20704785 0.13388711 0.26809022 -0.043812465
000360 fe 12 92 be 21 e9 df bd 75 d5 10 3e 1d 8e 93 bd
       -0.28530115 -0.10933138 0.14143927 -0.0720484
000370 23 4e 52 be d6 4a a2 bd 06 28 1a 3e 80 58 4b be
       -0.2053762 -0.0792443 0.1505433 -0.19857979
000380 dd 50 8c 3e 8c 3e 6c be f1 9a ff 3d 40 ca 81 be
       0.27405444 -0.23070735 0.124807246 -0.25349617
000390 76 ce c7 bd a0 17 45 be e6 32 1a 3d f4 07 61 be
       -0.09756176 -0.19247293 0.037646197 -0.2197569
0003a0 9f d3 37 3d 8b e8 62 3d f6 60 65 be 59 8a 88 bd
       0.044879552 0.05539755 -0.22400269 -0.06667013
0003b0 7f 2f a7 3d 56 69 08 3d 4e 94 df bc b3 42 8f 3e
       0.08163356 0.03330358 -0.027292397 0.27980575
0003c0 12 9a 5c be 33 56 48 be 80 77 6f 3e 54 a5 1c bd
       -0.21543148 -0.19564132 0.2338543 -0.038243607
0003d0 bc a0 6d be 87 30 28 be 35 6a a9 3d 41 9c 0e 3d
       -0.23205847 -0.16424762 0.082722105 0.034816984
0003e0 cf 10 90 bd 88 b2 3a 3c 53 29 9b be b3 03 8f 3e
       -0.07034456 0.011395104 -0.30304965 0.2793251
0003f0 25 d7 d3 3c cb 00 86 3e 4c 8f 52 bd a6 75 0d 3d
       0.025859425 0.2617248 -0.05140619 0.034536026

h2.bias f4 [64]
000000 ef 73 08 bd 7c 12 86 bc 97 38 7f bd 69 28 82 bd
       -0.033313688 -0.016366236 -0.062309828 -0.06355364
000010 6b 8c 7c bd f1 a6 8a bd d2 4f c0 3d cd fc de 3d
       -0.06165735 -0.06770123 0.093902245 0.10888062
000020 a0 7f 0f 3b a5 be eb 3c 76 fe 88 bd b0 5b 3f 3d
       0.0021896139 0.02877743 -0.066891596 0.0467183
000030 6e eb 3a bd d6 7a 5b 3d 91 ab 5d 3d 75 cd 27 bd
       -0.04563468 0.053583942 0.054118697 -0.040967423
000040 5d 7d 50 bd 76 21 93 3d 3c d0 29 bc 68 72 82 3d
       -0.050900806 0.071841165 -0.010364588 0.063694775
000050 cf 37 97 bd 7a 7d 93 3d 15 cd 3e 3c ac b7 ce 3c
       -0.073836915 0.07201667 0.011645575 0.025234066
000060 71 3c 73 bc 4c d1 9a 3c 01 f4 d5 bc 47 f9 d5 bd
       -0.014845953 0.018898629 -0.026117327 -0.104479365
000070 6d 3f 35 3d b1 a8 b4 3d c8 0c 8a bc 0b 37 be 3d
       0.04424994 0.08821238 -0.016851798 0.09287842
000080 b1 6c e2 bb 55 10 af bd 0f 7c 67 3d 5e 03 8e bd
       -0.0069099297 -0.08548037 0.056514796 -0.06934236
000090 11 63 80 bd 27 71 9d bd 43 65 77 3d ed 28 5d bd
       -0.062688954 -0.07687598 0.060399305 -0.053994108
0000a0 db 9e 66 bd 49 41 4b bd 39 c8 2f bc a5 55 1d bd
       -0.05630384 -0.049622808 -0.010728889 -0.038411755
0000b0 02 56 a7 3c 44 7e b3 bc 3f 4a f2 3d 14 1b af bd
       0.020426754 -0.021910794 0.118305676 -0.085500866
0000c0 6e dc b2 3c ab 44 31 3d 61 7a 6f bd 58 12 c8 bd
       0.021833625 0.043278378 -0.05846632 -0.09769124
0000d0 ce 95 b7 bd 37 88 d8 3d 86 cb e6 3d c7 d8 df bc
       -0.0896412 0.10572856 0.11269288 -0.027325047
0000e0 9e 1d 1f 3d f2 32 93 ba eb ab 82 3d a2 66 31 3d
       0.038846605 -0.0011230393 0.06380447 0.04331077
0000f0 0e 3d 9f bd 9b 5a 8d bc 74 78 e1 bc 14 9d a5 3c
       -0.07775317 -0.017255118 -0.027523257 0.020216502

h3.weight f4 [4, 64]
000000 9f 43 95 3e ff 10 95 bd fc a3 34 3e 3f e0 8a be
       0.29153153 -0.072786324 0.1764068 -0.2712421
000010 92 a8 95 3e 55 29 8b 3e de f1 d8 3d 6a 47 e1 3d
       0.2923017 0.2717997 0.105930075 0.10999949
000020 a2 1b 25 be b4 a3 38 3e 77 99 1f 3e 8b ea eb bc
       -0.16123822 0.18031198 0.15585886 -0.028798362
000030 bf 39 91 3e 8e 72 fa bd a4 91 96 3e e4 e5 de bd
       0.2836437 -0.12228881 0.2940799 -0.10883692
000040 9d 9c 42 be 94 6b 73 3e cf 37 e4 3d 36 13 47 3e
       -0.19005056 0.23771507 0.11143457 0.19440922
000050 a5 72 58 3e ca 2a 86 be 24 b9 be 3b da 05 99 be
       0.21137483 -0.2620452 0.0058204103 -0.29887277
000060 52 06 21 3e 8c 89 79 be 72 68 6e be 2b c4 98 bc
       0.15725067 -0.24368876 -0.2328203 -0.018648228
000070 f8 80 15 3e aa 6c 59 3e 00 5a 29 bb 8f 8e 3c 3e
       0.14599979 0.21232858 -0.0025840998 0.18413757
000080 aa 30 1c be f2 fd 51 3e 4e b4 d2 bd 7d 01 7f be
       -0.15252939 0.20507029 -0.10288297 -0.24902911
000090 fe 8b 69 be 1f a4 8b bc bd 3d 8c 3d cd 85 82 3e
       -0.22807309 -0.017046032 0.06847713 0.25492707
0000a0 9b 9f a0 3e 7e 30 1e be 81 ed c7 3d bd 76 59 3e
       0.3137177 -0.15448186 0.09762097 0.21236701
0000b0 29 30 8c be 7d b9 8b 3e 0d 1f 55 3e 94 54 1a bc
       -0.27380493 0.27289954 0.20812626 -0.009419579
0000c0 96 92 e7 bd e1 8c 98 be f0 04 9c be d0 7b 3b be
       -0.11307256 -0.29794982 -0.30472517 -0.1830895
0000d0 0d 2c 1d be d8 d0 a5 3d e3 17 d4 3d d0 18 65 3e
       -0.15348835 0.080964744 0.103561185 0.22372746
0000e0 37 00 a4 bd 27 9c 25 be ea 3d 90 be 9d 49 f4 3d
       -0.080078535 -0.16172849 -0.28172237 0.11928103
0000f0 0b 7a 1f be f7 b2 5b 3e dc 5a 2d be 58 9f 36 3e
       -0.155739 0.21454988 -0.16929191 0.17834222
000100 f8 62 31 3e a6 67 55 3e 75 0f ef bd 10 13 68 3d
       0.1732291 0.2084032 -0.1167287 0.056658804
000110 c3 e6 91 3e aa af 1f bd 30 3e 2a be 59 d7 c6 3a
       0.2849637 -0.038985886 -0.16625285 0.001517038
000120 e4 78 06 3e db 98 34 3e f6 88 27 3e 33 6e eb bb
       0.13132054 0.17636435 0.1636084 -0.0071847676
000130 b4 91 3c 3e b0 31 c0 bc ec 21 5a be bc 2a 7f bd
       0.18414956 -0.023461193 -0.21302003 -0.062296614
000140 cd cd 84 3e a0 e5 14 3e dc b0 8e bd 57 a6 02 bc
       0.25938264 0.1454072 -0.06967327 -0.007974229
000150 f8 1d cc 3d b4 1c 4e 3e fe a5 94 be cb 96 10 3e
       0.099666536 0.20128137 -0.29032892 0.14120023
000160 9d 21 33 be cc d3 61 be fe 72 44 3e a4 21 fe 3d
       -0.17493291 -0.2205345 0.19184491 0.1240876
000170 c8 5f 5e 3e ac 43 fe bd c0 ba 1c bd a8 5d 96 be
       0.21716225 -0.12415251 -0.038264036 -0.2936833
000180 38 49 08 bd c7 9f 93 be a3 d6 07 be ed d1 83 3e
       -0.03327295 -0.28832838 -0.13265471 0.25746098
000190 60 a1 c5 bc d1 da 86 be e5 8b 4c be b1 07 6a 3c
       -0.024124801 -0.2633882 -0.1997524 0.01428406
0001a0 db 5f 0d be d8 dd 18 3e 77 62 2e 3e 10 eb cd 3d
       -0.13806097 0.14928377 0.17029749 0.100546
0001b0 03 9b 2e 3c 40 9e 7f 3d ba 05 87 3e a8 08 59 bd
       0.010657075 0.06240678 0.26371557 -0.05298677
0001c0 3c 9d 8b bd e2 63 3a 3e dd 47 97 3e 6d f1 5a be
       -0.068170995 0.18202165 0.29547015 -0.21381159
0001d0 00 b1 2d 3b a2 fd 8e bd 61 b6 8f be 71 28 3b be
       0.0026503205 -0.0698197 -0.28068832 -0.18277146
0001e0 11 ac 98 be d1 47 14 3e 0a 7b 50 be 99 58 a7 bd
       -0.29818776 0.14480521 -0.20359436 -0.081711955
0001f0 90 ce 76 3d f6 8c 24 3e a3 87 82 be 43 f3 24 bd
       0.060255587 0.16069397 -0.25494108 -0.040271055
000200 49 47 af 3d 34 6f 49 be bb 5a 16 3e f7 dc 5b be
       0.085585184 -0.19671327 0.14683048 -0.2147101
000210 02 ac 35 3e 7f 9e 3f 3e 3a 2d 83 3e 43 dc 0e be
       0.17741397 0.18712805 0.25620443 -0.1395121
000220 94 1e d9 bd b5 f0 0a be 93 64 82 3e b2 8b 83 3e
       -0.106015354 -0.13568385 0.25467357 0.25692517
000230 1e 1f 3e bd b4 58 4f be ea 53 95 3e 32 65 1a be
       -0.046416394 -0.20248681 0.29165584 -0.15077665
000240 20 a1 ba 3d 92 9b 26 3e e1 5b 8d 3d 95 65 81 3e
       0.091127634 0.16270283 0.0690229 0.25272813
000250 79 8b 07 3e fd 34 f1 bb 27 d6 ca bd 82 09 6a be
       0.13236798 -0.007361053 -0.099041276 -0.2285519
000260 7c 7c a3 3e 35 7c 64 be 37 87 1f ba 62 42 f2 bd
       0.31930912 -0.22313006 -0.0006085517 -0.11829068
000270 04 04 ea bd 01 5e 80 3e f0 55 39 3d 6c 7c 9e 3e
       -0.11426547 0.2507172 0.045247972 0.309543
000280 a1 02 dc bd 3c b9 11 3e 7a 98 d0 bb 20 a4 73 3d
       -0.10742689 0.14230818 -0.006365833 0.059482694
000290 5a 02 ad bc 8c aa 25 be 4a 60 7b bd 64 30 d0 3d
       -0.021119285 -0.1617834 -0.061371125 0.1016548
0002a0 74 94 48 3e d8 53 96 3d 26 5a 0e 3e a7 aa 82 be
       0.1958788 0.07340211 0.13901576 -0.25520822
0002b0 2d 20 f9 3c 30 5a 9a 3e 07 46 65 3e a2 2d 0c 3e
       0.03041085 0.30146933 0.22389995 0.13689283
0002c0 21 4c 16 be c1 47 7c be 0e 35 a4 be 91 45 1a bd
       -0.14677478 -0.24636747 -0.32071728 -0.037664
0002d0 a0 1b b8 3d 5d 06 91 3e 46 ab e7 bb 44 48 fb bd
       0.08989644 0.28325167 -0.007069978 -0.12269643
0002e0 e3 18 8f 3e 80 5c 82 be a9 74 7a 3e a5 a5 4e 3d
       0.27948675 -0.25461197 0.24458565 0.05045094
0002f0 3f c9 4c 3d 70 cf 36 be b9 32 95 be b9 2a a8 3d
       0.04999661 -0.17852569 -0.2914026 0.08211274
000300 66 96 6a be f6 e9 24 be ed 98 75 3e e0 ba 9f 3c
       -0.22908935 -0.16104874 0.23984118 0.019498289
000310 6c 8c 0c 3e 3f 93 94 3e 10 96 79 be 58 6c 01 3e
       0.13725442 0.2901859 -0.2437365 0.12638986
000320 ac 0d f3 bd 33 0f 6b bd eb 4f 24 3e 60 9b 94 3e
       -0.11867842 -0.057387542 0.16046111 0.29024792
000330 57 cf 05 3e 09 6f 37 be 5b fe 4a be 08 5a fc bc
       0.13067375 -0.1791345 -0.19823591 -0.030804649
000340 29 f6 88 3e 26 88 22 be a0 77 8d 3d ec 76 e8 3d
       0.26750305 -0.15872249 0.06907582 0.113508075
000350 db c4 1a be 92 24 62 bd 01 90 8d 3e 6e 4f 54 be
       -0.15114157 -0.055210657 0.2764893 -0.20733425
000360 d1 dc 96 3e 4a 22 11 3e cc 6e c1 bd 89 52 05 bc
       0.29465345 0.14173236 -0.09444961 -0.008137354
000370 cf 4c 72 be 7c cd ff bd f7 bc 8f 3e 11 b2 a2 bd
       -0.23662113 -0.12490365 0.28073856 -0.0794412
000380 94 8e 18 be c9 e5 8f be 81 44 94 be e4 71 29 be
       -0.14898139 -0.28105 -0.28958514 -0.16547352
000390 52 61 84 3e aa 4f 01 be e5 bf 11 3d 8d 05 87 3e
       0.258555 -0.12628046 0.035583396 0.26371422
0003a0 5c 17 af 3d da 65 0d bd 99 2f 9e 3e 2b 3f 32 3e
       0.08549377 -0.03452096 0.3089569 0.17406909
0003b0 1e fc 92 be 72 6a 69 be 86 12 42 3c 48 b3 2b bd
       -0.28707975 -0.22794512 0.011845237 -0.041919023
0003c0 4c 49 6e 3e 85 55 ae bd e8 88 81 be 62 40 17 bc
       0.23270148 -0.08512405 -0.25299764 -0.009231659
0003d0 3a 0e 2c be 51 47 8d 3d 79 8e 59 3e 29 3d 77 bc
       -0.16802302 0.06898368 0.21245755 -0.015090265
0003e0 c3 6e 87 3e db 5d b7 3d 8c 44 be bd 6d 3f b5 bd
       0.26451692 0.089534484 -0.09290418 -0.08849988
0003f0 a9 a8 df bb 4e 0a 97 be 5c 72 61 3d e7 50 8b 3e
       -0.006825526 -0.2950005 0.055040702 0.2721016

h3.bias f4 [4]
000000 5b 1e d3 3b 54 97 88 3d 4f 94 6a bc 7c d4 81 bd
       0.0064428276 0.066694885 -0.014317586 -0.06339356
