weights/weights_LF=16_dense/w=0.26_2.pth (torch, 41932 bytes, 8 tensors)

input.weight f4 [64, 4]
-0.59883815 -0.44746068 0.27974 0.4860197 -0.7119832 -0.96761686 0.328247 0.6882845
-0.5578304 0.4551879 -0.6082875 0.24117455 -0.8804583 -0.5077317 0.46134806 -1.2091167
0.49296504 -0.61727047 0.5856419 -0.97240233 0.76095045 -0.5546372 1.2214979 0.32086346
0.9957018 -0.5457076 -1.2564765 -0.0076259207 -0.22606663 0.99644536 -0.24132723 -0.45759752
0.01964892 -0.28472146 0.3772514 -1.3738251 0.3320354 -0.40788963 -0.32147315 1.3405914
0.5997996 0.1981651 1.2825352 -1.1759275 1.0709864 -0.20532249 0.4211244 -0.30857983
0.8863746 -0.19061531 -0.029176846 -1.464289 -0.7619281 -0.41651195 0.9326762 1.0747488
0.17116693 -0.14800884 0.50683004 0.1686325 0.42363 0.823325 -0.65229505 -0.031214487
-1.6537191 -0.12761225 0.72348505 -1.0654125 0.5562617 0.9480236 -0.5299339 -0.34501398
-0.7490551 -0.33921817 -0.9533248 0.36474013 0.54158866 -0.38036606 0.6125524 0.98288023
0.61830115 -1.2204059 0.051430307 -0.65250075 -0.31641147 0.33147934 0.68946296 -1.3466531
-0.25809094 -0.2939441 0.698411 -0.39544266 -0.2601483 0.23582065 -0.34647506 -0.8931179
-1.4539531 0.24591838 1.0727046 -0.8125541 -0.98837143 0.5503006 0.71438116 -0.084282234
-1.2840086 -0.23584941 1.13499 0.43561256 -0.43444896 0.24124224 -0.39284006 1.6843174
0.7589031 0.09054999 0.10248964 0.45986873 0.049793225 -1.889809 0.5987556 0.6361307
0.9799606 -0.23984659 0.14583682 1.4748985 -0.9454642 -1.4642552 0.46555996 0.6960914
-0.81786406 0.48313418 -1.4677372 0.28023592 -0.8220567 0.39273697 1.2224059 -0.6768957
-0.39334878 0.6098411 -0.50037706 -0.37284324 0.38938326 -0.79143274 0.33038756 0.23228878
-0.052399322 0.59936595 -0.02514627 0.17651975 1.0420673 -0.54868156 0.6986216 -0.64841306
-1.6180055 -0.089061014 0.4937375 -0.3953971 1.1060328 -0.59225047 -1.0031505 -0.51560795
-0.9790954 0.30884185 -0.22874339 0.10949407 -0.80619216 -1.0599178 0.17390712 0.5772321
0.08333123 0.07869031 -0.6136082 0.46653625 0.3936218 1.6662714 -0.45484906 -0.23856387
-0.56249 0.4671169 -0.4567488 -0.45019773 -0.99707973 0.73920584 -0.57077855 0.118280694
0.18028119 -1.176201 -0.2801475 -0.76367474 -0.5694177 0.92560214 0.71179277 -0.24847695
-0.6847761 -0.58049554 0.116808616 -0.31418332 -1.0256104 0.45824277 -0.25083524 1.2009913
-0.20046474 -0.017901294 -0.042287644 -0.9810079 -0.9216403 0.39641607 -0.57760924 -0.5355738
-0.1605156 0.92337495 0.2676952 -0.5576637 -0.020850495 0.30209482 0.0059094224 -0.6267775
0.11842519 -0.411087 0.216763 -0.2732878 -0.4815697 -0.42615262 -0.7010654 -0.6944454
0.16814002 0.73550683 -0.67047435 -0.2385834 0.7764584 -0.7649861 -0.7761293 -0.051809527
0.47528914 -0.54180765 -0.32911125 -0.6107039 1.327971 -0.36476985 1.407923 -0.34587005
0.11805681 -0.2599497 0.26480165 -1.4619614 -0.1793206 -0.011956267 0.02792276 -1.1867144
-0.090610996 0.6090014 -0.6469801 -1.0742234 0.13125211 -0.90442365 -0.33662152 -0.06545203
00000000: 754d 19bf 9119 e5be 153a 8f3e 93d7 f83e
00000010: 8844 36bf bdb5 77bf fe0f a83e 6a33 303f
00000020: f9cd 0ebf 630e e93e bbb8 1bbf 76f6 763e
00000030: b765 61bf b4fa 01bf d035 ec3e 56c4 9abf
00000040: ea65 fc3e 7005 1ebf a1ec 153f 5cef 78bf
00000050: a6cd 423f b4fc 0dbf 0b5a 9c3f 3748 a43e
00000060: 50e6 7e3f 7eb3 0bbf 39d4 a0bf dce2 f9bb
00000070: 037e 67be 0b17 7f3f 7c1e 77be 394a eabe
00000080: c6f6 a03c 03c7 91be 1827 c13e 80d9 afbf
00000090: 8b00 aa3e e9d6 d0be 2198 a4be 8098 ab3f
000000a0: 778c 193f cbeb 4a3e 1d2a a43f cb84 96bf
000000b0: 1516 893f 0f40 52be 9e9d d73e 2dfe 9dbe
000000c0: 72e9 623f a930 43be 4804 efbc d26d bbbf
000000d0: b80d 43bf 0e41 d5be dec3 6e3f 5e91 893f
000000e0: 6246 2f3e a18f 17be 9dbf 013f 00ae 2c3e
000000f0: 08e6 d83e 6dc5 523f cffc 26bf 86b5 ffbc
00000100: 11ad d3bf c9ac 02be 5136 393f 705f 88bf
00000110: 2b67 0e3f adb1 723f c0a9 07bf aca5 b0be
00000120: 13c2 3fbf 01ae adbe 180d 74bf 38bf ba3e
00000130: 8ea5 0a3f 57bf c2be 3cd0 1c3f 0a9e 7b3f
00000140: fc48 1e3f 4336 9cbf 96a8 523d 4a0a 27bf
00000150: af00 a2be a9b7 a93e a580 303f 215f acbf
00000160: 7f24 84be d77f 96be 10cb 323f 7677 cabe
00000170: 2832 85be f87a 713e 2e65 b1be 60a3 64bf
00000180: 231b babf 07d2 7b3e 624e 893f 8c03 50bf
00000190: e905 7dbf 80e0 0c3f afe1 363f 2a9c acbd
000001a0: 655a a4bf 8282 71be 5a47 913f 9c08 df3e
000001b0: 1870 debe 3508 773e 5522 c9be b697 d73f
000001c0: 7947 423f 4672 b93d 17e6 d13d ea73 eb3e
000001d0: fbf3 4b3d 43e5 f1bf 0c48 193f 76d9 223f
000001e0: b3de 7a3f 589a 75be 3f56 153e 79c9 bc3f
000001f0: f109 72bf b76c bbbf e05d ee3e 0c33 323f
00000200: 8a5f 51bf 5d5d f73e d0de bbbf 157b 8f3e
00000210: 4f72 52bf d214 c93e cc77 9c3f 0949 2dbf
00000220: 0365 c9be 8c1e 1c3f b618 00bf 4fe5 bebe
00000230: 3e5d c73e 569b 4abf 8f28 a93e 1cdd 6d3e
00000240: aca0 56bd 0c70 193f 8dff cdbc 98c1 343e
00000250: 7662 853f 6576 0cbf ddd8 323f 66fe 25bf
00000260: ce1a cfbf 9f65 b6bd 29cb fc3e 7d71 cabe
00000270: 7c92 8d3f ba9d 17bf 3c67 80bf e2fe 03bf
00000280: ffa5 7abf 8520 9e3e b53b 6abe 6d3e e03d
00000290: 9c62 4ebf 63ab 87bf b514 323e 7cc5 133f
000002a0: 90a9 aa3d 6328 a13d 6d15 1dbf d7dd ee3e
000002b0: cc88 c93e 6248 d53f fae1 e8be 164a 74be
000002c0: 58ff 0fbf f229 ef3e fbda e9be 5180 e6be
000002d0: 9e40 7fbf 983c 3d3f 8b1e 12bf 263d f23d
000002e0: a29b 383e c18d 96bf 7e6f 8fbe 3080 43bf
000002f0: 5cc5 11bf 43f4 6c3f 0d38 363f be70 7ebe
00000300: 7d4d 2fbf 5b9b 14bf 5b39 ef3d a3dc a0be
00000310: 3447 83bf cc9e ea3e 7a6d 80be 15ba 993f
00000320: a146 4dbe bca5 92bc cf35 2dbd 5523 7bbf
00000330: 9ef0 6bbf 0cf7 ca3e 33de 13bf 5d1b 09bf
00000340: 345e 24be 4d62 6c3f 580f 893e 0cc3 0ebf
00000350: a8ce aabc 2cac 9a3e d4a3 c13b 7e74 20bf
00000360: e888 f23d ff79 d2be 1ff7 5d3e 61ec 8bbe
00000370: 4e90 f6be ad30 dabe 0679 33bf 2cc7 31bf
00000380: e62c 2c3e 2d4a 3c3f 35a4 2bbf 354f 74be
00000390: fac5 463f 21d6 43bf 69b0 46bf 3a36 54bd
000003a0: 1959 f33e e8b3 0abf 4581 a8be 1757 1cbf
000003b0: f4fa a93f 1dc3 babe d236 b43f e115 b1be
000003c0: c5c7 f13d 2118 85be 1594 873e 8d21 bbbf
000003d0: d29f 37be 38e4 43bc 46be e43c 42e6 97bf
000003e0: 4292 b9bd 84e7 1b3f 7da0 25bf 2780 89bf
000003f0: f466 063e 4f88 67bf a859 acbe b70b 86bd

input.bias f4 [64]
-0.13698411 -0.4837695 -0.8983708 -0.7279551 -0.3236237 0.64723426 -1.0466588 0.95771986
-0.62246597 0.6612234 0.37714654 0.71132666 -0.7014553 -0.10330426 -0.8991712 0.7317502
-0.9359971 0.7691099 0.03460248 -0.3103836 -0.71313035 -0.79296905 -0.55391955 -0.29128787
-0.0008938357 0.01534448 0.12342243 0.54542047 0.8383286 -0.78856003 0.8881009 -0.51685417
-0.60736036 0.5883979 -0.55687404 -0.59526503 -0.25671634 -1.037805 -0.7635786 0.08416449
-0.18310648 0.100978136 -0.3759978 0.6143113 -0.7552134 0.56204915 0.07468659 0.9919592
-0.742724 0.012592799 -0.6298064 -0.77941394 0.7567225 -0.11328693 -0.91519195 -0.030701045
0.045635175 -0.4891995 0.43332094 0.66230583 -0.78965205 -0.32845074 -0.67282206 0.3418524
00000000: 9045 0cbe a3b0 f7be a1fb 65bf 445b 3abf
00000010: 01b2 a5be 25b1 253f eaf8 85bf 212d 753f
00000020: ee59 1fbf f045 293f 5a19 c13e 8119 363f
00000030: 9392 33bf 2f91 d3bd 1530 66bf fb53 3b3f
00000040: 829d 6fbf 63e4 443f 54bb 0d3d 99ea 9ebe
00000050: b68f 36bf 0500 4bbf accd 0dbf af23 95be
00000060: 4c50 6aba 6a67 7b3c e6c4 fc3d ada0 0b3f
00000070: b49c 563f 12df 49bf 955a 633f 8e50 04bf
00000080: f87b 1bbf 3fa1 163f 4c8f 0ebf 4a63 18bf
00000090: 5370 83be cbd6 84bf e379 43bf 6f5e ac3d
000000a0: 4480 3bbe a0cd ce3d c982 c0be 8143 1d3f
000000b0: aa55 41bf 74e2 0f3f 48f5 983d 0af1 7d3f
000000c0: 2923 3ebf 0752 4e3c fe3a 21bf ac87 47bf
000000d0: 91b8 413f fa02 e8bd 054a 6abf c280 fbbc
000000e0: f3eb 3a3d 5b78 fabe 3edc dd3e e08c 293f
000000f0: a326 4abf b22a a8be 113e 2cbf 4707 af3e

h1.weight f4 [64, 64]
-0.66191626 -0.3539362 -0.5506819 0.19632718 -0.49169376 -0.58973414 -0.4145724 0.5122093
-0.08189702 0.77502954 0.094667815 0.3419743 -0.7045767 -0.8520098 -0.56211215 0.6826131
-0.332013 0.4616675 0.50759476 -0.70973814 -0.22534397 -0.39367804 -0.61392593 1.4794395
-0.40541306 -0.7433245 -0.792996 0.3145481 0.19629541 -0.42420515 0.16833617 -0.4334837
-0.15551817 0.39676964 -0.61277926 -0.48389328 -0.6910947 -0.7275652 -0.17676567 0.7799291
1.4458272 0.5699787 -0.6983407 0.20492844 -0.57600427 0.77093506 0.85589796 0.39179736
-0.240479 -0.58815134 -0.7029548 -0.23109432 0.417472 -0.06381245 -0.52740103 0.7265365
0.55451745 -0.2327463 0.8190531 0.30639306 -0.15738496 -0.5728439 -0.112497985 0.37244007
-0.5507341 -0.6732586 -0.11037817 0.87657106 -0.6312145 -0.9954948 -0.6594442 0.5552943
1.5379517 -1.3773646 0.10199914 0.079128884 0.50517 -0.285454 -0.76332146 0.17242028
0.5944366 0.3306013 0.2728795 -0.27029267 -0.6213935 -0.16026457 -0.6694358 0.8429996
0.51509655 0.8330844 -0.40023944 -1.0733848 0.52462524 -0.5520798 -1.3385117 -0.63260853
1.1610494 0.35950813 0.021714428 -0.70533234 -0.24776566 -0.23596787 -0.12301902 -0.043254685
0.427584 -0.10957721 -0.4090145 0.6899489 -0.2354278 0.7914421 0.4259233 0.2977365
-0.29559988 -0.20197612 1.2195317 1.0241809 0.7505348 0.5719052 -0.29758695 0.78915656
0.7951575 -0.5037993 0.7222136 -1.5540686 1.8407545 1.0992068 0.69480973 0.39198607
-0.15867068 -0.17690997 -0.38809368 1.5017427 0.71336174 -1.386075 -0.10192738 0.739664
0.98244286 -1.5199322 0.2724696 0.5868268 1.2012913 -0.38120472 -0.7926956 0.307151
1.1684039 0.7653764 0.7493337 -0.28304887 -0.13774782 -0.3402113 -0.2745456 0.8609487
0.46511802 1.4289603 -0.57625294 -0.5366606 -0.052509956 -0.49321008 -2.6043088 -0.48243794
0.21868885 0.16174267 -0.2035108 -0.17839968 -0.35653993 -0.47711262 -0.4072059 0.27099085
0.5383771 0.55965567 -0.38648772 0.4939858 -0.29254317 0.6178873 0.51261 0.30480227
-0.037612136 -0.3301044 1.0990889 0.33433348 0.3932854 0.3085826 -0.5103415 0.37852436
0.7296516 -0.6257745 0.4869301 -0.009205669 1.3048999 0.829782 0.7320586 0.5620831
-0.7008778 0.40646657 0.05564105 1.0124626 0.9484375 -0.6694657 0.058408298 -0.38834158
1.1388041 0.35903835 -0.26570827 -0.077292725 -0.07473507 -0.9576377 -1.1583813 0.10291265
0.5672813 -0.471191 0.8655189 -1.0903628 0.25784454 -0.3533903 -0.8953754 0.9884856
-0.4734611 -0.6006857 -0.9332845 -0.3220123 -0.40274808 0.29367936 -0.7043277 -0.06913419
1.0502918 -0.34399527 -0.74375105 0.10331346 -0.86530703 -0.64161843 0.081452005 0.65660316
0.7545092 0.39022514 -1.0140476 0.0060094334 0.7531674 0.877308 1.16892 -0.26975068
0.060251657 0.15364957 -0.09625952 1.0539842 0.016623825 -0.32597026 -0.19201055 1.1565833
0.98034745 0.43569157 1.1975805 -0.66396946 0.0489166 -0.25795627 1.2110424 0.86194557
00000000: 5873 29bf 2037 b5be 7df9 0cbf fe09 493e
00000010: 49bf fbbe d1f8 16bf d542 d4be 2620 033f
00000020: a0b9 a7bd 5668 463f 33e1 c13d 4117 af3e
00000030: 235f 34bf 501d 5abf 95e6 0fbf bbbf 2e3f
00000040: 9cfd a9be af5f ec3e bbf1 013f 66b1 35bf
00000050: 92c0 66be 2b90 c9be 402a 1dbf 465e bd3f
00000060: 4d92 cfbe 844a 3ebf c901 4bbf 730c a13e
00000070: aa01 493e 6b31 d9be 5160 2c3e 93f1 ddbe
00000080: 2840 1fbe 6425 cb3e 1adf 1cbf dcc0 f7be
00000090: 95eb 30bf b741 3abf 0f02 35be 6fa9 473f
000000a0: de10 b93f 20ea 113f 75c6 32bf c3d8 513e
000000b0: 0475 13bf 005c 453f 211c 5b3f aa99 c83e
000000c0: 2140 76be 1691 16bf d9f4 33bf fda3 6cbe
000000d0: e4be d53e 1ab0 82bd c103 07bf 4cfe 393f
000000e0: dbf4 0d3f 0c55 6ebe 77ad 513f 8ddf 9c3e
000000f0: 8629 21be e6a5 12bf 5865 e6bd 77b0 be3e
00000100: e9fc 0cbf ad5a 2cbf f30d e2bd f666 603f
00000110: 4697 21bf bfd8 7ebf 56d1 28bf c427 0e3f
00000120: 9adb c43f 7c4d b0bf ede4 d03d 530e a23d
00000130: d252 013f 0727 92be 0969 43bf f18e 303e
00000140: ff2c 183f 9344 a93e ddb6 8b3e cd63 8abe
00000150: a513 1fbf 651c 24be 2560 2bbf d2ce 573f
00000160: 5edd 033f 0545 553f 2fec ccbe ac64 89bf
00000170: d74d 063f 1a55 0dbf 5a54 abbf a2f2 21bf
00000180: 449d 943f 7311 b83e 75e2 b13c a990 34bf
00000190: 48b6 7dbe 90a1 71be 65f1 fbbd d32b 31bd
000001a0: 4aec da3e 046a e0bd 596a d1be 7ea0 303f
000001b0: fc13 71be f39b 4a3f 9e12 da3e eb70 983e
000001c0: de58 97be d4d2 4ebe 9d19 9c3f 5c18 833f
000001d0: 0c23 403f 6168 123f 515d 98be 2a06 4a3f
000001e0: 718f 4b3f fef8 00bf fee2 383f b8eb c6bf
000001f0: d89d eb3f cfb2 8c3f 0ddf 313f 66b2 c83e
00000200: 917a 22be e327 35be 37b4 c6be 1b39 c03f
00000210: e09e 363f e86a b1bf 4dbf d0bd 9f5a 3d3f
00000220: 6081 7b3f 238d c2bf 2381 8b3e 483a 163f
00000230: eac3 993f 442d c3be 19ee 4abf e542 9d3e
00000240: 428e 953f b5ef 433f 55d4 3f3f c8eb 90be
00000250: c40d 0dbe 2d30 aebe 3e91 8cbe 2267 5c3f
00000260: f323 ee3e 2ce8 b63f 5085 13bf 9762 09bf
00000270: ae14 57bd 0886 fcbe ffac 26c0 1b02 f7be
00000280: f8ef 5f3e df9f 253e 2365 50be 68ae 36be
00000290: 678c b6be 1b48 f4be 4b7d d0be 50bf 8a3e
000002a0: 15d3 093f 9845 0f3f b8e1 c5be b5eb fc3e
000002b0: 38c8 95be dd2d 1e3f 693a 033f 0b0f 9c3e
000002c0: 2f0f 1abd 7203 a9be f2ae 8c3f c22d ab3e
000002d0: b45c c93e 8afe 9d3e bea5 02bf f2cd c13e
000002e0: 72ca 3a3f c232 20bf e74e f93e 60d3 16bc
000002f0: f606 a73f 986c 543f 3168 3b3f aee4 0f3f
00000300: ba6c 33bf 631c d03e dfe7 633d 6098 813f
00000310: cdcc 723f 1b62 2bbf 8a3d 6f3d b5d4 c6be
00000320: 55c4 913f e0d3 b73e ea0a 88be a64b 9ebd
00000330: b30e 99bd bf27 75bf d745 94bf dec3 d23d
00000340: 5939 113f f23f f1be a692 5d3f 0291 8bbf
00000350: 3304 843e 93ef b4be 5237 65bf 640d 7d3f
00000360: 7e69 f2be 8ac6 19bf bceb 6ebf ccde a4be
00000370: ff34 cebe 245d 963e d24e 34bf 3a96 8dbd
00000380: f66f 863f 2620 b0be 7866 3ebf 0296 d33d
00000390: c384 5dbf 1b41 24bf 4fd0 a63d 2517 283f
000003a0: 8427 413f 97cb c73e 50cc 81bf c8ea c43b
000003b0: 94cf 403f 4297 603f 2c9f 953f c31c 8abe
000003c0: 71ca 763d 5056 1d3e b623 c5bd f4e8 863f
000003d0: b02e 883c 93e5 a6be 6a9e 44be ec0a 943f
000003e0: 0df8 7a3f f712 df3e 514a 993f e7f9 29bf
000003f0: c65c 483d d812 84be 7003 9b3f 77a8 5c3f

h1.bias f4 [64]
-0.6376246 -0.6851082 -0.5940238 -0.8367755 0.3593109 0.33821797 -0.6793197 -0.49173838
-1.1686964 0.57802695 0.3497056 -0.403143 -0.41521814 -0.47072494 -0.9810578 -0.23256786
-0.5848655 -0.5161077 -0.6235231 -0.506267 0.5030238 -0.48885787 0.1462075 0.5550114
-1.047315 0.29109558 -0.4124256 -1.1197406 -0.53740895 -0.6582147 -0.32249534 -0.5270852
-0.119699016 -0.55753887 0.255738 0.5913506 -0.6961965 -0.6697354 -0.26868525 -0.783502
0.15673941 -0.72067755 -2.2559845 0.2122763 -0.6163981 0.14680693 -0.4421558 -0.41173694
-0.6124771 0.19761504 0.35124606 -0.9511984 -0.08674012 -0.71952564 0.5808173 -0.46760473
-0.44153926 -0.48700124 -0.7959482 0.27670658 0.16355781 0.17567225 0.075320184 0.5356485
00000000: 5e3b 23bf 4063 2fbf f211 18bf eb36 56bf
00000010: 99f7 b73e e82a ad3e e5e7 2dbf 22c5 fbbe
00000020: d897 95bf 93f9 133f 9d0c b33e c268 cebe
00000030: 7997 d4be dc02 f1be 9b26 7bbf 4526 6ebe
00000040: bfb9 15bf a21f 04bf 369f 1fbf b79a 01bf
00000050: 2bc6 003f 944b fabe 6bb7 153e 3a15 0e3f
00000060: 6b0e 86bf 7b0a 953e 7329 d3be a953 8fbf
00000070: a293 09bf c280 28bf 1c1e a5be 0eef 06bf
00000080: c224 f5bd deba 0ebf 17f0 823e c162 173f
00000090: ef39 32bf c773 2bbf 1d91 89be 9693 48bf
000000a0: 4c80 203e 537e 38bf 0d62 10c0 f55e 593e
000000b0: 44cc 1dbf 8e54 163e 3f62 e2be 2fcf d2be
000000c0: 4dcb 1cbf 995b 4a3e 86d6 b33e bd81 73bf
000000d0: cea4 b1bd d532 38bf 71b0 143f e369 efbe
000000e0: 6f11 e2be 3a58 f9be 43c3 4bbf 7cac 8d3e
000000f0: b37b 273e 6de3 333e 7841 9a3d 4320 093f

h2.weight f4 [64, 64]
-0.35596392 0.30519354 -0.79534036 0.5017058 0.59375334 0.6040566 -0.4342228 -1.4953688
-0.4232519 -0.3281731 0.36092225 -1.0110743 -0.101450264 0.5244373 -0.25764745 0.11205882
-0.107703745 -0.30314183 -0.76306486 -0.5894745 0.05569591 0.35888824 0.1054791 -0.12938836
-0.38490736 -0.11091329 -1.2207465 0.63876396 0.24511921 -0.0051709986 -0.07929047 0.282532
-1.41223 -0.14198738 0.0079831295 0.36611253 -0.26239702 -0.7806817 -0.48523763 0.12141852
-0.10238742 -0.15272032 0.3035736 -0.39639276 0.274295 0.29876018 -0.45645514 0.21579234
-0.2655707 -0.085576236 0.45753887 0.3754103 0.025255295 -0.1842808 -0.01964367 0.022276198
0.19850256 0.07201591 0.31162763 -0.044692036 -0.07550401 -0.22982405 0.269655 0.071052186
-0.74519616 -0.42220074 -0.29830477 0.10949471 -0.86996883 -0.34079048 -0.5620154 0.1993451
-0.33184272 -0.6367926 -0.86421824 0.017808322 -0.8787483 -0.5891211 -0.7972241 -0.1489554
-0.8071124 0.09372244 -0.427071 -0.31775832 -0.8310041 -0.27326334 -0.80651355 -0.42986405
0.11459627 -0.6263187 -0.36119395 0.1727885 -0.37900954 -0.6441446 -0.7308554 -0.531452
0.26665804 -0.6591691 -0.51929486 -0.5125903 0.09595881 -0.5725347 -0.7426979 -0.36359778
-0.66220474 0.058031224 -0.6273048 -0.3892105 -0.30103877 -0.8162027 -0.6329947 0.2936093
-0.3427007 -0.6162183 -0.8088087 -0.31781575 0.2555757 -0.63500893 -0.48767942 -0.83666956
-0.6003093 -0.496026 -0.9042642 -0.7694549 -0.753264 -0.40785655 -0.30919275 -0.90299344
-0.6505685 0.64532065 0.3260158 -0.7934252 -0.68742055 -0.58656883 0.56790257 -3.1831298
0.7772583 -0.09892356 -0.6026874 0.66696227 0.74567753 -0.86199534 0.81557685 -0.5370752
0.13662653 0.46299836 -1.3300925 0.29351357 -0.36087292 -0.56973165 -0.610543 -0.39350405
-0.463138 -0.8089643 -0.5010273 -0.9720587 -0.31788045 -0.67202413 -2.2125435 0.6656872
-0.3903922 0.06941692 -0.045931645 -0.4749719 -1.6243534 0.45023617 -0.85830975 0.21843733
-0.08929691 -1.348935 0.15877417 -0.72809595 -0.24898008 -0.33595031 0.039698966 -0.7854217
-1.2096567 0.07296361 -0.3390469 0.2170309 0.311099 -1.4508358 -0.04376129 0.34644675
-0.31222805 0.81340444 0.09194505 0.062936224 -0.4932241 -0.38246506 0.4145019 0.19547512
-0.47221813 -0.5436826 -0.4646889 -0.1329348 -0.7928373 -0.7718266 -0.33098873 0.26980132
-0.017587276 -0.4179292 -0.751482 0.1460033 -0.72894436 -0.41388482 -0.71262926 -0.7626529
-0.5936972 0.11204603 -0.46889454 -0.5812381 -0.8809798 0.064567685 -0.44293126 -0.7490346
0.11659977 -0.6914708 -0.4178447 -0.619648 -0.8409606 -0.4631631 -0.6698544 -0.58378416
-0.15487012 -0.38056317 -0.3707659 -0.47924617 -0.51319987 -0.7206652 -0.8475751 -0.5879318
-0.8315243 -0.10088967 -0.84248835 -0.4359108 -0.56440556 -0.5558808 -0.30524266 -0.25457492
-0.34486744 -0.84480333 -0.3012199 -0.72078127 0.20410787 -0.3645635 -0.5120786 -0.5715708
-0.48415425 -0.46619067 -0.31821716 -0.88656616 -0.52759117 -0.86681736 -0.3827455 -0.85712796
00000000: e740 b6be 5442 9c3e 6d9b 4bbf cb6f 003f
00000010: 3800 183f 74a3 1a3f 7352 debe 3f68 bfbf
00000020: 79b4 d8be 4e06 a8be cdca b83e e26a 81bf
00000030: 28c5 cfbd 8641 063f 5eea 83be 187f e53d
00000040: c893 dcbd 6835 9bbe 3858 43bf cde7 16bf
00000050: 6521 643d 33c0 b73e 6d05 d83d 627e 04be
00000060: 9412 c5be 8226 e3bd 6c41 9cbf 0986 233f
00000070: 8800 7b3e 7b71 a9bb 0b63 a2bd 09a8 903e
00000080: f4c3 b4bf 2465 11be accb 023c 1a73 bb3e
00000090: e758 86be c2da 47bf 1171 f8be 46aa f83d
000000a0: 7fb0 d1bd b762 1cbe 006e 9b3e fef3 cabe
000000b0: 6570 8c3e 18f7 983e 7db4 e9be abf8 5c3e
000000c0: e2f8 87be 9842 afbd 8942 ea3e c735 c03e
000000d0: 31e4 ce3c 1bb4 3cbe c3eb a0bc 937c b63c
000000e0: 4144 4b3e 147d 933d a88d 9f3e ff0e 37bd
000000f0: d9a1 9abd ff56 6bbe 3810 8a3e cf83 913d
00000100: 2dc5 3ebf b22a d8be 67bb 98be c33e e03d
00000110: 47b6 5ebf 177c aebe 3ee0 0fbf 1f21 4c3e
00000120: 4ae7 a9be d704 23bf 683d 5dbf c2e2 913c
00000130: a6f5 60bf a4d0 16bf e116 4cbf c487 18be
00000140: eb9e 4ebf 8df1 bf3d 0da9 dabe 38b1 a2be
00000150: afbc 54bf 2ce9 8bbe ac77 4ebf 2417 dcbe
00000160: 73b1 ea3d 6c56 20bf 6aee b8be 78ef 303e
00000170: 8a0d c2be a9e6 24bf 5719 3bbf 3d0d 08bf
00000180: 6787 883e 4ebf 28bf 82f0 04bf 1e39 03bf
00000190: 0d86 c43d a291 12bf 7321 3ebf 7d29 babe
000001a0: 4086 29bf 26b2 6d3d 0c97 20bf 9946 c7be
000001b0: c121 9abe a9f2 50bf f10b 22bf f553 963e
000001c0: 7776 afbe 7cc0 1dbf 160e 4fbf bfb8 a2be
000001d0: d1da 823e f28f 22bf 1eb1 f9be fa2f 56bf
000001e0: dfad 19bf 1ff7 fdbe dc7d 67bf fffa 44bf
000001f0: e9d5 40bf 93d2 d0be 834e 9ebe 942a 67bf
00000200: a88b 26bf bc33 253f 8beb a63e ea1d 4bbf
00000210: cbfa 2fbf 6029 16bf 1062 113f 66b8 4bc0
00000220: 66fa 463f 6f98 cabd b949 1abf 0abe 2a3f
00000230: b9e4 3e3f baab 5cbf a5c9 503f c37d 09bf
00000240: d3e7 0b3e 1f0e ed3e 7940 aabf 6947 963e
00000250: 56c4 b8be efd9 11bf 8c4c 1cbf 5d79 c9be
00000260: 6d20 edbe 4918 4fbf 5343 00bf d7d8 78bf
00000270: 3ac1 a2be c609 2cbf 509a 0dc0 7a6a 2a3f
00000280: 7de1 c7be 752a 8e3d d222 3cbd 842f f3be
00000290: d0ea cfbf 5b85 e63e 30ba 5bbf 09ae 5f3e
000002a0: 4ce1 b6bd e7a9 acbf b295 223e 7f64 3abf
000002b0: a2f4 7ebe ae01 acbe 629b 223d 6611 49bf
000002c0: 08d6 9abf f26d 953d 8e97 adbe 593d 5e3e
000002d0: 5e48 9f3e fdb4 b9bf 0a3f 33bd 7861 b13e
000002e0: 5bdc 9fbe 463b 503f b04d bc3d b5e4 803d
000002f0: df87 fcbe 76d2 c3be 9839 d43e a12a 483e
00000300: 93c6 f1be c82e 0bbf b4eb edbe 0f20 08be
00000310: 63f7 4abf 6e96 45bf 5b77 a9be 6623 8a3e
00000320: 3113 90bc d1fa d5be 2061 40bf e481 153e
00000330: 199c 3abf b6e8 d3be df6e 36bf 383d 43bf
00000340: 8afc 17bf 6478 e53d f212 f0be 05cc 14bf
00000350: e487 61bf 103c 843d e3c7 e2be bbc0 3fbf
00000360: dccb ee3d 3b04 31bf beef d5be 40a1 1ebf
00000370: 3249 57bf b723 edbe 947b 2bbf e172 15bf
00000380: 4696 1ebe 2dd9 c2be 07d5 bdbe c15f f5be
00000390: 1161 03bf 847d 38bf affa 58bf b382 16bf
000003a0: c7de 54bf 3e9f cebd 51ad 57bf b32f dfbe
000003b0: e27c 10bf 344e 0ebf c448 9cbe a557 82be
000003c0: 7792 b0be 0845 58bf 7f39 9abe 1f85 38bf
000003d0: a701 513e 11a8 babe 9517 03bf 7752 12bf
000003e0: 11e3 f7be 8bb0 eebe 5ced a2be 00f6 62bf
000003f0: 3710 07bf bee7 5dbf 38f7 c3be bd6c 5bbf

h2.bias f4 [64]
0.5041675 -0.6175044 0.44063058 -0.5838308 -0.14898528 -0.5367226 -0.5880489 -0.6827627
0.6224002 -0.2951765 0.50800043 0.28272215 -0.5890734 -0.35881168 -0.20365864 -0.26038572
-0.6085738 -0.83252275 0.8184869 0.58227986 -0.5764124 -0.68439156 -0.5254128 -0.5319315
-0.55477476 -0.59722173 0.937431 -0.5950351 0.17347611 0.35681364 -0.6627622 -0.55311286
0.7405583 -0.55014944 0.60030895 -0.63249755 0.63402545 0.086606175 -0.15160531 -0.6236392
0.11418975 -0.50488967 -0.5027509 0.96332544 0.90561473 -0.7890144 -0.5273465 -0.7361912
-0.65822196 -0.5410572 0.2721148 0.7214703 0.3365364 -0.43734002 0.28879234 -0.59044564
0.63121533 0.5359548 -0.6236237 -1.2765331 -0.53730226 -0.013498968 -0.57703376 -0.6999379
00000000: 1f11 013f c514 1ebf 559a e13e ef75 15bf
00000010: 998f 18be a766 09bf 5f8a 16bf 89c9 2ebf
00000020: 9f55 1f3f 6021 97be 510c 023f f5c0 903e
00000030: 84cd 16bf 2ab6 b7be e48b 50be 4751 85be
00000040: 7ecb 1bbf 3620 55bf 5c88 513f 4b10 153f
00000050: c38f 13bf 4934 2fbf 7481 06bf aa2c 08bf
00000060: b805 0ebf 86e3 18bf 7afb 6f3f 3854 18bf
00000070: b9a3 313e 47b0 b63e c9aa 29bf ce98 0dbf
00000080: 3b95 3d3f 98d6 0cbf d9ad 193f 5ceb 21bf
00000090: 7e4f 223f 945e b13d 6c3e 1bbe d2a6 1fbf
000000a0: 51dc e93d 7340 01bf 48b4 00bf 7f9c 763f
000000b0: 5ed6 673f d9fc 49bf 2e00 07bf 0777 3cbf
000000c0: 3c81 28bf ba82 0abf a252 8b3e 47b2 383f
000000d0: 804e ac3e 08eb dfbe 97dc 933e 7227 17bf
000000e0: 5497 213f 5534 093f cea5 1fbf 7065 a3bf
000000f0: a48c 09bf c72a 5dbc 7cb8 13bf 212f 33bf

h3.weight f4 [16, 64]
-0.5606444 -0.6904092 -0.44883552 -0.8670316 -0.3081948 -0.6113125 -0.34401217 -0.8455446
-0.35599482 0.17237817 -0.6797618 -0.55278414 -0.46249065 -0.63764066 0.109877266 -0.28592074
-0.6453641 -0.2820941 -0.6522358 -0.7909094 -0.4802937 -0.5872751 -0.5181529 -0.13713984
-0.4322951 -0.29360154 -0.596102 -0.8593894 -0.5452346 -0.6035144 -0.7317068 -0.42225
-0.57589567 -0.10293185 -0.8348111 -0.5535442 -0.4682191 0.2663808 0.08756354 -0.49269792
-0.7560848 0.03961897 -0.86190784 -0.55058193 -0.29566416 -0.7010897 -0.38847828 -0.26754177
-0.88669324 -0.6266072 -0.32653892 -0.6664403 -0.31667358 -0.27074862 -0.84747416 -0.46676642
-0.33972967 -0.3812679 0.2968309 -0.8589012 -0.33536068 -0.87387425 -0.30586696 -0.7154622
-0.6074695 -0.66381794 -0.47856936 -0.8970062 -0.36270836 -0.8294964 -0.6646982 -0.44069147
-0.5624838 0.1461038 -0.7832804 -0.84399164 -0.4586077 -0.84859705 0.22512558 -0.114373766
-0.39076278 0.1399236 -0.6181863 -0.34280658 -0.87056977 -0.60485464 -0.32937914 0.19412431
-0.5840973 -0.87773913 -0.74989814 -0.49580106 -0.8950794 -0.68202746 -0.5186951 -0.55361843
-0.6235405 0.118494354 -0.63753545 -0.5133129 -0.38612896 -0.19518837 0.24195701 -0.77805376
-0.7493872 0.06968265 -0.75898427 -0.79155964 -0.34600255 -0.7497165 -0.3855262 -0.48842785
-0.7489908 -0.5363679 -0.3328991 -0.358376 -0.8889818 0.07706318 -0.46425685 -0.47904286
-0.60213035 -0.38155577 0.038325254 -0.37126666 -0.5858969 -0.31260276 -0.22296564 -0.4634253
-0.43258208 -0.51097447 -0.44479945 -0.55939555 -0.6161489 -0.8632588 -0.82347006 -0.43136117
-0.74802095 0.26700953 -0.6628664 -0.7454075 -0.31551832 -0.40335706 -0.08600599 0.119327724
-0.5189798 0.099002674 -0.5010214 -0.7307703 -0.50881994 -0.55155206 -0.34905398 -0.13968015
-0.6219194 -0.32217702 -0.74657166 -0.63460726 -0.5354258 -0.42418042 -0.41541156 -0.6618993
-0.5635335 0.1567162 0.16452113 -0.66725373 -0.82349503 0.15078269 0.13594548 -0.57429314
-0.3061949 -0.019946141 -0.68923646 -0.44299862 -0.6533308 -0.54827183 -0.7250464 -0.31061193
0.08080237 -0.6570336 -0.89487475 -0.70015985 -0.8733173 -0.08902964 -0.38049406 -0.88600975
-0.4210206 -0.5474848 -0.16121383 -0.80139476 -0.81187326 -0.5544827 0.22263381 -0.65413064
-0.6164304 -0.25714827 0.23557863 -0.5820404 -0.36000124 -0.70412374 -0.7096361 0.16455664
-0.83396703 0.06221959 -0.17220409 -0.5949265 0.030534206 -0.4241773 -0.03680816 -0.14261681
-0.42698342 -0.03099586 -0.7915779 -0.7872346 -0.54108864 -0.7656433 -0.66318893 0.12913486
-0.8757753 -0.12908198 -0.32629743 -0.39938155 -0.10759801 -0.8770557 -0.8691295 -0.34482628
-0.83863676 -0.023354206 -0.8225526 -0.5204929 0.26562694 -0.044279687 0.29086262 -0.90415704
0.112831265 -0.24142341 -0.42652574 -0.27642 -0.7219065 -0.9019899 -0.4690465 0.23777893
-0.46812764 -0.09440152 -0.64711237 -0.7659707 -0.016450368 -0.006130581 -0.17277656 0.19839327
-0.47048253 -0.8067269 0.24221207 -0.416146 -0.10445997 -0.7168289 -0.2894454 -0.64774716
00000000: 6486 0fbf a8be 30bf c5cd e5be c8f5 5dbf
00000010: b5cb 9dbe fa7e 1cbf 5d22 b0be 9c75 58bf
00000020: f444 b6be e783 303e df04 2ebf 4383 0dbf
00000030: 93cb ecbe 6b3c 23bf 5507 e13d 3464 92be
00000040: 9536 25bf a36e 90be edf8 26bf 0a79 4abf
00000050: 0ee9 f5be a957 16bf aba5 04bf 636e 0cbe
00000060: c955 ddbe f152 96be 249a 18bf f200 5cbf
00000070: 7f94 0bbf eb7f 1abf 2351 3bbf 2731 d8be
00000080: e66d 13bf efcd d2bd 2eb6 55bf 13b5 0dbf
00000090: 6aba efbe 1063 883e 8354 b33d e742 fcbe
000000a0: c68e 41bf 8047 223d fea5 5cbf f0f2 0cbf
000000b0: 4b61 97be 9d7a 33bf a0e6 c6be 3cfb 88be
000000c0: 54fe 62bf 5469 20bf 1c30 a7be d59b 2abf
000000d0: 0a23 a2be 909f 8abe 11f4 58bf 02fc eebe
000000e0: 0cf1 adbe 8c35 c3be 38fa 973e f3e0 5bbf
000000f0: 65b4 abbe 39b6 5fbf 989a 9cbe 8828 37bf
00000100: 1f83 1bbf f9ef 29bf 0b07 f5be 33a2 65bf
00000110: e9b4 b9be e059 54bf a929 2abf 50a2 e1be
00000120: f0fe 0fbf 3c9c 153e 1085 48bf d60f 58bf
00000130: a1ce eabe a83d 59bf 5287 663e cb3c eabd
00000140: 0f12 c8be 2248 0f3e 7541 1ebf 5884 afbe
00000150: a9dd 5ebf c1d7 1abf 62a4 a8be 86c8 463e
00000160: 6787 15bf 83b3 60bf 53f9 3fbf a3d9 fdbe
00000170: ec23 65bf 5a99 2ebf 34c9 04bf f0b9 0dbf
00000180: 5aa0 1fbf 2bad f23d 8635 23bf 7968 03bf
00000190: b2b2 c5be 76df 47be 94c3 773e 882e 47bf
000001a0: d7d7 3fbf c7b5 8e3d cb4c 42bf a7a3 4abf
000001b0: 3f27 b1be 6ced 3fbf b163 c5be 3713 fabe
000001c0: dcbd 3fbf 684f 09bf c071 aabe 0f7d b7be
000001d0: 5094 63bf 4dd3 9d3d 13b3 edbe 1b45 f5be
000001e0: 3725 1abf 475b c3be f1fa 1c3d aa16 bebe
000001f0: 57fd 15bf 780d a0be 1b51 64be 1546 edbe
00000200: 667b ddbe 39cf 02bf c1bc e3be 8c34 0fbf
00000210: efbb 1dbf 87fe 5cbf efce 52bf 5fdb dcbe
00000220: 4d7e 3fbf 79b5 883e 9db1 29bf 07d3 3ebf
00000230: 9e8b a1be d184 cebe e923 b0bd 1862 f43d
00000240: dcdb 04bf eac1 ca3d f042 00bf c313 3bbf
00000250: 0642 02bf 8432 0dbf 34b7 b2be 5008 0fbe
00000260: 1c36 1fbf 63f4 a4be 521f 3fbf 9f75 22bf
00000270: aa11 09bf 2d2e d9be d3b0 d4be 3c72 29bf
00000280: bb43 10bf 367a 203e 3a78 283e 24d1 2abf
00000290: 92d0 52bf c766 1a3e 4b35 0b3e e004 13bf
000002a0: 94c5 9cbe 1766 a3bc cd71 30bf b7d0 e2be
000002b0: b040 27bf 8b5b 0cbf a49c 39bf 8708 9fbe
000002c0: b77b a53d 5b33 28bf 8316 65bf ad3d 33bf
000002d0: b991 5fbf 2c55 b6bd 1ed0 c2be 89d1 62bf
000002e0: 0390 d7be f727 0cbf 3d15 25be 3528 4dbf
000002f0: edd6 4fbf 94f2 0dbf 1efa 633e 1b75 27bf
00000300: 62ce 1dbf f0a8 83be 863b 713e 9a00 15bf
00000310: 1552 b8be 7441 34bf b6aa 35bf 8981 283e
00000320: dd7e 55bf f8d9 7e3d 4556 30be 1a4d 18bf
00000330: df22 fa3c c42d d9be 27c4 16bd 240a 12be
00000340: 929d dabe 08eb fdbc d9a4 4abf 3588 49bf
00000350: c984 0abf 3301 44bf c0c6 29bf ee3b 043e
00000360: cf32 60bf 112e 04be 7510 a7be bd7b ccbe
00000370: 585c dcbd b986 60bf 457f 5ebf 128d b0be
00000380: e6b0 56bf 5251 bfbc cf92 52bf 063f 05bf
00000390: 4100 883e 9e5e 35bd f2eb 943e d676 67bf
000003a0: 1414 e73d b337 77be 9561 dabe ec86 8dbe
000003b0: ddce 38bf cfe8 66bf dd26 f0be 527c 733e
000003c0: 6dae efbe 9655 c1bd 28a9 25bf a816 44bf
000003d0: ecc2 86bc 0ae3 c8bb 57ec 30be 9b27 4b3e
000003e0: 16e3 f0be a785 4ebf 7106 783e 1711 d5be
000003f0: 1cef d5bd 1982 37bf 3032 94be c2d2 25bf

h3.bias f4 [16]
-0.58485705 -0.6313409 -0.56463146 -0.5820987 -0.560172 -0.6364639 0.5548895 0.82166
-0.20970604 -0.57489836 -0.69838464 -0.56272286 -0.662079 -0.5666126 -0.54863995 -0.6214591
00000000: 31b9 15bf 8f9f 21bf b08b 10bf 6c04 15bf
00000010: 6f67 0fbf 4cef 22bf 3d0d 0e3f 4f58 523f
00000020: 2ebd 56be 8a2c 13bf 56c9 32bf 9b0e 10bf
00000030: 027e 29bf 860d 11bf ab73 0cbf f217 1fbf
