weights/weights_LF=16_dense/w=0.24_1.pth (torch, 41932 bytes, 8 tensors)

input.weight f4 [64, 4]
000000 cb 8c 63 bf 56 10 88 bf 97 47 9a bf f6 10 09 bf
       -0.8888671 -1.0629985 -1.2053097 -0.53541505
000010 ba 26 9a 3e 4c 7c d8 3e b0 c8 a5 be ac 9b cb bf
       0.3010767 0.4228233 -0.32379675 -1.5906882
000020 ba 4e 6b bf a5 49 e6 bf e0 18 28 bf 74 a6 9c bf
       -0.91917 -1.7991225 -0.65662956 -1.2238297
000030 a3 88 21 3e d9 3a 12 bf 8b 1a a2 be d5 15 bc bf
       0.15774779 -0.57121044 -0.31660876 -1.4694163
000040 66 6f dc be 0f 9c 66 3f b0 93 ad bf cf fb 67 bf
       -0.4305374 0.90081877 -1.3560696 -0.90618604
000050 55 c9 19 be 3f c7 09 bd 93 8f b5 3f 59 fd cb bf
       -0.15018208 -0.03363728 1.418444 -1.593669
000060 48 2b 1e 3f 7f 55 16 3c 37 be b6 3f 0d 7c 06 40
       0.6178479 0.009175657 1.4276799 2.1013215
000070 94 9b ac 3e 4f 81 d8 3c fc 2d ce bc 23 c0 eb bf
       0.33712447 0.026428847 -0.025168411 -1.841801
000080 0f d5 25 40 06 ef 6a 3f ef 8c c0 3f 99 17 f6 3f
       2.591129 0.9177097 1.504301 1.9225951
000090 89 ec 16 c0 0d 91 b1 3d 50 9a 81 bc 50 a2 c9 3e
       -2.358187 0.08670244 -0.015820652 0.39381647
0000a0 6c a3 57 be 53 a0 c5 3e eb bf 96 be 01 68 cd bf
       -0.21058434 0.3859888 -0.29443297 -1.6047364
0000b0 de e1 16 bf fa a6 32 bf f3 f3 d4 be e3 26 95 be
       -0.58938396 -0.69786036 -0.41592368 -0.2913123
0000c0 9b de 26 3f 6d 20 e9 3e 44 d9 b6 be 69 7a 02 c0
       0.6518342 0.4553255 -0.35712636 -2.0387213
0000d0 10 90 d0 bf 04 0f 8a bf 80 b7 ad be 69 c5 d0 be
       -1.6293964 -1.0785832 -0.33929062 -0.40775612
0000e0 be 46 cb 3f 81 ec 5d be 60 f3 b1 3f dd b3 34 3f
       1.5880964 -0.2167225 1.3902397 0.7058695
0000f0 ee 5d 1f 40 89 04 96 3e 37 7f 02 3e 39 fc ab 3f
       2.490108 0.29300335 0.12743841 1.3436347
000100 21 5f b3 3f f0 86 af 3e 3b f3 53 3d a2 d8 0d 40
       1.4013406 0.34282637 0.051745635 2.2163472
000110 04 ec 2d c0 11 a3 15 c0 af 76 b0 be e6 27 93 bf
       -2.7175303 -2.3380778 -0.34465548 -1.1496551
000120 3e 98 8e 3f f7 45 46 3f b3 54 80 bf 36 56 7c 3f
       1.1140211 0.7745051 -1.0025848 0.9856905
000130 d7 d5 8b 3f a3 49 c8 3f 30 14 8b 3f 22 86 5d 3f
       1.0924634 1.5647472 1.0865536 0.86532795
000140 b3 4a ec 3f 78 05 13 3f fb c7 0d bf 70 48 03 3e
       1.8460296 0.5743022 -0.5538327 0.12820601
000150 15 8f 10 c0 d1 57 dc bf 6d 38 ae be 03 d2 90 be
       -2.258733 -1.72143 -0.34027424 -0.28285226
000160 d9 f1 80 bf b4 16 aa bf 9e 3e fd 3e 16 92 15 3f
       -1.0073806 -1.3288178 0.49461836 0.58426034
000170 ad 9b b9 bf 70 83 47 3d 57 5e 98 3e 5c f8 ba be
       -1.4500633 0.048709333 0.29759476 -0.36517608
000180 62 17 75 3f 4e 8d 0f 40 dc e5 db be 96 f2 14 bf
       0.95738804 2.2429996 -0.42948806 -0.58182657
000190 b7 86 d8 bf 8c 13 a5 bf 98 c0 49 3f 86 ff 07 bf
       -1.6916112 -1.289659 0.788095 -0.5312427
0001a0 5d e0 5e bf c9 08 d1 be 59 d7 0f bf a7 46 30 3f
       -0.870611 -0.40827015 -0.5618797 0.68857807
0001b0 34 0f 61 3f 06 cb fd 3f 0f f0 1d 3f 95 7a 29 3f
       0.87913823 1.9827583 0.61694425 0.6620267
0001c0 95 a3 b9 3f ea ff 97 3f b6 88 27 3e 6d 40 15 bf
       1.4503046 1.1874974 0.16360745 -0.5830143
0001d0 e9 85 41 40 4f 49 c7 3f dc 2c 8f 3e fa 8c 2f 3f
       3.0237982 1.5569247 0.27963912 0.6857449
0001e0 33 63 b6 bd 56 38 38 3d 0d f9 18 c0 6c bf 13 c0
       -0.089056395 0.0449756 -2.3902009 -2.3085585
0001f0 65 bd d3 bf a3 96 ab bf d6 6a 11 3e eb ab 9b bf
       -1.6542174 -1.3405346 0.14200911 -1.216184
000200 ff a1 85 3f 10 26 69 3f 76 7b 6f 3f d3 b1 f5 3f
       1.0440062 0.91073704 0.9354776 1.9194893
000210 65 2d 0f c0 91 f6 b3 bf 7d f5 04 3f ae e4 38 bf
       -2.2371457 -1.4059621 0.51937085 -0.7222394
000220 bf 77 04 40 70 a7 9c be 50 12 9f 3d d3 92 7e bf
       2.0698087 -0.30596495 0.07767165 -0.99442786
000230 f5 a1 0b 40 1f b7 b8 3f fa 18 ca be d2 9a b6 3f
       2.18176 1.4430884 -0.3947218 1.4265997
000240 44 c7 36 bf 03 d3 d1 bf 52 8e 3e bf 54 5d 05 3f
       -0.71397805 -1.6392521 -0.74435914 0.5209553
000250 e8 96 14 40 dc 08 45 3f 4b 2d 87 3f e6 eb 30 40
       2.3217106 0.76966643 1.0560697 2.764398
000260 7c 17 37 40 ce b3 ea bd b7 26 01 40 e4 4e 6b 3f
       2.8608084 -0.11460076 2.017988 0.9191725
000270 ad 5a 2d c0 43 ee 29 bf 95 cb 29 bf 24 3c 3a 3d
       -2.7086594 -0.66379184 -0.66326267 0.04546751
000280 94 d7 78 bf e5 f3 09 3f ff 70 52 bf 17 c7 1f bf
       -0.97203946 0.5388778 -0.8220367 -0.6241316
000290 1d f6 4f c0 6a 14 26 bf 14 c6 5b 3b 77 8d 3f bf
       -3.2493966 -0.648749 0.0033534812 -0.74825233
0002a0 50 6b d6 3f 6f b0 c7 3f 87 bc ea be c7 13 fd 3d
       1.6751499 1.5600718 -0.4584696 0.12357288
0002b0 4d 34 0b 3f 80 b2 61 bc 23 11 74 be ea 11 62 bf
       0.5437668 -0.013775468 -0.23834662 -0.88308585
0002c0 24 16 54 bf 51 4f 29 c0 e5 e9 03 3f 23 8c 27 3f
       -0.82846284 -2.645466 0.5152877 0.65448207
0002d0 e9 29 b6 3f a7 0b 14 40 6b 53 ba 3f f4 98 c9 3e
       1.423154 2.3132112 1.4556707 0.39374506
0002e0 a9 e6 f1 bf 5c 6f a0 bf 72 e3 99 bf 4e 81 0c c0
       -1.8898517 -1.2533984 -1.2022536 -2.1953921
0002f0 56 29 5e c0 d8 db 1a bf eb b8 aa be b0 75 a6 bf
       -3.471273 -0.60491705 -0.33344206 -1.3004665
000300 51 6f bb be d4 73 b8 bf f8 f8 1a c0 05 29 f5 bf
       -0.36608365 -1.4410348 -2.4214458 -1.9153143
000310 54 ac 4f bf ea f6 bb bf 58 19 31 be 8b 0c bf bf
       -0.81122327 -1.4684727 -0.17294824 -1.4925703
000320 c5 b5 dd bf f8 0f 6c bf 7c d1 d9 bd 02 d1 5e bf
       -1.7321097 -0.92211866 -0.10635659 -0.8703767
000330 ba 4d 9f bf 7c dc 28 c0 da bb d1 bf d1 eb f4 bf
       -1.2445595 -2.6384573 -1.6385453 -1.9134465
000340 1d d9 61 40 66 e2 66 3e d5 df 0f 40 72 b4 ea 3f
       3.5288765 0.22547302 2.2480366 1.8336318
000350 5b 19 ac bc 1e 8d 8e 3f 89 ff 03 c0 b8 86 75 bf
       -0.021008184 1.1136816 -2.0624716 -0.9590869
000360 76 44 b8 be 61 48 d0 3f 16 17 00 3f 98 5d a1 3f
       -0.35989732 1.6272088 0.50035226 1.2606688
000370 79 38 6d 3f f2 85 b5 3f 6f 1c a8 bc b3 02 e7 3e
       0.92664295 1.4181502 -0.02052137 0.45119247
000380 6d 2e 07 c0 37 b8 04 3f fb 7f 2e 3f 00 14 23 3d
       -2.1122086 0.5184359 0.6816403 0.039813995
000390 c4 89 3e c0 0a 6a 0b bf 0b a3 43 bf bc 1f 38 c0
       -2.9771585 -0.5445868 -0.7642066 -2.876937
0003a0 6a ca 87 bf ae 2f b0 bf 43 01 6d 3f 73 5b 7d 3e
       -1.0608647 -1.3764551 0.9258005 0.24741916
0003b0 a1 61 92 bf a0 c0 e3 bf a4 ad 6d bf c1 31 b5 bf
       -1.1436044 -1.779316 -0.9284308 -1.4155809
0003c0 70 46 09 40 f1 ce 43 3e c6 2e 5f 3f 84 0a 4e 3f
       2.1449242 0.1912191 0.87180746 0.80484796
0003d0 14 72 28 bf 1d 88 81 bf ca e7 06 c0 1e ff 4c c0
       -0.6579907 -1.0119663 -2.1078973 -3.203071
0003e0 42 a1 08 40 79 71 0c 3f 59 76 0f 3e b5 7c 4a 3f
       2.1348424 0.54860646 0.1400999 0.7909654
0003f0 8f 59 e4 3f f4 8a ff 3e 4b 19 c3 be 22 6a 70 3f
       1.7839831 0.499107 -0.38105235 0.93911946

input.bias f4 [64]
000000 ca f9 c5 be f8 05 0d be fa 5e 73 bf 63 7e 25 be
       -0.38667136 -0.13771808 -0.950668 -0.16161494
000010 5d 81 b9 be 57 82 86 be dd 5c ed 3e 27 fd ed be
       -0.3623151 -0.26271316 0.46359912 -0.46482202
000020 69 8c f3 3f fb 73 7e bf fb 41 f8 be 73 cb 4c be
       1.9027225 -0.9939572 -0.4848784 -0.19999485
000030 22 e2 8b be 11 03 18 bf 84 6e 26 3f 4c 85 db 3f
       -0.27320963 -0.5937968 0.65012383 1.7150054
000040 a6 44 3b 3f e0 b3 04 c0 66 9f 2b 3f d3 71 44 3f
       0.73151624 -2.0734787 0.670401 0.7673618
000050 c5 3f 8a 3f d8 e3 d1 bf 01 01 c5 be 1d 79 f1 be
       1.0800711 -1.6397657 -0.38477328 -0.47162715
000060 4f ce 3b 3f 39 f2 df be 69 9e 03 3e cf 1f 7c 3f
       0.73361677 -0.4373949 0.12853397 0.98486036
000070 dd e2 26 3f c2 ec ea 3f 55 0f fa bd 7e 6f 3e bf
       0.65189916 1.8353503 -0.122099556 -0.74388874
000080 88 33 30 3f 2c f0 bc bf 32 fe 96 3f 43 a7 c8 3f
       0.6882863 -1.4760795 1.1796324 1.5676044
000090 5c e4 ed be 41 43 f4 3f 73 3f b8 3f c2 eb c5 bf
       -0.46463287 1.9083024 1.4394363 -1.5462573
0000a0 65 5b ae be 62 14 dc bf ae f5 96 3f 94 d3 12 be
       -0.34054103 -1.719372 1.1793725 -0.14338523
0000b0 81 84 6b bf 58 11 80 3f 8f c2 a6 bf 0a ad c7 bf
       -0.9199906 1.0005293 -1.3028125 -1.5599682
0000c0 4f 48 32 bf 16 4a 69 bf bc 1d cc bd d7 6a 83 bf
       -0.69641584 -0.9112867 -0.09966609 -1.026698
0000d0 77 18 ee 3f 58 bc 42 3f ef 31 9c 3e 1f ff 39 3f
       1.8601216 0.7606864 0.30506846 0.7265491
0000e0 f9 b2 6e bf 15 fa 01 c0 80 03 72 bf b4 df 3f bf
       -0.9324184 -2.0308888 -0.9453659 -0.7495072
0000f0 2e ad a3 3f 14 83 a4 bf 4d 39 38 3f 3a d8 a0 3e
       1.2787225 -1.2852502 0.71962434 0.31414968

h1.weight f4 [64, 64]
000000 77 cc af be 28 29 80 3f d3 6f 87 be e3 ef 64 3f
       -0.34335682 1.001256 -0.26452503 0.8942854
000010 05 5a 4a 3f 5b 9c 09 3e 00 14 27 bf eb b1 36 3e
       0.7904361 0.13438551 -0.6526489 0.17841308
000020 85 01 43 bf 9a a8 e0 3e 06 7c 55 3f e4 20 bf be
       -0.76174194 0.43878633 0.8339237 -0.3732978
000030 9e a1 a2 3d 2c 4f 75 be 98 60 01 bf b2 2d 33 bf
       0.07940982 -0.23955983 -0.50538015 -0.699916
000040 e4 b1 64 bf eb a6 1e 3f 3b c0 d8 be 3c 8f f2 3e
       -0.8933394 0.61973447 -0.4233416 0.47374904
000050 38 49 97 bd 1d 48 c6 3d 25 9d 8a bf ea 25 ec 3e
       -0.07387012 0.09681723 -1.0829207 0.46122676
000060 c2 e7 39 3f e4 63 ad 3e eb 30 75 be f7 9d 0b 3f
       0.7261926 0.33865273 -0.23944442 0.5453791
000070 15 76 79 3f 54 0c a8 be ca 28 5c 3f bc 40 4b 3a
       0.97445804 -0.32821906 0.8599974 0.00077534816
000080 6e 27 7c be 87 a2 c0 3e e3 fc 34 3e 53 26 f0 be
       -0.24624416 0.37624 0.17674594 -0.4690424
000090 fa b4 66 be 33 fc 12 bf cb 95 b2 be 3c c5 6c 3e
       -0.22529975 -0.57416075 -0.34879908 0.23122114
0000a0 ac af d1 3e c4 a8 30 3f 3d 94 b2 3e 15 42 d0 3e
       0.4095434 0.69007516 0.34878722 0.40675417
0000b0 d6 53 98 bf f8 d9 72 3e b8 25 47 3f dd ea fb 3e
       -1.1900585 0.23715961 0.7779193 0.49202624
0000c0 b7 39 b1 be 5b 57 9d bd d7 87 c5 bd 43 f7 45 bd
       -0.34614345 -0.07682677 -0.0964505 -0.04833151
0000d0 aa 2b 48 bf 0b f0 49 3f 96 0b 7d 3e 84 4c 2b 3f
       -0.78191626 0.788819 0.24711451 0.6691363
0000e0 bc 3e c5 3e 5d f4 53 3f 22 43 94 bf a3 3d 4a be
       0.38524425 0.82794744 -1.1582987 -0.19750075
0000f0 9d bd 3a bf 22 24 21 3f a8 ba dd be a4 f8 2c bf
       -0.72945577 0.6294576 -0.4330647 -0.67566895
000100 a6 31 09 bf af 2a ba 3e 18 79 83 bf d8 bf 69 bc
       -0.5359138 0.3636069 -1.027133 -0.0142669305
000110 3c f4 8d 3d 4c 03 45 3e b9 51 08 3f cd 8e e4 3d
       0.0693135 0.19239539 0.532497 0.111600496
000120 c3 51 e9 be 9b 5f 69 3f e6 97 0a 3e a2 f0 b8 be
       -0.45570192 0.9116151 0.13534507 -0.36121088
000130 53 1c a0 3e 10 41 5d bf 57 c1 93 bd 72 8a 10 bf
       0.3127161 -0.864274 -0.07214611 -0.5646125
000140 2f c7 36 3f 42 f9 58 3f 68 94 47 3f 79 c2 49 3f
       0.7139768 0.8475534 0.77960825 0.78812367
000150 9d 72 f3 be ed 2b f9 3e da 0b 46 3e f6 36 f4 3e
       -0.4754838 0.48666325 0.19340459 0.47698182
000160 56 70 bc 3e e6 e7 08 bf 4c b7 ea be 25 6f 14 3f
       0.36804456 -0.5347885 -0.4584297 0.57982093
000170 79 fc c6 3e 08 a1 2a bf 2a 39 63 bf 2d 59 dd be
       0.38864496 -0.66651964 -0.887591 -0.43232098
000180 2c fa 7c 3f e6 d1 74 3f bc 94 23 bf 58 66 6b bf
       0.9881923 0.9563278 -0.63898826 -0.9195304
000190 31 d0 de be e3 d4 ff be 2f f7 2d be 72 0f f3 3e
       -0.43518212 -0.49967107 -0.16988824 0.4747272
0001a0 18 9b fd 3e d9 40 06 3f 7c c1 31 be 1c 32 bb 3e
       0.4953239 0.524427 -0.17358965 0.36561668
0001b0 a4 27 e9 3e 8d 85 1a 3f 0f 66 58 bf 4b 68 68 3f
       0.45538056 0.6036003 -0.8453073 0.9078414
0001c0 35 ab 66 bf 02 15 60 bf c4 ef 0f bf 8d c1 29 bf
       -0.9010499 -0.87532055 -0.5622523 -0.6631096
0001d0 99 ce d5 be a4 f9 98 be 9f 83 71 3f 97 fb 05 3f
       -0.41759184 -0.2987796 0.9434146 0.5233702
0001e0 7b ba c7 3e c8 a3 a1 3e 59 96 26 3f 15 58 4c bf
       0.3900946 0.31570268 0.6507316 -0.798219
0001f0 7e c3 0d bf ab a3 d2 be 94 2a d7 3e 59 92 1e 3f
       -0.5537642 -0.41140494 0.42024672 0.6194206
000200 e3 ef 23 3f 73 5a 28 3f 1d 0a 15 bf ab 23 8f 3e
       0.64037913 0.65763015 -0.58218557 0.279569
000210 b9 c4 10 3f cb 3d 07 bf 6e fb 42 bf 83 5a 7d 3e
       0.56550175 -0.52828664 -0.761649 0.24741559
000220 34 7b c6 be 3a fb 8a be bb 20 49 3e 24 1c 39 3f
       -0.38765872 -0.27144796 0.19641392 0.72308564
000230 f9 44 ba 3e 1e f8 91 3e f9 79 aa be 8f 5e 27 bf
       0.36380747 0.2850961 -0.33296183 -0.6537866
000240 8a 07 aa 3e 6b 5a 2e 3e 26 cd 0f 3f bf e0 8e be
       0.33208877 0.17026679 0.56172407 -0.27905843
000250 8f a4 e0 3e 70 99 ac 3e be c5 31 be 5e a0 02 bf
       0.43875548 0.33710814 -0.17360589 -0.5102595
000260 1a aa 34 3f f2 46 a6 be 41 27 b9 be 4c 9c 2b bf
       0.70572054 -0.32476002 -0.3616276 -0.67035365
000270 0c 58 3e 3e ba ba a8 be 61 d2 02 3f 56 88 39 3f
       0.18588275 -0.3295496 0.5110226 0.7247366
000280 a3 69 f4 be 6b eb 9a 3e a7 f5 06 3f be 3b 0c bf
       -0.47736844 0.30257735 0.52718586 -0.5477866
000290 c9 a5 38 3f 8a ef 4d be 43 ed 2b bf 35 2f cc 3e
       0.7212797 -0.20110908 -0.6715891 0.39879766
0002a0 66 2e ef 3e 2d 48 a6 3e fe b8 e7 3e a8 ea 03 3f
       0.46715087 0.3247694 0.45258325 0.5152993
0002b0 2b 39 46 be 33 92 37 bf f9 67 ed 3e bc 20 b5 3e
       -0.19357745 -0.7170746 0.46368387 0.35376537
0002c0 26 50 2a 3f 58 e7 34 3f 51 77 d0 3e 78 62 04 3f
       0.66528547 0.706655 0.4071603 0.5171275
0002d0 fd 41 f5 be c5 05 64 3e 6f 97 4e 3e 19 f4 25 bf
       -0.47901908 0.22267826 0.20174955 -0.6482559
0002e0 26 ed 0e bf 0c 55 2f 3f 48 5d 07 bf f1 d0 c2 3e
       -0.5583061 0.68489146 -0.5287671 0.38050035
0002f0 7d c2 4a be 0e d2 17 3f 61 33 20 be 90 fd 0d bf
       -0.19800754 0.59304893 -0.156446 -0.5546503
000300 cb d7 13 bf a7 69 8d 3f 4b 12 af be 6c 31 8e 3f
       -0.5775115 1.1047868 -0.34193644 1.1108832
000310 6f 99 11 3f 49 29 e4 be 5b 7c 41 bf 7f c1 1e 3f
       0.56874746 -0.44562748 -0.75580376 0.62014
000320 9c 5e 88 bf fc 02 aa 3e e6 46 5c 3f 1f fc 05 bf
       -1.0653872 0.33205402 0.8604568 -0.5233783
000330 fa 09 73 3f 93 93 06 be 4b f3 50 bf 2b 7d 72 bf
       0.949371 -0.13142233 -0.81621236 -0.9472224
000340 bc 6d 60 bf 89 d3 32 3f dc 17 6c 3d 9f 30 42 3e
       -0.8766744 0.6985403 0.05763994 0.1896386
000350 d3 ee 02 bf 91 d3 35 3d 8a 28 72 bf dd 08 3f 3f
       -0.51145667 0.04439122 -0.9459311 0.746229
000360 f8 7e 69 3f 6e b6 50 3d 44 f9 25 bf 98 3b 3e 3f
       0.91209364 0.05095523 -0.64833474 0.7430968
000370 3a c2 65 3f 13 eb 44 bf 8a 53 50 3f bb bb 6c 3e
       0.8974949 -0.76921195 0.8137747 0.23118488
000380 6e 89 5b 3e c7 3a e9 3e 9f b6 f7 be ad a9 d9 be
       0.21439144 0.45552656 -0.48381516 -0.42512265
000390 15 3f 85 be 7e 56 5d bf 88 da 25 bf 56 c0 28 3f
       -0.2602469 -0.864601 -0.6478658 0.6591848
0003a0 b9 2a 6d 3f dd 48 6b 3f 38 5b 44 3f 4f 2e ac 3e
       0.92643315 0.91908056 0.7670169 0.3362908
0003b0 3a 69 98 bf 22 50 f2 3e 21 7d 40 3f c9 dc 49 3f
       -1.1907113 0.4732676 0.7519093 0.78852516
0003c0 44 e7 66 be 80 15 24 bf 8f c2 49 3e 41 9c 51 bd
       -0.22549158 -0.64095306 0.19703124 -0.051174406
0003d0 db 7c 0a bf cc 3f 8b 3f 3a 22 37 3f 79 6b 0e 3f
       -0.54096764 1.0878844 0.715366 0.5563274
0003e0 dc 85 bc 3e 4a df 57 3f cc b6 f1 be 4c 1a 00 bf
       0.36820877 0.8432509 -0.47209775 -0.50040126
0003f0 66 7e 03 bf f0 2f 59 3f 5f 31 96 bf 8b 8a 44 bf
       -0.51364744 0.8483877 -1.1733817 -0.767739

h1.bias f4 [64]
000000 3a d0 c6 3c cf 45 30 3f 25 7b db be 80 54 2b 3e
       0.024269212 0.6885652 -0.4286739 0.16731453
000010 dd 68 3d be 5c dc 53 3f a2 11 2f 3e af 7d de bf
       -0.18497033 0.82758117 0.1709657 -1.7382106
000020 dc d4 f4 bd cd 3c 8c 3f e0 fc 07 bf 66 50 86 be
       -0.11954662 1.0956055 -0.5312023 -0.26233214
000030 ff 90 37 3f c0 5d 50 3f 8c 0a 01 bf 34 57 2b bf
       0.7170562 0.8139305 -0.5040672 -0.66929936
000040 03 7d 80 be dc 2d d1 bd 74 0b fc bf 8f 67 90 be
       -0.25095376 -0.10213825 -1.9690995 -0.2820401
000050 53 29 ca bf 54 85 24 bf b3 aa 25 be 4c 14 64 3f
       -1.5793861 -0.6426594 -0.16178398 0.8909347
000060 fc 63 0f 3f 18 9a 6c bf 8e 41 85 bf 53 b3 3c bf
       0.5601194 -0.9242263 -1.0410631 -0.7371113
000070 86 e9 4a 3f f1 e9 20 3f 89 70 96 bf 26 83 26 bf
       0.7926258 0.62856966 -1.1753093 -0.65043867
000080 94 91 fc be 12 08 7c bf c0 a5 ff bf 4e f6 36 bf
       -0.49329817 -0.98449814 -1.9972458 -0.7146958
000090 78 bb 91 bf aa 2d 14 40 5e 64 f6 bd 65 f6 44 3f
       -1.1385336 2.315287 -0.12030862 0.7693847
0000a0 3a 49 a8 be cd 5b 77 bf 01 48 07 3f 2b f4 03 3f
       -0.32868367 -0.9662445 0.52844244 0.51544446
0000b0 db 59 ee be 1e 10 de 3e 38 42 cf be cd 2e ed 3d
       -0.4655293 0.4337167 -0.40480208 0.11581192
0000c0 96 85 85 bf 41 87 13 bf 42 0b 56 bf b8 eb 1f 3e
       -1.0431392 -0.57628256 -0.8361093 0.15617263
0000d0 77 83 01 3f 5f 1a 73 bd a1 13 2c be ed d4 f8 3f
       0.50591224 -0.05935132 -0.16804363 1.943998
0000e0 4b e4 3b bf 0d c4 18 bd 1f ff 00 bf e3 14 df bf
       -0.7339522 -0.037296344 -0.50389284 -1.7428249
0000f0 76 ae 89 bf ab a6 10 40 84 08 c6 3f 4a d4 d9 be
       -1.0756366 2.2601726 1.5471349 -0.42544776

h2.weight f4 [64, 64]
000000 39 f5 a3 be 88 b8 97 3e 9f c4 8c 3e 70 a7 bd be
       -0.32023028 0.29632974 0.2749376 -0.37041807
000010 f7 6a 3f bf ae 75 c1 be 7d 59 0d bf 93 41 17 3e
       -0.7477259 -0.37785095 -0.55214673 0.14771108
000020 7c 3c 1a bf 09 ca 2e bf c0 c9 a8 be 9f 35 08 bf
       -0.6024854 -0.6827703 -0.32966423 -0.5320682
000030 56 17 3d bf fd 42 1b bf 70 5c 5f bf 6b ad ea be
       -0.7386373 -0.6064909 -0.87250423 -0.45835432
000040 31 bc 5d bf 27 dc 7e 3e 6d f0 d2 be 1b 64 10 bf
       -0.8661528 0.24888669 -0.41199055 -0.5640275
000050 24 be d7 be 49 28 b3 bd 0d ad 29 bf 96 e3 29 bf
       -0.42137253 -0.08747918 -0.6627968 -0.66362894
000060 c5 c0 26 bf e6 11 eb be 56 dc 51 3f 0d 56 15 bf
       -0.6513789 -0.45912093 0.8197683 -0.5833443
000070 37 a4 1a bf cf 7f 4d bf c5 02 03 3f f3 f2 db 3e
       -0.6040682 -0.80273145 0.511761 0.42958793
000080 61 15 e0 be 27 a2 4f 3f 2c c5 f4 be ea 05 99 3e
       -0.4376631 0.811068 -0.4780668 0.29887325
000090 26 3c ab be 60 53 24 bf 72 ae 24 be a0 5d 15 bf
       -0.33444327 -0.6418972 -0.1608217 -0.58345985
0000a0 60 16 af be a0 68 c5 be a5 be f5 be d0 59 4a 3f
       -0.34196758 -0.38556385 -0.47997013 0.79043293
0000b0 98 c3 54 be 80 db 4e bf 2a a5 84 3d e7 9e 33 3f
       -0.20777738 -0.8080368 0.06476815 0.7016434
0000c0 16 58 4f 3f c7 50 4a bd bc 92 59 bf d7 9f 4f bf
       0.80993783 -0.04939344 -0.84989524 -0.8110327
0000d0 cd 75 61 bf b9 23 03 be 74 52 3b bf 57 ee e4 3d
       -0.88070375 -0.12806596 -0.7317269 0.11178272
0000e0 95 a8 c7 be d7 4b 42 bf 20 26 c1 be 5f 83 53 be
       -0.38995805 -0.7589697 -0.377244 -0.20655583
0000f0 f4 f5 42 3f 6f b6 c7 be 18 62 02 bf 3f d6 5d bf
       0.76156545 -0.39006373 -0.5093093 -0.8665504
000100 07 25 30 bf 7f 8f 23 bf f0 cb 28 be 02 b1 d2 be
       -0.688065 -0.6389083 -0.16484046 -0.4115067
000110 fb 9c 7d be 9e f1 06 bf 2a 42 1e bf 1a 92 b0 bf
       -0.24766915 -0.5271243 -0.6181971 -1.3794587
000120 40 99 20 be 74 14 85 bf ce 19 dd bd 6f f9 af be
       -0.1568346 -1.0396867 -0.107959375 -0.3436999
000130 bd 14 0d bf a9 9d 21 bf 1d 9e 7d bf 11 52 61 3f
       -0.5510977 -0.63131195 -0.99069387 0.8801585
000140 e2 17 75 be 13 78 0e be 79 73 ac bf a7 34 fb be
       -0.23934892 -0.13912992 -1.347274 -0.49063608
000150 8e e1 3d c0 34 8f b6 3e 63 d9 b0 3e d9 03 07 bf
       -2.9668918 0.3565613 0.34540853 -0.52740246
000160 e4 ba 69 be 36 5d 47 3f c4 6d e6 bf 5c 6d 4c 3f
       -0.228252 0.77876604 -1.8002248 0.7985437
000170 4c 26 0c bf e3 b8 9c 3d 0b 31 c6 3e 3b be 6d 3f
       -0.54745936 0.07652452 0.38709292 0.92868394
000180 20 5f 36 bf f3 87 e2 be 6b 9c c0 bf 0e 29 8c bf
       -0.712389 -0.44244346 -1.5047735 -1.0950029
000190 d3 3a 1a 3f 80 35 6a bf 40 ee a3 3d ff 10 5c bf
       0.6024601 -0.91487885 0.08004427 -0.85963434
0001a0 f5 57 b1 be f4 2c d1 3d 6a 29 af 3d d2 88 2d bf
       -0.34637418 0.10213652 0.08552821 -0.67786896
0001b0 ce 93 e0 bd ac 61 08 bf bf d7 92 3d 4f f7 ca bf
       -0.109656915 -0.53274035 0.071700566 -1.5856723
0001c0 7d 23 f6 3e 98 22 9f 3d 87 38 51 3f 76 16 6f be
       0.4807395 0.0777027 0.8172688 -0.23348412
0001d0 3d cc 26 be ad 2c 7f bd ed e4 4d be cc 5f 17 c0
       -0.16288848 -0.062298466 -0.2010686 -2.365222
0001e0 5b 66 9d bf bb eb e3 be ca 8d 17 bf 40 5e df bf
       -1.2296861 -0.44515786 -0.5920073 -1.7450638
0001f0 13 5d e7 bd 7e b7 45 bf 2c d6 88 3e 74 c1 f9 be
       -0.112970494 -0.7723311 0.267259 -0.48780406
000200 cc f7 ca 3e 99 9d a1 be 84 01 6a be 8c d4 6c 3f
       0.3964218 -0.3156555 -0.2285214 0.9251182
000210 b3 ec 32 3f 96 29 95 3e be 45 0e 3e 5c dd 2f bf
       0.69892424 0.2913329 0.13893792 -0.6869714
000220 37 5a bc be cb 2e 55 bf 0d ee 69 3f 6d ed 90 3e
       -0.36787578 -0.83274525 0.9137886 0.28306141
000230 54 8f 16 bd e3 f7 ad be bf 46 96 3e 2e ec c9 3a
       -0.036757782 -0.33978185 0.2935085 0.001540547
000240 e0 33 24 3f 0c b9 67 3e af 3b a2 be bb 83 36 3f
       0.64141655 0.22629184 -0.3168616 0.71294755
000250 a3 09 12 bf 62 4e fc be 11 87 a4 3e 2a 6e 7f bd
       -0.57045954 -0.4927855 0.32134297 -0.06236092
000260 1d 66 ea 3d d3 b1 51 3f df c0 10 c0 98 99 1a 3f
       0.11445258 0.81911963 -2.261772 0.60390615
000270 f4 2b 9d be 41 fc 10 3e 5b 2d db be be b3 1b 3e
       -0.30697596 0.14158727 -0.4280804 0.15205285
000280 33 4e 52 3f d7 8b 68 bf 35 90 a6 bf 08 0d 3b c0
       0.8215057 -0.9083838 -1.3012758 -2.9226704
000290 60 4d 4f bd 92 a7 fe bf f7 50 97 be 16 a0 84 bf
       -0.0506109 -1.9894888 -0.2955396 -1.0361354
0002a0 d0 af 4a 3f 9d ff 3a 3e d0 ec f5 3e fa 82 25 be
       0.7917452 0.18261571 0.48032236 -0.16163245
0002b0 e8 ae 5c be 35 94 8b bf 34 62 9c be 0e 3a 7c bf
       -0.21551096 -1.0904604 -0.30543673 -0.98526084
0002c0 4b 73 e9 be 8f 3d 10 be 0d 96 f1 3c dd 39 aa be
       -0.45595774 -0.14085983 0.029490495 -0.3324727
0002d0 4a 47 3b 3e b2 1d 00 3e 3a 91 1f 3f 9b 79 4a bf
       0.18288913 0.12511328 0.62330973 -0.79091805
0002e0 a8 1b dc bf 00 35 7a 3e 82 78 80 be 2d c0 12 c0
       -1.719594 0.2443428 -0.2509194 -2.2929795
0002f0 78 af f6 bc d3 02 d2 bf 5f c8 97 3e c7 e2 8e 3e
       -0.030112967 -1.6407112 0.2964506 0.27907392
000300 fe 85 91 3e 2c 7d 44 3f 15 8c 4b 3f 7c 88 f9 3e
       0.2842254 0.767535 0.79510623 0.48736942
000310 46 8b 0a 3f f4 bb 0e 3e 08 10 2d bf 3b f5 24 bf
       0.54118764 0.13938886 -0.67602587 -0.6443669
000320 f9 c2 ab be 08 bd aa be 3f e0 d9 3e 97 a1 5c 3f
       -0.3354719 -0.33347344 0.425539 0.86184067
000330 1f 4e df 3e 89 d4 7d be 67 26 ec be 26 4c ba be
       0.4361429 -0.24788107 -0.4612305 -0.36386222
000340 fb 54 1d 3f ca 83 68 3d 60 76 0a bf 36 f5 b7 3e
       0.61457795 0.05676631 -0.54086876 0.3592927
000350 dd 90 a5 be 29 25 68 be 20 8a 94 bf 6b b7 fb bd
       -0.32337084 -0.22670425 -1.1604652 -0.122908436
000360 2a 08 e4 be f0 52 b0 be 63 80 51 3f 7a b3 f6 be
       -0.4453748 -0.34438276 0.8183653 -0.48183805
000370 5a aa 54 3f 77 36 14 bf f6 f1 26 3e f8 52 2b bf
       0.83072436 -0.57895607 0.16303238 -0.66923475
000380 de aa 6a 3f 01 2b 99 be 40 95 55 bf 3b 1f 52 3f
       0.9166697 -0.29915622 -0.8343086 0.82078904
000390 ac 0e 40 bf c8 0e 14 bf 0a 53 e9 3c 88 af 0b bf
       -0.7502239 -0.57835054 0.028481979 -0.54564714
0003a0 dc 7f a6 3e aa 1a d8 be 23 58 20 bf 64 ff 9c 3e
       0.32519424 -0.42207843 -0.62634486 0.30663598
0003b0 e6 b1 00 3f 51 e9 b8 3e 13 e6 18 3c 68 2d 2a bf
       0.5027145 0.36115506 0.009332198 -0.66475534
0003c0 db 73 06 bf 24 21 45 3f a7 37 41 3f ea c1 0a 3f
       -0.5252053 0.77003694 0.75475544 0.5420214
0003d0 10 16 da 3e 98 c6 7b be a5 1c 28 3f e0 79 f1 be
       0.42594957 -0.24587476 0.6566871 -0.47163296
0003e0 56 77 04 3f fb 38 68 3f 50 7e 91 be d4 bb 0c 3f
       0.5174459 0.90711945 -0.2841668 0.549741
0003f0 c6 9f 13 bf c9 04 00 be be 68 5e bf 40 bb 30 3f
       -0.5766567 -0.12501825 -0.86878574 0.6903572

h2.bias f4 [64]
000000 94 9b 0f bf 14 c1 be be 49 8f 2b 3f 49 ea 22 3e
       -0.5609677 -0.37256682 0.6701551 0.15909685
000010 9a 3b 0f bf 2b 64 c2 be 39 d5 b9 bf 33 35 3b bf
       -0.5595032 -0.37967047 -1.4518195 -0.7312805
000020 37 52 b5 be 27 98 27 3f f3 3f 27 bf 8a 6d 3b 3f
       -0.35414287 0.6546654 -0.65331954 0.7321402
000030 6c 7a 7e 3f 29 3e 30 bf a0 42 05 3f e8 61 cf be
       0.9940555 -0.6884485 0.52054787 -0.40504384
000040 0f 56 d7 be 80 13 08 bf 2a 12 44 3f f1 16 e5 3e
       -0.42057845 -0.53154755 0.76590216 0.44744065
000050 af a7 68 bf 4a cd 35 bf 3d a8 1b bf 40 58 91 bf
       -0.90880865 -0.7101637 -0.60803586 -1.1355057
000060 90 be 30 bf fc 7d af bf f2 3b 31 bf ee bc 77 be
       -0.69040775 -1.3710322 -0.69232094 -0.24193165
000070 c7 29 26 bf 6c 64 29 3f 6e 06 ff 3e b5 78 c2 be
       -0.649075 0.66168857 0.49809593 -0.37982717
000080 f7 15 d5 be d4 22 1a bf ce ec a3 be 92 55 e1 3f
       -0.4161832 -0.60209394 -0.32016605 1.7604239
000090 c4 a0 65 bc 5e 3f 09 bf f1 f2 c0 3f 00 ef 99 3f
       -0.01401538 -0.53612316 1.507414 1.2026062
0000a0 81 96 30 bf c8 39 08 bf 62 9e 52 bf 9b b7 0f bf
       -0.6897965 -0.5321317 -0.82272923 -0.56139535
0000b0 eb b9 d6 be 5b fd 3f 3f ca 0e ff be 46 c5 f2 be
       -0.4193872 0.74995965 -0.4981597 -0.47416133
0000c0 94 36 a3 3e 23 41 ff be 79 c6 85 3f 22 1d 68 3f
       0.31877577 -0.49854383 1.0451194 0.90669453
0000d0 aa 8b e0 3e f3 30 0b 40 67 04 ba be 28 60 97 be
       0.43856555 2.1748626 -0.36331484 -0.2956555
0000e0 25 06 a0 3e 58 04 2e bf b9 66 30 bf 9a 35 5f bf
       0.31254688 -0.6797538 -0.6890674 -0.87191164
0000f0 8e e4 31 bf 1e 64 0b bf 12 c2 63 3f 77 13 32 3f
       -0.6948937 -0.5444964 0.88968 0.6956095

h3.weight f4 [16, 64]
000000 f4 82 fb 3e 58 e7 c7 3e b9 1f e3 be ea 5b d9 3e
       0.49123347 0.3904369 -0.4436014 0.42452937
000010 5e 9f e7 3e ef 20 b1 3d 5a 57 fb bd 50 52 3c 3e
       0.45238775 0.0864886 -0.1227252 0.18390775
000020 ac 98 73 be 20 c2 76 3e ab 1e 5d 3f f7 f3 29 bf
       -0.23788708 0.2409749 0.8637492 -0.66387886
000030 3b 0b da be 50 d0 4c bd fe 33 44 be 2a c9 a1 be
       -0.42586693 -0.05000335 -0.19160458 -0.31598788
000040 d6 43 24 3f b3 69 ca 3e 3a dc 64 bf 59 a8 dc be
       0.6416601 0.39533767 -0.8939854 -0.4309719
000050 e4 82 41 3f 45 6e ce 3e e4 ee 49 3f 38 da be 3e
       0.7559035 0.40318504 0.78880143 0.37275863
000060 74 79 dc 3e 07 3b 12 3e 71 94 3d 3f 36 d4 f4 be
       0.4306141 0.1428033 0.7405463 -0.47818154
000070 ab 42 4d 3f 5d 45 11 bf 1e 72 35 bf e2 8f 12 3d
       0.8017985 -0.56746465 -0.70877254 0.03578175
000080 86 f2 4e be 35 70 e4 3e ce 25 c3 be 16 3b 05 bf
       -0.20209703 0.44616857 -0.3811478 -0.52043283
000090 fb 38 14 be 99 9f ec bd f5 78 27 bd 17 d9 2b bf
       -0.14474861 -0.11553878 -0.040886838 -0.6712813
0000a0 02 63 60 3f da 84 12 bc a5 80 50 3f 91 ca 27 bf
       0.87651074 -0.008942807 0.81446296 -0.65543467
0000b0 6f 1f 95 be 42 01 39 bf df 8c 15 bf 5e 9a a0 be
       -0.29125544 -0.72267544 -0.5841808 -0.31367773
0000c0 0d c3 f7 be 78 0e 5d 3e ed ea 15 bf bf 1b 7c bf
       -0.48391 0.2158755 -0.58561593 -0.9847984
0000d0 2b ea 9b be d8 c4 34 bf 7c 80 dd be 67 df c3 3e
       -0.30452093 -0.7061286 -0.43262088 0.3825638
0000e0 51 95 49 bf ea bb 12 3d ca 5f a8 3e 0b 79 20 3d
       -0.78743464 0.03582374 0.3288558 0.039177936
0000f0 3d 2f 0e 3f f8 cb 5f 3f d8 c4 38 bf 32 98 7d 3e
       0.5554083 0.87420607 -0.7217536 0.24765089
000100 e2 47 11 3f eb 92 31 be 06 7a 52 bf ae d9 06 3d
       0.5675031 -0.17341201 -0.82217443 0.03292244
000110 1e 7d 1b be 4f c0 d6 be 98 bf f2 bd b5 92 32 bf
       -0.15184447 -0.41943595 -0.1185295 -0.6975511
000120 32 f4 84 bd 71 81 8a be fa 5a af bd bc dd 31 bf
       -0.06491889 -0.2705188 -0.08562274 -0.69478965
000130 d2 31 fe be 5c 21 bc be 64 2a ed be a7 bc 55 be
       -0.49647385 -0.367442 -0.46321404 -0.20872746
000140 15 76 21 bf a1 f1 e9 be 93 6b 01 bf 5c 49 85 be
       -0.63070804 -0.4569216 -0.5055477 -0.2603253
000150 21 d1 1a 3d 6e c4 8b 3e 73 ab 05 3d 33 b2 85 be
       0.037797097 0.272983 0.03263421 -0.26112518
000160 b6 44 63 3f 0e db 3c be e7 61 a5 3e 70 e3 41 3e
       0.8877672 -0.18442938 0.32301256 0.18934417
000170 64 1c c3 bd ad 76 34 bf 72 3a 38 bf 1a b8 08 bf
       -0.095268995 -0.70493585 -0.7196418 -0.53405917
000180 1d cf a5 bd 54 19 a4 be 11 b4 41 bf 04 80 36 bf
       -0.08096144 -0.32050574 -0.75665385 -0.71289086
000190 b7 39 ce be 26 14 22 bf 2f 6c 4b 3f 36 69 38 bf
       -0.40278408 -0.63311994 0.7946195 -0.7203554
0001a0 51 cf 9b 3e 75 c4 72 be c0 18 4a 3d e0 07 99 be
       0.30431607 -0.23707755 0.04934001 -0.2988882
0001b0 c1 61 4f 3e 25 90 20 bf 1b d0 58 be 68 07 22 bf
       0.20252134 -0.6271995 -0.21173136 -0.6329255
0001c0 15 6d e8 be 1d 0d 34 bf 40 62 fb be 6c 2d 16 bf
       -0.45395723 -0.7033251 -0.49098396 -0.5866306
0001d0 6a 2d 92 be 73 b8 88 3e 4c d2 90 3e 74 d3 28 bf
       -0.28550273 0.26703224 0.28285444 -0.6594765
0001e0 ec 6a 34 bf 20 aa e3 bd e2 bb f0 bd de 1f 01 3a
       -0.7047565 -0.11116433 -0.11754586 0.0004925708
0001f0 10 1a cd 3e 3e 7d b0 3e 2c 74 27 be e9 3a 80 be
       0.40058947 0.34470552 -0.1635291 -0.25044945
000200 59 9b b5 3e d4 39 37 bf 55 5c 25 3f b1 fc 59 3f
       0.35470083 -0.71572614 0.6459401 0.851512
000210 fb 74 17 3f bd 19 89 bf 55 1b 4a c0 9f 07 e0 3e
       0.59162873 -1.071098 -3.1579182 0.43755814
000220 8e fe 29 be 8f 8c 38 bf 4d 15 ed 3e 30 b1 32 be
       -0.16601011 -0.72089475 0.46305314 -0.17450404
000230 ce 5e 85 bf 2a 73 91 3e a8 ac 28 3f af 3a 17 3f
       -1.0419557 0.28408176 0.6588845 0.5907392
000240 3d 51 9a 3e e0 92 b8 3e 44 09 aa bf 6e 66 df 3d
       0.30140105 0.36049557 -1.3284078 0.10908209
000250 94 9a 1a bf c5 98 ca 3e fd 95 0b 3f ec 24 0a 3f
       -0.6039212 0.3956968 0.5452574 0.5396259
000260 8e c8 b9 3e cd b3 0e bf d8 15 9b 3e f8 9d 69 3e
       0.36285824 -0.55743104 0.30290103 0.22814167
000270 ba 19 16 3f 14 fc 43 3e 98 e7 45 3f 95 c4 1c bf
       0.58633006 0.19139129 0.7730651 -0.6123746
000280 ed eb d3 be e8 50 34 3f ca 23 b6 bf 4d 17 94 bf
       -0.41390935 0.70435953 -1.4229672 -1.1569611
000290 52 c1 21 bf ac 13 14 3f c0 01 59 bf 01 08 a4 bf
       -0.6318561 0.57842517 -0.84768295 -1.2814943
0002a0 30 e8 d0 3e 1b fb b2 bf 42 9d 0f 3f 07 bb aa be
       0.40802145 -1.3982881 0.5609933 -0.33345816
0002b0 07 a8 d6 be 80 9c 9c be 48 bd 10 bf ed c0 74 bf
       -0.4192507 -0.3058815 -0.5653882 -0.9560688
0002c0 41 6a 28 3f a7 71 8f be ed 24 84 bf 24 82 d8 3e
       0.6578713 -0.28016397 -1.0323769 0.4228679
0002d0 4f dc 39 bf 0e 34 21 3f 51 d9 40 be 2b d4 59 bf
       -0.7260179 0.62970054 -0.188329 -0.8508937
0002e0 ef e3 a6 bf dc c6 f0 3e 9f 14 ec 3e 6a 68 b3 c0
       -1.303831 0.47026718 0.46109483 -5.606496
0002f0 ae 2b ec 3e 94 99 f4 3e 04 74 9b bf 89 d1 d0 bd
       0.46127075 0.4777342 -1.214478 -0.10196216
000300 fb ee 5e 3f 02 55 f3 be 1f b4 17 be 51 74 dd 3d
       0.87083405 -0.47525793 -0.14814804 0.10813201
000310 4c f5 e1 bd 6d 14 99 be 47 47 77 3e bc 46 4b bf
       -0.11033115 -0.29898396 0.24148284 -0.7940481
000320 ef 3c 77 3e 89 e5 e4 3d d7 1f 0a 3f b1 43 20 bf
       0.24144338 0.11176593 0.53954834 -0.6260329
000330 07 6b db be 2c 4c ef be 4e 3d 3c be 4b 0b 17 bf
       -0.42855093 -0.46737802 -0.18382761 -0.59001607
000340 07 6c a7 be cc d9 53 3f 86 4f a2 be e6 c5 2a bf
       -0.32699606 0.82754207 -0.31701297 -0.6670822
000350 ad 8d 0b be 4c 5c 46 3f 64 b2 41 3f 0a 5f 19 3f
       -0.13628264 0.77484584 0.7566283 0.59910643
000360 9c 44 d8 3e ab 93 13 be 8f 7a 0e 3f a6 fe 0c be
       0.42239845 -0.144118 0.5565576 -0.13769016
000370 fa 9d 0e 3f ff f2 0e bf 6a 99 21 bf 97 0d 40 be
       0.55709803 -0.5583953 -0.63124716 -0.18755184
000380 37 27 33 3d 43 55 3e 3f 77 e0 49 bf 47 3e 83 bf
       0.04373857 0.7434885 -0.7885813 -1.025338
000390 d6 f6 b1 be 44 53 21 bf 23 c7 dd 3d 53 03 56 bf
       -0.34758633 -0.6301768 0.10828998 -0.8359882
0003a0 c2 fd a0 3e 87 be 29 bf d8 2e ee 3e 36 86 90 be
       0.31443602 -0.66306347 0.46520114 -0.28227395
0003b0 1b bd 38 3d 1f 42 f8 be 5d 10 07 bf ec 6e 8e be
       0.04510222 -0.48487946 -0.52759343 -0.27819002
0003c0 c3 40 9c be c0 0f 0f bd 35 63 26 bf f2 94 a7 be
       -0.3051816 -0.03492713 -0.6499513 -0.32730824
0003d0 40 6d 94 bd 73 41 76 bd 26 32 8d 3e 63 43 1e bf
       -0.072474 -0.06012101 0.27577323 -0.61821574
0003e0 bb 91 4f bf d1 5d 38 bf 1c 47 0a 3f 34 6c 4a be
       -0.8108174 -0.7201815 0.54014754 -0.19767839
0003f0 aa 8e 2b 3f e3 72 bf 3e a0 72 0b bf d3 6a c4 be
       0.67014563 0.3739234 -0.5447178 -0.3836275

h3.bias f4 [16]
000000 39 02 c0 3e 3d e7 0d be 33 6f fe 3e 77 a0 e2 3e
       0.37501696 -0.13857742 0.49694213 0.4426305
000010 ea be 3a 3e 5a 0a a5 be 91 e1 20 3f a5 65 2e bf
       0.1823689 -0.3223446 0.6284419 -0.6812385
000020 ed e7 07 bf 54 2f 69 3e b2 d3 ee be de fc a8 3c
       -0.53088266 0.2277196 -0.46645886 0.020628389
000030 4a 10 80 be 4c e6 52 3f 97 82 cf 3e c5 64 53 bb
       -0.25012428 0.82382655 0.4052932 -0.0032256108
