weights/weights_LF=16_sparse/w=0.50_3.pth (torch, 41932 bytes, 8 tensors)

input.weight f4 [64, 4]
1.2237626 -0.25532946 -0.567188 0.7132452 0.040391672 -0.7057838 -0.4022565 -1.1548817
-0.91378754 0.7560418 0.35616827 0.81893295 0.044622082 0.89018095 0.22107874 -0.90445054
0.6375906 -0.04534588 0.6432325 -0.9131749 -0.7936031 -1.0485816 0.3271122 -0.44827873
1.170843 -0.489461 -0.84571344 0.8254378 -0.23054557 0.27376187 -1.0745504 0.8859827
-0.2882324 0.18956232 -0.53411317 -0.40643543 -0.11192721 0.26718754 0.44571918 -0.32751733
0.15269673 -0.09357672 1.2118031 0.9258444 -0.64409757 0.6329738 0.41524908 0.60721815
0.58051544 0.8086329 0.37325755 -0.6462078 0.75091505 0.07039105 -0.70229816 0.15743412
-0.9824241 0.63891125 -0.13876648 1.1738341 0.63147295 -1.2068139 0.7478892 -1.1488057
1.2169564 -0.5012051 0.75814927 0.8485286 1.1270213 -0.53119326 -0.32654595 -0.04142809
-0.555661 -0.8204148 0.48567998 0.55390847 0.3310618 0.4669481 -0.83934194 0.14629345
0.6324562 1.1942269 -0.8098455 0.039441846 -0.1252496 0.3095335 -0.12352402 -0.888507
-0.8595863 -0.6181558 0.65107256 0.6101416 -0.82901806 -0.3085108 0.5746729 -1.177418
-0.8558565 -0.23260939 -1.0181978 -0.8195162 0.31243265 -0.6033499 -0.6318375 1.1751733
0.06757906 -0.6554763 -1.1720687 -0.25020432 -0.7293228 -0.08383228 -0.106777824 0.17864765
0.91284984 1.0957106 1.0699137 0.97206676 -0.5067485 -0.27940312 -0.0364081 0.7781262
-1.033218 -0.23267838 -1.0199699 -0.72915065 -1.1709213 0.053344257 0.13108341 0.50899535
-1.2207258 -0.5834862 0.67645586 -0.13917184 -0.45298174 -1.2225709 -0.019402394 -1.0197172
-1.0229635 -1.0085114 0.8616086 0.17426538 -0.30757788 -0.8205943 -0.38275164 -0.9779122
-1.1377437 1.1032628 0.23894124 -0.8175611 0.72935647 -0.020531781 0.4584905 -0.4199463
0.5587487 1.1983474 0.90214556 0.9898167 0.7693968 -0.08984654 0.058543105 1.0275409
0.24395713 0.48662898 -0.115490764 -1.0064776 0.38936284 1.1798201 0.06705506 -1.0018603
0.59489155 -0.4650628 -1.2262942 -1.1010387 -0.045689512 -0.60504544 -1.0210878 -1.1328048
-0.65706104 -0.8349357 -1.1647339 1.16727 1.0414251 -0.96911854 -0.46996617 1.1893446
-1.022078 0.738563 0.2426387 -0.36278984 -0.04228091 -0.4187901 0.85924923 0.38702717
-0.74316704 -1.1945256 0.8169187 -0.6764015 -0.7647333 0.5877816 -0.1431134 -1.0968292
-0.18962468 -0.7508396 -0.2661568 -0.039892886 -0.52132535 0.40923762 -0.82191455 1.2125915
0.9127855 0.31089827 0.6769602 1.096053 -0.1120062 -0.21398805 -0.083978035 -0.8032812
0.61896884 0.72313875 -0.13120195 -0.24689128 1.0634056 -0.9571648 1.2248001 0.31132278
-1.2008598 0.8188717 0.1378414 0.25556472 0.71625465 0.38100195 -0.9188302 -0.59147686
1.1278275 -0.7803297 -0.1296586 1.039515 -1.0732008 -1.081195 1.0481904 0.25546327
0.9783917 1.1583542 0.7292265 -0.38921678 -0.4422164 -1.1269678 0.36239642 -0.94170284
0.19042847 -0.36747572 1.0579579 -0.8657214 0.12292488 -0.25583982 -0.6101691 -1.0887015
00000000: 41a4 9c3f 8bba 82be 3c33 11bf 3d97 363f
00000010: bd71 253d 3fae 34bf 90f4 cdbe 2ad3 93bf
00000020: fbed 69bf f58b 413f b05b b63e 97a5 513f
00000030: a5c5 363d e6e2 633f 7762 623e 128a 67bf
00000040: 2339 233f 9abc 39bd e3aa 243f d5c5 69bf
00000050: 9329 4bbf ec37 86bf 407b a73e ca84 e5be
00000060: 2fde 953f a29a fabe ad80 58bf e44f 533f
00000070: 2314 6cbe 842a 8c3e de8a 89bf c3cf 623f
00000080: 3293 93be a01c 423e a4bb 08bf 4e18 d0be
00000090: 183a e5bd cecc 883e 4e35 e43e 5ab0 a7be
000000a0: 885c 1c3e 27a5 bfbd 5d1c 9b3f 2304 6d3f
000000b0: 94e3 24bf 920a 223f 879b d43e a672 1b3f
000000c0: a99c 143f 9102 4f3f 9d1b bf3e e06d 25bf
000000d0: f83b 403f 2f29 903d d0c9 33bf 6936 213e
000000e0: 2580 7bbf b08f 233f cd18 0ebe 3240 963f
000000f0: 36a8 213f e178 9abf ab75 3f3f 110c 93bf
00000100: 3ac5 9b3f fa4e 00bf 1216 423f 2c39 593f
00000110: 3c42 903f 48fc 07bf 0831 a7be 80b0 29bd
00000120: cd3f 0ebf b406 52bf 0cab f83e f2cc 0d3f
00000130: ef80 a93e d213 ef3e 1ddf 56bf f3cd 153e
00000140: a6e8 213f 6ddc 983f 0952 4fbf c68d 213d
00000150: 6e41 00be 2d7b 9e3e 29fa fcbd 3275 63bf
00000160: d90d 5cbf 753f 1ebf b1ac 263f 3d32 1c3f
00000170: 873a 54bf 21f5 9dbe c31d 133f a2b5 96bf
00000180: 6919 5bbf 2831 6ebe 4e54 82bf d0cb 51bf
00000190: 2cf7 9f3e 2475 1abf 1ac0 21bf 146c 963f
000001a0: e466 8a3d 4bcd 27bf 5906 96bf c81a 80be
000001b0: e6b4 3abf 42b0 abbd 55ae dabd 69ef 363e
000001c0: 87b0 693f 3f40 8c3f eff2 883f 5ed9 783f
000001d0: 45ba 01bf ed0d 8fbe a920 15bd 4733 473f
000001e0: 7d40 84bf 3e43 6ebe 608e 82bf 9ea9 3abf
000001f0: c0e0 95bf 827f 5a3d bb3a 063e 854d 023f
00000200: be40 9cbf 5a5f 15bf 362c 2d3f 1083 0ebe
00000210: 39ed e7be 347d 9cbf c5f1 9ebc 1886 82bf
00000220: 78f0 82bf e716 81bf 6292 5c3f a072 323e
00000230: d97a 9dbe 7812 52bf 06f8 c3be 7458 7abf
00000240: 96a1 91bf b737 8d3f 03ad 743e af4b 51bf
00000250: 1bb7 3a3f 4432 a8bc 44bf ea3e 3403 d7be
00000260: 280a 0f3f 7363 993f 03f3 663f a164 7d3f
00000270: 30f7 443f 7601 b8bd e5ca 6f3d 7686 833f
00000280: e6cf 793e 6f27 f93e 6c86 ecbd 42d4 80bf
00000290: 915a c73e 5804 973f 2a54 893d f53c 80bf
000002a0: d04a 183f b61c eebe 35f7 9cbf d6ee 8cbf
000002b0: ed24 3bbd 42e4 1abf 01b3 82bf bfff 90bf
000002c0: 2735 28bf 59be 55bf 0016 95bf 1a69 953f
000002d0: 6b4d 853f 2718 78bf 689f f0be 723c 983f
000002e0: 74d3 82bf 7712 3d3f 4876 783e 97bf b9be
000002f0: bf2e 2dbd a86b d6be c2f7 5b3f 6d28 c63e
00000300: 3240 3ebf 37e6 98bf 9521 513f a628 2dbf
00000310: 90c5 43bf db78 163f 528c 12be e664 8cbf
00000320: f92c 42be 0637 40bf b445 88be b966 23bd
00000330: 9475 05bf 9887 d13e fe68 52bf 3336 9b3f
00000340: 4fac 693f 0f2e 9f3e 434d 2d3f 774b 8c3f
00000350: 8263 e5bd af1f 5bbe adfc abbd d6a3 4dbf
00000360: be74 1e3f 9f1f 393f ce59 06be 11d1 7cbe
00000370: ad1d 883f c108 75bf 40c6 9c3f b365 9f3e
00000380: c6b5 99bf 93a1 513f 4c26 0d3e 61d9 823e
00000390: 775c 373f b012 c33e 7538 6bbf 076b 17bf
000003a0: a75c 903f b0c3 47bf 39c5 04be d40e 853f
000003b0: a55e 89bf 9964 8abf 1a2b 863f 15cc 823e
000003c0: e177 7a3f f344 943f 97ae 3a3f 6c47 c7be
000003d0: 306a e2be 7b40 90bf 068c b93e 7013 71bf
000003e0: aeff 423e c725 bcbe 2a6b 873f eb9f 5dbf
000003f0: 0ac0 fb3d 70fd 82be 0b34 1cbf 925a 8bbf

input.bias f4 [64]
-0.012202583 -0.084448256 0.07073439 -0.045492403 -0.0122222025 0.02377584 0.017959595 -0.095989205
0.08478481 -0.06673156 0.015773037 0.0115787815 0.060941145 -0.054007433 0.095818594 0.04346963
-0.055401213 0.033082705 -0.014981284 0.0025259166 0.093905784 0.07233785 0.0050965887 0.037376966
-0.008373435 0.015607845 -0.016964171 0.092270784 0.08452383 -0.08029665 0.08405734 -0.03550348
-0.11648267 -0.044020142 0.0056251525 0.090837866 0.07773649 0.06554359 0.019753216 -0.023388177
0.024277644 -0.023227025 -0.06084957 -0.023483148 -0.05249518 0.05771825 -0.082563154 0.07460194
0.03251505 0.012488157 -0.020257877 0.06587014 0.053982936 0.089303605 -0.07535187 -0.05201961
0.05062957 0.039488297 -0.051794276 0.06580848 -0.072501734 -0.08741668 -0.08343993 -0.05979991
00000000: 58ed 47bc 35f3 acbd 31dd 903d 3e56 3abd
00000010: a23f 48bc 8dc5 c23c 0020 933c fd95 c4bd
00000020: a9a3 ad3d 8eaa 88bd 7536 813c eeb4 3d3c
00000030: 6c9d 793d e636 5dbd 8a3c c43d 360d 323d
00000040: 62ec 62bd bb81 073d 0f74 75bc d989 253b
00000050: ad51 c03d de25 943d 4901 a73b 9718 193d
00000060: bb30 09bc 0cb8 7f3c 72f8 8abc 77f8 bc3d
00000070: d41a ad3d 9272 a4bd 4126 ac3d 196c 11bd
00000080: 778e eebd 774e 34bd 3353 b83b 3409 ba3d
00000090: 4f34 9f3d b83b 863d 7fd1 a13c 9098 bfbc
000000a0: e9e1 c63c 9a46 bebc 663d 79bd bb5f c0bc
000000b0: 3005 57bd f969 6c3d df16 a9bd e7c8 983d
000000c0: 802e 053d 209b 4c3c d9f3 a5bc ede6 863d
000000d0: 361d 5d3d cfe4 b63d 1552 9abd 8412 55bd
000000e0: f460 4f3d 7bbe 213d 3c26 54bd 99c6 863d
000000f0: ca7b 94bd 8407 b3bd 8ee2 aabd c0f0 74bd

h1.weight f4 [64, 64]
-0.047780648 -0.204784 0.08819474 0.01568976 0.21424389 -0.13691294 0.117639706 0.12319497
-0.31369132 -0.089597434 -0.14959393 0.0578682 0.22694609 0.30617538 0.31832156 0.12033933
-0.2094559 -0.056446847 -0.087711 0.0825903 -0.16693497 0.15161835 0.11166651 -0.20478705
-0.028722793 0.11577372 -0.092681885 -0.13673556 0.14382875 -0.28279507 0.27316782 -0.26276726
-0.1781261 0.0025309033 -0.19045722 -0.14750771 0.067328505 0.1914122 -0.013324948 -0.17940313
-0.20604905 -0.1850994 -0.21000051 -0.24792832 -0.14270966 -0.029232286 -0.03700087 0.06722017
0.11360717 -0.11310336 -0.18381311 -0.038897447 -0.16462268 -0.28610706 0.11836724 0.31858283
0.18831168 -0.13687573 0.23794223 -0.16929862 -0.19578183 -0.13806197 -0.052572466 0.2487872
0.1986587 0.19102944 -0.264058 -0.047869727 -0.13243315 -0.119050875 0.034076978 0.26750576
0.025575552 -0.25698856 0.04951328 -0.08196607 -0.27857718 -0.14831506 -0.2501251 0.14506134
0.25250703 -0.022405816 -0.037469823 -0.11413788 0.18417785 -0.061061844 -0.21216331 -0.25514504
-0.085259564 0.10073215 -0.13319379 -0.23930275 0.034667145 -0.12563808 0.022166299 -0.24904147
-0.14801869 0.18996087 -0.18463589 0.15389729 0.15652998 0.24044229 -0.25852296 -0.019460063
-0.104630455 0.07778747 0.11779856 -0.13442138 -0.23243241 0.03710711 -0.12768443 -0.17272584
-0.16364145 0.053256575 0.034265358 0.15559292 0.259636 0.22639476 0.23201534 0.11875078
0.2591768 -0.05987526 -0.29547948 0.24649344 0.18955693 0.00030146545 -0.12945859 -0.15949307
0.13753194 0.008913058 -0.21100363 -0.118208915 0.17304026 -0.2192969 0.15818447 0.07039544
0.248003 -0.23519155 0.020210115 0.035103086 -0.18336466 0.22010626 -0.16655774 0.16558099
0.311031 0.13921125 -0.22342657 0.23266877 0.25534827 -0.12175658 0.22498791 0.18377456
0.18898036 0.2220339 -0.09401384 0.28124195 -0.082959734 -0.16149154 -0.2848093 -0.1794572
-0.03246667 -0.06049851 -0.07297999 -0.22484952 -0.31854096 -0.2192227 -0.17566687 0.038051534
0.22735105 -0.024718266 0.06740653 -0.23174785 -0.14431156 -0.19204652 0.009427117 0.24338488
-0.2832623 -0.14061108 -0.22087686 -0.28932485 0.23626995 0.2036484 -0.11097147 -0.23273008
-0.107161924 -0.30311972 0.21171637 0.08460951 -0.22271006 0.2093667 0.12269179 -0.11022335
-0.11409717 0.22835223 0.16541857 -0.04631757 0.064037636 0.20370422 -0.1955898 -0.10280429
-0.023145704 -0.008819678 -0.037486378 0.006037648 0.090833575 -0.17463426 -0.068989955 -0.07994861
-0.08291658 0.02836163 -0.22745293 0.0232414 0.21481273 0.17098808 -0.07074754 -0.09273323
-0.07055437 -0.0037132301 0.10789162 0.07554083 0.14126806 0.2608921 -0.05789144 0.030926371
0.27154666 -0.20249593 0.2551689 -0.23786682 0.08636976 0.21469986 -0.1145876 -0.18734455
-0.20930152 -0.30322006 0.25907975 0.2898055 0.08414931 -0.30137488 0.0292636 -0.25684673
-0.17164348 0.01380719 -0.29545113 -0.27630186 -0.2947162 -0.10210852 0.2489046 0.23748143
0.15653841 -0.20544805 0.23751701 0.01857932 -0.035082508 -0.16244458 0.25686508 -0.057452876
00000000: a4b5 43bd e6b2 51be 729f b43d d087 803c
00000010: c062 5b3e e832 0cbe 16ed f03d a54d fc3d
00000020: 269c a0be dc7e b7bd 272f 19be 3507 6d3d
00000030: 8e64 683e 05c3 9c3e 0bfb a23e 7774 f63d
00000040: 9c7b 56be cf34 67bd d3a1 b3bd 1a25 a93d
00000050: 00f1 2abe d741 1b3e 69b1 e43d b2b3 51be
00000060: 104c ebbc c61a ed3d 00d0 bdbd 6804 0cbe
00000070: d847 133e 84ca 90be a7dc 8b3e 6e89 86be
00000080: b066 36be 83dd 253b 3807 43be 430c 17be
00000090: 87e3 893d 8f01 443e e250 5abc 74b5 37be
000000a0: 86fe 52be b28a 3dbe 600a 57be ece0 7dbe
000000b0: 7b22 12be 8c78 efbc 398e 17bd baaa 893d
000000c0: e0aa e83d bca2 e7bd 8139 3cbe ee52 1fbd
000000d0: d992 28be a07c 92be 866a f23d 4a1d a33e
000000e0: c7d4 403e 2729 0cbe 21a7 733e 9e5c 2dbe
000000f0: 087b 48be 1e60 0dbe 3a56 57bd 12c2 7e3e
00000100: 306d 4b3e 399d 433e 9c32 87be 0c13 44bd
00000110: 8e9c 07be f2d0 f3bd 4d94 0b3d 84f6 883e
00000120: d283 d13c 0194 83be 70ce 4a3d d4dd a7bd
00000130: aba1 8ebe e7df 17be 6610 80be f68a 143e
00000140: 9a48 813e 678c b7bc f579 19bd 1fc1 e9bd
00000150: 1e99 3c3e fc1b 7abd 5741 59be 5fa2 82be
00000160: 919c aebd a84c ce3d f463 08be c80b 75be
00000170: 23ff 0d3d 45a7 00be 1996 b53c ba04 7fbe
00000180: 3692 17be 1a85 423e 3111 3dbe 4097 1d3e
00000190: 6549 203e 8136 763e 1f5d 84be b66a 9fbc
000001a0: 7e48 d6bd 094f 9f3d 5f40 f13d c2a5 09be
000001b0: c302 6ebe a0fd 173d b5bf 02be 0bdf 30be
000001c0: a091 27be 9123 5a3d d559 0c3d c053 1f3e
000001d0: 03ef 843e 07d4 673e 6e95 6d3e 9c33 f33d
000001e0: d2b2 843e c33f 75bd 1649 97be c768 7c3e
000001f0: 361b 423e 020e 9e39 cb90 04be 2752 23be
00000200: 2cd5 0c3e 1308 123c 5611 58be 8417 f2bd
00000210: 7731 313e 5e8f 60be 1cfb 213e 7c2b 903d
00000220: 80f4 7d3e 0ed6 70be af8f a53c 41c8 0f3d
00000230: f2c3 3bbe 8963 613e 1d8e 2abe 108e 293e
00000240: 753f 9f3e 658d 0e3e efc9 64be b940 6e3e
00000250: 02bd 823e 845b f9bd 3b63 663e 662f 3c3e
00000260: 1184 413e db5c 633e 548a c0bd f2fe 8f3e
00000270: cbe6 a9bd 0a5e 25be 86d2 91be a1c3 37be
00000280: c5fb 04bd 49cd 77bd 8876 95bd f43e 66be
00000290: cd17 a3be ea7b 60be 04e2 33be eddb 1b3d
000002a0: b7ce 683e f67d cabc 6f0c 8a3d 4f4f 6dbe
000002b0: 69c6 13be d8a7 44be 3274 1a3c e339 793e
000002c0: c207 91be 5afc 0fbe 8b2d 62be 6322 94be
000002d0: c0f0 713e 3589 503e 0345 e3bd cb50 6ebe
000002e0: b677 dbbd 8232 9bbe 2dcc 583e c047 ad3d
000002f0: 1b0e 64be 3964 563e d545 fb3d c8bc e1bd
00000300: c7ab e9bd 2bd5 693e 7c63 293e 7eb7 3dbd
00000310: 2a26 833d d797 503e b148 48be 0e8b d2bd
00000320: 0f9c bdbc 6980 10bc 518b 19bd 76d7 c53b
00000330: f406 ba3d 53d3 32be 9b4a 8dbd 19bc a3bd
00000340: 2bd0 a9bd a656 e83c 6ce9 68be c064 be3c
00000350: def7 5b3e 8017 2f3e 16e4 90bd ebea bdbd
00000360: cf7e 90bd aa59 73bb 48f6 dc3d 27b5 9a3d
00000370: 93a8 103e a693 853e 931f 6dbd 4d59 fd3c
00000380: 2a08 8b3e 185b 4fbe 80a5 823e 5c93 73be
00000390: a1e2 b03d 48da 5b3e e7ac eabd 40d7 3fbe
000003a0: 2353 56be a93f 9bbe 1aa6 843e 6361 943e
000003b0: 7956 ac3d cf4d 9abe 38ba ef3c 6a81 83be
000003c0: 4fc3 2fbe 8d37 623c 5f45 97be 7077 8dbe
000003d0: 0be5 96be 461e d1bd d9e0 7e3e 552e 733e
000003e0: 9b4b 203e f960 52be a937 733e a833 983c
000003f0: adb2 0fbd df57 26be d283 833e b553 6bbd

h1.bias f4 [64]
0.08450281 0.09323794 -0.06354677 -0.03530337 -0.095298134 -0.086765155 0.09332974 0.035238776
0.0362668 0.03774047 -0.041211735 -0.06814422 -0.06978454 0.022270124 0.0020270282 0.038774244
-0.07832401 0.086393334 -0.08678376 0.06011584 0.09144283 0.08685539 -0.062208768 0.0052135615
0.06484501 0.013399585 0.07112706 -0.03664077 0.07392303 -0.054748762 0.026609091 0.01887126
0.026717437 0.035286043 -0.07193187 0.03193831 0.00325334 -0.08234872 0.013989352 0.053011645
-0.030778838 0.09310542 0.014958512 -0.07069753 -0.04822905 0.091990724 0.08098452 0.05491017
-0.013818701 -0.06609671 -0.046717197 0.048241198 0.053132653 -0.09178232 0.038034637 0.010151975
0.06981845 0.027948754 -0.08901941 0.050119612 -0.010798551 -0.0359027 -0.06376248 0.052763585
00000000: cf0f ad3d 88f3 be3d cf24 82bd 449a 10bd
00000010: ab2b c3bd eeb1 b1bd aa23 bf3d 8956 103d
00000020: 7f8c 143d c095 1a3d a3cd 28bd 328f 8bbd
00000030: 32eb 8ebd d66f b63c e4d7 043b bed1 1e3d
00000040: 5768 a0bd fdee b03d afbb b1bd 073c 763d
00000050: 6146 bb3d 3de1 b13d 9fce 7ebd 86d6 aa3b
00000060: 76cd 843d ef89 5b3c 10ab 913d a214 16bd
00000070: f564 973d 3d40 60bd 4ffb d93c e797 9a3c
00000080: 87de da3c 1988 103d 0451 93bd bfd1 023d
00000090: fd35 553b 72a6 a8bd 9833 653c bd22 593d
000000a0: e723 fcbc 0eae be3d 8c14 753c dec9 90bd
000000b0: d38b 45bd a265 bc3d 36db a53d 7de9 603d
000000c0: d567 62bc b65d 87bd 885a 3fbd 9098 453d
000000d0: a0a1 593d 5ef8 bbbd 35ca 1b3d 7854 263c
000000e0: fafc 8e3d c9f4 e43c cf4f b6bd 394a 4d3d
000000f0: 68ec 30bc b60e 13bd e795 82bd a11e 583d

h2.weight f4 [64, 64]
0.19055653 0.180938 -0.13646886 -0.14281616 0.18796322 -0.08280351 0.3101181 0.10910604
0.09468267 0.23171376 -0.08237337 -0.019621987 0.33045474 0.27101043 -0.24780768 -0.15874606
-0.05736048 0.08851156 -0.15959357 0.3204556 0.13853465 -0.18872356 0.2637748 0.13676606
-0.09975757 -0.08625182 -0.21025409 -0.1399987 -0.30076978 0.26573065 0.19413726 0.28052703
0.0068347435 -0.046272885 0.20699467 0.112320945 -0.089750506 0.13639092 -0.2626639 0.20803069
0.3277861 0.17285335 -0.21124113 0.0035290523 0.1644608 0.123735115 0.23137581 -0.006683403
0.1726466 -0.16646673 0.11937735 0.25630695 -0.22100107 -0.27937046 0.050441574 -0.18719721
-0.26394734 -0.26574656 0.14018366 0.18893014 -0.23001727 0.06407502 -0.13373587 0.043477926
-0.05304149 0.0052642813 -0.06925588 -0.07577819 0.16092683 -0.0463826 -0.08407947 -0.08185714
-0.1136981 -0.14235625 0.14034072 -0.063939996 0.28304586 0.13584031 0.25475314 0.2790456
-0.15454529 -0.2693766 -0.18450835 -0.2351652 0.1686014 -0.07056733 -0.14570214 0.19160104
-0.24299827 0.080253445 -0.02215642 0.3199524 -0.19412349 0.048276022 -0.07682975 -0.105812594
0.13680747 -0.013516172 0.030143978 0.1732388 -0.13954978 0.13232014 -0.17373177 -0.19558652
-0.21615967 0.23046097 -0.20527388 -0.16589878 0.23081286 -0.22679885 0.2749512 -0.18305774
-0.21209784 -0.2451804 -0.10677292 -0.28024504 0.1668159 -0.06428041 0.1229352 -0.24106425
-0.16844472 0.29984233 -0.15167983 0.08675041 -0.07724409 -0.19202666 0.20384467 0.28301758
-0.026094774 -0.098228104 0.1715157 -0.07123712 0.29016864 0.03023012 -0.22526334 0.04241258
0.12818718 0.04560333 -0.16048275 -0.27863374 0.17069982 0.02352231 0.21645766 0.2878006
-0.24289486 0.06323127 -0.15795295 -0.1330878 0.052911878 -0.21678993 0.10475522 0.056912128
0.25670344 -0.05118755 -0.19831492 -0.23008911 0.05453709 0.19326542 -0.09752941 0.29535905
-0.037680916 0.055410195 -0.17193517 -0.00788027 -0.1451434 0.016952045 -0.19015789 0.16636333
0.040729396 -0.15238231 -0.18547793 0.039849926 -0.18567571 0.12111777 -0.03803046 -0.24430001
0.21062917 -0.2543148 -0.031577554 -0.087126434 -0.19036135 0.108279824 0.15191875 0.121807456
-0.09803157 0.13534519 0.10264649 0.21520387 -0.05301021 -0.13272104 0.060503975 0.11241734
-0.2252902 -0.1998104 0.025514837 0.07585301 0.022149917 0.059915368 -0.13009259 -0.19758502
0.07630927 -0.26037747 -0.06899024 0.11080503 -0.09054192 -0.13670458 -0.22125874 -0.075725816
0.17771286 0.27294677 0.013855455 -0.2901116 -0.10350341 -0.18973301 -0.2094131 0.09999468
0.018556796 0.048206564 0.1826529 0.1296151 0.2931993 -0.018944867 0.15335135 0.10081185
0.25307164 -0.18246883 -0.08542473 0.27508688 -0.050735667 -0.02483294 0.20104626 -0.22949031
0.083441816 -0.3000157 -0.0032266215 0.274076 -0.3005672 0.2915145 0.2076854 -0.2583332
0.019140545 -0.12070765 0.19109023 0.09870622 -0.19585009 -0.0022962303 -0.21418357 -0.23526666
0.030359697 0.06494707 0.23080899 -0.25457153 -0.2887624 0.26375517 0.037267406 -0.30322364
00000000: 4021 433e d047 393e 7ebe 0bbe 663e 12be
00000010: 6e79 403e e394 a9bd cdc7 9e3e fd72 df3d
00000020: fde8 c13d 5f46 6d3e 5fb3 a8bd 4abe a0bc
00000030: 5d31 a93e e1c1 8a3e 4cc1 7dbe 548e 22be
00000040: d3f2 6abd 8c45 b53d 7f6c 23be c212 a43e
00000050: 07dc 0d3e c040 41be 7e0d 873e 670c 0c3e
00000060: b24d ccbd cba4 b0bd d94c 57be d25b 0fbe
00000070: 7ffe 99be d90d 883e ebcb 463e 3da1 8f3e
00000080: fcf5 df3b a388 3dbd 69f6 533e 8608 e63d
00000090: 1dcf b7bd 10aa 0b3e e27b 86be ff05 553e
000000a0: 94d3 a73e 7800 313e 984f 58be ac47 673b
000000b0: 6968 283e d668 fd3d c8ed 6c3e 7300 dbbb
000000c0: 45ca 303e 4176 2abe 1d7c f43d aa3a 833e
000000d0: 1b4e 62be a509 8fbe d39b 4e3d a0b0 3fbe
000000e0: 1b24 87be ef0f 88be 4e8c 0f3e e776 413e
000000f0: a689 6bbe c439 833d 0ef2 08be e915 323d
00000100: 0942 59bd fe7f ac3b 07d6 8dbd 9831 9bbd
00000110: 01ca 243e aefb 3dbd db31 acbd b7a4 a7bd
00000120: 8dda e8bd d6c5 11be 7ab5 0f3e f9f2 82bd
00000130: 63eb 903e b919 0b3e 016f 823e 11df 8e3e
00000140: 1f41 1ebe bbeb 89be c2ef 3cbe 25cf 70be
00000150: d8a5 2c3e 9b85 90bd f132 15be 1033 443e
00000160: 8ad4 78be eb5b a43d 6181 b5bc cdd0 a33e
00000170: 4fc8 46be 14bd 453d ea58 9dbd 46b4 d8bd
00000180: 4217 0c3e ef72 5dbc 81f0 f63c 8365 313e
00000190: 23e6 0ebe ee7e 073e bee6 31be d547 48be
000001a0: f658 5dbe f6fd 6b3e 5133 52be 5fe1 29be
000001b0: 355a 6c3e f53d 68be 67c6 8c3e 7d73 3bbe
000001c0: 2d30 59be 9210 7bbe c3ab dabd 477c 8fbe
000001d0: cad1 2a3e 73a5 83bd 73c5 fb3d 8cd9 76be
000001e0: c67c 2cbe ef84 993e f551 1bbe 33aa b13d
000001f0: 2632 9ebd a3a2 44be a8bc 503e aee7 903e
00000200: b5c4 d5bc d12b c9bd d0a1 2f3e c4e4 91bd
00000210: fc90 943e 28a5 f73c 6fab 66be d0b8 2d3d
00000220: 8043 033e 8fca 3a3d 9755 24be 15a9 8ebe
00000230: efcb 2e3e dcb1 c03c 14a7 5d3e 9a5a 933e
00000240: 6eb9 78be 657f 813d 6bbe 21be 2b48 08be
00000250: 20ba 583d 2efe 5dbe e889 d63d b11c 693d
00000260: a26e 833e 09aa 51bd 1113 4bbe 7b9c 6bbe
00000270: 4962 5f3d 5fe7 453e 80bd c7bd 4d39 973e
00000280: 4e57 1abd cdf5 623d c60f 30be 3f1c 01bc
00000290: 79a0 14be 04df 8a3c c0b8 42be 265b 2a3e
000002a0: ded3 263d 1c0a 1cbe eded 3dbe ad39 233d
000002b0: c621 3ebe 980c f83d d4c5 1bbd c829 7abe
000002c0: 2caf 573e 8d35 82be 7757 01bd 586f b2bd
000002d0: 16ee 42be d0c1 dd3d 9790 1b3e 3076 f93d
000002e0: c7c4 c8bd ee97 0a3e 5338 d23d 675e 5c3e
000002f0: 3c21 59bd 06e8 07be 04d3 773d 103b e63d
00000300: 79b2 66be 199b 4cbe 7e04 d13c d358 9b3d
00000310: be73 b53c d169 753d fe36 05be ba53 4abe
00000320: 0948 9c3d 3250 85be c14a 8dbd bfed e23d
00000330: 0b6e b9bd 49fc 0bbe a791 62be 2316 9bbd
00000340: 5cfa 353e aebf 8b3e fe01 633c 8289 94be
00000350: 99f9 d3bd 5f49 42be 6370 56be 03ca cc3d
00000360: 6c04 983c 3f74 453d 5d09 3b3e d2b9 043e
00000370: 381e 963e 4432 9bbc 2308 1d3e 7176 ce3d
00000380: 9b92 813e 1cd9 3abe 29f3 aebd 30d8 8c3e
00000390: 34d0 4fbd 736e cbbc 12df 4d3e 82ff 6abe
000003a0: 8be3 aa3d a89b 99be ba75 53bb b153 8c3e
000003b0: f2e3 99be 6341 953e 7bab 543e 4044 84be
000003c0: a2cc 9c3c 9335 f7bd 28ad 433e 7d26 ca3d
000003d0: ed8c 48be 5a7c 16bb f052 5bbe bee9 70be
000003e0: e6b4 f83c f802 853d 3159 6c3e 3357 82be
000003f0: aad8 93be eb0a 873e b5a5 183d 2140 9bbe

h2.bias f4 [64]
-0.055632968 -0.06184821 -0.051002193 0.05491085 0.01577574 -0.08400156 -0.09284002 0.099418156
0.07819569 0.10236157 -0.04802622 0.0074410327 -0.07869464 -0.007999427 0.115270324 0.08804868
0.0005030821 -0.06769122 -0.0034158423 -0.07719633 -0.060359146 -0.06495962 0.04570935 -0.046195097
-0.061301097 0.06460441 0.008078244 0.024490045 0.016198598 -0.037324272 -0.011144748 0.028157113
0.042259824 -0.04103887 0.088162616 0.03139116 0.040552 0.08071698 -0.03307439 -0.0027440824
0.03598079 -0.04458352 0.059659142 0.039669994 0.029740997 0.050223827 -0.058860198 -0.027105663
0.060340073 -0.04277735 -0.00048336183 -0.019193912 -0.07405314 0.0042299205 0.08582098 0.00612574
0.07411925 -0.011021062 -0.0032063604 0.091359764 -0.084016 0.009291184 -0.06615467 -0.06694072
00000000: 65df 63bd 8c54 7dbd ade7 50bd 33ea 603d
00000010: 203c 813c 0309 acbd e922 bebd bf9b cb3d
00000020: 1025 a03d f1a2 d13d 24b7 44bd e8d3 f33b
00000030: a82a a1bd 0710 03bc d912 ec3d de52 b43d
00000040: 45e1 033a b2a1 8abd 53dc 5fbb 1c19 9ebd
00000050: 273b 77bd 8d09 85bd ba39 3b3d 1237 3dbd
00000060: dc16 7bbd 514f 843d 9c5a 043c 599f c83c
00000070: ecb2 843c 56e1 18bd 7698 36bc bfa9 e63c
00000080: a318 2d3d 6018 28bd 9a8e b43d 0494 003d
00000090: db19 263d f24e a53d 0379 07bd 10d6 33bb
000000a0: 9860 133d 369d 36bd 255d 743d 017d 223d
000000b0: 64a3 f33c 80b7 4d3d 6417 71bd b20c debc
000000c0: 2727 773d 4d37 2fbd ba6b fdb9 8d3c 9dbc
000000d0: 2ca9 97bd 259b 8a3b e9c2 af3d 6eba c83b
000000e0: d5cb 973d af91 34bc cd21 52bb d41a bb3d
000000f0: 9510 acbd 0d3a 183c 1a7c 87bd 3718 89bd

h3.weight f4 [16, 64]
-0.1504734 -0.0932913 -0.14368896 -0.025493449 0.0029927278 -0.21603698 -0.06803887 0.27181983
0.02606429 -0.0066274214 0.037601456 0.15372245 -0.18623833 -0.2788829 0.2719389 0.048642397
-0.13833171 -0.056741226 0.22617543 -0.25943372 0.14467196 0.2111751 0.27669328 0.21639544
0.29810885 -0.06828421 0.06732082 0.21150991 -0.15687111 0.16745049 0.08224812 -0.016207809
0.25754637 -0.09288849 0.20904757 0.005251435 0.23238386 -0.26142308 0.1936968 -0.16388734
-0.17821233 -0.20630352 -0.16861895 -0.13381281 0.1521682 0.028501142 0.042441983 0.2979906
-0.21324375 0.013720742 0.29019648 0.16162227 -0.058328003 0.045123413 0.2064146 -0.03494532
-0.0089678755 -0.10905969 -0.19665615 0.23315291 -0.018554222 0.11218653 0.0768005 -0.25658515
-0.030121556 0.3114161 0.13280094 -0.14420994 0.28446624 -0.28394803 0.028462071 0.1343546
0.16920792 -0.17724207 -0.08143734 0.23217924 0.08259006 -0.1938364 0.06860232 0.21139489
0.09311549 0.0068811974 -0.074181855 0.20079985 -0.06718479 0.071706586 -0.10889933 -0.04509081
-0.13925059 -0.14829041 0.04379895 -0.0023908818 -0.01801265 -0.047552925 -0.027228517 0.05083988
-0.2643521 0.0995167 0.085148156 0.28141445 0.070587635 -0.023764178 0.027049609 -0.15326925
0.13997528 -0.09047596 0.31119758 -0.16411881 0.3054498 0.25670233 -0.17040032 -0.075708225
-0.17022806 -0.2762206 0.05971138 0.0670976 0.25520483 0.11653443 0.013347812 -0.17665325
-0.1819869 0.16410725 0.20701686 -0.08751984 -0.2740479 0.25141704 -0.26501307 -0.055381052
0.1177425 -0.101848595 0.026219446 0.007931576 -0.01368854 -0.19888115 0.01496396 -0.06403524
0.15829428 0.0374959 -0.11742346 -0.16048934 0.0045757936 0.014191428 0.29461446 0.08087523
-0.09611241 -0.19209163 -0.08600146 -0.075766295 -0.19570303 0.03383081 0.30161285 0.13333069
0.08527163 0.027187517 0.2621879 -0.00044438904 0.24359156 -0.2608357 -0.2081081 -0.05544054
0.012704158 0.0735309 -0.116037965 -0.22908814 0.08684597 -0.30003318 -0.05966917 0.2029925
0.043550637 0.043808933 0.024501193 0.30381387 -0.19414452 0.2684411 -0.26630795 -0.042540014
-0.13068508 -0.002331624 -0.16443083 -0.019807221 -0.122685045 0.25085312 0.14722976 0.24522875
-0.109688506 -0.26079395 0.1434141 -0.1547275 0.07683056 0.123490214 0.14777566 -0.106699295
0.077344246 0.21585219 -0.23585048 0.27571943 -0.2928286 0.1296544 -0.23016603 0.10495547
0.13477752 -0.24256104 0.05819218 0.067683965 0.26108214 -0.09894701 0.11124898 -0.07892653
0.14007108 -0.17395422 -0.12832606 -0.20615338 -0.2636533 0.26050162 0.15224965 -0.24014688
-0.15214196 -0.09370828 -0.29213485 -0.13749185 0.17115961 -0.16570164 -0.1474517 -0.006354802
0.15952066 0.03333261 0.26823962 0.087795906 -0.14327487 -0.1530282 0.29196778 -0.020424802
0.035879996 -0.23735961 -0.13585661 0.06317035 -0.23663938 -0.12172386 -0.15117867 -0.2957032
0.10659192 0.25655448 0.23013876 -0.20119347 0.10703582 0.28724325 -0.27915424 -0.23634893
-0.024749756 -0.18254833 -0.13826117 0.07845045 0.13601905 0.13884722 -0.081717655 0.24113466
00000000: b315 1abe 820f bfbd 3323 13be a3d7 d0bc
00000010: a421 443b cc38 5dbe f757 8bbd f82b 8b3e
00000020: c784 d53c d72a d9bb fc03 1a3d 6b69 1d3e
00000030: 43b5 3ebe bdc9 8ebe 933b 8b3e 403d 473d
00000040: d4a6 0dbe 7d69 68bd 889a 673e 7fd4 84be
00000050: e324 143e 493e 583e beaa 8d3e c496 5d3e
00000060: b9a1 983e 98d8 8bbd 80df 893d 0e96 583e
00000070: d2a2 20be 2478 2b3e b471 a83d 3dc6 84bc
00000080: 1edd 833e 523c bebd 9110 563e 3b14 ac3b
00000090: 09f6 6d3e 3fd9 85be 7458 463e 15d2 27be
000000a0: 4b7d 36be 3b41 53be 72aa 2cbe 3a06 09be
000000b0: fbd1 1b3e 3a7b e93c a5d7 2d3d 3992 983e
000000c0: 925c 5abe f7cc 603c a294 943e 4f80 253e
000000d0: 58e9 6ebd 54d3 383d 595e 533e d322 0fbd
000000e0: ffed 12bc b05a dfbd 3b60 49be a3bf 6e3e
000000f0: 06ff 97bc 0dc2 e53d 9549 9d3d 215f 83be
00000100: 7bc1 f6bc ee71 9f3e f8fc 073e c5ab 13be
00000110: 8fa5 913e a361 91be 4a29 e93c 4194 093e
00000120: d744 2d3e f27e 35be 9fc8 a6bd 65c0 6d3e
00000130: fa24 a93d 0d7d 46be 607f 8c3d e777 583e
00000140: 56b3 be3d ab7b e13b a8ec 97bd 7a9e 4d3e
00000150: 2e98 89bd e7da 923d 9d06 dfbd 24b1 38bd
00000160: b597 0ebe 71d9 17be 8766 333d 57b0 1cbb
00000170: 448f 93bc dbc6 42bd 570e dfbc 7a3d 503d
00000180: 2959 87be 69cf cb3d 2862 ae3d 8e15 903e
00000190: 4090 903d 18ad c2bc 2497 dd3c 9df2 1cbe
000001a0: ae55 0f3e 764b b9bd 4a55 9f3e c30e 28be
000001b0: eb63 9c3e 7d6e 833e 6c7d 2ebe ea0c 9bbd
000001c0: 4450 2ebe c96c 8dbe ec93 743d 776a 893d
000001d0: 35aa 823e 9aa9 ee3d c8b0 5a3c 97e4 34be
000001e0: c65a 3abe bb0b 283e 3afc 533e 9a3d b3bd
000001f0: 0250 8cbe bcb9 803e cbaf 87be 3ed7 62bd
00000200: fb22 f13d ff95 d0bd 2aca d63c 71f3 013c
00000210: e645 60bc 80a7 4bbe 662b 753c e824 83bd
00000220: e517 223e 4d95 193d b67b f0bd 5157 24be
00000230: 8af0 953b 2a83 683c b5d7 963e eaa1 a53d
00000240: 95d6 c4bd abb3 44be 8921 b0bd 5c2b 9bbd
00000250: 6066 48be 2d92 0a3d 006d 9a3e d787 083e
00000260: e4a2 ae3d 5bb8 de3c 7e3d 863e e3fc e8b9
00000270: 1170 793e 428c 85be 4a1a 55be 9f15 63bd
00000280: 1a25 503c 5e97 963d 50a5 edbd 1596 6abe
00000290: 4ddc b13d f39d 99be a967 74bd 44dd 4f3e
000002a0: 2762 323d ff70 333d bab6 c83c 7e8d 9b3e
000002b0: d2cd 46be 1d71 893e 8459 88be 703e 2ebd
000002c0: 4fd2 05be 29ce 18bb 8e60 28be c142 a2bc
000002d0: 4c42 fbbd d26f 803e 66c3 163e 3f1d 7b3e
000002e0: 5ea4 e0bd c986 85be 25db 123e e370 1ebe
000002f0: 5759 9d3d 70e8 fc3d 8152 173e 2985 dabd
00000300: a966 9e3d 5b08 5d3e ca82 71be 192b 8d3e
00000310: a1ed 95be 1fc4 043e a5b0 6bbe e5f2 d63d
00000320: 1e03 0a3e ec61 78be ec5a 6e3d e49d 8a3d
00000330: 8fac 853e bba4 cabd 81d6 e33d 3ca4 a1bd
00000340: cb6e 0f3e 0e21 32be e867 03be df19 53be
00000350: 91fd 86be 7860 853e 55e7 1b3e 10e9 75be
00000360: 1acb 1bbe 20ea bfbd b392 95be aaca 0cbe
00000370: 7744 2f3e b1ad 29be 94fd 16be f13b d0bb
00000380: 6259 233e c687 083d b456 893e 57ce b33d
00000390: a6b6 12be 6db3 1cbe cd7c 953e ea51 a7bc
000003a0: e7f6 123d 660e 73be ff1d 0bbe 755f 813d
000003b0: 9851 72be 5c4a f9bd 95ce 1abe 6966 97be
000003c0: dd4c da3d 1c5b 833e 7fa9 6b3e a905 4ebe
000003d0: 9935 db3d 8c11 933e 4eed 8ebe 7405 72be
000003e0: 00c0 cabc f3ed 3abe 5694 0dbe a1aa a03d
000003f0: 9448 0b3e f72d 0e3e 965b a7bd 01ec 763e

h3.bias f4 [16]
0.10693221 -0.06289527 -0.03269478 0.07247415 -0.09494763 -0.08346451 0.023830002 -0.066968136
0.06860003 0.030407183 0.06168367 0.07036771 -0.054069947 0.09996539 -0.048741113 -0.038822357
00000000: 46ff da3d 3ccf 80bd f6ea 05bd 546d 943d
00000010: e773 c2bd 71ef aabd 2337 c33c 9726 89bd
00000020: 2c7e 8c3d 7c18 f93c 04a8 7c3d f21c 903d
00000030: 7378 5dbd a8ba cc3d c3a4 47bd 3104 1fbd
