weights/weights_LF=16_sparse/w=0.50_1.pth (torch, 41932 bytes, 8 tensors)

input.weight f4 [64, 4]
00000000: ba23 fd3e 557e dcbe 85b8 8ebe 20bd 50be
00000010: 2eb9 5dbf d3fc 253e 260c 9b3f 4e43 c6be
00000020: cfd7 033f f97b 8d3f 0110 4e3f 432a 17bf
00000030: a406 f1bd f848 313e c0d7 8f3f 918d 543f
00000040: 6261 173e 6d95 163f 2822 38bf 5767 753f
00000050: d8ef b33e f3d3 783f b5e0 3abf 10bd 8e3e
00000060: 2f57 8abf 83fb 183f 22ab e5bd e417 973f
00000070: 9eb9 4e3e 0892 efbe e670 1ebf bbf8 8e3e
00000080: 40ec 523f b5fa d33d b76f 07be ee60 80be
00000090: dd39 12bf d382 273f d4d1 7e3e 3bfc fd3e
000000a0: a17a 7ebd d8ea 853f 3998 e43e 079b 75bf
000000b0: 161e 1a3f cb2f 75be 9a50 543f 57cf 323f
000000c0: 3aed 94bf b605 6abc 98cb 953e 49e2 36bf
000000d0: 9f0d 95bf 97f6 88bf 4f94 093f 5199 8fbf
000000e0: 677b 20be 514d 3f3f c1ae 763f 30cb 98bf
000000f0: 1bfb 92bf 115c 953f 6737 aebe 9cf7 7ebf
00000100: 51ec 833e 097a 463f 7db5 313f 5f6b 693f
00000110: e883 abbe e04e 963d b663 913f 007d 8b3d
00000120: 5e8c c43e 0440 223e ee1c 823f a495 97bf
00000130: f53f 5fbf 8cb9 afbe 9fd1 89bd e490 66be
00000140: bd06 743e bb94 c4be 49a9 343d 222e 193f
00000150: 23ca b23e b00c 953f a991 39bf 9625 c13e
00000160: 61ca 21bf 75ab 82bf 5e53 40bf c26b 9e3e
00000170: a784 2abf deec 703f 1950 23bf 65f5 e8bb
00000180: b985 c33d 1dec 6fbe ac34 373e f4d8 8e3f
00000190: eb3b 953f 361c dbbe 0366 df3e e09f e23e
000001a0: 5567 aa3e 8200 7a3f 15fc 2fbf ef15 54bf
000001b0: d947 70be 7f88 653f af67 11be 6fb6 7dbf
000001c0: 2cb7 1abf 8fde 1e3e c5c0 70bf 5644 8b3f
000001d0: f4f4 8f3f 63ac 38bf d576 68bf 1325 8f3f
000001e0: befa 7ebf cc57 2abf 3c6d 60be 5091 953f
000001f0: d0d6 2cbe bea3 ca3e 446e f33e 21e2 17be
00000200: 11cd 9b3d 434f 5cbf ec5c 94bf 2d08 603d
00000210: a8dd 843f 2f55 8d3e 7387 553f d95c e3bc
00000220: 0630 273f f45e 743d e88b 15bf d83e 1bbf
00000230: 07f8 3e3d f3ef 973e 61b9 64bf e8ff 4bbe
00000240: 3fb4 5b3e 8079 8dbf f7cf 83bf 6c81 e3be
00000250: 2541 84bf 044a 86bf 2e5b 813d 9985 1dbf
00000260: 2c41 723f 5960 95bf 4777 08bd 3826 06bf
00000270: a031 babe 96f2 483f b069 263e 27fe 94bf
00000280: af62 f93e e2b6 1ebf 0e86 61bf 8e31 7cbf
00000290: 8a0f c53e 4910 05be 6d6b 7ebf 3fae 8b3f
000002a0: 1b66 b23e 782b 39bf cf0e 933c cf4c 9fbf
000002b0: 5103 4ebf a6f2 e8bd 8a27 89bf 64f3 30bf
000002c0: 7a52 30bf 8b2c 2f3f b644 90bf 6bf3 8bbf
000002d0: dcf6 94bf a06c b63e 2799 c1be 1471 4bbf
000002e0: ad3c a4be 28ac 2d3d 0113 853f e3b1 233f
000002f0: 0fa4 053e abdd dc3c e94b 97be e210 5cbe
00000300: e7ec 11bf c006 9d3e 853a 993f 04c6 203f
00000310: 8217 6abe 99cb fa3e 625b 733f 53f8 1c3e
00000320: c9b0 36bf b5d0 913f 9c3a 43bf 07e3 6f3f
00000330: 84b5 413f 8508 913f dfa5 b8be b759 ecbe
00000340: 4764 3abe cf5f 4a3f 932f 6e3f dcb4 81bf
00000350: 20e5 923f 8be8 813d 6d99 cebe 6939 acbd
00000360: 0c86 fb3e a1e5 303f f8c9 1bbe a01b 75be
00000370: 5d78 4d3f 0abe 943f 7383 a73e b787 97bf
00000380: 2645 67be 449b 093e d751 bd3d 0edb 6bbf
00000390: 52b4 9bbf 2d21 c2bc 8630 51be 94dd e6be
000003a0: 82e8 04bf c779 b5be bf75 c13e 58b3 3a3f
000003b0: 141c b6be a9d4 01be c79c 453f d455 3c3f
000003c0: 2531 92bf 2240 39bf 5eb8 d93d d325 6a3f
000003d0: 6cd5 17bf 756e 7fbf ee4e 5f3f 6fe9 263f
000003e0: b8a8 2cbe fd24 873f e396 033f 5ee0 88bc
000003f0: 148a 0d3f 3a00 0f3e 72ab a2bd 44cd b83e
0.4944132 -0.43065134 -0.27875152 -0.20384645 -0.86610687 0.16209726 1.2113082 -0.38723224
0.5150117 1.1053458 0.8049317 -0.5904886 -0.11768845 0.17312992 1.1237717 0.83028513
0.14783242 0.58821756 -0.7192712 0.9586081 0.35143924 0.9719841 -0.72999126 0.27878618
-1.0807856 0.59758776 -0.112142816 1.1804166 0.20187995 -0.467911 -0.6189102 0.2792414
0.8239174 0.10350553 -0.1322621 -0.2507395 -0.5711954 0.65433997 0.2488473 0.496065
-0.062128667 1.0462294 0.44647387 -0.9593968 0.6020216 -0.23944013 0.8293549 0.69847625
-1.1634896 -0.014283588 0.29256892 -0.71439034 -1.1644782 -1.0700253 0.53741926 -1.1218663
-0.15672074 0.7472735 0.96360403 -1.1937008 -1.1482881 1.1668721 -0.34026644 -0.9959657
0.25766233 0.7752996 0.69417554 0.9117946 -0.33499074 0.07339263 1.1358554 0.06810951
0.38388342 0.15844733 1.0165079 -1.1842542 -0.87206966 -0.3432125 -0.06729435 -0.22516209
0.23830695 -0.38394722 0.044106755 0.5983602 0.34919843 1.1644497 -0.72487885 0.37723988
-0.6319943 -1.0208575 -0.7512721 0.30941588 -0.6660866 0.9411143 -0.63794094 -0.0071093314
0.0954699 -0.23429914 0.17891186 1.1159959 1.165891 -0.4279496 0.43632516 0.442626
0.3328196 0.97657025 -0.6874402 -0.8284597 -0.23464908 0.896614 -0.14199708 -0.99106497
-0.6043575 0.15514587 -0.9404414 1.088023 1.1246629 -0.7213804 -0.90806323 1.1183189
-0.9960135 -0.6654022 -0.2191667 1.1684971 -0.1687882 0.3957805 0.47545063 -0.14832355
0.07607473 -0.86058444 -1.1590858 0.054695297 1.0380144 0.27604052 0.83409804 -0.027754234
0.6530765 0.059660867 -0.58416605 -0.60642767 0.046623256 0.29675254 -0.89345366 -0.19921839
0.21455477 -1.1052704 -1.0297841 -0.4443468 -1.033238 -1.0491338 0.06316219 -0.6153198
0.94630694 -1.1670028 -0.033316877 -0.5240207 -0.36365986 0.78495157 0.16251254 -1.1640061
0.48708102 -0.6199781 -0.88095176 -0.98513114 0.38488418 -0.12994494 -0.9938267 1.0912551
0.34843525 -0.72331953 0.017951397 -1.2445315 -0.8047381 -0.113744065 -1.0715191 -0.69121385
-0.6887585 0.6842734 -1.1270969 -1.093366 -1.1637836 0.3562975 -0.37812158 -0.7946942
-0.32077542 0.04240051 1.0396425 0.6394331 0.13050865 0.026961168 -0.29550102 -0.21490815
-0.5700211 0.30669212 1.1970984 0.6280215 -0.2286053 0.48983458 0.95061314 0.15329103
-0.713635 1.1391817 -0.76261306 0.9370579 0.75667596 1.1330725 -0.3606405 -0.46162197
-0.18202315 0.7905244 0.9304134 -1.0133319 1.1476173 0.06343182 -0.4035143 -0.084093876
0.49125707 0.69100386 -0.15213764 -0.2393632 0.80261785 1.1620495 0.32717475 -1.1838292
-0.22584972 0.13438135 0.09244125 -0.92131126 -1.2164404 -0.02369746 -0.20428666 -0.45090926
-0.5191728 -0.3544447 0.37785146 0.72929907 -0.35568297 -0.1267878 0.7719235 0.73568463
-1.1421248 -0.72363484 0.106308684 0.91463965 -0.5931003 -0.9977792 0.8722981 0.6519994
-0.16861236 1.0558163 0.5140211 -0.01670855 0.55288815 0.1396493 -0.07942857 0.36094105

input.bias f4 [64]
00000000: 4d0d aa3d 6c4e 863d 559a 00bd cda4 2c3d
00000010: f4c0 0cbd 29a6 62bd 2e06 223d 01fb f63c
00000020: 2822 013c c012 753d 6fea 6dbd 083d 833d
00000030: 52c7 73bd fd35 7bbd 83f0 123c 6365 c3bd
00000040: 89c3 ecba 5bf4 34bc a505 8ebc 3f24 c7bd
00000050: 5d00 cbbd dd73 df3d 9da2 e5bc a0d6 ad3d
00000060: cf8c 8cbd 48c9 e13b 43f3 ce3c 8d7b 79bd
00000070: a07d 043d b15f fc3d d83c 8bbc 3487 12bd
00000080: 953d 90ba ec38 8dbc 6882 8abd c307 923c
00000090: 1bec ddbc 77bd 5abd 5e21 6bbc 7323 aa3d
000000a0: 3540 55bd c352 9b3d 4962 543c baf9 48bd
000000b0: 21f6 bcbd a7b8 ef3b ba3c ab3d 91b5 60bd
000000c0: 38d3 cf3c 08f8 103d 8d04 023d ef49 983d
000000d0: 1247 88bd 5b17 6f3d fb2d 573d 1967 5ebc
000000e0: 370e cf3c d27a 4a3c 3ee1 5dbd 4e8b 173d
000000f0: f9c5 ee3c f5d3 83bd ef9d 33bd b54d 7f3d
0.08303318 0.065579265 -0.031397182 0.042149354 -0.034363702 -0.055334244 0.039556675 0.030148985
0.007881679 0.059832335 -0.0580849 0.06408125 -0.05951626 -0.061330784 0.008968475 -0.09540822
-0.0018063645 -0.011044587 -0.017336676 -0.0972371 -0.09912179 0.10910771 -0.028031642 0.08488202
-0.068627946 0.0068904497 0.02526248 -0.060908843 0.032346368 0.12322939 -0.016996786 -0.03577347
-0.0011004681 -0.017239057 -0.06763154 0.017825967 -0.027090123 -0.053403344 -0.014351217 0.08307543
-0.052063186 0.07584145 0.012962886 -0.049066283 -0.09226633 0.0073157134 0.08361192 -0.054860655
0.025369272 0.03539279 0.03174262 0.07435977 -0.066541806 0.058371883 0.052534085 -0.013574385
0.025275333 0.012358384 -0.054169886 0.036998086 0.029147135 -0.06436912 -0.04385179 0.062329967

h1.weight f4 [64, 64]
00000000: e35e 67be b69c 7dbd cd28 0abe 219b 153d
00000010: 3f6c 6b3d 3941 c13c 5a22 473e fedd 143e
00000020: 8b9e 21be f8ae b63c 377a 20be 6f93 5dbe
00000030: bdaa 9e3e 2571 8f3e 8dba 753e 78b3 8abe
00000040: 0408 43be c84f 1e3e 5b9b 4bbe 6c29 743e
00000050: ab80 613e c78d 8d3d 7e85 193e ce28 77be
00000060: 40e8 563e 4f46 023e 7d0e 94be cf14 923e
00000070: 2de5 8c3d baf9 3bbd 50ae 93bd b3ac e2bc
00000080: f31a 943e b385 02be 641d 32bd 4758 193d
00000090: bde6 55bd c9dc 433e ebc7 433e 81d7 78be
000000a0: 4912 9b3e 68b2 95be e4ba ba3d da85 a1bd
000000b0: 1ebf 81be 4bbe 88bd 45bc 0b3d c56e e2bd
000000c0: 3892 923d 96af 99bd fd37 343e d959 3abe
000000d0: 8bd7 88be c4c6 873d 0c18 103e b50a 833d
000000e0: 10d9 4d3d 5be0 73be 1c81 113e accf 54be
000000f0: 0efa 8e3e 95e2 67be c04a 95be 997f b4bd
00000100: 78c7 38be 4f98 67be 1707 273e 5dad eb3d
00000110: 0995 623e 94f1 15be a145 213e 2708 c73d
00000120: 02f5 033e 32cd 77bd f082 84be 990e 29be
00000130: 8f07 5abe 4b9e db3d 2195 fbbd b028 19be
00000140: 987f 173e 5fc6 51be c0ed 3c3d 6e1e 38bc
00000150: 061b 09be 967d 803e 0c91 02bd baf4 96be
00000160: 7c55 52be dc39 663d caf9 89be 4da9 213e
00000170: 15f2 87bd b883 c13d 6fa8 33bd 9193 2abe
00000180: 18d1 923e 1412 60be 26d7 33be 823d 023e
00000190: b9f5 173e 2e8c 653e 4d40 a1bd f698 603e
000001a0: 8c93 573e 70d2 973e 984b 00be 6426 2f3d
000001b0: aeb6 7d3e c020 aabc 009e 983a fe0b abbb
000001c0: c8ef 443e faf7 79be 2686 373e f98e 343e
000001d0: 911b 833e dc45 48be 0fff 83be e2d7 1fbe
000001e0: 5286 463d 9e45 2dbe 4698 aa3d 46e0 34be
000001f0: ca91 90be 322b 113e c787 ef3d 9aab 3b3e
00000200: 9fb9 823e 5feb 6d3e f152 6cbd f83b 303e
00000210: e8fc 993d 9aac 8ebe edfa 2cbe 19d6 023e
00000220: 9c2b 703d 21dc 48be 9a5b 883e ced3 96be
00000230: 242b 263e 8bbd 67be 9ab8 c53d 4c55 013e
00000240: eab7 8ebe f902 e6bd 8681 88be 1a94 c03c
00000250: 4daf 183b 5d06 063e 52d0 75be 2ba2 7b3e
00000260: 3f0d 01be d3d2 93be c6a3 3abe 5843 4ebe
00000270: e2b2 46be 78c0 933e ec20 73bd eaec 7fbc
00000280: 6f46 30be 2322 b4bc cca8 e43d c694 59be
00000290: 0bb9 72be 11e8 85bd 1456 2a3d ee0d 4cbe
000002a0: 8eac 6cbd 1a60 3ebc f4de 78be 0d04 063d
000002b0: 611e 3ebe 9d8c 743e 79c2 f7bd a2ce 043e
000002c0: 9680 bf3c c32d febd 62ab 183c 40f7 14be
000002d0: b99e 4f3c 2dae 56be ba38 a0bd 0655 21bd
000002e0: 32be 7ebe 1c22 503e 0831 79be da27 14be
000002f0: ef6d 723e 3076 27be 5785 5abe 3a0d 783d
00000300: a4aa 10be 9c98 8a3c 98ec 123e 5646 bf3d
00000310: c371 68be 75c5 99be ea93 55be ee00 09be
00000320: fb93 f73c 8327 383d cf9f 753e b9bc 3b3e
00000330: d25f bb3a 218d f4bd 14c8 39be 658c 023e
00000340: 7c14 dc3d 00cb 733e f027 31bc bbcf 81be
00000350: 5a83 863e 2e5b 67be 0f7e 80bd 2738 ecbd
00000360: 96fd 54be 0ba3 d33c 29af 103d 052f d6bd
00000370: 7dd6 95be aba9 713e f370 933d 7e23 b63b
00000380: e3e6 803e 3260 1a3e 61cb f2bd f755 543c
00000390: a575 943e d4e7 7bbe fb7f 7cbe a76c 823e
000003a0: 094a 4ebc 3144 02be 11e4 973e fe18 6a3e
000003b0: 9ef5 003e 3864 503e 86c2 09be 2e5b 3bbe
000003c0: 9e35 893e 68ca f9bd b6cf 4c3e d6d1 763e
000003d0: 5a74 89be 8010 203e 4732 f53c d9b7 89be
000003e0: b680 69be 1391 c13c 9970 96bd c292 0dbe
000003f0: 5f23 32be 1d82 b8bc a10c d73d d235 7fbe
-0.2259479 -0.06191703 -0.13492127 0.036524896 0.05747628 0.02359067 0.19446698 0.14537808
-0.15783136 0.022300228 -0.15671621 -0.21638273 0.30989638 0.2801601 0.23996945 -0.2709005
-0.19046026 0.15460122 -0.19883482 0.23843926 0.22021739 0.069118075 0.1499233 -0.2413666
0.20987034 0.12722133 -0.28917304 0.285315 0.06879649 -0.045892455 -0.07210982 -0.02767024
0.2892681 -0.12746315 -0.04348506 0.037437703 -0.052222002 0.19127192 0.19119231 -0.24300958
0.30287388 -0.29237676 0.09117678 -0.07886858 -0.25341123 -0.066769205 0.034115095 -0.11056284
0.07156795 -0.075041935 0.17599483 -0.18198337 -0.26726946 0.066297084 0.14071673 0.063985266
0.050255835 -0.23816054 0.14209408 -0.20782346 0.27925152 -0.22645028 -0.29158592 -0.088134
-0.18044841 -0.22616695 0.16311298 0.11507676 0.22127165 -0.14642936 0.15749218 0.09718352
0.12886432 -0.060498424 -0.25881147 -0.16509475 -0.21291946 0.10723551 -0.122843035 -0.14956927
0.14794767 -0.20485829 0.046125174 -0.011237724 -0.13389215 0.25095814 -0.03187661 -0.29483587
-0.20540422 0.056207523 -0.26948386 0.1578724 -0.0663797 0.094489515 -0.043861803 -0.16657855
0.2867515 -0.21881896 -0.17562541 0.12718776 0.1483983 0.22416756 -0.078735925 0.2193335
0.21052378 0.2965274 -0.12528837 0.04276122 0.24776718 -0.02076757 0.0011643767 -0.0052199354
0.19232094 -0.24411002 0.17922267 0.17632665 0.2560697 -0.19557899 -0.25780532 -0.15609697
0.04846794 -0.16921088 0.08329825 -0.17663679 -0.28236228 0.14176634 0.11695819 0.1832718
0.25532243 0.23234318 -0.057696287 0.17210376 0.07518941 -0.2786606 -0.16892596 0.12776984
0.05863534 -0.19615223 0.26632386 -0.2945847 0.16227394 -0.22630899 0.096543506 0.12630194
-0.2787469 -0.11231036 -0.2666132 0.02350812 0.0023297847 0.13088365 -0.24005249 0.24573581
-0.12602709 -0.28871784 -0.18226537 -0.20142877 -0.19404176 0.2885778 -0.05935757 -0.01562045
-0.17214368 -0.021988934 0.11165008 -0.21248159 -0.23703401 -0.06538404 0.041585997 -0.19927189
-0.05778175 -0.011619592 -0.243038 0.032718707 -0.18566276 0.23881765 -0.120976396 0.12969449
0.023376744 -0.12411072 0.009318205 -0.14547443 0.01267212 -0.2096488 -0.0782332 -0.039387725
-0.24877241 0.20325512 -0.2433511 -0.14468327 0.23674749 -0.16353679 -0.21339928 0.06055949
-0.14127594 0.016918473 0.14348066 0.093395874 -0.22699647 -0.3003346 -0.20857206 -0.13379261
0.03022193 0.044959556 0.23986743 0.1833371 0.0014295524 -0.11940981 -0.1814273 0.12748869
0.107460946 0.23807907 -0.0108127445 -0.25353798 0.26272088 -0.22593376 -0.06274044 -0.11534148
-0.2079986 0.02583458 0.035323296 -0.10458187 -0.29265204 0.2359988 0.07199278 0.00555843
0.25176153 0.15075758 -0.11855198 0.012959949 0.28996006 -0.24600154 -0.24658196 0.2547352
-0.012590894 -0.12721325 0.29666188 0.22861096 0.12593696 0.2035073 -0.13453111 -0.18296501
0.2679872 -0.12196809 0.2000111 0.24103484 -0.26846582 0.15631294 0.0299312 -0.26898077
-0.22803006 0.023628747 -0.07345695 -0.13825515 -0.17396306 -0.02252298 0.10500456 -0.24922875

h1.bias f4 [64]
00000000: 66ab a6bd 6160 993c 60d1 17bd 3bf8 2dbd
00000010: 1645 42bd eb48 233d 5dee 97bd 65c8 d63d
00000020: bd3f 2b3c dc01 783d 6d8f 7cbd 87b8 bfbd
00000030: df70 2e3d cd82 8dbc 81c8 ac3c 0f46 41bc
00000040: a296 98bd 1e9b 423d 3d28 743d ad3e 94bc
00000050: b0ac 6bbd dd63 5dbd a652 063d 1bd1 c23c
00000060: b33b 34bd ffdc b8bd efcf debc 4fc7 a2bd
00000070: 0de6 bf3d 7ad2 01bc 4dfa 4f3d a8d8 333c
00000080: b3f2 023b 070b b13d 6854 dfbb 5a82 a23d
00000090: d04a 0f3d 302c 79bb 5e12 ae3d c011 7abd
000000a0: 672f d33d 46c1 9c3d 7a8e 0cbc f8ac bd3b
000000b0: c376 e03c c091 e73c fa3d 9b3c 6776 6b39
000000c0: 64b2 6ebd e127 963d b2f8 903d 4365 7c3d
000000d0: d584 84bd a5a4 cebd d6ae 1f3c 6992 c43c
000000e0: 411a a93d c0da 5abd 8e7d be3d b473 ca3c
000000f0: 3202 693d 9ede b9bd 96d3 37bc a42d aabc
-0.081381604 0.018722715 -0.03706491 -0.04247306 -0.047429167 0.039864462 -0.07418511 0.10487441
0.010452208 0.06054865 -0.06166022 -0.09361368 0.04258811 -0.017274285 0.021091701 -0.011796488
-0.07450606 0.047511213 0.059608687 -0.018096292 -0.057537735 -0.054050315 0.032793663 0.02378135
-0.044002246 -0.09026527 -0.02719876 -0.07948171 0.093700506 -0.007923717 0.050775815 0.010976948
0.0019981086 0.086446814 -0.006815482 0.07935019 0.034983456 -0.0038020723 0.08499597 -0.061052084
0.10311776 0.076540515 -0.008578891 0.0057884417 0.02740038 0.028267741 0.018950451 0.00022455455
-0.058275595 0.07331825 0.07078685 0.06162001 -0.06470648 -0.10089997 0.009746274 0.023995595
0.08256961 -0.053431273 0.093012914 0.024713375 0.05688686 -0.09075664 -0.01121988 -0.020773716

h2.weight f4 [64, 64]
00000000: 78b3 583e 205e b03d d8d7 11be 17e3 20be
00000010: 1645 173e 6b69 693e 3bdf 59be 04f5 73be
00000020: bb13 21bc b5c4 8cbe 1acc 953e 7bd7 6f3d
00000030: 574a 6c3a abca 87bd cd63 d93c 4146 5abe
00000040: fa4c 6b3e 9eaa 56be 7bf0 703e 2239 9d3c
00000050: 6603 7a3e ea32 cdbc 1fe1 5fbe 7b9f f23c
00000060: 18a8 943e fb0f 0dbe 693a 933e 61f8 423e
00000070: ad62 5abe 08fc 9d3e b2ba 79bd b674 91be
00000080: f589 a33e 6319 943e 2a6a 8dbe 7806 913e
00000090: 5c98 c8bd 8106 47be 6f82 1a3e c581 c6bd
000000a0: a608 8fb8 8d8e a13e 9f4f 423e 6d89 3b3d
000000b0: 77c6 8bbc 8fae f9bd ba72 8ebe c415 39be
000000c0: 9ab5 973d 0751 81be e75c 9bbe c0e8 533a
000000d0: 9fe5 d9bb b263 b7bc de87 ac3d baa2 56be
000000e0: 29e9 16be da86 84bd 5469 023e a146 b53d
000000f0: 362f 64be 1295 7bbe e13d 633d 933b 4e3e
00000100: 15e7 953e 005c 8f3e 62ff a2bd dcee 873e
00000110: 82fd 54bc 1424 8c3e 1912 1c38 452c 633e
00000120: 67a0 ccbd fb44 87be 7895 7d3e d135 8a3e
00000130: f1f2 04be 0ff5 ecbd d977 12be f62e 76be
00000140: c02b 30be 5a38 13be 91bf 943e c749 e1bd
00000150: b301 a5bd 3008 91be 6391 64be 3f1e 0d3e
00000160: d893 cfbb 92e9 b03d ebff 3e3d b086 9d3c
00000170: 2f95 1dbd 6719 96be 8fa1 29be c8de d9bd
00000180: f9e1 96be 7911 a0bd b45b 29be f001 8e3e
00000190: 40ae b2bd bf15 00be c876 8f3e f9cd 963d
000001a0: 2289 3a3e 6459 823e f35f 7dbe b506 a03d
000001b0: ab0e 5c3c 5c94 85be f06b 88be a5a4 15bc
000001c0: bee3 333e 865a 643e bf06 73bc 67c3 7b3e
000001d0: f235 1fbe 53ae c13d 5bca 5cbd f3f6 8c3e
000001e0: 77fc 8e3e 499d 8abe 8850 933d 0cf3 383e
000001f0: cea8 833e 36f3 24be 16c0 04be c934 30be
00000200: c9d5 07be 09c5 73be 35ca 633e bf5c 89be
00000210: 878a 863d 288d afbd 8886 0c3e 71e3 663e
00000220: 4503 c33b 3c45 a43e f7ea 16be 1ca3 a73e
00000230: d3b6 32be 9bf7 db3d d548 26be 0ab6 89be
00000240: 0e8a 1ebe 520e 84be f75e 8d3d acb9 0fbe
00000250: 5d30 583d 2223 6ebe c14b 243e aab8 cd3c
00000260: 3ce6 c2bd 3a5b 69be 0352 923e 448f 76be
00000270: 19c7 dd3d db80 cfbd 87d3 83be 81d5 33bd
00000280: edb0 a2bb 1fe8 e0bd da01 35be 001f adbd
00000290: 4a52 833e 01ca 293e 075b 1a3e 62cb aa3d
000002a0: 4ded 013d 93df 7f3e ef11 6f3e c931 39be
000002b0: f359 c2bd dfc4 e43d 35d7 50be b518 1a3e
000002c0: de08 a7bd 90bf d33d 6c87 48be 1771 b43d
000002d0: 5ade 93be 806b 893d 147a 07be fdc8 2cbe
000002e0: c01f 823e 5199 9f3d 8f25 a13e b248 8dba
000002f0: 7a1a a23d 9e96 263e 00a8 3c3e 3603 373c
00000300: e0ff 7c3e 774d f5bd 3167 863d 12dd 8a3e
00000310: 4810 4abe edb7 01be 3981 04be 2b5b 503e
00000320: c45b 7dbe c149 21bd 8bee 8e3e 5f81 f93a
00000330: 88a9 b23c 528b d63c c2fa 59be d915 2fbe
00000340: 126b dc3c 2da3 303e 984d e43d b0bf 943e
00000350: fdde 7f3e 3ce0 303e 202a 02bd fa45 1e3e
00000360: 20e8 0bbe 62ef 253e ec82 63bd 139d 8ebd
00000370: a3e9 a53d 40c5 383e 1de9 ad3d 5ee7 a0bd
00000380: a341 96be 9bb6 86be 9cab 81be 3e5b a93d
00000390: 935d 8dbe f218 8bbe 1540 07bd 5809 67bc
000003a0: 92d6 663d 3700 f33d 49bc ba3d 1336 8d3e
000003b0: 8aaf 52be 7811 d3bd d277 1dbe 49f7 323e
000003c0: 05e8 1a3d 75ab c8bd 8adb 4dbe 0efa ad3d
000003d0: 7e06 9e3d 5b74 46be 816f 383e ce5f 8e3e
000003e0: e454 0dbe 9895 47be 01b3 583d 9822 2f3d
000003f0: 8981 993e 5804 093e 7e2a 6e3c 7f8b a8bc
0.21162212 0.08611703 -0.14242494 -0.15711628 0.14772448 0.2279412 -0.21276562 -0.23823935
-0.009831364 -0.27493826 0.2925728 0.058555108 0.0009013763 -0.06630453 0.026536847 -0.21315862
0.22978583 -0.20963523 0.23529236 0.019192282 0.24415359 -0.025048692 -0.2186322 0.029617062
0.29034495 -0.13775627 0.287555 0.19040062 -0.21326704 0.30856347 -0.060969062 -0.28409356
0.3194119 0.2892562 -0.2762006 0.28325248 -0.09794685 -0.19436075 0.15088819 -0.0969272
-6.820382e-05 0.3155407 0.18975686 0.045785356 -0.017062409 -0.121914975 -0.27821904 -0.18074709
0.074076846 -0.2525713 -0.30344316 0.00080836937 -0.0066496874 -0.022386406 0.08424352 -0.20960513
-0.14737381 -0.064710334 0.12735492 0.08851362 -0.22283635 -0.24568585 0.055478934 0.20139913
0.29277864 0.27999878 -0.07958867 0.26549423 -0.012999894 0.27371275 3.7210153e-05 0.22184856
-0.09991532 -0.26419815 0.24764049 0.26994184 -0.129833 -0.11570179 -0.14303531 -0.24041352
-0.1720419 -0.14376965 0.29052404 -0.110004 -0.08056965 -0.2832656 -0.22321086 0.13781069
-0.006334763 0.086383 0.04663078 0.019229263 -0.03847235 -0.29316255 -0.16565536 -0.10638195
-0.29469278 -0.07815833 -0.16538888 0.27735853 -0.08724642 -0.12508295 0.2802031 0.07363505
0.18216375 0.25458825 -0.24743633 0.07813779 0.0134312315 -0.26089752 -0.2664485 -0.009133493
0.17567345 0.22300157 -0.014833151 0.24586259 -0.15547922 0.09457078 -0.05390392 0.27532157
0.2792699 -0.27073124 0.071930945 0.18061465 0.25714725 -0.16108403 -0.129639 -0.17207636
-0.13265146 -0.23805632 0.22245105 -0.26828572 0.06569391 -0.08571845 0.13723195 0.225477
0.0059513175 0.32084072 -0.1473807 0.3274163 -0.17452554 0.10740586 -0.1623872 -0.26896697
-0.15482351 -0.25792176 0.06902879 -0.14035672 0.052780498 -0.2325559 0.16044523 0.025112469
-0.0951657 -0.22788706 0.28578195 -0.24078089 0.108289905 -0.10131999 -0.2574732 -0.043904785
-0.004964939 -0.109817736 -0.17676488 -0.084531784 0.2564872 0.16580965 0.15073787 0.083395734
0.03172045 0.2498763 0.23346685 -0.18085398 -0.09489813 0.11170363 -0.20394595 0.15048487
-0.08155988 0.10339272 -0.1958291 0.08810633 -0.28880578 0.06709957 -0.13230163 -0.16873546
0.25414848 0.07792915 0.31473967 -0.0010779111 0.07915206 0.16268393 0.18423462 0.011170199
0.24706984 -0.11977666 0.06562651 0.27121788 -0.19732773 -0.12667818 -0.1293992 0.20347278
-0.24742037 -0.039376978 0.2791637 0.0019035748 0.021809354 0.02618948 -0.21287063 -0.17098178
0.026906524 0.17249747 0.11147612 0.29052496 0.24987407 0.17273039 -0.031778455 0.15456381
-0.13662767 0.16204599 -0.05554478 -0.06963553 0.08101203 0.18043995 0.084917285 -0.0785663
-0.29346952 -0.26311192 -0.2532624 0.08269356 -0.27610454 -0.2716747 -0.033020098 -0.014101349
0.056356974 0.11865275 0.09117944 0.27580318 -0.20574775 -0.10306066 -0.15377739 0.17477144
0.037818927 -0.09798328 -0.20103279 0.0849496 0.07716082 -0.19380324 0.18011285 0.27807468
-0.13801914 -0.19490659 0.052905086 0.0427576 0.2998164 0.13380563 0.014536498 -0.02057433

h2.bias f4 [64]
00000000: 85f9 8d3b fe5f 20bd 0f3f 06bd 7b71 873c
00000010: bf63 61bd 2560 cbbc 9f2a f23c 4414 8dbd
00000020: 3936 b33d 76e9 073c 6659 09bc 7adb 073d
00000030: af18 d53d be5b 7fbd bef4 51bd a62e c5bd
00000040: 74b8 afbd 8e9b 293d 227d a5bd 3779 c13d
00000050: c022 493b 4b50 7bbd 4701 ba3d 325a 6b3c
00000060: dce8 8bbd 4c8d 6bbd 6606 003d cb87 99bd
00000070: 9ca9 a5bd 5ef2 0fbb c8cc 673d e38c d8bd
00000080: 6b26 b73b ef11 983d 0d69 7d3c c73c 72bd
00000090: 95e2 94bd db6f a4bd 960d 40bd 1e40 c73d
000000a0: c9f0 4dbd 736c 34bd 5bc8 0c3d b21e a9bd
000000b0: f4e0 bebd e857 713d 8681 c9bd 00f9 273c
000000c0: 0b65 95bd 3d10 803d 4b2a 88bd faa6 413d
000000d0: bf45 8abd a5e7 743d deaf 67bd e907 9b3d
000000e0: 8bf1 443d bb96 93bb 1e15 3b3d b337 ffbb
000000f0: d152 373d 7763 33bd f723 84bd 211f 0ebc
0.0043327236 -0.039154045 -0.03277498 0.016533604 -0.055026766 -0.024826119 0.029561339 -0.06888631
0.087505765 0.0082954075 -0.008383131 0.033168294 0.10405099 -0.06234335 -0.051258795 -0.09628038
-0.085801035 0.041408114 -0.08080508 0.09446948 0.0030690879 -0.06135587 0.09082275 0.014364766
-0.06831524 -0.057507798 0.031256102 -0.074966036 -0.08088991 -0.002196453 0.05659178 -0.10573747
0.0055892966 0.074252956 0.015466941 -0.059139993 -0.072697796 -0.08029147 -0.046887957 0.09729026
-0.05027846 -0.044048738 0.03437076 -0.08257808 -0.0932025 0.058921725 -0.09839158 0.010252237
-0.07294663 0.06253097 -0.06648692 0.047278382 -0.06751584 0.059791226 -0.056564204 0.07569868
0.048081916 -0.0045040525 0.045674436 -0.0077886223 0.044756714 -0.04379603 -0.06452172 -0.008674414

h3.weight f4 [16, 64]
00000000: 81cb dabd 6573 90be 4f7e 89bd 56ab 9dbc
00000010: 6eb2 0c3e 0f74 67be f0b7 a5bd f1d2 2ebe
00000020: ab84 20be ab20 653e 7622 283e f174 96be
00000030: fc7a 1f3c 0c8a 9bbe 0e00 5d3e bfd4 47be
00000040: 6d7a 68be 6192 cbbd 9b4a 233d be5e ccbd
00000050: d985 08be 33cd 89be 5234 213e d7b5 973e
00000060: 7db2 753e 2f1c b1bd 125c 823d 3951 623e
00000070: 675a 013e 9e7c 793e d142 693d fa9b df3c
00000080: 6b0c 83be e8b5 813e 0d8e 01bd d471 18be
00000090: 9838 51bd 6059 1b3e e57a 72be c7fe 563d
000000a0: a1cb 8c3e 77b0 07be c8c4 68be 9145 85be
000000b0: 0493 27be 908c 123e 0e7f 63be a199 123d
000000c0: 62f0 22be e026 2cbe 8c18 9fbd 095d 8b3e
000000d0: 3076 633e cc27 8d3e 0e06 353e 6dbb 21bd
000000e0: 1259 02be 4f7d d5bd c894 5abe 4e8c 6abd
000000f0: ec93 1e3d c799 9c3d d825 5a3e 7be5 06be
00000100: ef65 1fbe 1474 fc3d b5b8 2cbe fd86 17be
00000110: 44b3 ec3d 783d 9c3e d76e 553e 6fbf 643e
00000120: b869 f83d 2e72 f63d 5cd8 763e e24c 8abd
00000130: 1ce0 8f3e f8ec ffbd d09b 6bba b91d 2fbe
00000140: ee46 263e 308e 923e 9d0c 903e 0cd9 de3d
00000150: 5cfa fcbd bee6 763e cae2 393d 8e7d 113e
00000160: 5891 c1bd dde3 b33b 7871 e03d 507f 9a3e
00000170: 9a45 82bd e198 673e 14f8 2bbc 1dbc 46be
00000180: e91d 313e f96b 70be d6ea 43be 0f9c 5c3e
00000190: ed57 35be 820e 83be c7cc 40bd 4b9e 47be
000001a0: 1129 43be 8d27 81bd 8d51 77be b153 30be
000001b0: a45c 0c3d ba47 dabd 0351 8e3e 682a 593e
000001c0: 662b 91be e0ff 83be 0bcc 92be 788a 1dbe
000001d0: 475d 253d 2364 aa3d 9ba4 6bbe 4589 4dbe
000001e0: 3d23 91bc a0a4 9b3e a0e9 d43d 2f00 79bd
000001f0: 8be3 133e 1663 913d 1d38 21be 5703 ddba
00000200: 3e6d d8bc 6c1e 6c3e 8b4d 6bbe 0e33 85be
00000210: 68ab 88bd 08d8 553e 2805 69be f208 19be
00000220: 83c6 923e 322b a2bd 5c43 8abe 23cf 393e
00000230: fca3 d9bd 1ffb 0fbe 8f74 b5bd fcbd ea3d
00000240: 14ca 803d afa2 90be f7d9 d9bd 2661 a4bb
00000250: 73e1 8e3e 4815 b9ba 75ad 6bbd 156d 1bbe
00000260: d15f 4a3e 3507 963c f751 8cbe cae5 bf3d
00000270: d93b 0f3e 39ec 663e 559f f43c 78d5 25bd
00000280: dcb2 27be ebba 3e3e 14b5 313e 1e4b 6ebe
00000290: 0ac4 e0bd 721f f13d 005b 18be 47bb bd3d
000002a0: 6db0 5f3d 432e 42be 24ea 54be d5f7 05be
000002b0: 62bf 1e3c 6b0a 04be 33eb afbd 8004 48be
000002c0: b1a7 23be fac2 7b3b 0410 f43d 9e88 7a3e
000002d0: 7b15 cabd 3660 983e 27b2 a93d f8bf 8cbe
000002e0: 7a5a 963e c840 9bbd beef 8e3d 473c bebd
000002f0: aa96 313d d796 5f3e 03db 9bbd 1933 ecbd
00000300: f85c 423e c70c 0cbe fb2a 4cbe 31b3 c1bb
00000310: afd5 35bc 2800 ebbd 74d8 943e c08d 46bd
00000320: 7131 c43d 4dcb 1e3e 4408 95be 833d 3ebe
00000330: 83e9 7c3d 4b63 62be f9c6 7ebd b23e 023e
00000340: ba55 87bc e576 843e 57af 55be 5fb9 5b3e
00000350: 82e2 683e 2e40 483e a693 4dbd 1c6e b3bd
00000360: ce0b e63d 3dc1 f63d a55a 613e 8adf 3dbe
00000370: b3ba 643c 9b2b e63d b0ab 92bd c809 83be
00000380: c7af 61be 2308 943e 62ec 473e 31dd 93ba
00000390: 6dcf dc3d 57d9 0e3e d4be b1bd e2ba 19bd
000003a0: 813a 11be c930 6dbe ef63 1fbd 3bb9 113e
000003b0: 0ba8 2cbe ec1c 42be 6524 163e c99e 57be
000003c0: b483 4b3e e3f2 06be 1ce0 78bd d92a 1abe
000003d0: fdc2 7f3d 548f 95be eb98 13be 056a 69be
000003e0: c3f0 c2bd 7edb 8ebe 643a 08be de28 f53d
000003f0: 3ac3 ecbd e124 8a3e dd58 c5bd 7511 213e
-0.106833465 -0.2821304 -0.067135446 -0.019246738 0.1373994 -0.22602867 -0.08091724 -0.17072655
-0.15675609 0.22375743 0.16419396 -0.29386094 0.009733912 -0.3037876 0.21582052 -0.1951475
-0.22702952 -0.09940029 0.03986607 -0.09979008 -0.13332309 -0.26914367 0.15742615 0.2963092
0.23993869 -0.08647954 0.06365217 0.22101296 0.12632142 0.24363944 0.056948487 0.027296055
-0.25595412 0.25334096 -0.03162961 -0.14887172 -0.051079363 0.15170813 -0.23679693 0.05248907
0.27499107 -0.1325091 -0.22731316 -0.26029637 -0.16364676 0.14311433 -0.22216436 0.035791043
-0.15912011 -0.16811705 -0.07768354 0.27219418 0.22213054 0.27569425 0.17678091 -0.039485384
-0.1272929 -0.10424291 -0.21345818 -0.05726271 0.038715288 0.07646518 0.21303499 -0.13173477
-0.15566228 0.12326828 -0.16867335 -0.14797588 0.1155763 0.30515647 0.20843063 0.22338651
0.12129539 0.12033497 0.24105972 -0.067529455 0.2810067 -0.1249637 -0.00089877564 -0.17101182
0.16237995 0.28624105 0.28134623 0.10881242 -0.1235244 0.24111459 0.0453823 0.14208052
-0.0945155 0.00548981 0.109591424 0.30175257 -0.06360932 0.22616912 -0.010496158 -0.19407697
0.17296566 -0.23478688 -0.19132552 0.21543907 -0.17709322 -0.25597006 -0.04707029 -0.19493978
-0.19058634 -0.06306372 -0.24152203 -0.17219426 0.034268036 -0.10658212 0.27796182 0.21207583
-0.28353423 -0.25781155 -0.28671297 -0.15384853 0.04037216 0.08319881 -0.23012011 -0.20071895
-0.017716998 0.30399036 0.10396123 -0.06079119 0.1444227 0.07098977 -0.15744062 -0.0016861957
-0.026419278 0.2305848 -0.22978799 -0.26015514 -0.06673318 0.2088319 -0.22755873 -0.14944819
0.28667077 -0.07918395 -0.27004516 0.18145423 -0.10626981 -0.14060639 -0.088601224 0.11462018
0.06288543 -0.28249118 -0.106372766 -0.005016464 0.2790638 -0.0014120722 -0.05753847 -0.1517833
0.19763114 0.018313983 -0.27406284 0.09370001 0.13987674 0.2255105 0.029861132 -0.040486783
-0.16376823 0.18625991 0.17354232 -0.23270842 -0.109748915 0.11773576 -0.14878464 0.09264236
0.054611612 -0.1896296 -0.20792443 -0.13082822 0.009689184 -0.12894599 -0.085897826 -0.19532967
-0.15981938 0.0038415776 0.11917117 0.24466178 -0.09867378 0.29760903 0.08285933 -0.2749021
0.29365903 -0.075807154 0.06979321 -0.09288841 0.043356575 0.21834885 -0.076101325 -0.115331836
0.18980777 -0.13676749 -0.19938271 -0.005911254 -0.011098309 -0.11474639 0.2907139 -0.048475027
0.09579743 0.1550724 -0.2910787 -0.18578152 0.06174613 -0.2210819 -0.062201474 0.12719229
-0.01652037 0.2587196 -0.20867668 0.21457432 0.22742656 0.19555733 -0.050189637 -0.08761236
0.1123272 0.12048576 0.22007234 -0.18542305 0.013960528 0.11238786 -0.07161653 -0.255934
-0.2203971 0.28912458 0.19523767 -0.001128113 0.10781751 0.13950096 -0.08678976 -0.03753174
-0.14182474 -0.23163141 -0.038913663 0.14230816 -0.16860978 -0.18956345 0.14662321 -0.21056665
0.1987446 -0.13178591 -0.060760602 -0.15055408 0.062441815 -0.29210913 -0.14413802 -0.2279435
-0.09518578 -0.27901834 -0.13303524 0.119706854 -0.11560674 0.2698126 -0.0963609 0.15729316

h3.bias f4 [16]
00000000: 38bd 733c 8ae4 bc3d 4192 7c3c 044d 3a3d
00000010: 8068 eebb e3ea 52bd bdce 1c3d a1a7 f63d
00000020: 5fb6 0fbd a8de 783d b1cb 80bd 0079 6b3b
00000030: e331 823d 8a79 86bd 7ae5 d3bd 9b13 c23d
0.014876656 0.09223278 0.015415729 0.045483604 -0.007275641 -0.051493537 0.0382831 0.120436914
-0.035086032 0.060759217 -0.06288851 0.0035930276 0.063571714 -0.065661505 -0.103465036 0.09476396
