weights/weights_LF=16_sparse/w=0.00_2.pth (torch, 41932 bytes, 8 tensors)

input.weight f4 [64, 4]
000000 e6 53 36 bf e1 e9 12 3f ab f4 25 3f 5c 7b 83 3c
       -0.7122177 0.5738812 0.6482646 0.016050033
000010 83 f8 98 bf 27 11 1d 3f 51 27 45 3e 57 7f 8d bf
       -1.195084 0.613543 0.1925328 -1.1054486
000020 33 38 36 be e1 66 48 bf fe f9 28 3b b9 9f 5a bf
       -0.17794876 -0.7828198 0.0025783773 -0.8539997
000030 25 b4 30 be 8d f9 0d 3f 8c 1a 8e 3f db e0 92 be
       -0.1725622 0.5545891 1.1101851 -0.28687176
000040 f4 ee 1f bf a6 ca 47 3f 16 9c 59 bf 7c a9 19 bf
       -0.6247399 0.7804359 -0.85003793 -0.6002424
000050 69 88 00 3f aa 35 93 3f d0 ed 00 bf 31 6d a9 3d
       0.50208145 1.1500752 -0.50362873 0.0827278
000060 12 cb 2b bf a3 d6 76 3e cb a1 84 3f 43 98 93 be
       -0.67106736 0.24105315 1.0361875 -0.28827104
000070 a7 7f 15 3f 12 d0 72 bf b5 95 4a be 5a aa 0a 3f
       0.58397907 -0.9484874 -0.19783671 0.54166186
000080 0d 0f 77 bd c6 3f 8c 3f 0c 6a 88 bf 8f 86 d6 3d
       -0.060317088 1.0956962 -1.0657363 0.10474884
000090 76 b8 98 3d 9a 87 d7 be 71 0e f7 bd c5 27 d0 be
       0.07457058 -0.42095643 -0.12063301 -0.40655342
0000a0 99 51 87 3f 60 26 4f bf 6e 71 56 be 9d f9 90 bf
       1.0571777 -0.8091793 -0.20941707 -1.1326176
0000b0 5d 54 46 3f 34 5c f8 be 2b ca 5d bf b3 c4 47 bf
       0.7747248 -0.48507845 -0.8663661 -0.78034514
0000c0 76 76 6c bf 7c 42 06 3f 95 ce 01 3e fd 35 63 bf
       -0.9236826 0.524452 0.12676461 -0.88754255
0000d0 38 b0 5a bf f4 45 13 3f f6 f5 c2 3e b0 b6 a6 bd
       -0.8542514 0.57528615 0.38078278 -0.081403136
0000e0 dc de 1a bf 39 93 69 bf c4 c9 99 3f bc 4a 8b bf
       -0.60496306 -0.9124027 1.2014699 -1.0882182
0000f0 1c 24 86 bf af e8 94 3f 48 11 14 3e 1e 1b f8 3e
       -1.047977 1.1633509 0.14459717 0.4845819
000100 ab 8a fc be d0 3f 13 bc df 6f 29 3f 35 07 1c 3f
       -0.49324545 -0.008987382 0.66186327 0.609485
000110 5d 20 68 3f f1 a2 95 be 0f d7 7a 3e a6 2a 16 3f
       0.9067438 -0.29225877 0.24496101 0.58658826
000120 29 cd 04 be a4 c3 6d bf 3e 81 64 3f d7 0d ce be
       -0.12968887 -0.9287665 0.8925971 -0.40244934
000130 7f 33 80 3f f5 e4 b9 be 46 4e 03 be c7 88 8c bf
       1.0015715 -0.36307493 -0.12822828 -1.0979241
000140 6b 49 8f be 28 77 7b 3e be e3 3a 3f 7a d0 7b bf
       -0.279857 0.24557173 0.73003757 -0.98364985
000150 86 1e 94 bf f5 ca 03 3f 07 5f 8a 3f ab 06 26 3f
       -1.1571815 0.5148156 1.081025 0.64853925
000160 7a cc 14 3e 82 7c 84 bf 76 11 9a 3f 46 b7 19 bf
       0.14531127 -1.0350497 1.2036579 -0.6004528
000170 13 b9 50 bf 06 31 d1 be 4e 96 54 bd 23 91 33 bf
       -0.815324 -0.40857714 -0.051901154 -0.70143336
000180 a1 f9 aa 3d 74 47 98 3f 3d b6 86 bf 1c 8a 74 bf
       0.08348394 1.1896806 -1.0524365 -0.9552324
000190 83 9d 3e 3d 1d 69 8a bf 36 f6 be 3e 4e 32 4c bf
       0.046536934 -1.0813328 0.3729722 -0.7976426
0001a0 05 be c9 be 62 21 8d 3e 7f 2f 97 3f 83 ea 7a bf
       -0.39402786 0.27564532 1.181137 -0.98014086
0001b0 8f 30 13 bf a1 84 4d be b1 25 47 3d f0 f9 83 3f
       -0.5749597 -0.20070125 0.04861993 1.031065
0001c0 e9 31 96 3e 24 89 41 be ec ee 92 3e 6c 68 9a 3f
       0.29334953 -0.18899971 0.28697908 1.2063117
0001d0 3f b5 7b 3f f6 74 f2 be 0a b7 6e bf 2c 41 14 bf
       0.98323435 -0.4735486 -0.93248045 -0.57911944
0001e0 7c 9c 34 3f 2d 95 1c 3e fd a3 89 be 8e a5 05 3e
       0.70551276 0.15291281 -0.26882926 0.13051435
0001f0 55 e6 8f 3f e4 6d 0c 3f dc 43 f2 bc 2f 6d 76 bf
       1.1242167 0.5485518 -0.029573373 -0.9626035
000200 7d ae 60 3f 92 ae 87 3f ca 3e 31 bf 41 0c 25 3f
       0.8776625 1.060015 -0.69236434 0.6447182
000210 8f c9 8d bf c1 20 76 3f c2 3f 88 be c4 43 af 3e
       -1.1077136 0.9614373 -0.26611143 0.3423139
000220 11 32 03 3f 78 2f f9 be 11 99 99 bf 9b 0d 2d 3f
       0.5124827 -0.48669028 -1.1999837 0.67598885
000230 c3 41 6d bf 66 2b 6e bf 6e 01 d1 be 4e 61 64 be
       -0.9267847 -0.9303497 -0.40821403 -0.22302744
000240 8e 84 84 3f 13 f8 92 bf 53 fd b4 3c a1 03 97 3f
       1.0352952 -1.1481956 0.02209345 1.1797982
000250 42 2d 86 bf a1 3a ff be f7 32 05 3e 81 f6 88 bf
       -1.0482562 -0.49849418 0.13007723 -1.0700227
000260 5d ad 1c 3f d7 00 8c 3e 29 2e 4c bf 05 05 0a 3f
       0.6120203 0.2734439 -0.79757935 0.5391391
000270 6d d8 5c 3f d2 a7 e0 3e c2 3c 6f bf b0 b2 8f bf
       0.8626774 0.43878037 -0.93452084 -1.1226406
000280 c0 f8 49 3f 30 38 49 bf c3 bb 4b 3c f7 cf 97 bf
       0.7889519 -0.7860136 0.012434903 -1.1860341
000290 43 dc 8c be 4b 22 0e 3f e1 3d 74 3f 31 7c 18 bf
       -0.27511796 0.55521077 0.9540692 -0.595645
0002a0 88 8c 2f 3f 80 5e 35 be 52 c3 4d be fa 0b d3 be
       0.6857381 -0.1771183 -0.2009404 -0.41220075
0002b0 7f a7 66 3f ad ef 2c 3f fd 22 6b 3f 0f 84 9f 3d
       0.9009933 0.67553216 0.9185026 0.0778886
0002c0 17 c1 18 3f 36 87 2b bf e4 57 92 bf 41 5c 98 bf
       0.5966963 -0.6700319 -1.1433072 -1.1903154
0002d0 6d 43 d2 be f0 f4 6a 3f 72 3c 49 3d ab 4b 75 3f
       -0.41067067 0.91779995 0.04912991 0.95818585
0002e0 f4 5c a4 bd 89 e7 c6 3e 60 e2 2a 3f c8 9e 0a bf
       -0.08025542 0.38848522 0.6675167 -0.5414853
0002f0 79 e1 e7 3d 2f b6 02 3f b5 98 52 3f a6 b0 3b bf
       0.11322302 0.5105924 0.8226426 -0.7331642
000300 5c bd 35 bf 3b 75 83 bf 18 9f de be ca 30 41 3f
       -0.70992064 -1.0270151 -0.43480754 0.7546507
000310 f7 0c 8f 3e 33 36 b5 3d ac 8e 24 3f 85 6b 17 bf
       0.2793958 0.08848228 0.642802 -0.59148437
000320 a1 ed 8f 3f 27 45 82 3e 0b 00 01 bf dd f1 4d bf
       1.1244394 0.25443384 -0.5039069 -0.8044718
000330 ed b6 8e bf c2 9a 6f 3f 1b c0 cb be 88 7c 93 3e
       -1.1149575 0.93595517 -0.39795002 0.28805947
000340 05 2f 14 3f bb 9d 09 3f 81 0e 58 3f 7c 92 64 bd
       0.57884246 0.537563 0.8439713 -0.05580376
000350 ba 72 e1 3d 60 e7 7f 3e 48 f8 94 3e 74 90 46 bf
       0.110082105 0.24990606 0.29095674 -0.7756417
000360 12 c2 7e 3f 75 d6 4d 3e 7d 4a 5c 3e d2 84 1a 3f
       0.9951488 0.2010134 0.2151279 0.6035892
000370 31 41 f7 bd 44 4a 6f 3f f5 42 81 3f f9 f6 23 bf
       -0.12072981 0.93472695 1.0098559 -0.64048725
000380 6a b4 84 3e 10 cb 8f 3f 46 00 a2 3e 71 22 8b bf
       0.25918895 1.1233845 0.31640834 -1.0869886
000390 0e ad 15 bf f6 cc 12 bf 70 fd 2d bf 30 42 b0 3e
       -0.58467185 -0.57343996 -0.6796484 0.34425497
0003a0 90 41 70 bf 5b b1 0f bf 7a 41 97 3f d4 83 89 bf
       -0.9385004 -0.5613 1.1816857 -1.0743356
0003b0 59 3f 34 3f b9 ab 5f bf 1d d3 6a 3e 5b b1 50 bf
       0.7040916 -0.873714 0.22932096 -0.8152062
0003c0 6c f4 74 3f 38 08 72 bf b4 88 87 bf bd f1 82 3f
       0.9568546 -0.9454379 -1.0588593 1.0230023
0003d0 6b 93 23 3f 00 22 97 3f f9 bf 66 3f fb 2e 5b 3f
       0.63896817 1.1807251 0.9013668 0.8561856
0003e0 b3 76 cb 3e e4 9b 33 bf c3 15 b7 3d 30 43 9b 3f
       0.39738998 -0.70159745 0.089396976 1.2129879
0003f0 67 44 ef 3d 2d a2 65 bf c6 d4 33 bf 0f 75 77 bf
       0.116829686 -0.89700586 -0.7024654 -0.9666299

input.bias f4 [64]
000000 6b 3a b8 3d 20 7e b8 3c 13 4b c8 3d b7 29 8d bd
       0.08995517 0.022521079 0.09779944 -0.06892722
000010 33 c6 2e bd 8f b1 8d bd cd 89 2e bb 62 54 a9 3d
       -0.042669486 -0.06918632 -0.0026632429 0.08268048
000020 0d 8f b0 bc 17 a7 b4 3d 5a a8 4f bd 5d b4 96 3d
       -0.021552587 0.08820932 -0.050697662 0.0735862
000030 73 ac 50 bd 53 6e cb bd 7a b0 4a bd e3 3c 29 3d
       -0.05094571 -0.09933152 -0.049484707 0.04131783
000040 00 76 fc 3c d7 da 52 bd ba 5b c5 3d 60 12 84 3c
       0.030817986 -0.051478233 0.09636636 0.016122043
000050 78 90 95 bd a2 7a af 3d fd 27 63 3d 33 b0 3a bc
       -0.07302946 0.08568312 0.055458058 -0.011394548
000060 4d 90 96 3d 7a b2 99 bd 4d 23 42 3d 3d 99 35 3d
       0.07351742 -0.07504745 0.047396947 0.044335593
000070 80 c0 2c bd 8d 57 7c bc 88 4c 99 bd 73 aa a2 bd
       -0.04217577 -0.015401733 -0.074853 -0.07942667
000080 90 23 b3 bd 9a 15 20 bc e7 83 c8 3d af 7a bc 3d
       -0.087470174 -0.009770775 0.097907834 0.092030875
000090 1d a6 60 bd c0 fe 2d bc da 93 b7 bd f3 31 d3 bc
       -0.054845918 -0.010619819 -0.08963747 -0.025780654
0000a0 e0 84 8f 3d ef 33 c6 bd 1a 16 65 bd 5a 17 44 3c
       0.07007766 -0.09677874 -0.05592928 0.011968458
0000b0 a2 89 9b 3d b5 c1 c3 bd 30 f9 a8 bd ad 4b 35 3d
       0.07594611 -0.09558431 -0.08250654 0.044261623
0000c0 40 fa db 3c 60 cd 8e 3c 1a f2 0f bd 13 df b9 bc
       0.026852727 0.017431915 -0.035142995 -0.022689378
0000d0 7a 4f b8 bd f3 0c 96 3d 83 1e 52 3d 7b e7 b3 bd
       -0.08999534 0.073266886 0.05129863 -0.08784386
0000e0 27 d5 71 3c e0 b9 ee 3c c5 06 93 bd 75 ba 89 3d
       0.014760292 0.029141366 -0.071790256 0.06725017
0000f0 cd b6 42 3d 00 00 1c b6 3a 91 33 bd 73 dd af bc
       0.047537614 -2.3245811e-06 -0.04383967 -0.0214679

h1.weight f4 [64, 64]
000000 fe 6d 4b bb 28 5f a8 bd 61 b6 87 3d 21 4f 0d 3e
       -0.0031040902 -0.082212746 0.06626583 0.13799717
000010 d1 ae 19 3e 3b b7 3d be 8d b4 81 3e 36 cb 8f 3e
       0.15008093 -0.18526928 0.25333062 0.28084725
000020 1b 37 4a be 53 1d 41 3d 34 57 07 be 54 40 47 be
       -0.19747584 0.047147106 -0.13216859 -0.19458133
000030 c3 54 3a be d9 28 7a be b2 5d 5e 3e 2e 0c 45 bd
       -0.18196397 -0.24429645 0.2171543 -0.04810732
000040 48 29 9c bd 44 56 80 3e 46 a1 5e 3e 2a 5b 3c bd
       -0.07625061 0.25065815 0.21741208 -0.04598538
000050 5b 3a 54 be 38 92 3a bd db 88 43 bc df d7 58 bd
       -0.20725386 -0.0455496 -0.011934484 -0.052940246
000060 d2 dd a8 3d 6d d5 4d bc 21 bf 2d be a8 c7 7e be
       0.08245434 -0.012563092 -0.16967441 -0.2488085
000070 fc 0c 30 be d8 3d 06 3e 31 18 8e be 51 59 56 be
       -0.17192453 0.13109529 -0.27752832 -0.20932509
000080 da 34 e6 bd 6c f3 1b be ba ec e7 bc 93 ce 32 be
       -0.112405494 -0.15229577 -0.028311122 -0.17461614
000090 fe ca 61 3e d5 3c b6 bc d2 cd 0d bd d5 41 9a bc
       0.22050092 -0.022245804 -0.034620114 -0.01883022
0000a0 46 15 9d bb b2 8b 52 be d3 6a 9a be 32 c1 9a 3e
       -0.0047937958 -0.20561102 -0.30159625 0.3022552
0000b0 88 0d 4b be d3 8a 70 3e b0 eb 40 3e 59 b8 d2 3d
       -0.1982938 0.23490457 0.18839908 0.10289068
0000c0 18 e1 5c bc 72 09 46 be 71 05 8f 3d ad ab 78 be
       -0.013481401 -0.1933954 0.0698346 -0.24284239
0000d0 95 36 08 be d7 6f 1e be a0 c8 3e 3e b4 47 3f be
       -0.13302071 -0.15472351 0.1863122 -0.18679696
0000e0 23 3d fd 3d 74 a8 b4 3d ab 1c 31 3b c5 cf 83 bd
       0.123651765 0.088211924 0.0027025144 -0.06436113
0000f0 1b e5 7a be ab eb 46 3e ed cd 68 bb d7 2b 23 3e
       -0.2450146 0.19425838 -0.0035523132 0.15934692
000100 d8 4b 85 3c 7c 42 8d 3e bc bc 24 3e 3c 68 88 bd
       0.016271517 0.27589786 0.16087621 -0.06660506
000110 64 ff ae bd 0d 71 9a 3e c5 bb 84 3e 95 11 35 3e
       -0.08544806 0.30164376 0.25924507 0.17682488
000120 d9 43 44 be 9d bb 83 3e 74 01 6d be 2f ad 86 3c
       -0.19166507 0.25729075 -0.23145086 0.016440002
000130 7d 39 64 be 2a 22 34 be 86 97 85 be 4f eb fe 3d
       -0.22287555 -0.17591158 -0.26092166 0.12447225
000140 dd 5a ad bc 58 5a 5f be af 4a 34 be 5a cd 52 be
       -0.021161491 -0.21811807 -0.17606615 -0.20586148
000150 6f 61 2c be 0f b4 78 3d 96 1f f7 bc 0c 51 9a bd
       -0.16834043 0.060718592 -0.030166429 -0.0753499
000160 25 99 84 be 28 10 4d be 13 51 5c be 54 e3 4f 3e
       -0.2589809 -0.20025694 -0.21515302 0.20301563
000170 7b 11 dc 3d 55 5d 9c bc 5a 1b 37 bd e7 60 8e 3e
       0.10745522 -0.019087473 -0.04470382 0.27808306
000180 d4 b0 9e bd 59 9d 52 3e ae 9a 40 3e ab e6 7f be
       -0.07748571 0.20567836 0.18809006 -0.24990337
000190 01 47 6e 3e b7 ad 2f be b3 f9 4c 3e b3 9f 09 3e
       0.23269273 -0.1715611 0.20017128 0.13439827
0001a0 80 a8 00 be 33 57 01 3e 83 d6 bf 3c b1 aa 8f be
       -0.12564278 0.1263092 0.023417717 -0.28059915
0001b0 28 ff 82 be 49 1e 17 3e 2b 48 e9 bd e2 38 6e 3e
       -0.25585294 0.14757647 -0.11390718 0.23263887
0001c0 3e 41 e7 3d be 43 8a be 7d 82 7c 3e 0c e9 df 3c
       0.11291741 -0.27004808 0.24659152 0.027332805
0001d0 70 7e 00 3e 28 c7 18 3c 48 9f 26 be 6b 4a 65 be
       0.12548232 0.009324826 -0.16271698 -0.2239167
0001e0 07 7f 90 3d 07 57 32 be 2b 83 e7 3d d3 0a b4 3d
       0.070554785 -0.17416011 0.11304315 0.08791127
0001f0 fd f2 99 bd ff c9 8f 3e 4e c8 42 bd 46 c2 ec bd
       -0.075170495 0.28083798 -0.047554307 -0.11560492
000200 e7 94 9b be bf c7 9b 3e 70 7e 2f 3d b8 01 86 be
       -0.3038704 0.30425832 0.04284519 -0.26173186
000210 28 36 5f be 02 18 85 be b1 50 00 3d 9c 57 83 3c
       -0.21798003 -0.2599488 0.031326953 0.016032986
000220 48 86 a5 bd 5d a1 60 be 10 b6 0a 3e 21 67 9a 3d
       -0.08082253 -0.21936555 0.13546014 0.075392015
000230 31 c7 10 3d a9 91 5e 3d 19 b4 fc bd e8 32 e3 bc
       0.035346214 0.05433813 -0.123390384 -0.027734235
000240 01 69 c6 3d 3d bb 4c bd c1 6c 76 3e c1 00 9a 3e
       0.09687997 -0.04998325 0.24064924 0.300787
000250 4b 0b 7c 3e 4b 5e 8d 3d 1e 61 5a 3e 50 71 4e 3d
       0.24613683 0.069027506 0.2132611 0.050401032
000260 4b 98 81 bd 0b 6c 52 3e 88 ef 09 be d8 80 3a bb
       -0.06327876 0.20549028 -0.1347028 -0.0028458145
000270 c7 d9 04 be 08 37 98 3e 03 48 42 3e df 64 1c 3e
       -0.129737 0.29729486 0.18972783 0.15272854
000280 99 a5 14 be 6e 71 8f 3e 15 6e 0f bd a0 85 85 be
       -0.14516295 0.28016227 -0.03501709 -0.2607851
000290 96 fa dc bc 6a 6b f0 bb 39 cf 95 bd 3a b4 29 3e
       -0.026974957 -0.0073370235 -0.07314915 0.16572657
0002a0 be 50 1e be 1f 19 c9 3d 13 f0 87 3e c1 1a 96 bc
       -0.15460488 0.098192446 0.2655035 -0.018323304
0002b0 4f 46 c6 3d f4 05 44 3e be fa e4 3b 26 d0 5d 3d
       0.09681379 0.19142896 0.0069878986 0.054153584
0002c0 ed 1d 05 3e f8 fe 7a be 41 d3 b3 bc 08 ee dc bd
       0.12999697 -0.24511325 -0.02195132 -0.10787588
0002d0 ba d1 93 3d c7 66 68 bd fc e1 47 be 5b 05 97 be
       0.072177365 -0.05673864 -0.195198 -0.29496273
0002e0 54 55 28 be 09 8b 42 be a2 0d 24 be 72 0f fa bd
       -0.164388 -0.1899835 -0.16020826 -0.12209977
0002f0 75 57 80 3e fb e8 47 3e 70 9c 69 3e 82 56 2e 3e
       0.25066724 0.19522469 0.22813582 0.17025188
000300 61 19 63 3e d1 67 78 bc af 3a 13 3d a0 e1 02 be
       0.2217765 -0.0151614705 0.035944637 -0.12781382
000310 d5 10 f7 3d 2a 02 b1 bd 70 7e 63 be 22 30 1b be
       0.12063757 -0.08642991 -0.22216201 -0.1515508
000320 2a db 75 3e 0d 1a 84 be 15 8f 50 3e c0 86 11 3c
       0.24009386 -0.25801125 0.20367081 0.008882225
000330 15 97 99 3e 7a d4 96 be 43 40 89 be 2b 37 21 3e
       0.2999808 -0.29458982 -0.2680684 0.15743701
000340 a5 81 8a be 40 f2 29 be fa e1 b2 bd ee e5 ce bc
       -0.27052036 -0.16596317 -0.08734508 -0.025256123
000350 1c ca 52 bd 78 8b 92 3b 0c 51 80 be 54 db 8e 3e
       -0.051462278 0.0044721924 -0.25061834 0.2790171
000360 a5 f1 09 3e f2 1b 38 3e 8b 87 f0 bd f9 bd e1 3c
       0.13471086 0.1797941 -0.11744603 0.027556406
000370 e3 f4 84 ba f8 b9 6d be 5f d1 a3 bd 04 f6 03 be
       -0.0010143783 -0.23215473 -0.07998919 -0.12886816
000380 02 3a 1b be 62 e3 4a 3e c7 3e 5c bd 04 01 14 3c
       -0.15158847 0.19813302 -0.053770807 0.009033445
000390 00 63 4e bd ad b1 49 3d d8 76 50 be 20 fd 20 bc
       -0.050387383 0.04924171 -0.20357835 -0.009825975
0003a0 ee 42 dc 3d 9f cd 26 3e 9a 36 e7 bd 07 17 85 3c
       0.10754953 0.16289376 -0.11289711 0.016246332
0003b0 0d 45 88 be a6 da 98 be 18 7a af 3d 4e 29 54 be
       -0.26615182 -0.29854316 0.085682094 -0.20718881
0003c0 86 fd 12 bc ba f2 84 3e 55 c2 90 ba 54 f9 6f 3e
       -0.0089715775 0.25966436 -0.0011044244 0.23434955
0003d0 ea 21 18 3e d8 6a 7c bd 80 29 77 be b1 22 70 bd
       0.14856687 -0.06162533 -0.24136925 -0.058626834
0003e0 8f 1c eb bc 20 9c 13 3e 63 3d 21 be 92 05 c8 3d
       -0.028700141 0.14415026 -0.15746073 0.097666875
0003f0 ef ed 71 bd e6 24 06 be fe 09 1b 3e 75 de 02 be
       -0.0590648 -0.13100013 0.1514053 -0.12780173

h1.bias f4 [64]
000000 ed 2c 04 3d c7 24 a0 3c f3 f0 a9 3d 73 59 02 bc
       0.032269407 0.019548787 0.082979105 -0.007955897
000010 97 26 3a 3d 23 a8 77 bd 77 16 68 bd ba 52 f6 3c
       0.04544696 -0.060463082 -0.05666205 0.030068744
000020 4d 18 9e 3b 9a c5 29 bc 67 be 1c 3a d2 53 ba bd
       0.004824674 -0.010362053 0.00059793 -0.09098019
000030 e0 c2 ad 3c 67 14 83 3d 80 ef f1 bb 00 b3 06 3b
       0.021211088 0.06400376 -0.007383287 0.002055347
000040 23 b9 0e 3d 20 ac 44 3d 12 9e b9 bd 05 88 98 bd
       0.03484453 0.048015714 -0.09063353 -0.07447819
000050 d0 00 8f bd 80 c1 9b bb 33 a7 fe bc 40 67 e3 3c
       -0.06982577 -0.0047532916 -0.031085586 0.027759194
000060 5d be 51 3d 33 01 5a bd 8a 04 5b bd 8d b3 11 bd
       0.051206935 -0.0532238 -0.053471126 -0.035571624
000070 da 90 64 3d da c7 70 bc 50 32 a5 bd 9a 57 82 3a
       0.055802204 -0.014696086 -0.08066237 0.000994432
000080 40 62 07 3c 63 4b 16 bd 47 3f 23 3d 43 7a 39 3d
       0.008263171 -0.036692988 0.039855268 0.045282613
000090 ad 6d 8a bd b0 a0 c7 bd 4d 57 5c 3d 8d 4b 55 3c
       -0.067592 -0.097474456 0.053794194 0.013018501
0000a0 33 9f 78 3c db 9d 80 bd 10 36 0d 3d 90 92 bc bd
       0.015174675 -0.062801085 0.034475386 -0.09207642
0000b0 c3 ef ba bd e0 9e ef 3c 57 a7 24 bd 28 53 83 3d
       -0.09127762 0.029250562 -0.04019865 0.06412345
0000c0 0d 72 42 3c 03 80 51 bd 0d 15 4a bc 9a bd 48 bc
       0.011868012 -0.051147472 -0.01233412 -0.012252236
0000d0 80 e8 8e 3d ad f5 96 bc 37 c4 2f bd 4d ff a4 bb
       0.069779396 -0.018427694 -0.042911734 -0.005035317
0000e0 8a 92 75 3d 9a 4a e9 bc 9a cf f6 bc 6b 62 bc bd
       0.059954204 -0.028477956 -0.030128289 -0.09198459
0000f0 28 6c ca 3d 13 89 48 3d 7a d5 cd bc 27 59 1a 3d
       0.098839104 0.04895885 -0.025126208 0.03768268

h2.weight f4 [64, 64]
000000 87 f2 71 3d 95 ea 97 be 74 c8 3c be 60 a1 1b bd
       0.059069183 -0.2967116 -0.18435842 -0.037995696
000010 7f c6 e0 3b 81 2a 97 be 1f dc 7b be 51 99 7e be
       0.0068596 -0.29524615 -0.24595688 -0.24863173
000020 12 1f 82 3c 61 0b b2 3d 69 40 86 3d c8 78 87 be
       0.015883956 0.086935766 0.06555254 -0.26459336
000030 e0 e1 9c bd f9 77 bb bd 6e 9f 98 3c 54 9e 95 bd
       -0.0766027 -0.09153742 0.01863071 -0.07305589
000040 6c d0 85 3b 1c 7f fa bd 1e 09 55 be 25 03 8d 3e
       0.0040836837 -0.122312754 -0.20804259 0.27541462
000050 31 48 9b be 73 d0 4b 3e 51 9f 65 3e c8 cc 70 bd
       -0.30328515 0.19903736 0.22424056 -0.058789045
000060 ac 8f 34 3d 90 6f b4 3c 63 11 da bd 2c 81 77 be
       0.04408233 0.022025853 -0.106478475 -0.24170369
000070 15 2e 48 3e ec 7d ad 3c 2b ce 89 3e 23 f6 5b be
       0.19548829 0.021178208 0.26915106 -0.21480612
000080 5b 0d db 3d 0f 08 ca 3d e2 63 5c 3e 71 d0 09 be
       0.10695907 0.09864818 0.21522477 -0.1345842
000090 c7 e1 7d be 90 23 50 bd 43 fb a9 3d 5c 41 58 3e
       -0.24793158 -0.050815165 0.082998775 0.21118683
0000a0 e9 91 cd bc b3 98 28 3d fc 92 3b be 14 9f 22 be
       -0.02509399 0.04116125 -0.18317789 -0.15880996
0000b0 9e 11 46 be 44 16 94 be e5 ee 35 3e 89 76 7a bd
       -0.19342658 -0.28923237 0.17766912 -0.0611482
0000c0 73 7c fe bd d1 fb 22 be a5 96 f8 bd 16 29 27 bd
       -0.124260806 -0.15916373 -0.12138108 -0.040810667
0000d0 44 d6 2e be e1 f3 02 3e 49 87 90 be f2 19 90 be
       -0.17073923 0.12788345 -0.28228214 -0.28144795
0000e0 25 2f 42 be 7a 26 17 3d a1 66 81 3e 39 84 11 bd
       -0.18963297 0.03690193 0.25273612 -0.035526488
0000f0 fe 16 0d bd 92 e3 f2 bd 48 ec 01 be 01 5b f5 bd
       -0.034445755 -0.11859812 -0.1268779 -0.11980248
000100 1e e9 7c 3e 03 83 7a 3e 72 b3 42 3d 4a f3 92 be
       0.24698302 0.2446404 0.047534414 -0.2870124
000110 98 39 47 bd 71 dd 80 3e 62 11 a2 3d c5 fd 55 bc
       -0.04863891 0.25168946 0.07913472 -0.013060992
000120 9b a0 17 3d 0e 1d 35 3e 45 d0 0c be f6 9c 8a 3e
       0.0370184 0.17686865 -0.13751324 0.27072877
000130 8f 6c a3 3d f4 d4 86 be 8f 88 10 be 29 9a 04 be
       0.0797969 -0.26334345 -0.14114593 -0.12949432
000140 28 af 0e 3e 53 ca 8a 3e 0f f4 3d be cb 21 9a 3e
       0.13934004 0.27107486 -0.18550132 0.30103907
000150 f7 b4 de 3d e7 e6 29 3d 5c 9f 9c be 72 5e d6 3c
       0.1087436 0.04147997 -0.30590332 0.026168082
000160 1e 63 11 3e 6c 90 3a be ab bc 6f 3e 34 59 3f 3d
       0.14197966 -0.18219155 0.23411815 0.04671593
000170 05 00 71 be 37 93 36 3e a7 50 80 be d9 11 32 bd
       -0.23535164 0.17829596 -0.25061533 -0.043474052
000180 8b 0d 8d 3e 0e 00 0d 3e 4d 5a cb 3d 43 45 22 be
       0.27549395 0.13769552 0.09929333 -0.15846734
000190 bc 2b 8d be 5d 17 0a 3e 49 7c 2e 3e 38 f4 bc bc
       -0.2757243 0.13485475 0.17039599 -0.023065671
0001a0 84 ee 6e bd 08 99 37 be 6c 57 39 bd e4 fa 86 3e
       -0.058332935 -0.1792947 -0.045249388 0.2636329
0001b0 a0 c2 91 be d9 77 8d 3e 16 72 8e be e0 83 38 be
       -0.284688 0.276305 -0.27821416 -0.18019056
0001c0 6f 86 5a 3e 8a 8e bf 3d ff b4 82 3e 71 c6 d1 3d
       0.21340345 0.09353359 0.25528714 0.10242928
0001d0 9b 07 d6 3d 01 e2 8e 3d bb a0 45 3e 21 7a 44 bd
       0.104506694 0.069767006 0.19299595 -0.047968034
0001e0 7e 52 1b 3e e0 9c 1b 3e 40 7f 2f 3e d0 04 56 3d
       0.15168187 0.15196562 0.17138386 0.052250683
0001f0 a7 a9 20 3e 8d 2d 3c be b0 d1 10 be a6 94 0a be
       0.15689717 -0.18376751 -0.1414249 -0.13533267
000200 c2 37 8c be bf 05 fe 3c 58 ff b1 bd b8 17 85 be
       -0.2738629 0.0310086 -0.08691281 -0.25994658
000210 04 20 c0 3d ff 83 97 bd 7b bc 90 be e7 8c 0c 3e
       0.093811065 -0.07398223 -0.282688 0.13725625
000220 f0 87 95 3c 43 fc e3 bd 69 9d 49 be 22 dc 4e 3d
       0.018253297 -0.111320995 -0.19688953 0.050502904
000230 86 e1 57 3e c4 2b 5e 3e 49 cf 3e 3e 05 da 21 be
       0.21082124 0.21696383 0.1863376 -0.15805824
000240 fa 75 26 3e a8 fc 51 be f3 0e 9b be 1b 9b 98 3e
       0.16255942 -0.20506537 -0.30284843 0.29805836
000250 1c 86 5b 3e 8f 84 27 3d f4 e6 67 3e b8 0f 25 be
       0.21437877 0.040897902 0.22646695 -0.16119277
000260 ae 11 70 be 42 10 02 bd f2 e2 1a 3e bb a4 61 3e
       -0.23444244 -0.031753786 0.15125635 0.22035496
000270 5f 3c 1e be d0 f0 0e 3d 6c b5 69 3e 57 e7 0d 3e
       -0.15452717 0.034897625 0.22823113 0.1385778
000280 26 f5 dc 3c 32 c4 d0 ba 83 82 f4 3d 24 31 a3 bd
       0.026972365 -0.0015927611 0.11938956 -0.07968357
000290 a5 64 6c 3e d4 7a 2a 3d e7 35 8d 3e 9d 53 66 be
       0.23085268 0.041621044 0.27580187 -0.22492833
0002a0 8c 59 40 3e ab 3c 52 be d6 02 69 3e d6 75 63 3e
       0.1878416 -0.20530955 0.22754988 0.2221292
0002b0 c2 5f 97 be e5 65 f5 3d 08 2f 04 be aa fb db 3d
       -0.29565245 0.119823255 -0.12908566 0.107413605
0002c0 12 01 70 be 3e 62 9b be bc a0 06 3e 04 4b df 3d
       -0.23437908 -0.3034839 0.13147253 0.1090298
0002d0 74 fc 1c 3e ab 19 0d bd d1 66 02 3e 2c f5 e6 bc
       0.15330678 -0.034448307 0.12734534 -0.028193079
0002e0 e0 af 92 3e e1 f8 8f be 38 8e 4f 3d a5 2f 83 3e
       0.28649807 -0.28119567 0.05067274 0.25622287
0002f0 5c 6b 36 be 26 ba 06 3e 4f 97 36 3e dc c4 98 3d
       -0.17814392 0.13156947 0.17831157 0.07459423
000300 77 33 d6 3d ba 55 e2 bd 89 6e 16 be 08 c8 51 be
       0.10459035 -0.11051507 -0.14690603 -0.20486462
000310 15 eb 53 be c9 d9 2e 3e 1e 85 fe 3c 54 78 55 3e
       -0.20695145 0.17075266 0.031069335 0.20846683
000320 04 17 36 3b 0d c7 e2 3c b7 6f cb bd 98 0c 1a 3d
       0.0027784714 0.027682805 -0.09933417 0.037609667
000330 8e 67 98 3e d0 ed 61 3e 13 bb b0 bd 4d 01 be 3d
       0.29766506 0.22063375 -0.086294316 0.09277592
000340 9a d1 3b be 58 0c 2f bd ed 27 38 3e 2c b8 97 be
       -0.18341675 -0.04273638 0.1798398 -0.296327
000350 46 8a e4 bd 1b 2d 42 3d b1 49 1f 3e 34 3a ed 3c
       -0.11159186 0.047406297 0.15555455 0.028958417
000360 7e c0 a3 3d b8 d7 7a be a0 ea e0 3d b0 84 32 be
       0.07995699 -0.24496353 0.10982251 -0.17433429
000370 41 9c fc bd c3 df 3c 3e 1d 3e 07 3e 30 ea b4 bd
       -0.123344906 0.18444733 0.13207288 -0.0883373
000380 42 fe d8 bd b8 a3 35 3e 69 91 70 3e 22 16 4b be
       -0.10595371 0.17738235 0.2349297 -0.19832662
000390 f4 7f 1f be 94 f7 08 be d6 19 c8 bd 58 f9 34 3c
       -0.15576154 -0.13375694 -0.09770553 0.011045776
0003a0 72 f9 94 3d 87 0c ae 3b 5d 1b 8e bd 1d 26 9d 3c
       0.072741404 0.005311552 -0.06938813 0.019183213
0003b0 ee cf 16 be 2c 98 96 3e 31 66 5c 3e 68 63 44 be
       -0.14727756 0.29412973 0.21523358 -0.19178545
0003c0 03 4b cd bd f0 3d ae bd 05 04 86 be 07 9a d7 bd
       -0.10024073 -0.085079074 -0.26174942 -0.10527425
0003d0 fc 62 f3 bd 9c 3c 65 be 01 30 83 be f9 f6 cf bc
       -0.11884114 -0.22386402 -0.25622562 -0.02538632
0003e0 eb 06 47 be ea 49 23 3e e6 46 6b 3e 94 32 90 bd
       -0.19436233 0.15946165 0.22976264 -0.07040897
0003f0 b0 44 88 be 39 1d 2d be 7a d7 0e 3e 1f 17 1d be
       -0.26614904 -0.16905679 0.13949385 -0.15340851

h2.bias f4 [64]
000000 7a d7 c3 bd d3 22 a9 bc 67 ad cf 3b 1a 75 81 3b
       -0.09562583 -0.020646488 0.00633781 0.003950727
000010 a3 94 63 bd 4d 15 92 3c 10 da 71 bd cd 9c 22 bd
       -0.055561673 0.017832423 -0.05904585 -0.039700318
000020 a7 33 5c 3c d5 4b 97 bd 0d f7 4e 3d 2a 95 a9 3d
       0.013440049 -0.07387511 0.050528575 0.08280404
000030 a0 34 a5 bd 97 34 58 bd e7 de 4f bc 93 87 80 bc
       -0.08066678 -0.05278453 -0.012687421 -0.015689647
000040 87 ff 69 bd af 40 c8 3d 1d 42 3d bd 5a 1f 9e bd
       -0.057128455 0.097779624 -0.04620563 -0.077208236
000050 40 f2 45 3d ca f4 ca 3d dd 57 33 bd ef 88 8b 3d
       0.04832673 0.09909971 -0.043784965 0.068132274
000060 c3 f4 b2 bd c7 ae 08 3d 80 04 ac bd 4d c0 7b bd
       -0.08738091 0.033369806 -0.08399296 -0.06146269
000070 9a 18 b3 bc 67 c0 57 bc f0 df 43 bd 9a 95 49 3b
       -0.021862317 -0.013168431 -0.047820985 0.0030759335
000080 67 32 15 3c 3d 28 68 3d 57 44 59 bd cd 28 66 bd
       0.009106255 0.056679 -0.05304369 -0.056191254
000090 0d 8a 07 bd 30 cc 26 3d a7 cb 9c bc 9a 2f 86 bb
       -0.03309064 0.040722072 -0.019140078 -0.00409503
0000a0 ba 9f 01 bd 6f 71 c6 bd 9a bd 61 3d 27 cd 41 3c
       -0.031646468 -0.096896045 0.05511246 0.011828697
0000b0 d3 4f 90 bc 63 2e 5b 3d 9a 02 7e bb 7a 24 8f bd
       -0.017616188 0.053511035 -0.0038758875 -0.06989379
0000c0 7a 12 98 bd ed 74 aa bc 2a 1e 86 3d f7 57 ca 3d
       -0.07425399 -0.020807708 0.06548722 0.09880059
0000d0 ba 2e 84 bd 1a 59 c9 3c 6d 1a a5 3d 3d c6 8e bd
       -0.06454225 0.02457862 0.08061681 -0.06971405
0000e0 cd e0 18 3a 40 06 46 3d c0 f8 8f 3c f0 9b 02 bd
       0.0005831838 0.048345804 0.017574668 -0.031886995
0000f0 e3 a5 a2 bd ad e3 a9 bd a3 12 47 3d 97 dc 38 3d
       -0.07941797 -0.08295379 0.048601758 0.045132246

h3.weight f4 [16, 64]
000000 55 55 5c be 92 7a dd bc 8b d6 e3 bd bd ff 8c be
       -0.21516927 -0.027035985 -0.11124905 -0.27538863
000010 57 48 7a 3d 65 0a 98 bd d9 20 c7 3d 8d 08 a3 3c
       0.061104145 -0.074238576 0.09723062 0.019901538
000020 f1 5b 5c 3d 31 51 95 3e 0f c3 80 be 8f 5a 80 3e
       0.05379862 0.29163507 -0.25148818 0.2506909
000030 01 89 b9 bd c6 d1 9b 3e 3e ec f8 3d 0a 69 0c bb
       -0.090593345 0.30433482 0.121544346 -0.0021424913
000040 88 1b cf bd 72 a2 91 be 12 2e 6f 3e 91 bd 55 3e
       -0.10112673 -0.28444248 0.23357418 0.20873095
000050 38 49 48 3e f0 d1 86 3e 65 f0 2c be 13 e9 5f 3e
       0.1955918 0.26332045 -0.16888578 0.21866255
000060 13 9d f6 bd ef d3 52 3e 1f db ed 3d 38 1b 38 3e
       -0.12041678 0.20588659 0.1161406 0.17979133
000070 d2 55 f7 bd e0 e4 5b 3d e9 35 94 bc 11 a3 e3 bd
       -0.12076916 0.05368507 -0.018092113 -0.11115087
000080 7e 31 e9 bd 6a bb 70 be f9 80 49 be 2c 07 67 be
       -0.11386393 -0.23508993 -0.19678105 -0.2256133
000090 6c 3c 21 3e 18 d2 96 3e 29 d8 7a 3e f6 01 2a 3e
       0.15745705 0.29457164 0.24496521 0.1660231
0000a0 9b b6 4c be 07 91 43 be 21 0d e3 3d e4 dc 3e be
       -0.19991533 -0.19098292 0.110864885 -0.1863895
0000b0 9c c4 58 be 94 f9 db 3d 60 5e e6 3d 33 d9 70 be
       -0.2116875 0.107409626 0.11248469 -0.23520355
0000c0 b6 8e 2a be b2 37 86 3e 40 be 7b be 9a d2 e1 bd
       -0.16656002 0.26214367 -0.24584293 -0.11026497
0000d0 5e 8b 36 3c c1 ab 4c be dc d5 bb bc 94 dc 41 3e
       0.011141626 -0.19987394 -0.022929125 0.189318
0000e0 1f 89 3d 3e 03 8d 96 be 11 80 7a bd 2b 44 30 be
       0.18509339 -0.29404458 -0.06115729 -0.17213504
0000f0 2e 55 14 3d bd 52 32 be 9e 9e 82 be bd 95 84 3e
       0.036214046 -0.17414375 -0.2551164 0.2589549
000100 4b 44 18 3e 3a 4d 31 3e 76 76 e9 3d bc 63 50 3e
       0.14869802 0.17314616 0.11399548 0.20350546
000110 d0 8d dc 3c 32 29 31 3e 64 01 02 3e bd 11 d9 bc
       0.02692309 0.17300871 0.12695843 -0.026497716
000120 b7 64 72 3e 7a 59 e2 3d a2 20 53 be 80 5f 9b 3e
       0.23671232 0.110522225 -0.20617917 0.30346298
000130 59 b0 c8 bd 5a 13 4a 3e d0 5b cd 3d 6f a5 26 be
       -0.09799261 0.19733945 0.100272775 -0.16274045
000140 da 37 89 3e 01 23 9a be b1 8f 9c 3e 32 4d 0e be
       0.26800424 -0.3010483 0.30578378 -0.13896635
000150 be 84 5b be 67 d2 4d be 2a 14 cf bd cf 93 9b 3e
       -0.21437356 -0.20099793 -0.10111268 0.30386207
000160 c1 95 f7 3d 6e 2a b1 3d 25 3c 71 3e 4f 23 ad 3d
       0.1208911 0.08650671 0.235581 0.08454
000170 d7 6b 1c bd 4f 6d 87 be 78 cd 54 3e 4a da 40 be
       -0.03818878 -0.26450583 0.20781505 -0.1883327
000180 ad 56 8d bd 83 48 61 3d 7d 94 59 3e fc 7d 90 3e
       -0.06901298 0.055000793 0.2124805 0.28221118
000190 9c 68 5d be 3f 02 83 3e 7f ee 81 3e 57 a8 66 3e
       -0.21621937 0.2558765 0.2537727 0.22525154
0001a0 49 44 67 bd 9e 08 39 be 93 6c 94 3e d7 71 9f 3d
       -0.056461606 -0.18069693 0.28989086 0.07785385
0001b0 fb 9d 24 3d e6 ba 2b 3e 95 7c 64 be d6 5d f7 3d
       0.040189724 0.16770515 -0.2231315 0.12078445
0001c0 fe 94 7f 3e 63 71 e5 bc 40 70 89 be f0 d8 9a 3d
       0.2495918 -0.028008169 -0.26843452 0.07560909
0001d0 fe 16 2b 3e 8d ad 14 3c 41 eb eb 3d 1c 21 80 3e
       0.1670799 0.009074581 0.115194805 0.2502526
0001e0 24 d5 98 be 50 2d 08 3e fd e6 14 be 07 4e 10 be
       -0.29850113 0.13298535 -0.1454124 -0.14092265
0001f0 0d d3 94 be cc 51 41 be 10 dd 6e 3d d3 da 8b be
       -0.2906727 -0.1887886 0.05831629 -0.27315387
000200 41 22 13 be b5 25 bb bd 03 ac 87 3e a4 f2 20 3e
       -0.14368536 -0.091380514 0.26498422 0.1571756
000210 20 8f ad 3d 96 2e 5a 3e 5b 9a 2b be 12 82 40 be
       0.084745646 0.21306834 -0.167581 -0.18799618
000220 90 9f 01 3e 63 42 c4 3d 07 86 30 be d3 58 42 be
       0.12658525 0.09582975 -0.17238627 -0.18979196
000230 26 4c 20 be 23 39 7d 3b 87 b7 84 be 00 dc d4 bd
       -0.15654048 0.0038638792 -0.2592127 -0.10393524
000240 87 c7 91 3d 59 23 76 be 10 5d f4 bc 0e 78 2f be
       0.07118135 -0.24036922 -0.029829532 -0.17135641
000250 d9 7d e7 3d aa c7 9b bd dd 01 3a 3e b8 7e 3c bd
       0.113033004 -0.07606442 0.18164773 -0.046019286
000260 2c 05 7c 3e 47 d9 42 3e 79 bf 76 3e 7c d7 a4 bd
       0.24611348 0.19028197 0.24096479 -0.08048913
000270 b4 03 86 be f0 44 8c be 4f 3b 88 be 5a b4 42 be
       -0.261747 -0.27396345 -0.2660775 -0.19014111
000280 a1 52 d3 bd b0 5b e1 3c 46 e5 f2 bd eb 74 80 3e
       -0.103184946 0.02750954 -0.11860137 0.250892
000290 1a 42 02 be c5 5f 77 3d b4 e5 92 be 01 e8 29 3e
       -0.12720528 0.060394067 -0.28690875 0.16592409
0002a0 4c 4f 38 3d 35 40 1a be 61 cf 4c be 5b d4 55 be
       0.0449975 -0.15063556 -0.20000984 -0.20881788
0002b0 bb 9d 0d 3e 71 ae ac 3d ac be 87 be 46 89 3d be
       0.138297 0.084317096 -0.2651266 -0.18509397
0002c0 02 90 89 bc b0 83 84 be 89 f3 b1 bc db d8 41 be
       -0.016792301 -0.2588172 -0.021722572 -0.1893038
0002d0 24 01 f9 bd 81 bb 35 bd 15 54 9c 3e 78 49 48 be
       -0.12158421 -0.04436827 0.305329 -0.19559276
0002e0 5a 13 05 be 78 16 78 3e f0 39 95 3b 62 49 b0 bd
       -0.12995663 0.24227321 0.004554026 -0.08607747
0002f0 f3 78 4e be ba 3f 5b be 85 58 62 bd cd d9 40 3e
       -0.20163326 -0.21411029 -0.0552602 0.18833084
000300 86 59 b5 3d 55 a6 57 3d 41 f0 1b be 18 e4 04 be
       0.08854966 0.05264886 -0.15228368 -0.12977636
000310 b6 59 54 3e a5 c2 53 3e c4 b0 df 3d 64 a7 1a be
       0.20737347 0.2067972 0.10922387 -0.15102917
000320 81 a6 0a 3e 6b 66 ec bd 0e 89 0b be 10 44 30 3e
       0.13540079 -0.11542972 -0.13626501 0.17213464
000330 0f f8 3f 3e c8 1d 3b 3e 04 fb 2b 3d f3 62 9a 3e
       0.1874697 0.1827308 0.041987434 0.30153617
000340 6c 98 70 bb 32 c5 c5 bc 69 60 d9 3d 91 7f 4b be
       -0.0036711944 -0.024141882 0.10614092 -0.19872881
000350 ee 1e e9 bd 99 af 5a 3e fe 5c 69 3e 3b dc 25 be
       -0.113828525 0.21356048 0.2278938 -0.16197293
000360 91 00 80 bd 30 7d 8c 3e 59 48 4b be f1 f6 63 be
       -0.06250108 0.2743926 -0.19851817 -0.2226217
000370 83 f4 32 3e fb ab 5d 3d bb 7c 3c 3e 19 2a 09 be
       0.17476086 0.05411909 0.18406956 -0.13394965
000380 63 99 8d 3d 93 5e 86 be 47 aa 90 bd ff 72 21 be
       0.06914022 -0.2624403 -0.07063728 -0.15766524
000390 c1 3d 5a 3e c5 cc bb 3d cd 8b 5b 3e 22 ec e7 3d
       0.2131262 0.09169916 0.21440049 0.11324336
0003a0 c2 5f 25 3e ed 54 0e bc c3 37 6a 3d 32 84 2d 3e
       0.1614981 -0.00868724 0.057182085 0.1694496
0003b0 a8 1d 83 3e 0b b3 48 be 67 6d 70 3c 3a bd cc 3d
       0.25608563 -0.1959955 0.014674521 0.099970296
0003c0 af ee 13 be 08 96 9a 3e 0b 36 11 be 55 1e 17 3e
       -0.1444652 0.3019259 -0.14180772 0.14757665
0003d0 06 ad 3f be 1b fd 67 bb f1 fb 56 3e 8d ca 14 3e
       -0.18718347 -0.0035398665 0.20994546 0.14530392
0003e0 35 25 95 3e d9 ff ae 3d 8c 83 83 3d d1 10 94 3e
       0.2912995 0.08544893 0.06421575 0.2891908
0003f0 95 be 10 bd a1 fa 86 be 32 7d 36 3e 82 e8 d5 3d
       -0.035338003 -0.2636309 0.17821196 0.10444738

h3.bias f4 [16]
000000 7a e7 60 3d 50 87 53 3d 47 b5 af bc 03 80 b9 3d
       0.054908253 0.051642716 -0.021448744 0.090576194
000010 9a c7 17 bc 9a 2c b3 bb f8 68 91 3d 0d f7 54 bc
       -0.009263897 -0.0054679634 0.07100099 -0.012998355
000020 80 04 ef bb e7 98 4f 3c e7 29 bb 3b 08 75 86 3d
       -0.0072942376 0.012670732 0.0057117823 0.06565291
000030 82 a8 cc bd b7 1f 28 3d 78 66 84 bd 8b 90 8a bd
       -0.09993078 0.04104587 -0.06464857 -0.06765851
