weights/weights_LF=16_sparse/w=0.60_3.pth (torch, 41932 bytes, 8 tensors)

input.weight f4 [64, 4]
000000 6f ce e8 3e 00 12 92 bf 7f c5 88 bf 29 39 91 bf
       0.45469996 -1.1411743 -1.0685271 -1.1345569
000010 2a 2c 0f bf a9 af 8f 3f 76 ea 3b bf 23 2c c2 bd
       -0.55926764 1.1225482 -0.73404634 -0.09481075
000020 04 d6 88 3d 34 44 09 3f 63 47 d4 be a7 d4 42 bf
       0.06681445 0.53619695 -0.41460714 -0.7610573
000030 a3 79 76 3e bd 4d 94 3f 74 71 96 3f 47 2f 95 bf
       0.24069838 1.1586224 1.1753373 -1.1655053
000040 64 8e b8 be 0a 35 2c 3f 16 3a 33 be 82 3a 21 3f
       -0.36046135 0.6726843 -0.17502627 0.629799
000050 7a ca c1 3d 9d f9 c5 be 56 1c 8c 3f 48 1b e2 be
       0.094624475 -0.38667002 1.0946147 -0.4416144
000060 93 47 8b 3f 26 60 99 3f e6 72 75 bf a9 b4 1b 3f
       1.0881218 1.1982467 -0.95878446 0.6082254
000070 8d e2 33 3f 5a 41 42 3f b1 a2 21 3f b0 57 a1 be
       0.70267564 0.7588097 0.6313887 -0.31512213
000080 f4 8c 66 bf ae 9e 5b 3d ca dc 61 3f 47 59 b6 3e
       -0.9005883 0.053618126 0.8822752 0.35614988
000090 84 08 16 bf 41 4a 58 bf 86 f4 b8 3e 58 4f 7e 3d
       -0.58606744 -0.844883 0.36124057 0.062087387
0000a0 ce 9d ff 3e 19 a7 93 bf df 64 82 3f a6 b3 21 bf
       0.49925083 -1.1535369 1.0187033 -0.63164747
0000b0 1b 13 26 bd 2c 8b 47 3f f3 bc ad be a3 f1 10 3f
       -0.040545564 0.77946734 -0.3393322 0.5661871
0000c0 2f bc 8c 3f 90 17 33 be 4b d0 70 be 8e f6 88 bf
       1.0994929 -0.17489457 -0.23516957 -1.0700243
0000d0 20 c1 b9 bc ca 33 88 3f 8b 4c 53 3f 40 a4 56 bf
       -0.022675097 1.0640805 0.8253867 -0.83844376
0000e0 59 fd 92 3e f0 6c 27 bf e3 eb 40 3f bc c8 90 bf
       0.28708914 -0.654006 0.75359935 -1.1311259
0000f0 2e 69 2e bf 7d 04 df be c0 d5 34 bf 15 83 92 bf
       -0.6812924 -0.43558112 -0.70638657 -1.1446253
000100 76 e5 6e bf de 9b 8e 3f 87 f0 0f 3f 78 3c 8d bf
       -0.9331888 1.1141317 0.5622639 -1.1034079
000110 a2 d6 39 bf 4b be 91 3f 23 26 0c 3f ac 40 8e bf
       -0.7259313 1.1386198 0.5474569 -1.1113486
000120 e6 f4 23 be 35 b0 97 bf 94 f3 6a 3e e4 b0 38 bf
       -0.1601139 -1.1850649 0.2294448 -0.72144914
000130 48 ee 8f 3e 55 74 96 3e 4c f5 16 bf 56 6e e4 be
       0.28111482 0.2938563 -0.58968043 -0.4461543
000140 b2 61 35 3f 6a 8f 8a bf 17 97 83 bf 66 06 4a bf
       0.70852196 -1.0825016 -1.0280484 -0.78916013
000150 0e 6d d6 be ae d2 37 3f 67 0f 93 bf 11 30 e8 bc
       -0.41880077 0.71805847 -1.1489075 -0.028343232
000160 e9 97 fc 3e f1 f4 1a 3f ef a2 17 3f ad 74 5f bf
       0.49334648 0.6053 0.5923299 -0.8728741
000170 0c 71 48 be 92 ad 20 be 62 0b 34 bb a2 0b 53 bf
       -0.19574374 -0.15691212 -0.0027472605 -0.82439625
000180 58 3d 13 bf 3d d9 12 3e eb 16 84 bf fb 3f 97 bf
       -0.5751548 0.14340682 -1.0319494 -1.18164
000190 40 ce 95 bf 3c d2 58 3f 94 c5 40 3e d5 12 08 3f
       -1.1703568 0.8469579 0.1882537 0.53153735
0001a0 5f b2 3a 3d 3a ff 14 3e f2 0d 06 3f b6 d3 31 3e
       0.045580264 0.14550486 0.5236503 0.17365918
0001b0 f2 9d 31 bf 9a 82 47 bf 3e 1e ad 3e 88 c7 24 3f
       -0.6938163 -0.7793366 0.33812135 0.6436696
0001c0 40 ef af 3e 28 ec 04 bd 9d 67 30 3e 87 5b 39 3f
       0.3436222 -0.03245178 0.17227025 0.72405285
0001d0 f6 d1 d3 be fe 5d 50 bf 38 22 a8 be f7 f9 ad 3e
       -0.41371125 -0.8139342 -0.32838607 0.3397977
0001e0 21 b0 68 bf 53 10 97 3f bf b5 9a bf 19 a9 87 bf
       -0.9089375 1.1801857 -1.2086715 -1.059848
0001f0 aa 06 e7 3e 46 b7 2d bf ec 0a 90 3f 34 fd 69 bf
       0.45122272 -0.6785778 1.1253333 -0.9140198
000200 36 a0 42 bf 67 a1 81 3f cc b1 65 bf 7d 23 06 bf
       -0.7602571 1.0127381 -0.8972442 -0.523979
000210 d6 ed 8c bf 05 6e 85 bf 74 e9 9b bf 85 65 11 bf
       -1.1010082 -1.04242 -1.2180619 -0.5679553
000220 18 91 8a bf 74 87 3c 3f 33 f8 82 be 02 b0 76 bf
       -1.0825529 0.73644185 -0.25579986 -0.96362317
000230 69 8f 49 3f 0a 4e e5 bb 69 50 0c 3f 4b 59 4e 3f
       0.7873445 -0.0069978284 0.54810196 0.80605
000240 11 be 0e bf d3 37 02 bf 40 9b 44 bf 3a c9 6d 3f
       -0.5575877 -0.5086643 -0.7679939 0.9288517
000250 e1 f7 8f 3d e2 78 2a bf 50 3c 8b bf bf b4 92 3f
       0.07029701 -0.665907 -1.0877781 1.1461409
000260 bb e5 0c be 4f 55 78 3f 74 72 9b 3d 9c 8a 03 be
       -0.1375951 0.9700517 0.075901896 -0.12845844
000270 38 e9 98 3f af a2 72 3f e2 f4 21 3c eb f0 7a be
       1.1946173 0.94779485 0.009885045 -0.24505965
000280 1d 4f 9b 3e 00 77 3e 3f dc 95 74 3f c6 a0 42 3f
       0.30333796 0.7440033 0.9554117 0.7602657
000290 aa f9 80 3f 9c f4 90 be 6b 5d 97 be 03 2c 96 3f
       1.0076191 -0.28311622 -0.2956346 1.1732181
0002a0 cc 43 50 3f 23 2d c6 3e f5 d0 37 3f ec 02 6e 3e
       0.8135345 0.38706312 0.7180322 0.23243302
0002b0 6d e3 d2 3d fa c8 c1 3e 4c 4b 92 bd 15 d6 e0 3e
       0.10297284 0.37848645 -0.07143268 0.43913332
0002c0 d2 59 2a be 9a f3 b9 bd 09 5a 28 3e 65 a8 83 bf
       -0.16635826 -0.090796664 0.16440596 -1.0285765
0002d0 27 3a 16 bf 76 70 6e bf 43 21 e6 3e 69 a6 48 be
       -0.58682483 -0.9314035 0.44947252 -0.1959473
0002e0 0f dc 05 3f aa d6 99 bf 17 78 23 bf bd da 1d bf
       0.5228891 -1.2018635 -0.6385512 -0.61661893
0002f0 a7 7b 67 bf 57 9a 35 be dd 8a 81 bf f3 ee 82 3f
       -0.90423054 -0.17734657 -1.0120503 1.0229172
000300 6e 81 64 3f f1 d4 e3 3e 28 46 5a 3f dc 86 9b bd
       0.89259994 0.444984 0.852633 -0.07594082
000310 f6 c8 f4 bd 70 33 61 be 78 c6 10 3f 09 3a af be
       -0.11952393 -0.21992278 0.5655284 -0.34223965
000320 b7 14 5e 3d aa fc dd be 6d 4a 57 3f 15 da 43 bf
       0.054218974 -0.4335683 0.8409794 -0.7650464
000330 ca 88 94 3e 03 28 36 bf 49 b9 12 bf 80 c1 9a 3f
       0.29010612 -0.71154803 -0.5731397 1.2090302
000340 57 24 2c bf 93 66 4b be f3 36 b8 be 46 b1 d5 be
       -0.6724295 -0.19863348 -0.35979423 -0.4173681
000350 ee c4 0e bd 48 d8 97 3f 80 b8 37 bf 96 6e 6c 3f
       -0.034855776 1.1862879 -0.717659 0.9235624
000360 15 c2 46 3e db c2 83 bf 64 65 2f bf 55 40 90 bf
       0.19409974 -1.029384 -0.68514085 -1.1269633
000370 c1 d1 8f 3f b9 fb dd be 55 57 f0 bd e2 c1 36 3e
       1.1235887 -0.43356112 -0.11735407 0.17847398
000380 ee 23 ac be 3f 60 96 bf ca 5a 7d bf fc 89 6a bf
       -0.33621162 -1.1748122 -0.9896666 -0.916168
000390 ea cc 7f 3d e8 46 93 3e 22 f5 18 bf 7b a2 64 3f
       0.06245128 0.28765035 -0.59749043 0.89310426
0003a0 73 5f 58 be 9b e0 88 be 3c 65 8c bf 2b 17 87 bf
       -0.21130161 -0.2673386 -1.0968394 -1.0553945
0003b0 6f 71 64 3f 49 c4 65 bf 4a 25 2b bf 93 ea 5a 3f
       0.89235586 -0.8975263 -0.66853774 0.8551418
0003c0 03 e9 86 bf 0f d9 02 bf fa 08 9c 3f 0c d9 84 bf
       -1.053986 -0.51112455 1.219024 -1.0378737
0003d0 dc 48 c2 be eb 90 1a bf 3e 5b 8f 3f 34 d3 1e 3f
       -0.37946212 -0.6037738 1.119972 0.6204102
0003e0 4a 3c 16 bf ac 8e 42 bf f4 6d 4e 3f fb 96 82 bf
       -0.58685744 -0.7599895 0.80636525 -1.0202326
0003f0 57 ce 10 3f ac cd 47 3d 91 34 95 be 76 d3 8b bf
       0.5656485 0.04878013 -0.29141667 -1.0923908

input.bias f4 [64]
000000 f5 28 89 bd 74 9b 54 3d 35 cd 61 3d 53 4d 2a 3d
       -0.06697265 0.051906064 0.05512734 0.04157765
000010 4b 0a 61 bd ee c2 c2 3d 74 83 a3 3c 07 1e cd bd
       -0.054941457 0.09509836 0.019960143 -0.10015493
000020 9b 81 98 3d b6 9b f9 bc be b0 4a 3d d1 06 ff bc
       0.07446595 -0.030469757 0.04948496 -0.03113118
000030 d8 3d 19 3d 63 84 05 3d 9d 67 60 bd ea c1 9d 3d
       0.037412494 0.032596957 -0.054786313 0.07703002
000040 f9 bd 4b 3c 30 77 bf 3d 98 e5 bc 39 cb 7c 07 bd
       0.01243543 0.09348905 0.00036029215 -0.033077996
000050 44 51 89 bc 7d 7d a8 3d 08 4e a7 3d 9f d2 47 3d
       -0.016762383 0.0822706 0.0816918 0.04878485
000060 a9 b7 73 3d b7 da 4e bd 95 bf c6 3d cd a9 ad 3d
       0.059501324 -0.05050155 0.0970451 0.084796526
000070 37 27 94 bd 20 e5 40 bd 20 94 79 bd 02 fa f6 3c
       -0.07234042 -0.04709351 -0.06093228 0.03014851
000080 02 32 0a bd 8b 19 53 3c c2 29 68 3d d7 05 94 3d
       -0.033739097 0.012884508 0.05668045 0.07227676
000090 33 b7 5f bd 5e 75 0a 3c 8a d1 4c 3d fa 18 53 bd
       -0.05461807 0.008450834 0.05000452 -0.05153749
0000a0 a0 5c c4 3d a0 49 b9 bc ac f2 54 bc 5b 75 98 bd
       0.09587979 -0.022618115 -0.012997311 -0.07444259
0000b0 d4 7b 5d 3c e9 cf 0c 3d 90 bb 3a bd 0e 22 b7 3d
       0.013518292 0.034377966 -0.04558903 0.08942042
0000c0 a0 ab 4f bc 9d 9e be bd ca ca 65 3d b6 68 b2 bd
       -0.012675196 -0.09307597 0.056101598 -0.08711378
0000d0 7a 67 c0 bd 45 57 4b bd 3c 7d 62 bb c9 15 86 bc
       -0.093947366 -0.049643774 -0.0034559509 -0.01636781
0000e0 da 8c c4 3d 4d 39 9f bd ac 39 59 39 14 9a 7f bd
       0.09597178 -0.07774601 0.00020716217 -0.0624028
0000f0 ab 35 3f 3d a3 c4 10 bd eb a9 42 3d 5b a1 d1 3d
       0.04668204 -0.035343777 0.047525328 0.10235854

h1.weight f4 [64, 64]
000000 f8 93 53 3e 29 4a 08 bd 72 2b 3c be 0b 4b 9b be
       0.20661914 -0.03327385 -0.18375948 -0.3033069
000010 84 f6 5b 3e 91 b6 41 3e 38 a9 10 3e 67 50 4e be
       0.21480757 0.189173 0.14127052 -0.20147859
000020 e3 57 57 3e 01 5b 09 3e 57 09 8a be da be 47 be
       0.2102962 0.13413621 -0.2696025 -0.19506398
000030 1f 44 0f 3e 2b 0f 46 3e 84 5b c6 bd a1 61 04 3d
       0.1399083 0.19341724 -0.09685424 0.03231967
000040 7b a0 90 be c5 28 24 be 28 5b 46 be 64 35 03 3e
       -0.28247437 -0.16031177 -0.19370711 0.12813336
000050 93 6b 65 be 9e d5 97 3e 8b b8 c6 3a 7c f8 6a be
       -0.22404318 0.29655164 0.0015161199 -0.22946352
000060 27 fb 1d 3e c8 84 87 be f4 14 9d 3e 51 51 5a 3d
       0.15427838 -0.26468492 0.30680048 0.053300206
000070 ac b0 a7 3d 5a a5 48 3e c4 4f 1d be 8a 61 b9 3d
       0.08187994 0.19594327 -0.1536246 0.09051807
000080 5a 5d 38 3e 8f 58 5b be e8 2f 88 3e 30 09 52 be
       0.18004361 -0.21420501 0.2659905 -0.20511317
000090 cb 3a 5e be 03 1f 40 3e 0d a2 28 be 03 a1 2e be
       -0.21702115 0.1876183 -0.16468067 -0.17053609
0000a0 bb cf 90 bd 51 91 85 3e 2a cd 0a be 14 e3 aa bd
       -0.070708714 0.2608743 -0.13554826 -0.08344093
0000b0 19 f8 4b be de 8c b8 bd 94 5e 89 be 1c 93 21 bd
       -0.1991886 -0.09011243 -0.2682997 -0.039446935
0000c0 46 ce 41 3e a0 f1 81 be 93 26 33 3e d7 63 9b be
       0.18926343 -0.25379658 0.17495184 -0.3034961
0000d0 ac d6 d7 bc 73 f6 e0 3d 38 0b d2 bd 4d 55 57 be
       -0.02634748 0.109845065 -0.10256046 -0.21028633
0000e0 df 3a 3e be 87 05 f0 3c ab ad 9c bd bb ce b8 3d
       -0.18577145 0.02929951 -0.07650312 0.09023806
0000f0 9f 4b fd bd d3 10 75 3e 6f a8 97 3e c2 4a 81 3e
       -0.12367939 0.23932199 0.29620692 0.25252348
000100 ad eb 93 3e ca 86 15 3b 2d 6f 88 3e 0e d9 8d be
       0.28890744 0.0022815936 0.2664732 -0.27704662
000110 3c 7a d6 bb 9d 5f 50 3e 45 15 83 be 7b 22 d5 3d
       -0.006545333 0.20348974 -0.25602165 0.10406967
000120 d4 af 5f 3d 4b 62 58 bc 50 1a c6 3d 73 1e 64 3e
       0.054611042 -0.013207029 0.096729875 0.2227724
000130 c0 bd 5f 3e df 6a 79 3e d0 15 58 be 74 4c 99 3e
       0.21849728 0.24357174 -0.21102071 0.29941142
000140 d7 09 c8 3d d3 83 93 3d 97 01 e1 3c c0 be 21 3d
       0.09767502 0.07202878 0.027466578 0.039488554
000150 79 30 46 bd 64 97 8c be 35 e5 82 be 12 ce 58 3d
       -0.04838607 -0.27459252 -0.25565496 0.0529309
000160 ea 06 bb 3d 38 bc 95 bc 67 c7 53 3d 0d a3 70 3e
       0.09132178 -0.018278226 0.051703837 0.23499699
000170 7a d0 5d 3e 6d 4e 4c bd cf e7 ed 3c 51 15 53 be
       0.21661559 -0.04987948 0.029041199 -0.206136
000180 5a 64 c2 bd d0 fc 84 3e 68 06 51 bd 94 1f ad 3d
       -0.09491797 0.2597413 -0.0510315 0.08453289
000190 f6 f5 c2 3c b0 09 35 3d 53 91 58 be 12 e5 ce bd
       0.023798924 0.04419869 -0.21149187 -0.101022854
0001a0 42 62 c9 bd 4a 83 45 3c 89 ad 69 be 89 0f e6 39
       -0.09833194 0.0120552275 -0.22820105 0.00043880593
0001b0 7b 58 de bd 8f 5d 94 be 2f 49 04 be 70 bd b1 bd
       -0.1085672 -0.2897763 -0.12918542 -0.086787105
0001c0 60 a0 97 3d a7 d3 84 be a4 21 40 be 68 11 cb bd
       0.07403636 -0.25942728 -0.18762833 -0.09915429
0001d0 1b fc 89 3e 63 83 b6 3d c6 58 c0 bd 7c 41 9c 3e
       0.26950154 0.08911779 -0.09391932 0.3051871
0001e0 72 58 9d bd e8 56 24 3d fc ef 00 bd 01 59 f0 bd
       -0.07682885 0.040121943 -0.031478867 -0.11735726
0001f0 f4 46 9a be 2b 39 20 be 71 85 64 3e b8 9b 18 3d
       -0.30132258 -0.15646808 0.22316529 0.03725788
000200 4d b1 6b be 91 82 5e be c2 cc 04 3e b5 a4 86 be
       -0.23016854 -0.21729495 0.12968734 -0.26297536
000210 b2 a8 27 bd f7 04 a8 3c 13 30 21 be 7b b8 20 bd
       -0.040932365 0.02051018 -0.15740995 -0.039238434
000220 44 7d 78 be cf 6d 89 3e e8 0b 8d 3e 13 4a 75 be
       -0.24266535 0.2684159 0.27548146 -0.23954038
000230 5b fb 91 3d 84 6e 9c 3d 84 1e d2 3c fa a8 11 3d
       0.071280204 0.07638267 0.025649317 0.03556154
000240 e4 2a 2a 3e 3a be 0a be df 3e 2c 3e f6 a6 20 3d
       0.16617924 -0.13549128 0.16820858 0.039221726
000250 39 2b 7f 3d 73 c6 51 be c8 e7 63 3e b1 54 60 be
       0.06229708 -0.20485859 0.22256386 -0.21907307
000260 15 35 48 3e 9f d5 95 be 74 7e 0e 3c d9 43 03 3d
       0.19551499 -0.29264542 0.008697141 0.032047126
000270 e1 a5 51 be 9b 4b 6f be c9 5e 44 be f3 63 37 be
       -0.20473434 -0.23368685 -0.19176783 -0.17909221
000280 1d 69 fd 3b 3a fa 87 3e d8 50 63 3e 54 b2 d7 bd
       0.0077334777 0.26558095 0.22198808 -0.1053206
000290 9b ef 61 be 09 d7 63 be 31 e6 86 be 86 b7 29 3e
       -0.22064058 -0.22249998 -0.26347497 0.16573915
0002a0 55 19 73 3e 1d 7f 48 3e 21 32 9c 3e 6f 0a 94 3e
       0.23740132 0.1957974 0.30506995 0.2891421
0002b0 6e fa 87 3e 74 15 6b 3e cc e1 75 be 38 3f 92 be
       0.2655825 0.22957402 -0.24011916 -0.28563857
0002c0 b7 b7 31 3e c5 b1 58 be 94 28 01 bd b4 c8 7d 3e
       0.17355238 -0.21161564 -0.03153284 0.24783593
0002d0 49 b9 94 3e bf df 98 3e 47 a7 7d 3e 2e 13 93 3d
       0.2904761 0.29858205 0.24770842 0.071813926
0002e0 2b 7f 5a bc 76 d3 cc 3b ed c0 6f 3e fe 29 00 be
       -0.013335983 0.006250794 0.23413439 -0.12516019
0002f0 70 85 0b 3e a8 2c f3 3d 5b c6 3a be a1 dc a2 bd
       0.13625121 0.11873752 -0.18239729 -0.07952238
000300 f5 07 8e 3d 0b ae 6f 3e 76 b8 3b 3e 4c ae 15 3e
       0.069351114 0.23406236 0.18332085 0.1461727
000310 3f 6c 15 be 45 96 69 be e0 b3 2d 3e cf b5 9a be
       -0.14592074 -0.2281123 0.16963148 -0.30216834
000320 0e ef db 3d ea 33 e2 3d 29 4e 18 be 6d fc 84 bd
       0.107389554 0.11045058 -0.14873566 -0.06493459
000330 1b a3 e0 3d 6d d7 a1 ba 29 cd 95 3e b0 14 d4 bd
       0.1096861 -0.0012347527 0.29258087 -0.10355508
000340 8f c5 45 3d 13 58 62 3e ce 2a 1d 3e ac e3 95 3e
       0.04828411 0.2210391 0.1534836 0.29275262
000350 de d5 16 3d 20 a0 ca bd 21 ac 9a bd eb 91 04 be
       0.036825053 -0.09893823 -0.07552362 -0.12946288
000360 fe 64 6f be e6 f6 54 be ac 52 8b 3e 4c d8 6f be
       -0.23378369 -0.2079731 0.2721151 -0.23422354
000370 34 3e 87 37 de cb 9b 3d a8 f0 42 bd 8b 5d d7 3b
       1.612222e-05 0.07607244 -0.04759279 0.0065724305
000380 44 b0 f7 3d f5 4e 4c bc b0 c3 18 be d5 d4 28 3e
       0.12094167 -0.012469997 -0.14918399 0.16487439
000390 07 20 cc bd bb 6d 53 3e 89 65 41 3e c3 5e b4 3b
       -0.09967046 0.20647328 0.18886389 0.0055044605
0003a0 22 df 83 bc 8d e8 5c 3e b4 e7 d4 bd ca 2d f6 3d
       -0.016097609 0.21573086 -0.10395756 0.12020452
0003b0 a0 e3 e5 bd a1 1f 93 3e 0a 91 9c 3e 2c e8 61 be
       -0.11225057 0.28735068 0.30579406 -0.22061223
0003c0 7c 45 10 be 3e fb 90 bc 24 e0 4c be b8 2e 1f be
       -0.14089006 -0.017697927 -0.20007378 -0.15545166
0003d0 8f a8 39 3c 90 48 84 3d 68 ec 10 be b3 0b fa bd
       0.011331691 0.06459153 -0.14152682 -0.12209263
0003e0 ac fe 46 be 47 44 02 be 56 04 69 3d 21 f1 ae bd
       -0.19433087 -0.12721358 0.0568889 -0.085420854
0003f0 86 17 8b 3d 16 51 b0 bd 82 db 8f be e0 49 9a be
       0.06791596 -0.08609216 -0.2809716 -0.30134487

h1.bias f4 [64]
000000 31 15 bd 3d ed 9e 86 bc 1d ad 58 3d 86 17 fc bc
       0.092325576 -0.016433204 0.05289947 -0.030772936
000010 fb df 35 bc 67 30 9b 3a 33 bb 74 3d 13 79 b5 3c
       -0.011100764 0.0011839987 0.05974884 0.02215246
000020 69 dd 41 3d 31 ab 1a bc 3e 6c 26 3d 03 e0 b4 3d
       0.047330294 -0.009440229 0.04063057 0.08831789
000030 2d 0f d1 bc 2d 3e c1 3d 27 8a 1d 3d 97 b8 04 bd
       -0.025519932 0.09435687 0.03846183 -0.0324026
000040 83 d9 11 bd 2a c6 af bb 6c e6 18 3c 5c e2 53 3c
       -0.035607826 -0.005364199 0.009332281 0.012932386
000050 7f 45 aa 3d e4 80 81 3d 08 d5 84 3d 0a 47 e2 3c
       0.083140366 0.06323412 0.06485945 0.027621765
000060 6b 16 95 3d a9 0a 1f 3c 1e 03 a8 bd 75 d2 ba bc
       0.072796665 0.009707131 -0.082037196 -0.022805432
000070 21 7e 12 3d dd 97 35 bd b5 61 80 3d e9 a0 b6 bd
       0.035764817 -0.04433428 0.06268636 -0.0891741
000080 32 20 0c bd bf 1a 0c 3d 89 5c bd bd 00 53 23 bd
       -0.03421039 0.034205195 -0.09246165 -0.039874077
000090 f7 8e 91 3a 00 5c 31 bb c5 9f 49 bd 2d 10 39 3d
       0.0011105229 -0.0027062893 -0.049224634 0.045181442
0000a0 a4 f0 c4 3d 47 6c 8d bc f5 10 37 bd 18 11 96 3d
       0.09616211 -0.017263545 -0.044693906 0.07327479
0000b0 e2 45 c7 3d 07 81 68 3d aa 16 da 3c 1a 81 ba bd
       0.09730126 0.056763675 0.026622135 -0.091066554
0000c0 5c 39 8c 3c a9 ed 8b 3d 39 cb a9 bd ac 49 97 bd
       0.017117195 0.068324395 -0.08290715 -0.07387099
0000d0 01 75 b9 bd f3 c2 4c bc 9f 32 9f bd b6 ef 79 3d
       -0.0905552 -0.012497651 -0.07773327 0.06101962
0000e0 e9 1e 6d bd c9 80 55 3d ba e2 00 bd e8 ea 22 bd
       -0.057890806 0.052124772 -0.031466223 -0.039774805
0000f0 c7 4e 31 bd 5b 7c 1f 3d 87 5f fd bc 36 47 bb 3c
       -0.04328802 0.038936954 -0.03092934 0.022861104

h2.weight f4 [64, 64]
000000 d8 f0 5a 3e 1b 76 62 3d b1 22 d5 3b 8b dc 3c bd
       0.21380937 0.055288415 0.0065043797 -0.046108764
000010 de 04 32 bd b5 36 51 3c 98 df 92 bc 71 60 97 3d
       -0.043461673 0.012769391 -0.017928883 0.073914416
000020 a1 34 83 be 14 51 59 be 00 46 69 be 63 5f 30 3e
       -0.2562609 -0.21222335 -0.22780609 0.17223887
000030 e3 e8 fd ba b1 16 86 be 89 04 87 be bc f3 6f be
       -0.0019371774 -0.26189187 -0.26370648 -0.23432821
000040 ed 5f 0f be c4 14 59 3e c7 90 d9 3d 77 6c 6a 3e
       -0.14001437 0.21199328 0.10623317 0.22892939
000050 9d f3 3e 3e 1f 9f 31 3e 13 b7 8e 3e ea c2 78 be
       0.18647619 0.17345856 0.2787405 -0.24293104
000060 7a 44 39 3d ad 43 6e be e4 b9 94 3d 66 83 e7 3c
       0.04523132 -0.23268004 0.07262018 0.028260898
000070 7a 2d 83 be 6f 2b ea 3d d2 9e 4e 3d 78 96 62 3e
       -0.25620633 0.114340656 0.05044443 0.22127712
000080 d7 4b e4 3d b4 09 61 be 9f c8 83 3d 05 a2 79 bd
       0.11147278 -0.21976358 0.0643475 -0.06094553
000090 1f e6 90 be 6c cc 9e bc a5 93 52 3d 74 79 e2 bd
       -0.28300568 -0.019384585 0.051410336 -0.110583216
0000a0 14 84 41 bd 29 8f 19 3e 29 b1 1e 3e dd 24 21 be
       -0.0472451 0.14996018 0.15497269 -0.15736718
0000b0 07 ec 20 be 8a dd 83 be b4 f4 0c bd 63 98 80 3c
       -0.15715037 -0.25754958 -0.034413055 0.015697664
0000c0 ca 1b 76 3d 49 c1 1c be a0 cd 5e be f8 97 3d be
       0.060085095 -0.15308107 -0.21758127 -0.18515003
0000d0 ee 91 4b 3e 1a 9f 41 be 21 c3 82 3e 7e 06 ac bd
       0.19879887 -0.18908349 0.25539497 -0.08399676
0000e0 47 c3 67 3e f6 6d 65 be cc 36 71 be 6f e9 15 3e
       0.22633086 -0.22405228 -0.2355606 0.14639829
0000f0 72 b2 6f 3e c7 44 59 be a0 ff be bd 1b 40 4b 3e
       0.23407915 -0.21217643 -0.093261 0.19848673
000100 62 eb da 3c ca e4 96 3e 35 63 52 3e cc d4 a0 3d
       0.026723567 0.29471427 0.20545657 0.07853088
000110 2c e1 72 be 9f 92 4f 3b 5f db 0d 3e 77 6f 47 3e
       -0.23718709 0.0031673086 0.13853215 0.19476114
000120 93 bc 4e bc 5e db 6f 3e d7 55 73 be 16 9b e7 bd
       -0.012618202 0.23423526 -0.23763214 -0.11308877
000130 50 bd 95 3e c7 e7 91 3e 67 19 13 3e 05 bf 4e 3d
       0.29245996 0.28497145 0.14365159 0.05047514
000140 4c 8c 7a 3e c3 08 1b be 49 72 b2 bc bf 69 62 3d
       0.24467582 -0.15140061 -0.021783011 0.05527663
000150 dd 05 50 3e fd 55 83 be a1 48 22 3e 97 44 22 bd
       0.20314737 -0.2565154 0.15848018 -0.039616194
000160 4a 23 45 3e cb 82 93 be b6 8c 07 3e ff 22 78 3e
       0.19251743 -0.28810725 0.1323727 0.242321
000170 95 82 68 3e 5a 09 90 be dd 72 4f bd 5a b9 5d 3e
       0.22706063 -0.28132135 -0.05064665 0.21652737
000180 7b 2f 0b be 8f 0b 9b be 86 6e a0 bd 4c ee 97 3c
       -0.13592331 -0.30282256 -0.07833581 0.018546246
000190 38 7e 21 be 3a 19 8e be 7d 23 3f be bb 94 9a 3e
       -0.15770805 -0.2775362 -0.18665881 0.30191597
0001a0 9f 7e f5 3d 8b d9 3e bd 06 a5 bb 3d 4f b6 87 3e
       0.11987042 -0.046594184 0.09162335 0.26506278
0001b0 78 8e 0b 3e dc dc 8c 3e a9 3d 6d 3d a3 f3 0d 3e
       0.13628566 0.27512252 0.05792013 0.13862471
0001c0 96 2e bf 3d 3d c1 3e be 82 10 31 be 30 53 45 3d
       0.093350574 -0.18628402 -0.17291453 0.048175037
0001d0 71 3b e2 bd 80 4e 98 bd 11 02 84 be 07 a2 ff 3d
       -0.11046494 -0.07436848 -0.25782827 0.12482076
0001e0 9b a6 e2 3d 98 f1 84 3e d6 17 99 37 57 3a 17 be
       0.11066934 0.2596557 1.825012e-05 -0.14768349
0001f0 0d db 1b be 23 3e d5 3c c3 ec d0 3d fe cc b4 bd
       -0.1522028 0.026030606 0.10201409 -0.08828162
000200 e2 55 93 be 61 96 96 3b 76 40 fe bd ae 6c 9c 3d
       -0.2877646 0.0045955633 -0.12414639 0.076379165
000210 24 33 5f 3e c7 1a 9c bd 8d 9c 70 3e de f2 87 3e
       0.21796852 -0.07622295 0.2349722 0.2655248
000220 4b f3 90 3d 33 bb 8b 3e 7a 58 18 3e c6 13 7e 3e
       0.070776545 0.2729126 0.14877501 0.2481223
000230 b4 dc 98 be 87 1c 44 3e b7 a9 8b be ae 93 05 3d
       -0.29855883 0.19151507 -0.2727792 0.03261154
000240 c2 f1 1b be 54 a2 42 3e 46 45 46 3e b1 f4 32 bd
       -0.15228942 0.19007236 0.19362363 -0.043690387
000250 76 d1 93 3e b8 fe 34 3e c9 36 aa bc b8 ed 15 3e
       0.28870744 0.17675292 -0.020778077 0.14641464
000260 70 9e 80 3e 91 43 89 3e b9 7d 5d be b4 a1 16 3d
       0.25120878 0.26809362 -0.2162999 0.036775306
000270 30 c8 61 3e 30 48 02 bd 4f 9b 3a 3e 4f 43 99 3e
       0.22049022 -0.031807125 0.18223308 0.29934165
000280 d9 3d 23 bd d8 62 61 3e 8b c8 8b bb 47 4b 27 be
       -0.039853904 0.22010362 -0.00426585 -0.1633731
000290 9c 5a 36 be cf c1 f7 bd 47 08 69 3c 91 0a ba bd
       -0.17808002 -0.12097513 0.014223165 -0.09084047
0002a0 40 2b ac 3c d4 0a 3f 3e 34 3f 44 be 68 1a 50 3e
       0.021016717 0.18656474 -0.19164735 0.20322573
0002b0 cd d3 80 bc 78 8b 2e 3e 92 23 44 be f2 fa 59 3e
       -0.015725994 0.1704539 -0.19154194 0.21287134
0002c0 1d 1d da bd 31 0b 63 be c7 90 e5 3c 14 5f 24 3d
       -0.10650084 -0.22172238 0.028023137 0.040129736
0002d0 6e dc 27 3e c6 72 57 3e f8 16 ca bd 84 3d 79 be
       0.16392681 0.21039876 -0.09867662 -0.24339873
0002e0 cb a5 1f 3e 52 bd 60 be 9e 3b 22 be 82 0a 83 3e
       0.15590589 -0.2194722 -0.15843055 0.25593954
0002f0 59 f7 21 be f5 b2 97 3e 2e 9b dd bd 1e ca cc bd
       -0.15817012 0.2962872 -0.10820614 -0.09999488
000300 b0 e6 bf 3b 02 fb 76 be 34 97 7b 3e ce d3 93 be
       0.0058563575 -0.2411919 0.24569398 -0.28872532
000310 c0 9f 15 3e 3d 9c 6b 3e 18 35 60 bd f3 68 50 3c
       0.14611721 0.23008819 -0.054738134 0.012720334
000320 a8 37 00 3e d8 1f 3f bd b1 23 02 be 2c 6e e3 bd
       0.12521231 -0.046661228 -0.12708928 -0.11104998
000330 b0 de 9c 3e e7 27 92 3d 1a a7 16 be d6 13 3e 3e
       0.30638647 0.07136517 -0.14712182 0.18562254
000340 3b 38 3d 3d 5c a5 0a 3e c7 b5 92 bd eb e1 8f be
       0.046196204 0.13539642 -0.071635775 -0.2810205
000350 3c 48 24 3e 8d 5c b3 3d cf ae 1d 3e 11 7d 97 be
       0.1604318 0.08757887 0.15398715 -0.29587606
000360 09 f2 53 3b dc 2b 16 3e 7c 05 06 be 42 1b d5 3c
       0.003234031 0.14665169 -0.1308803 0.026013974
000370 73 45 66 be 4c a6 86 3e 01 e5 e6 3d 8d 1e 18 3e
       -0.2248743 0.2629875 0.11274148 0.14855404
000380 cd 19 b3 3d 63 7a 82 3c 00 07 cb 3d 0e e6 8c 3e
       0.087451555 0.0159275 0.099134445 0.27519268
000390 18 06 b8 3d 9b 5b 74 3d f4 19 84 be 90 9a 90 be
       0.08985537 0.059657674 -0.2580105 -0.28242922
0003a0 84 4f d8 3d 5f 87 6a 3e 33 8d 71 be 3b 1a 0a 3e
       0.105620414 0.22903202 -0.2358902 0.13486569
0003b0 fe e0 85 bd 9f 5f 3e be 2d 2d 87 be 36 f0 41 be
       -0.065370545 -0.18591164 -0.26401654 -0.1893929
0003c0 ef e6 3e 3e 2e ea 63 3d 0e 92 81 3e 42 fc 14 be
       0.18642782 0.055643253 0.25306743 -0.14549354
0003d0 cc 54 69 3d 05 cf e4 3d 0f 5a c1 3d 21 e4 89 3e
       0.056965634 0.11172298 0.094410054 0.2693186
0003e0 5e 7b 74 bd 52 cd c9 bd fc b1 9c be fa ed 8b be
       -0.059687965 -0.09853615 -0.3060454 -0.2733
0003f0 3f 86 4d be cd 53 99 bd a3 a0 8b 3e e6 02 f2 bc
       -0.20070742 -0.07486687 0.27270994 -0.029542398

h2.bias f4 [64]
000000 ae c6 92 bd 8f b5 32 bc 5d d0 53 bd 54 92 d5 bb
       -0.071668014 -0.010907545 -0.051712383 -0.006517688
000010 df b7 c9 bd fa 90 d3 bb 0e 35 c8 bd ca 8f b4 bc
       -0.09849524 -0.0064564915 -0.097757444 -0.02204122
000020 b5 3e b0 3d 19 ab a5 bd e0 da 94 3d a1 7a 9f bb
       0.086057104 -0.08089275 0.072683096 -0.0048669134
000030 a0 35 23 bd c0 9a cd 3d 04 52 03 bd 69 9b 2a 3c
       -0.039846063 0.10039282 -0.032060638 0.010413029
000040 59 ed 50 3d 99 fe 02 bd 4a f7 54 bd cc c7 cb bd
       0.051007602 -0.031981084 -0.051993646 -0.099502176
000050 e4 51 92 bd de e4 a7 bb 84 be e4 3c 81 cc d9 3a
       -0.07144526 -0.0051237186 0.027922876 0.0016616733
000060 e0 b7 34 3d 41 b0 9b bd 3c fb b8 3d 8e 98 1e bd
       0.04412067 -0.07601977 0.09032294 -0.038719706
000070 da 74 c0 bd 94 38 8c bd d0 8e 83 bd 5c 58 9b 3d
       -0.09397288 -0.06846729 -0.06423724 0.075852126
000080 b1 62 bd 3d 1e c1 c9 bd 5b 38 89 bd 60 d4 eb 3b
       0.092473395 -0.09851287 -0.06700202 0.007196948
000090 24 42 87 3d 97 0d 95 bd d6 f8 27 3d f3 5e 75 3c
       0.06604412 -0.07277983 0.041008793 0.014976251
0000a0 88 3b c6 bd 6d 7c 92 bd 63 c9 70 3d 81 75 41 3d
       -0.096793234 -0.071526386 0.058785807 0.0472312
0000b0 01 a5 8e bd 53 09 0c 3c ef 5e 92 bd 8a 97 a6 bd
       -0.06965066 0.008547145 -0.071470134 -0.081343725
0000c0 84 27 c2 bd f8 80 95 3d da e3 8d bd f3 a4 2a bd
       -0.09480193 0.072999895 -0.06928225 -0.041661214
0000d0 32 d2 8b 3d 8d 66 82 bd 7c c3 83 3d 73 3a 88 3d
       0.06827201 -0.06367216 0.0643377 0.06651773
0000e0 17 11 7a 3d 76 84 c3 3c 3a 6e b5 3d a7 31 4e 3c
       0.061051454 0.023866873 0.08858915 0.01258508
0000f0 d6 ee 32 3c 7d 08 c5 bd 28 c7 a6 bd b7 69 99 bd
       0.010921201 -0.0962076 -0.08143455 -0.07490867

h3.weight f4 [16, 64]
000000 ed f9 49 3e 25 75 9f 3d 23 7a 98 be 9d c3 a2 3d
       0.19724245 0.077860154 -0.29780683 0.079474665
000010 f5 91 5d be 7f b1 6a 3e 9c e3 dc bd 16 d6 5c 3e
       -0.2163771 0.22919272 -0.107856005 0.21566042
000020 1c d0 79 be d7 b3 4b 3e ec 3f 81 3e 9d 6f 5d be
       -0.24395794 0.19892822 0.2524408 -0.21624608
000030 29 b1 9d 3d ac bf 7c 3d f4 72 de 3c e0 61 27 3e
       0.07699806 0.06170623 0.027154423 0.1634593
000040 48 dc 4d bd 59 52 00 bd 0a 43 83 3e 82 c8 35 3e
       -0.050258905 -0.031328533 0.25637084 0.17752269
000050 3a 60 78 3e cb e0 f2 3c ee c9 f1 bb cd eb bd 3c
       0.24255458 0.029648205 -0.007378808 0.023183728
000060 a1 d7 e5 3c d2 dd 9c 3e 3c 77 07 3e f6 81 4a 3e
       0.028056921 0.30637985 0.13229078 0.19776139
000070 ff c4 03 3e f5 50 ae bc 0b 00 01 3e d6 e1 83 be
       0.12868117 -0.021278838 0.12597673 -0.25758237
000080 ba a1 a8 3d ad f4 a1 bc 77 1d 81 3d 88 dc 30 3e
       0.08233972 -0.01976999 0.06304448 0.17271626
000090 dc ee 73 3e 09 f7 2e 3e 1f 10 5e be d6 8a 77 be
       0.23821586 0.17086424 -0.21685837 -0.24174055
0000a0 51 9e 3a be dc 3b 29 bd 6f fe 90 3e 44 1e 93 3e
       -0.18224455 -0.041316852 0.28319117 0.28734028
0000b0 72 db 13 3e e2 8a 5c be 31 b9 8c bd 91 35 9b be
       0.1443918 -0.21537355 -0.0687126 -0.30314305
0000c0 90 67 22 be 89 18 c5 3c 4e 0a 8f 3e 32 45 07 be
       -0.15859818 0.02405955 0.2793755 -0.1320999
0000d0 ab bb 84 be 64 a2 55 3c 24 fa 2b bc 30 ed fa bd
       -0.2592443 0.013039205 -0.01049665 -0.12252271
0000e0 2e 3a 90 be 39 51 6e be bb 0d 10 3e e3 b9 fb bd
       -0.28169388 -0.23273171 0.14067738 -0.122913145
0000f0 c3 91 7c 3e 6e 78 d3 3d a4 a0 69 bd 77 35 96 be
       0.24664979 0.103257045 -0.057037964 -0.29337665
000100 a4 4c 26 3e 83 06 5e be 8d 76 80 be a5 61 81 be
       0.16240174 -0.21682172 -0.25090447 -0.2526981
000110 3f 52 91 3c d9 10 d5 bc b0 cb 25 3d db 88 7c 3e
       0.017739413 -0.02600901 0.040477455 0.24661581
000120 62 29 77 be 95 c7 85 3e 33 c8 88 3e e4 06 94 3e
       -0.2413688 0.26128832 0.2671524 0.28911507
000130 fa 5e 93 be dc f7 18 be 3d 5d 88 be 79 be fd bc
       -0.287834 -0.14938301 -0.26633635 -0.030974614
000140 e3 93 41 3e 42 24 3b 3e 8f 99 94 be 67 b0 eb 3d
       0.1890407 0.1827555 -0.29023406 0.115082555
000150 99 49 dd bc 52 27 1b 3e 9b 48 3d be 1c 87 22 3e
       -0.027012633 0.15151718 -0.18484728 0.15871853
000160 75 01 56 be c6 56 60 be 74 84 44 3e 3d 8b 8e be
       -0.20898993 -0.21908101 0.19191152 -0.27840605
000170 65 30 ec bd ad ac 74 be 28 f8 dc bd 6d 9b 96 be
       -0.11532668 -0.23893996 -0.107895195 -0.29415455
000180 17 cd 34 3e f6 ee 98 3e 65 44 a7 bd 0b 09 8d bd
       0.1765636 0.29869813 -0.08167342 -0.068864904
000190 30 e4 15 be 30 9b 94 3e fe f3 70 3e 75 ac 0b 3e
       -0.14637828 0.2902465 0.23530576 0.13640006
0001a0 35 d2 cc bd da 83 27 3e 19 f2 ec bd 0b 9b ce bd
       -0.10001031 0.16358891 -0.11569614 -0.10088166
0001b0 d5 f0 ee bd aa 5c 5d be 04 57 11 3e 43 41 74 3e
       -0.11667029 -0.2161738 0.1419335 0.2385302
0001c0 34 68 b3 bd f8 27 9b 3d f1 08 d6 3d 67 39 75 3e
       -0.087601095 0.07575983 0.10450924 0.23947679
0001d0 cf 13 cb bc 24 c8 0e 3e 28 b6 05 3e 9f e3 01 be
       -0.024789719 0.13943535 0.13057768 -0.12684487
0001e0 d9 7b 65 3e 1a 00 8b bb 9a 2e 87 3d be ee f7 3d
       0.22410525 -0.0042419555 0.066006854 0.12106083
0001f0 15 c0 90 be dd 09 81 3e 7c 53 67 be f7 84 24 be
       -0.28271547 0.25202838 -0.2259044 -0.16066347
000200 c1 10 32 be f2 26 8a bb 8a 5e 1a be 85 63 e3 3d
       -0.17389204 -0.0042160684 -0.15075126 0.11102966
000210 63 05 3b be da 4f 1f 3e ef 96 89 be 0e e2 47 3d
       -0.18263774 0.15557805 -0.26872966 0.048799567
000220 74 c1 9a be bf 3b 3d bd d7 5f 38 be 45 5f 68 be
       -0.30225718 -0.046199556 -0.1800531 -0.22692592
000230 1e 78 9f bd c6 1c 30 3e be 44 94 3e 6c d0 88 3e
       -0.077865824 0.17198476 0.28958696 0.26721513
000240 96 2d 80 3d c7 94 07 3e ef 35 3c 3e f1 9e 82 bd
       0.06258695 0.13240348 0.18379949 -0.06377972
000250 b7 05 80 3d f6 5c f2 3c 3b 26 22 be 7b ef c5 3d
       0.0625109 0.029585343 -0.15834896 0.09664818
000260 cb e0 46 3e 8a 10 49 be 49 40 e6 bd 48 17 f0 3d
       0.19421689 -0.19635215 -0.1124273 0.117231905
000270 9d f7 7c 3d a0 79 de bc b8 c4 9a be 55 65 3e bc
       0.06175958 -0.027157605 -0.3022821 -0.011620839
000280 8e 01 e7 bd 7a 70 62 be 0e 32 74 3e aa 90 91 3e
       -0.112795934 -0.22113219 0.2384722 0.28430682
000290 64 a5 0b 3c 13 9a 7e 3e c5 ac 25 3e 0c fe 56 3d
       0.008523319 0.24863462 0.16179188 0.05248837
0002a0 7a 4b e1 3b f2 11 44 3d 4b 46 5b be 5a 80 85 be
       0.0068754526 0.047868676 -0.21413533 -0.26074487
0002b0 f6 bb 00 3e 35 e4 1b be cb e0 81 be ea d2 9b bd
       0.12571701 -0.15223773 -0.25366816 -0.07608588
0002c0 25 dc 1e be 69 95 80 be 39 7f fa bd ff 2d 40 3e
       -0.15513666 -0.2511399 -0.12231297 0.18767546
0002d0 a7 bd 5d 3d 69 fe 0a be 30 90 80 3e 6c d3 88 3e
       0.054135945 -0.13573612 0.25110006 0.26723802
0002e0 66 33 8e 3e 09 13 92 bd cc 17 a5 bd 0c 43 5e 3d
       0.2777359 -0.07132537 -0.080611795 0.05426316
0002f0 99 c9 d8 bd bf a3 ae bc 21 4c 97 3e d5 b7 44 3e
       -0.10585327 -0.021318315 0.2955027 0.19210751
000300 c2 bf 73 bd db 71 94 3e 37 91 bd bd 05 4c 45 bc
       -0.059509046 0.28993115 -0.09256213 -0.01204205
000310 4d 8b eb bd 09 9c ff bd 7d 77 57 3d 3b 8c 21 3e
       -0.11501179 -0.12480933 0.052604187 0.1577615
000320 43 c2 8d be a2 93 e4 bc 22 f7 99 3e 8b bd 95 3e
       -0.27687272 -0.027902428 0.3007136 0.29246172
000330 80 68 cd bc 85 c0 4c 3e 96 f3 38 be db b4 8e 3e
       -0.025074244 0.19995315 -0.1806167 0.27872357
000340 89 e8 09 be d4 f1 74 be 55 a1 30 be 92 22 8f be
       -0.13467611 -0.23920375 -0.17249043 -0.27956063
000350 ae 8a ea 3d 5e 7d 33 3b 50 80 9a 3d 97 5c 22 be
       0.11452232 0.0027387957 0.07544005 -0.15855633
000360 2b f1 6d be 04 ad 8c 3e 3c 47 41 bd 1d 77 6d be
       -0.2323653 0.2747575 -0.047187075 -0.2318997
000370 67 f5 02 3e 54 04 79 be 80 36 29 bd ac 35 50 be
       0.12788926 -0.24318057 -0.04131174 -0.20332974
000380 19 31 c9 3d 7a 5e 9b be 19 bb 6e 3e fd 38 c4 3c
       0.09823818 -0.30345517 0.2331356 0.023952955
000390 87 7b d9 3d 9b 1d 8d 3e cf 64 95 3e 8e f9 65 3e
       0.10619264 0.2756165 0.29178473 0.22458479
0003a0 87 b5 a3 bd e8 bb 07 be e5 4f 8d be 57 01 2f be
       -0.07993608 -0.13255274 -0.27600017 -0.17090355
0003b0 7d ed b1 3b 97 ac 9d bd 98 b6 77 3e 8a 84 8d 3e
       0.005429922 -0.076989345 0.24190748 0.27640182
0003c0 28 0a 85 3e 34 31 79 be 72 63 32 be 0a c1 a2 bd
       0.2598431 -0.24335176 -0.17420748 -0.079469755
0003d0 2c a7 99 be 46 d6 a9 bd 61 b1 9a be 4c 15 90 3e
       -0.30010355 -0.082928225 -0.30213454 0.28141248
0003e0 fe f4 8e 3e 29 e5 12 3e 35 91 0a 3e d3 97 30 bd
       0.2792129 0.1434523 0.13531955 -0.04311354
0003f0 99 16 90 3d 11 3f 01 be 5f cb bb 3d 19 ce 6e bd
       0.0703556 -0.12621714 0.09169649 -0.05830202

h3.bias f4 [16]
000000 4e 15 ab 3d 01 26 c9 3c 51 3b 7d bd a7 c3 c2 bd
       0.08353673 0.024554254 -0.061824147 -0.09509974
000010 f5 5f 3a bc 02 f2 8c 3d c2 5f a7 bd 3b a7 87 3d
       -0.011375417 0.06882097 -0.08172561 0.066236936
000020 aa 63 ba bd 17 38 b4 3d 02 0d d8 bc 04 9c 36 3d
       -0.09101041 0.08799761 -0.02637339 0.04458238
000030 31 d6 01 bd 00 64 26 bc 9c 20 9c 3c c8 0d 99 bd
       -0.03169841 -0.010155678 0.019058518 -0.07473332
