weights/weights_1/w_0.09.pth (torch, 3700 bytes, 8 tensors)

input.weight f4 [8, 4]
00000000: 5e09 653f f12a d33e 714c 743e bd14 c7be
00000010: 1341 34bf 029b 173e 47e4 0d3f 9ffd ef3d
00000020: bb99 073f e689 2f3f 732d 0fbf 5331 293f
00000030: b7c0 c53e baf4 943f 00e1 433f 788f af3f
00000040: b188 37bf 2c31 183e 714e abbf 7fb4 8ebe
00000050: ffaa 483f 68c4 64bc caca 89bf 2cfa 2a3e
00000060: b6b5 a2bf 04fd ea3e c79d 65bf aca5 443f
00000070: 6e38 c63d bd35 ee3e f2ce c2be 5616 0fbe
0.8946742 0.412437 0.23857285 -0.3888301 -0.70411795 0.14805225 0.5542645 0.11718296
0.5296895 0.6856979 -0.55928725 0.6609089 0.38623592 1.1637185 0.765152 1.3715658
-0.7169295 0.14862508 -1.3383313 -0.27872083 0.7838592 -0.0139628425 -1.0765011 0.16696995
-1.2711704 0.4589616 -0.89693874 0.76815295 0.09678732 0.46525374 -0.38048512 -0.13973364

input.bias f4 [8]
00000000: f3aa d5bd 0ee3 513d c534 c73e ecc8 8b3e
00000010: 34e4 01bf bfb0 97be 0bc8 f9bd 6eb6 ac3d
-0.104329966 0.051241927 0.38907447 0.2730173 -0.50738835 -0.29627034 -0.12196358 0.08433233

h1.weight f4 [8, 8]
00000000: 6f88 21bf b518 1c3e 328f 46be ceb0 47bf
00000010: 78f8 223e 9e53 473f 30fb 15be 24b7 10bd
00000020: 362a 3ebf ed98 0bbf d9ad a63d 6077 26bf
00000030: 57bc 7a3f 6ea5 79be 1f57 9e3e 512a 9cbf
00000040: 9808 87bf 1760 cabf f95e 72bf afbe edbf
00000050: 44ac 7f3f 6a61 833f dadd a53f 7a82 513f
00000060: e79a 72bd 8eb2 a43e 7bfd eabd 556d 31bf
00000070: 2ec7 db3d 7c1c 4f3e ee2e b6bc 0722 3cbe
00000080: d498 31bf ec5b 2abf a01e 243f 3f1b 67bf
00000090: ad84 6c3e 1b26 55bf 4507 373e 87ce 7dbf
000000a0: 1acf 84be e277 f3be a032 3ebd f223 43bf
000000b0: 3b63 d93f be46 eabe b743 3d3f ba87 823d
000000c0: f0ca ac3e b0f4 093e 0387 95be 98d6 723f
000000d0: 6830 1e3f 5200 22be 593a dfbe f892 29be
000000e0: 63b5 19bf 0265 4abf 9a9e 5c3d e8cb 59be
000000f0: 9137 5b3f c67d 2cbf c315 1b3f 5787 813e
-0.63098806 0.152438 -0.19390562 -0.7800416 0.15915096 0.77861965 -0.14646602 -0.035330907
-0.7428316 -0.5453022 0.081386276 -0.650259 0.97943634 -0.24379513 0.30925843 -1.2200414
-1.0549498 -1.5810574 -0.94676167 -1.8573817 0.9987223 1.0264103 1.2958329 0.81839716
-0.059229758 0.32167476 -0.11474129 -0.6930745 0.1073135 0.2022571 -0.022239175 -0.18372355
-0.6937382 -0.6654651 0.6410923 -0.9027595 0.23097487 -0.8326127 0.17873867 -0.9914326
-0.25939256 -0.475524 -0.046435 -0.76226723 1.6983408 -0.45757097 0.7393145 0.06373544
0.3374858 0.13472247 -0.29204568 0.94858694 0.6179261 -0.15820435 -0.43599203 -0.1655997
-0.600424 -0.79060376 0.05386219 -0.2126919 0.8563166 -0.67379415 0.6058008 0.2529857

h1.bias f4 [8]
00000000: ec9c d0be f332 e0be 0538 efbf 8d79 4fbd
00000010: 7621 4bbf 4dc8 5cbf fd5f c23e 9abb c2bc
-0.40744722 -0.4378887 -1.8688971 -0.05065303 -0.7934793 -0.86243135 0.37963858 -0.023771096

h2.weight f4 [8, 8]
00000000: 4308 223e 7e7a 9c3e cc33 793d fcda 1e3f
00000010: a296 a0bf 2bf7 013e dffd 19bf db8f 073e
00000020: e5d9 22bf 6cbf 563f 1fe8 82be 5837 233e
00000030: 3737 d0bd 6c2c 41bf 9371 643f f5fc d4bb
00000040: 0b3b d53d 2f23 4dbf 77ad 8f3e 8c22 2fbf
00000050: 4d33 45be aba5 cf3d a091 01bf bc97 463f
00000060: 78b8 34bf b06c 3d3e fa63 a43e c4c3 1bbf
00000070: d56e 7dbd 7710 50bf 5d73 5cbf 96b9 1e3f
00000080: cb31 30bf aa54 8ebe 9ab2 31be 7921 4e3f
00000090: 1235 9abe f82d a53f 5576 1cbf f960 8d3e
000000a0: 7e35 64bd e280 5e3f 1154 8e3e c3bc a5be
000000b0: b8c4 833f b28b 1b3f 99c1 af3f 593e 72bb
000000c0: e4fd e9bf 4caf 2fbc 1068 a9be 93f4 3b3f
000000d0: dac7 b8be 9a5a ef3e 28a2 e03e 9c08 cd3d
000000e0: f6cd 6e3e 38f8 d5be 125d 9cbe 3295 86be
000000f0: b2f0 593e f6b9 6e3f dfd9 143f da88 3abf
0.15823464 0.30562204 0.060840413 0.62052894 -1.254597 0.12691943 -0.60153 0.1323847
-0.6361373 0.83885837 -0.2556772 0.1593908 -0.101667814 -0.7545841 0.892358 -0.0064998814
0.10411652 -0.8013181 0.2806203 -0.6841209 -0.19257851 0.101390205 -0.5061283 0.7757528
-0.70593977 0.18498492 0.32107526 -0.6084559 -0.061873276 -0.81275123 -0.8611353 0.6200193
-0.6882598 -0.2779897 -0.17353287 0.80519825 -0.30118614 1.2904654 -0.6111806 0.27613047
-0.055715077 0.8691541 0.27798513 -0.32370576 1.0294409 0.60760033 1.3730956 -0.0036963432
-1.8280606 -0.010722946 -0.33087206 0.73420066 -0.36089975 0.4674881 0.43873715 0.10011408
0.23320755 -0.41790938 -0.30539757 -0.26285702 0.21283224 0.93252504 0.58144945 -0.7286507

h2.bias f4 [8]
00000000: 2736 64bf 59c9 17c0 9af1 1eba 8007 b9bb
00000010: 7bdd 0340 0572 993f b315 2c3f 95a6 bb3f
-0.8914513 -2.3716643 -0.0006063223 -0.005646646 2.060393 1.1987921 0.6722061 1.4660212

h3.weight f4 [4, 8]
00000000: 1bea 833e 195e ffbe edc9 113f b2c7 a5be
00000010: 69a2 ef3d 843e 023e d734 afbf 3e3a 73bf
00000020: 5b39 febc ea8a 5bbf db27 16bf 99a7 bcbe
00000030: 9a68 c23f cb8c 0a3f 1bac 8b3f 2c17 a23f
00000040: 2b6c 063f 4f40 25bf c207 3e3e 8103 523f
00000050: a0f5 883f 9761 a2bf b46f dc3e 36d1 12bf
00000060: a6cf 97be 66b9 45bf bd40 e73e cef2 833e
00000070: 6a3e 29bf baff cfbf c887 e3be 27dc 00c0
0.25764546 -0.49876478 0.5694874 -0.32378918 0.11700899 0.1271916 -1.3688 -0.95010746
-0.031033209 -0.8575884 -0.58654565 -0.36846617 1.5188172 0.54121083 1.0911897 1.2663321
0.525088 -0.6455125 0.18557647 0.82036597 1.0699959 -1.2686032 0.43053973 -0.5735048
-0.2965061 -0.7723602 0.4516658 0.25771183 -0.6611086 -1.6249917 -0.4443953 -2.013437

h3.bias f4 [4]
00000000: afd3 21bf 7ecf 933f 1e16 81bd bafc 89bf
-0.6321363 1.1547697 -0.06303047 -1.0780251
