weights/weights_1/w_0.07.pth (torch, 3700 bytes, 8 tensors)

input.weight f4 [8, 4]
14.353283 14.74984 14.977021 14.739964 -31.503845 -27.679127 -30.89268 -30.888103
8.045105 9.677037 8.458444 9.9008 37.841488 34.937702 35.857494 34.790474
-42.763374 -40.942516 -42.47398 -42.232468 -9.28508 -9.557367 -9.5556135 -10.673005
-13.388803 -15.561359 -15.631463 -16.249216 32.74332 30.94436 31.146828 32.586765
00000000: 0ca7 6541 58ff 6b41 e1a1 6f41 e4d6 6b41
00000010: e007 fcc1 da6e ddc1 3524 f7c1 d61a f7c1
00000020: c0b8 0041 25d5 1a41 c955 0741 ad69 1e41
00000030: af5d 1742 35c0 0b42 136e 0f42 7229 0b42
00000040: b20d 2bc2 23c5 23c2 5be5 29c2 0cee 28c2
00000050: b08f 14c1 faea 18c1 cbe3 18c1 a1c4 2ac1
00000060: 8938 56c1 54fb 78c1 791a 7ac1 65fe 81c1
00000070: 29f9 0242 0d8e f741 b42c f941 d958 0242

input.bias f4 [8]
14.875746 -29.899656 9.164097 36.365974 -42.344128 -9.708133 -15.008868 31.957869
00000000: 0e03 6e41 7f32 efc1 24a0 1241 c276 1142
00000010: 6360 29c2 8354 1bc1 5324 70c1 b7a9 ff41

h1.weight f4 [8, 8]
0.27465424 1.2889525 -0.4252493 0.31996307 -0.8044653 -0.14467345 0.92436713 -0.44886467
32.842026 -45.979485 25.161499 47.25166 -54.16169 -25.292759 -27.492384 45.84311
-0.6679396 0.7683612 -1.1953003 -0.10454238 0.25100195 0.476223 0.25823736 0.6368008
8.18561 -9.775935 6.6868596 15.817234 -30.934454 -6.087633 -5.564268 22.286264
9.072752 -11.577365 7.1752076 18.302208 -33.779335 -7.028054 -6.3249345 23.57581
20.855806 -37.05277 15.743981 37.558308 -49.548874 -15.242782 -16.939411 38.010147
21.597773 -37.44679 13.961134 37.09259 -51.40724 -15.00891 -16.6755 38.983032
0.46364287 0.4114926 0.7440188 -0.7151496 -0.520327 0.73006934 0.630717 0.1369275
00000000: 7b9f 8c3e 65fc a43f 47ba d9be 33d2 a33e
00000010: 70f1 4dbf 4725 14be 53a3 6c3f 97d1 e5be
00000020: 3c5e 0342 feea 37c2 c04a c941 b301 3d42
00000030: 92a5 58c2 9257 cac1 67f0 dbc1 585f 3742
00000040: 17fe 2abf 52b3 443f 9aff 98bf 511a d6bd
00000050: 5483 803e 80d3 f33e b037 843e 6105 233f
00000060: 42f8 0241 3b6a 1cc1 c1fa d540 6413 7d41
00000070: c379 f7c1 e4cd c2c0 7c0e b2c0 454a b241
00000080: fe29 1141 e33c 39c1 4d9b e540 ec6a 9241
00000090: 0a1e 07c2 d2e5 e0c0 dd65 cac0 429b bc41
000000a0: b1d8 a641 0936 14c2 59e7 7b41 b53b 1642
000000b0: 0c32 46c2 6fe2 73c1 ea83 87c1 640a 1842
000000c0: 3dc8 ac41 83c9 15c2 ce60 5f41 d05e 1442
000000d0: 04a1 4dc2 7f24 70c1 6d67 85c1 a0ee 1b42
000000e0: 9962 ed3e 28af d23e 0478 3e3f 0b14 37bf
000000f0: 2634 05bf d3e5 3a3f ab76 213f b936 0c3e

h1.bias f4 [8]
-0.6739627 5.1497 -0.45355162 2.1871855 2.2978933 4.4071174 3.663141 -0.086532034
00000000: d288 2cbf 58ca a440 eb37 e8be d9fa 0b40
00000010: af10 1340 1b07 8d40 e770 6a40 b537 b1bd

h2.weight f4 [8, 8]
1.0888598 44.408886 -0.3234038 13.755876 12.957225 24.640532 28.949545 -0.7639514
-0.6556879 59.2671 -0.5018926 39.992783 40.647087 50.75572 52.23148 -0.123824395
-0.1735617 -0.004082351 -0.5817035 -0.15015078 -0.103153 -0.856563 -0.64274514 0.66675603
-0.057860233 27.292316 0.03799583 6.6170096 5.9720097 10.820655 12.077566 -0.76403236
-0.13566282 -0.24847399 0.10138143 -1.2802691 -1.6185889 -0.0323589 -0.5469821 0.5914535
-0.75614196 0.11424585 0.8087785 -0.84177494 -0.81841993 -0.79633695 -0.42576063 -0.08792184
1.0796005 33.870438 1.225495 8.598506 7.897916 13.614365 18.074738 0.49194306
0.6343955 -0.782708 -0.1810822 -0.43939912 -0.32586312 0.25224125 -0.048343487 0.37608576
00000000: c25f 8b3f b3a2 3142 2f95 a5be 1118 5c41
00000010: cb50 4f41 cf1f c541 ab98 e741 5292 43bf
00000020: 2adb 27bf 8311 6d42 097c 00bf 9cf8 1f42
00000030: 9e96 2242 db05 4b42 09ed 5042 a597 fdbd
00000040: 29ba 31be 3ec5 85bb 85ea 14bf 20c1 19be
00000050: e141 d3bd b647 5bbf f28a 24bf 86b0 2a3f
00000060: dafe 6cbd aa56 da41 84a1 1b3d 8bbe d340
00000070: b41a bf40 6721 2d41 b63d 4141 a097 43bf
00000080: 32eb 0abe f76f 7ebe 11a1 cf3d dcdf a3bf
00000090: ec2d cfbf c48a 04bd 0507 0cbf 7f69 173f
000000a0: 8592 41bf baf9 e93d 1c0c 4f3f 907e 57bf
000000b0: f883 51bf bddc 4bbf 4cfd d9be 5e10 b4bd
000000c0: 5930 8a3f 547b 0742 05dd 9c3f 7b93 0941
000000d0: babb fc40 70d4 5941 1099 9041 f6df fb3e
000000e0: be67 223f 8d5f 48bf 9d6d 39be ecf8 e0be
000000f0: 88d7 a6be c425 813e d203 46bd 508e c03e

h2.bias f4 [8]
1.944187 6.05342 -0.025594307 1.5443977 -0.8218683 -0.06997203 1.3444347 0.035678543
00000000: 1fdb f83f 9eb5 c140 27ab d1bc d3ae c53f
00000010: f665 52bf 7f4d 8fbd 7016 ac3f aa23 123d

h3.weight f4 [4, 8]
-1.2422101 -0.2694395 0.37097073 -1.1570162 0.10668519 -0.5785094 -0.033233922 -0.0017947974
29.629446 61.406406 0.08460944 13.227723 0.29426712 0.7573288 18.01812 -0.027060403
19.534115 39.141212 -0.8506977 8.852859 0.36235455 0.7624599 12.794507 0.54824066
-0.81271374 0.38963765 -0.65017223 -0.48095647 -0.5263402 0.54693806 -0.6350123 0.27916807
00000000: be00 9fbf f9f3 89be e0ef bd3e 1b19 94bf
00000010: c47d da3d 3119 14bf 4b20 08bd 683f ebba
00000020: 1b09 ed41 29a0 7542 b747 ad3d c1a4 5341
00000030: 2eaa 963e 4de0 413f 1c25 9041 c7ad ddbc
00000040: de45 9c41 9a90 1c42 53c7 59bf 4fa5 0d41
00000050: 8986 b93e 9230 433f 4db6 4c41 8059 0c3f
00000060: 020e 50bf 967e c73e b071 26bf ed3f f6be
00000070: 3bbe 06bf 2204 0c3f 2b90 22bf 1eef 8e3e

h3.bias f4 [4]
-0.7784924 1.2823132 1.4594185 -0.5071435
00000000: 474b 47bf d722 a43f 3ace ba3f 28d4 01bf
