weights/weights_LF=4_dense/w=0.48_4.pth (torch, 38796 bytes, 8 tensors)

input.weight f4 [64, 4]
0.5523257 0.7266751 0.007294714 8.98289 0.750727 0.97790927 1.7318895 -4.687569
-1.4482726 -3.4637582 -1.3563297 8.461587 1.079828 0.2036225 -0.15105219 -4.9410634
1.924338 2.603756 1.3141932 -8.784076 -1.0281695 -0.19452842 0.06972998 8.117996
-0.80916864 -1.8468976 -0.801662 4.8834577 -2.2893212 -2.8188627 -3.5355 -4.701916
-4.003467 -3.844641 -3.485868 -6.761224 0.34391302 -0.12124315 0.9393962 -9.316486
4.810558 6.589631 7.084406 -8.517197 2.0975084 3.3776407 3.3233533 8.243898
0.50605786 -0.16290693 0.11441308 -4.8202796 1.413126 -0.07776559 0.35685313 7.77705
0.89688283 0.92342514 -0.039380293 -9.588422 -2.2130942 -1.6336825 -1.570557 8.98016
-0.49274394 2.3919315 2.2491403 -11.05721 0.48801905 -0.2733961 -1.5677453 9.814135
0.542658 2.6385798 2.478726 -9.5077305 2.7975535 2.0930746 2.226679 7.9095984
4.068615 4.3348155 5.8702154 -5.355126 -1.6240389 -0.5416062 -1.1260506 -1.50211
-3.1557035 -2.5317464 -3.9552443 9.658789 0.04808577 1.5687922 2.075084 -9.344114
-5.4278016 -4.8624616 -7.536117 2.625387 -3.0343015 -2.4709346 -1.6918315 -8.477609
7.864992 6.3017106 8.506489 0.7832068 -2.1304164 -6.441208 -5.469953 10.338641
-3.2677138 -2.916999 -2.7920303 -7.9014654 -1.8733574 -3.1073468 -1.8259505 -8.296096
2.8807225 2.650228 3.3531165 -6.6303306 -0.51451254 -1.7830963 -1.0700005 6.4616694
-2.6643665 -2.97966 -1.9531088 9.305283 -1.1185971 -2.8770933 -0.5868025 7.991192
4.0184226 4.273777 5.592995 -3.8444598 0.060581084 -1.1427853 -1.9286051 8.828959
-2.5645597 -1.7512137 -2.688884 -8.485733 -3.5812788 -2.6859186 -4.2307405 9.955165
0.5005361 -1.0271589 -0.062029786 5.877264 -1.3637702 -1.249332 -2.0155976 -9.479857
0.304616 1.5226606 1.201282 -4.548479 0.8511711 1.5954126 1.384805 1.2601178
-0.12915449 -2.2842443 -0.9065117 7.360273 -0.23513299 1.4306532 0.637282 -0.08064851
0.83877003 -0.36308575 -2.1842337 5.390535 2.6724222 0.41326633 1.3644695 7.6263385
0.28025177 0.6021352 0.32144532 6.694963 0.37862593 0.5704022 0.65137535 -6.3334928
-1.9194007 -1.2047019 -1.8117663 7.726868 -1.4652528 -0.3357162 -1.361787 -1.4744362
-1.6516683 -0.7520632 -2.2458498 -4.2941923 2.6294775 4.46772 5.1221404 -8.436205
-0.16436109 1.9682814 1.2045963 -7.5119696 1.409792 2.7990646 2.5279958 -8.970036
-1.1455249 -0.49002662 -0.73214346 0.4275395 -0.82830304 1.7176512 1.0926481 -3.980721
-0.07969949 -3.3005073 -2.1951766 9.319859 0.35369003 1.1395354 0.91628164 -7.710875
-0.34739006 1.0871772 0.61151695 -7.215261 -2.2958677 -3.4102612 -3.9269664 8.822277
-0.5186975 1.0422827 1.5260133 -0.2418812 -0.59533596 -0.4924102 0.74078023 7.076218
-6.0154185 -5.6699367 -7.7158613 0.34248358 1.3381848 0.92727023 -0.65164644 -7.8618913
00000000: 3865 0d3f 6107 3a3f 7f08 ef3b ebb9 0f41
00000010: a52f 403f 4358 7a3f 8eae dd3f 9100 96c0
00000020: ff60 b9bf 37ae 5dc0 369c adbf a962 0741
00000030: ce37 8a3f 6b82 503e 6dad 1abe 311d 9ec0
00000040: b550 f63f f0a3 2640 7c37 a83f 938b 0cc1
00000050: 0f9b 83bf 7532 47be 97ce 8e3d 50e3 0141
00000060: ad25 4fbf 2467 ecbf b939 4dbf 4945 9c40
00000070: 3d84 12c0 3f68 34c0 a245 62c0 1976 96c0
00000080: 671c 80c0 990e 76c0 7618 5fc0 f25b d8c0
00000090: 5e15 b03e 544e f8bd 457c 703f 5410 15c1
000000a0: 17f0 9940 42de d240 74b3 e240 7046 08c1
000000b0: 943d 0640 442b 5840 d2b1 5440 02e7 0341
000000c0: 028d 013f 13d1 26be 6851 ea3d bb3f 9ac0
000000d0: 50e1 b43f 9143 9fbd 74b5 b63e 98dd f840
000000e0: 1d9a 653f 9765 6c3f 3b4d 21bd 2d6a 19c1
000000f0: 56a3 0dc0 821c d1bf 0308 c9bf bcae 0f41
00000100: ef48 fcbe 6815 1940 eaf1 0f40 55ea 30c1
00000110: a2dd f93e 93fa 8bbe e1ab c8bf b206 1d41
00000120: a2eb 0a3f 7ede 2840 72a3 1e40 aa1f 18c1
00000130: 1e0b 3340 eff4 0540 e981 0e40 6e1b fd40
00000140: 1832 8240 cfb6 8a40 ced8 bb40 315d abc0
00000150: 82e0 cfbf b4a6 0abf 6d22 90bf 2445 c0bf
00000160: 0cf7 49c0 2208 22c0 b922 7dc0 668a 1a41
00000170: 96f5 443d 2fce c83f 2dce 0440 7e81 15c1
00000180: 8db0 adc0 4999 9bc0 df27 f1c0 5706 2840
00000190: ff31 42c0 cb23 1ec0 ef8d d8bf 49a4 07c1
000001a0: 04ae fb40 9da7 c940 941a 0841 3e80 483f
000001b0: be58 08c0 601e cec0 db09 afc0 136b 2541
000001c0: 3922 51c0 1db0 3ac0 a0b0 32c0 ced8 fcc0
000001d0: 2dca efbf c5de 46c0 bfb8 e9bf cfbc 04c1
000001e0: c25d 3840 569d 2940 7699 5640 ab2b d4c0
000001f0: 18b7 03bf 803c e4bf c7f5 88bf ffc5 ce40
00000200: fb84 2ac0 c0b2 3ec0 78ff f9bf 70e2 1441
00000210: 312e 8fbf 4c22 38c0 b038 16bf d8b7 ff40
00000220: eb96 8040 c8c2 8840 d1f9 b240 a10b 76c0
00000230: df23 783d ca46 92bf 88dc f6bf 6b43 0d41
00000240: bf21 24c0 c527 e0bf ad16 2cc0 90c5 07c1
00000250: ac33 65c0 17e6 2bc0 3a62 87c0 5b48 1f41
00000260: 2223 003f f179 83bf f212 7ebd 8c12 bc40
00000270: 0690 aebf 1cea 9fbf 8dff 00c0 7fad 17c1
00000280: a1f6 9b3e 8be6 c23f 9cc3 993f 248d 91c0
00000290: 59e6 593f 7b36 cc3f 4a41 b13f 8a4b a13f
000002a0: 1341 04be 0f31 12c0 2711 68bf 5b87 eb40
000002b0: b4c6 70be a51f b73f ea24 233f 0c2b a5bd
000002c0: a2b9 563f 60e6 b9be 7cca 0bc0 437f ac40
000002d0: f708 2b40 a597 d33e f0a6 ae3f f70a f440
000002e0: 297d 8f3e 8825 1a3f 7b94 a43e 233d d640
000002f0: 42db c13e e105 123f 89c0 263f f9ab cac0
00000300: ecae f5bf ac33 9abf f5e7 e7bf 8142 f740
00000310: 678d bbbf fee2 abbe 094f aebf 53ba bcbf
00000320: de69 d3bf 3787 40bf 01bc 0fc0 066a 89c0
00000330: 5c49 2840 90f7 8e40 93e8 a340 b2fa 06c1
00000340: 464e 28be a5f0 fb3f 3630 9a3f 0e62 f0c0
00000350: 1074 b43f e023 3340 afca 2140 4485 0fc1
00000360: 8fa0 92bf c5e4 fabe c16d 3bbf 75e6 da3e
00000370: ab0b 54bf ffdb db3f e5db 8b3f 22c4 7ec0
00000380: 7c39 a3bd 833b 53c0 c67d 0cc0 241e 1541
00000390: dc16 b53e 4cdc 913f 6f91 6a3f 7dbf f6c0
000003a0: 1cdd b1be 9f28 8b3f 608c 1c3f 6be3 e6c0
000003b0: 7fef 12c0 b841 5ac0 6b53 7bc0 0c28 0d41
000003c0: 5cc9 04bf 8569 853f 6754 c33f b5af 77be
000003d0: f067 18bf 311d fcbe c6a3 3d3f 6170 e240
000003e0: 4f7e c0c0 1f70 b5c0 56e8 f6c0 025a af3e
000003f0: a449 ab3f 9561 6d3f 4dd2 26bf 9d94 fbc0

input.bias f4 [64]
2.7401764 0.21681343 0.40616444 -1.2318573 -1.0913386 1.6265514 -0.12731378 -3.8219297
-4.359956 -1.6888555 2.1265824 4.592748 -1.4903649 1.7962583 -1.8838378 1.1632305
-1.5947125 1.792085 -1.2952249 3.8143055 2.0015802 -0.9326455 -0.09421361 -1.8131721
-3.7321732 -4.5890517 6.076045 -0.43196544 -5.2342825 -4.152789 0.12724705 0.5652365
0.70538473 1.3592583 2.2487893 1.6409872 -3.7531612 -0.1727747 1.8639212 -3.4521623
-0.012905559 1.3474965 1.1858805 0.18884577 1.2962588 2.1928766 2.025318 -2.1210332
0.55999005 -1.0398593 -2.1858685 0.56504613 -1.538902 -1.3412842 0.17066891 -0.22926538
1.1267301 -0.82903796 -0.77994096 0.09831515 0.43131828 2.2888587 -5.095246 -1.5453765
00000000: 0d5f 2f40 5704 5e3e c9f4 cf3e 80ad 9dbf
00000010: fcb0 8bbf d632 d03f 8b5e 02be 7f9a 74c0
00000020: c284 8bc0 6b2c d8bf ed19 0840 cbf7 9240
00000030: 47c4 bebf cbeb e53f 9921 f1bf bde4 943f
00000040: 8a1f ccbf 0b63 e53f eec9 a5bf 951d 7440
00000050: e419 0040 dbc1 6ebf 11f3 c0bd 0616 e8bf
00000060: eddb 6ec0 83d9 92c0 f66e c240 932a ddbe
00000070: 3e7f a7c0 a6e3 84c0 0d4d 023e 57b3 103f
00000080: 1894 343f 2dfc ad3f 2aec 0f40 de0b d23f
00000090: cb33 70c0 daeb 30be f894 ee3f 3af0 5cc0
000000a0: d671 53bc c47a ac3f efca 973f c960 413e
000000b0: cfeb a53f 1758 0c40 cf9e 0140 02bf 07c0
000000c0: 825b 0f3f 1c1a 85bf 45e5 0bc0 dda6 103f
000000d0: befa c4bf 33af abbf d5c3 2e3e 8bc4 6abe
000000e0: b138 903f d53b 54bf 36aa 47bf 7459 c93d
000000f0: c0d5 dc3e a97c 1240 410c a3c0 e6ce c5bf

h1.weight f4 [64, 64]
-0.7519829 0.82778686 -3.1573312 -0.17989153 2.0438302 0.9415982 -1.0990762 -1.3370687
-2.2193954 1.046856 4.476273 1.0508704 -0.838049 0.045512717 -0.80781275 -1.3692572
2.0225616 -1.4980841 1.290399 2.5501342 7.6263065 -1.2727534 -4.325337 -0.5806215
-2.2882702 -3.8015857 0.49661127 -5.2560563 -5.736554 -2.6560495 2.074746 -1.4956876
-3.965306 -1.262091 0.7203704 0.36222637 -2.5546792 -4.013015 1.1562561 -0.3439142
1.2971809 1.2974333 0.025657322 3.8534303 0.16953616 0.085371196 0.31746048 -0.3445948
-0.30418414 -0.7726514 -0.40820852 4.6977844 0.49637154 2.785983 -3.9569826 -0.55669284
-1.018378 0.3549491 1.1245294 -3.6425962 2.3690782 -0.19389336 -1.1852579 0.0066187507
3.5040727 0.20803918 -1.8748484 -1.1551732 0.92425066 0.24812211 -0.028665928 -2.5693467
-2.054297 -4.0646915 -0.85701597 3.6675718 -2.1922503 5.021374 -2.3244576 -0.1116324
-1.0312772 2.2922652 -3.456247 1.7316039 -1.9484015 -0.07046014 -0.8768009 -1.6253229
-1.6295694 -2.2334392 3.313316 0.28661603 -6.182769 -4.847386 0.5859933 1.3431567
1.1098703 0.08614985 4.6358504 2.726771 -2.3685791 -1.3395944 3.2501812 -4.188334
-0.2544456 0.37816325 1.1052197 -0.30126053 9.047673 0.5781485 3.4679098 -3.5832853
-0.111923836 -0.20301516 -0.41174117 0.15980473 -7.187627 1.3623884 0.28893855 2.1898942
0.27672887 -1.0356122 0.014520386 -0.61012447 0.7015475 0.7826415 -2.8529015 -0.8321871
-0.8710665 0.40555975 -0.06258727 0.1790894 0.4934193 -0.44613007 -0.80239326 -0.3755935
0.63340074 0.9480658 -0.4698338 -1.049194 -0.68648463 0.81768656 0.18662447 -0.50881547
-0.51449883 0.78815705 -1.3124284 0.035716034 -0.10751171 -0.9990077 -0.58878106 0.5328049
0.39081982 -0.075013295 -0.7252661 0.8017649 -0.5670913 0.6261309 1.0723491 -0.4561694
-0.65553826 0.11490437 -0.19876589 -0.22752894 0.6500821 -0.71189564 0.07433924 1.018159
0.68561965 0.6064952 -0.16663007 0.15088871 0.8307503 -0.50038683 0.45275027 -0.4782518
0.0004301442 -0.7768544 0.23860328 -1.7945273 -0.7610375 0.4094471 -1.0648999 0.23185603
0.16152695 0.8507207 0.39879996 0.43406212 -0.118090235 -0.1756572 1.1324357 0.33513814
-0.86686033 1.0138577 1.4473003 0.23740877 -1.0409989 0.5653651 -0.9144627 1.071935
1.4980327 1.071454 -1.3014663 -1.5134928 1.1564525 -1.3673807 0.18619514 0.9856385
-0.20477729 0.013454726 -0.49323255 -0.59417385 0.113265604 -0.97085845 1.1141223 -0.35936475
1.0884858 0.84494674 -1.1733961 1.4900136 1.0295454 1.1384797 -0.96694 -0.9310721
-0.4836412 1.0167394 -1.0616939 0.8192843 1.0787983 1.150026 0.3371982 1.1790336
0.8346884 0.6832416 0.9474404 1.1309232 0.3046285 -1.2115362 -1.3837538 0.008493303
0.94607955 -0.80918765 1.0847387 -1.5141325 -0.13072404 -1.2077867 -0.86551917 -0.45184684
0.8425315 0.6208601 1.0515624 1.2249414 0.26339173 0.3001296 1.6957551 -0.03381653
00000000: f481 40bf d7e9 533f b711 4ac0 7c35 38be
00000010: 1dce 0240 940c 713f 87ae 8cbf 1125 abbf
00000020: 930a 0ec0 61ff 853f a13d 8f40 ec82 863f
00000030: 618a 56bf 8b6b 3a3d d1cc 4ebf d243 afbf
00000040: a671 0140 38c1 bfbf cb2b a53f 6635 2340
00000050: b40a f440 95e9 a2bf 2969 8ac0 9ca3 14bf
00000060: 0573 12c0 2e4d 73c0 d543 fe3e 9d31 a8c0
00000070: da91 b7c0 b7fc 29c0 a3c8 0440 b172 bfbf
00000080: 93c7 7dc0 338c a1bf 326a 383f bc75 b93e
00000090: dd7f 23c0 9e6a 80c0 3300 943f 8615 b0be
000000a0: 060a a63f 4b12 a63f 4e2f d23c 9a9e 7640
000000b0: e39a 2d3e 18d7 ae3d 2e8a a23e bb6e b0be
000000c0: 06be 9bbe 7bcc 45bf b500 d1be 4054 9640
000000d0: 6924 fe3e 8c4d 3240 343f 7dc0 6c83 0ebf
000000e0: 365a 82bf e3bb b53e 94f0 8f3f 4c20 69c0
000000f0: fa9e 1740 fb8b 46be 88b6 97bf 1be2 d83b
00000100: ba42 6040 3908 553e 08fb efbf b7dc 93bf
00000110: b19b 6c3f b913 7e3e cfd4 eabc 2d70 24c0
00000120: 9a79 03c0 f411 82c0 6665 5bbf 7fb9 6a40
00000130: d44d 0cc0 19af a040 eac3 14c0 879f e4bd
00000140: e400 84bf 79b4 1240 2733 5dc0 32a5 dd3f
00000150: 3865 f9bf 684d 90bd 0676 60bf 950a d0bf
00000160: bb95 d0bf abf0 0ec0 5f0d 5440 56bf 923e
00000170: 3ed9 c5c0 c91d 9bc0 a803 163f 8fec ab3f
00000180: 3b10 8e3f 556f b03d e358 9440 6b83 2e40
00000190: cd96 17c0 d477 abbf f802 5040 d506 86c0
000001a0: b246 82be 9d9e c13e d777 8d3f d23e 9abe
000001b0: 45c3 1041 8a01 143f 3cf2 5d40 8c54 65c0
000001c0: 5338 e5bd 35e3 4fbe bdcf d2be daa3 233e
000001d0: 0a01 e6c0 be62 ae3f c1ef 933e 3a27 0c40
000001e0: 68af 8d3e f18e 84bf eae6 6d3c 1e31 1cbf
000001f0: 9e98 333f 315b 483f f095 36c0 370a 55bf
00000200: 37fe 5ebf 87a5 cf3e c12d 80bd 3663 373e
00000210: 74a1 fc3e 296b e4be a569 4dbf cb4d c0be
00000220: 8d26 223f 71b4 723f 0e8e f0be fd4b 86bf
00000230: 75bd 2fbf e853 513f 7c1a 3f3e bb41 02bf
00000240: 32b6 03bf a9c4 493f a7fd a7bf fa4a 123d
00000250: 192f dcbd f8be 7fbf 5bba 16bf e765 083f
00000260: 8919 c83e 92a0 99bd 0aab 39bf 7740 4d3f
00000270: e52c 11bf 1d4a 203f bc42 893f 098f e9be
00000280: 5bd1 27bf fb52 eb3d 4989 4bbe 59fd 68be
00000290: c86b 263f cb3e 36bf 2c3f 983d 0953 823f
000002a0: c584 2f3f 4543 1b3f 13a1 2abe 9282 1a3e
000002b0: 0dac 543f 5a19 00bf e2ce e73e 6cdd f4be
000002c0: fa84 e139 eedf 46bf 6b54 743e 12b3 e5bf
000002d0: 5bd3 42bf 0da3 d13e a44e 88bf ab6b 6d3e
000002e0: 5267 253e d5c8 593f 822f cc3e 643d de3e
000002f0: 4bd9 f1bd 7bdf 33be a7f3 903f 3a97 ab3e
00000300: 8fea 5dbf 17c6 813f 2341 b93f 491b 733e
00000310: 743f 85bf c4bb 103f 3a1a 6abf 2b35 893f
00000320: 89bf bf3f 6825 893f 7396 a6bf 22ba c1bf
00000330: a306 943f 5506 afbf f0a9 3e3e ce52 7c3f
00000340: 23b1 51be 3671 5c3c fa88 fcbe c71b 18bf
00000350: ccf7 e73d 2e8a 78bf 8f9b 8e3f a8fe b7be
00000360: 8153 8b3f 6e4e 583f d831 96bf c4b8 be3f
00000370: 25c8 833f b4b9 913f 6189 77bf be5a 6ebf
00000380: d29f f7be 8424 823f 96e5 87bf 9ebc 513f
00000390: 1016 8a3f 0d34 933f 3ea5 ac3e 93ea 963f
000003a0: 24ae 553f ece8 2e3f 748b 723f 17c2 903f
000003b0: 44f8 9b3e 9e13 9bbf d81e b1bf 7f27 0b3c
000003c0: 4532 723f ec26 4fbf b8d8 8a3f 18cf c1bf
000003d0: 86dc 05be c198 9abf aa92 5dbf 7858 e7be
000003e0: 25b0 573f b0f0 1e3f 9999 863f e1ca 9c3f
000003f0: 48db 863e 96aa 993e 810e d93f 3483 0abd

h1.bias f4 [64]
-1.0420308 -0.67026544 -0.27130088 -0.30148563 -1.4982435 -0.34207824 2.9151535 -0.15198521
-2.2820606 11.519696 -2.17944 0.17398798 3.5848184 -0.17850654 1.0660343 -3.727529
-0.4408247 -4.4343953 -1.0416481 0.47238696 -0.28414997 0.6064007 -0.28865504 1.1853162
-0.9740904 -0.4627156 -0.8874667 0.6559917 0.9628269 2.5904872 2.7840114 2.3666093
3.103497 2.9018443 -1.0968963 1.138754 -0.99610347 -1.4074438 -1.1496212 -0.3172484
-0.4092193 -0.8657945 -1.1495124 -0.33775556 -0.70624155 6.004966 -1.0173954 0.23502693
-0.80402434 2.8598542 0.05154622 -5.3142953 -0.8590527 0.6583425 -0.6500089 -0.45800143
-0.8105712 -1.056676 -0.36188257 -2.9008088 2.55208 -6.48216 0.8328369 -0.611406
00000000: 4461 85bf 8496 2bbf f3e7 8abe 535c 9abe
00000010: 71c6 bfbf e124 afbe e091 3a40 03a2 1bbe
00000020: 480d 12c0 ad50 3841 f27b 0bc0 e829 323e
00000030: aa6d 6540 6bca 36be d073 883f d68f 6ec0
00000040: c6b3 e1be 91e6 8dc0 ba54 85bf b4dc f13e
00000050: 1b7c 91be 143d 1b3f 98ca 93be 71b8 973f
00000060: fd5d 79bf 0fe9 ecbe 0531 63bf 12ef 273f
00000070: d37b 763f 8bca 2540 3e2d 3240 8776 1740
00000080: b29f 4640 d1b7 3940 1967 8cbf b1c2 913f
00000090: a300 7fbf 1e27 b4bf ca26 93bf 626e a2be
000000a0: 3185 d1be b5a4 5dbf 3923 93bf 4cee acbe
000000b0: 3fcc 34bf ae28 c040 033a 82bf e6aa 703e
000000c0: 8ad4 4dbf da07 3740 2122 533d b50e aac0
000000d0: e1ea 5bbf 2289 283f fc66 26bf 2a7f eabe
000000e0: 9881 4fbf 2941 87bf ac48 b9be daa6 39c0
000000f0: 4755 2340 db6d cfc0 cd34 553f 1b85 1cbf

h2.weight f4 [64, 64]
-0.851273 -0.56887597 -0.048206527 0.2630594 -0.87843937 -0.3053881 -0.34293184 0.08488223
-0.28885704 -0.028527824 -0.43330342 -0.8043884 0.2520659 -0.40510768 -0.43885243 -0.32111725
-0.47630686 -0.83615416 -0.111545034 -0.34832612 -0.75468576 -0.05853376 0.27832457 -0.38006592
-0.41573495 0.21893969 -0.50847435 -0.7363475 -0.15180236 -0.41263965 -0.41611755 -0.32424325
-0.18499045 -0.4217808 -0.38969842 -0.6118857 -0.5864598 -0.45447344 -0.47974426 -0.38344717
-0.6722704 -0.8636588 -0.8703162 -0.84076625 -0.0412352 -0.32860452 -0.7167311 -0.08931263
0.027341237 -0.38003808 -0.8708826 -0.31781468 -0.22690292 -0.8691354 -0.6448378 -0.2562209
-0.73341167 -0.61272484 -0.83197397 -0.2829905 0.27655172 -0.7500089 -0.61195 -0.23801589
2.8386571 -0.35346985 0.8287924 0.09614321 1.2746269 0.24681062 1.7701744 -0.14133383
-3.1442628 -26.101274 -2.0500662 -2.611468 5.2366815 1.6294554 1.6629828 -2.1858017
-2.4882913 0.93434954 0.5012597 3.082816 -0.059795614 4.4189672 0.46850884 3.802066
0.597664 0.7152595 2.849926 3.365396 -2.117436 7.9311776 -1.2937958 3.5952947
4.995844 3.3771944 -1.0522076 3.673416 -3.484518 -2.0525954 0.8151272 1.9721056
0.8530349 0.17690906 -3.0065875 -3.4999633 0.020809183 9.354918 0.059450947 -2.4242485
-0.63446707 5.5842195 -3.3764236 -3.0662131 0.045334384 1.8416355 -1.4904665 0.07201965
5.9632 -3.0861647 -3.2919884 3.0241346 4.709235 -2.6129405 1.5698832 0.2943583
-0.3704543 -0.049835425 0.24167296 0.03263034 0.21638805 -0.0058449665 -0.3402895 0.030358091
0.10488556 -0.11968283 0.062108558 -0.29040822 -0.17119414 0.09076997 -0.09441843 -0.6099519
-0.32052803 -0.6982137 0.08542353 -0.4516442 0.089757346 -0.23470747 -0.18557052 -0.36341554
-0.29234412 -0.2690427 -0.3041091 -0.4520732 -0.09678554 -0.19402058 -0.19348435 -0.32147616
0.0046331948 0.13948189 -0.2923095 -0.4780797 -0.28994066 -0.2032896 0.07982983 -0.0894979
0.08633424 0.30491453 -0.27997664 -0.048508238 0.06968984 -0.12958933 0.059870217 -0.64582515
-0.56710243 0.09595961 -0.08378693 -0.5413778 0.15061909 0.06013258 -0.09280625 -0.14042272
-0.036498856 0.10463744 0.20916176 0.14730775 0.2197388 -0.9665496 0.15622516 -0.27198735
-0.51585954 -0.64649254 -0.24181819 0.19134226 -0.8808025 -0.32831132 -0.51547605 -0.28796765
0.21236031 0.075732015 0.06667528 -0.47691977 -0.1575333 -0.70539474 0.09194681 -0.5443132
-0.532843 -0.454785 -0.13200907 -0.62973803 -0.2700252 -0.1605031 -0.16810647 -0.6345168
-0.85113525 0.25198132 -0.6440982 -0.39824763 0.19165821 -0.5876189 -0.6809333 -0.47667718
0.13589492 -0.66716176 0.05613606 -0.622375 -0.77539045 -0.5114568 -0.56705064 -0.65426403
-0.16848731 -0.6288396 -0.8132325 -0.34476298 -0.05952047 -0.577996 0.0034198537 -0.024301277
-0.15029997 -0.8347987 0.26889753 -0.32902646 -0.18136218 -0.68027616 -0.8798615 0.08235933
-0.8515216 -0.36326894 -0.4192202 -0.09376223 -0.10213728 -0.5495887 -0.6332729 -0.8299251
00000000: 07ed 59bf dba1 11bf 3574 45bd b9af 863e
00000010: 67e1 60bf d45b 9cbe c394 afbe bcd6 ad3d
00000020: 12e5 93be 2fb3 e9bc f2d9 ddbe 66ec 4dbf
00000030: c80e 813e 466a cfbe 44b1 e0be 7b69 a4be
00000040: 7ede f3be 330e 56bf b971 e4bd cd57 b2be
00000050: 1633 41bf 19c1 6fbd 8f80 8e3e 0098 c2be
00000060: 36db d4be ba31 603e 602b 02bf 4581 3cbf
00000070: 1472 1bbe 8145 d3be 5c0d d5be 3603 a6be
00000080: 236e 3dbe a7f3 d7be 8d86 c7be 8ba4 1cbf
00000090: 3b22 16bf beb0 e8be 0aa1 f5be 3053 c4be
000000a0: ea19 2cbf be18 5dbf 0bcd 5ebf 753c 57bf
000000b0: 3ee6 28bd da3e a8be b07b 37bf 8ae9 b6bd
000000c0: bbfa df3c 5a94 c2be 29f2 5ebf 9bb8 a2be
000000d0: 3d59 68be a87f 5ebf 1714 25bf 632f 83be
000000e0: dec0 3bbf 89db 1cbf 3ffc 54bf 21e4 90be
000000f0: 3098 8d3e 9500 40bf c1a8 1cbf 70ba 73be
00000100: 8fac 3540 00fa b4be bd2b 543f bbe6 c43d
00000110: f926 a33f ecbb 7c3e 1395 e23f d1b9 10be
00000120: 9a3b 49c0 69cf d0c1 4934 03c0 4b22 27c0
00000130: e592 a740 ff91 d03f 9fdc d43f 2de4 0bc0
00000140: 2a40 1fc0 8831 6f3f 8e52 003f db4c 4540
00000150: 3fec 74bd 2e68 8d40 64e0 ef3e 0d55 7340
00000160: 8200 193f 3f1b 373f 3065 3640 a662 5740
00000170: 1284 07c0 35cc fd40 1a9b a5bf 4f19 6640
00000180: f4dd 9f40 f423 5840 bdae 86bf 3f19 6b40
00000190: 5802 5fc0 b95d 03c0 2dac 503f f56d fc3f
000001a0: 7f60 5a3f a627 353e ee6b 40c0 66ff 5fc0
000001b0: 0578 aa3c bead 1541 d682 733d e326 1bc0
000001c0: 6f6c 22bf edb1 b240 5317 58c0 d63c 44c0
000001d0: 8cb0 393d b6ba eb3f 9bc7 bebf 0a7f 933d
000001e0: 89d2 be40 b983 45c0 f0af 52c0 6c8b 4140
000001f0: 0eb2 9640 6b3a 27c0 eff1 c83f 22b6 963e
00000200: 30ac bdbe 3b20 4cbd 1e79 773e 64a7 053d
00000210: d494 5d3e 2287 bfbb 6d3a aebe 88b1 f83c
00000220: 3ece d63d 461c f5bd 8b65 7e3d 63b0 94be
00000230: 844d 2fbe 9be5 b93d 735e c1bd cf25 1cbf
00000240: 401c a4be 22be 32bf 88f2 ae3d e93d e7be
00000250: b3d2 b73d 2857 70be 3306 3ebe 9a11 babe
00000260: 21ae 95be f7bf 89be 30b4 9bbe 2376 e7be
00000270: 7f37 c6bd 55ad 46be c320 46be 8698 a4be
00000280: 0ed2 973b 57d4 0e3e 97a9 95be ddc6 f4be
00000290: 1a73 94be 262b 50be d27d a33d ad4a b7bd
000002a0: 02d0 b03d c21d 9c3e 1959 8fbe 93b0 46bd
000002b0: 8cb9 8e3d 11b3 04be 793a 753d cc54 25bf
000002c0: a02d 11bf 7986 c43d 7b98 abbd bc97 0abf
000002d0: e43b 1a3e 954d 763d 3411 bebd f9ca 0fbe
000002e0: d37f 15bd 274c d63d 802e 563e d8d7 163e
000002f0: 3503 613e cb6f 77bf 7df9 1f3e ed41 8bbe
00000300: 5f0f 04bf 8980 25bf 309f 77be 3aef 433e
00000310: 467c 61bf 6c18 a8be 3df6 03bf 7f70 93be
00000320: fb74 593e 6319 9b3d 0d8d 883d d42e f4be
00000330: 6950 21be c094 34bf 9c4e bc3d 1c58 0bbf
00000340: 6668 08bf 94d9 e8be 632d 07be 8336 21bf
00000350: be40 8abe ed5a 24be 1a24 2cbe b16f 22bf
00000360: 00e4 59bf b203 813e 9fe3 24bf 1de7 cbbe
00000370: 0d42 443e 316e 16bf a551 2ebf 080f f4be
00000380: 0a28 0b3e 1dcb 2abf edee 653d f853 1fbf
00000390: fd7f 46bf d5ee 02bf 3b2a 11bf d97d 27bf
000003a0: f087 2cbe a2fb 20bf 0130 50bf c684 b0be
000003b0: bdcb 73bd 8cf7 13bf a01f 603b 7913 c7bc
000003c0: 3ce8 19be 5eb5 55bf f0ac 893e 2876 a8be
000003d0: 02b7 39be 9426 2ebf 9a3e 61bf 02ac a83d
000003e0: 52fd 59bf 63fe b9be 08a4 d6be 6906 c0bd
000003f0: 5a2d d1bd d8b1 0cbf 2c1e 22bf f975 54bf

h2.bias f4 [64]
-0.51719266 -3.8070493 -0.50379485 -0.514366 -0.69015974 -0.6805343 -0.6868516 2.5288658
-3.2018738 3.1351879 -0.8182054 2.620375 5.799134 -4.0410414 2.6984591 -0.012732964
2.541878 3.7793486 -2.4924066 -0.9513676 -2.392032 -0.653555 -1.6492691 -0.8148474
0.13948782 0.36577198 2.887146 -0.7296073 -3.811571 -0.6658068 -0.69751245 3.2732022
-2.6966822 2.1585813 3.0716193 2.7755196 -0.64004016 -2.5734098 -2.6309576 -2.8006983
-2.8102317 -0.62169755 -0.6515362 3.3136728 3.9680896 0.6164272 -0.54029846 3.3719916
-0.69101036 -2.0132883 -3.0993755 -2.2950587 -0.5560087 -0.6919687 4.0026 -0.5158896
-0.99043757 -0.5186238 -0.64685446 -2.4385538 -0.4751247 -0.026865454 -2.1276836 3.6309104
00000000: bd66 04bf b2a6 73c0 b3f8 00bf 7dad 03bf
00000010: 4fae 30bf 7f37 2ebf 82d5 2fbf f0d8 2140
00000020: 80eb 4cc0 eba6 4840 e975 51bf 39b4 2740
00000030: 8192 b940 3650 81c0 8eb3 2c40 ec9d 50bc
00000040: 21ae 2240 d9e0 7140 9783 1fc0 d48c 73bf
00000050: 0d17 19c0 614f 27bf 401b d3bf d799 50bf
00000060: e5d5 0e3e 7746 bb3e 00c7 3840 8bc7 3abf
00000070: c7f0 73c0 5072 2abf 2d90 32bf 257c 5140
00000080: 7196 2cc0 3226 0a40 6995 4440 1da2 3140
00000090: acd9 23bf bfb2 24c0 9c61 28c0 a43e 33c0
000000a0: d6da 33c0 9227 1fbf 14cb 26bf 3713 5440
000000b0: 2ef5 7d40 2cce 1d3f 0051 0abf b6ce 5740
000000c0: 0ee6 30bf b7d9 00c0 2b5c 46c0 3ee2 12c0
000000d0: 9656 0ebf dc24 31bf 4d15 8040 5711 04bf
000000e0: 518d 7dbf 88c4 04bf 4198 25bf 4411 1cc0
000000f0: 8b43 f3be f114 dcbc f82b 08c0 d660 6840

h3.weight f4 [4, 64]
-0.12621251 2.0910475 0.073964976 0.11445732 0.6551996 -0.24982978 0.7695005 0.5315879
0.7610811 9.110094 0.47529197 1.8315192 0.22313204 0.4476877 9.23085 4.1087313
2.6146038 8.929946 3.9741302 8.384339 7.7879925 -0.25718072 5.792959 0.38100627
7.869204 0.70148695 7.9572926 0.5017897 20.489067 -0.20068108 0.2096883 0.216893
9.910203 14.488863 7.8447714 8.893405 0.2442564 16.904211 9.028271 8.236766
0.65207845 -0.2364494 0.1933896 2.742683 8.635681 0.52819157 0.16218528 8.916888
0.19979177 4.6822395 7.5580487 3.1965644 -0.1594205 -0.18685654 9.455446 -0.0641429
0.23863634 -0.28321806 -0.2834734 0.8688955 0.675543 0.3000132 7.6320376 0.59705657
0.82320225 2.9080703 -0.4495722 0.6211984 0.82043886 0.5938736 0.23360969 18.65364
1.8109342 5.028227 -0.0048910403 2.7348673 27.390623 -0.49593765 1.6344618 -1.0552886
19.600567 2.2077997 0.88445145 0.7997209 1.2578976 0.60018283 -0.29097036 -0.12039656
-0.6056024 0.08815134 2.3739226 -0.029190486 4.22221 0.35686812 0.75326884 16.24824
0.84695613 2.1998 1.177659 3.4274936 0.44075054 1.7779152 1.2129114 2.8370042
-0.8415791 -0.20505202 0.4719581 1.1851358 1.4597732 25.232378 0.58183604 0.45451608
0.43361163 1.0187931 1.6126801 0.4086709 0.8074964 0.63032806 2.2080777 0.35727572
-0.15331852 0.3048643 0.37109265 -0.37033468 0.2783748 -0.82686955 0.7449995 19.334496
0.59989995 3.5883808 0.30608386 0.48537654 0.5548382 0.4924754 0.47401023 4.21235
2.5291705 4.3940673 0.27393395 4.0588975 3.9774997 2.6178875 4.2013874 2.257246
3.3499942 5.043743 2.7325613 3.0107229 2.465505 0.52248526 3.8424048 0.7429835
3.1531944 -0.85694504 4.1071305 -0.045425393 2.718415 0.5368177 0.55968666 10.007231
2.5940495 4.3850093 4.11497 4.216744 0.57960546 3.1759079 2.7382467 2.6491332
2.2207992 0.7274812 0.4378119 4.804883 5.0111938 2.738741 0.2575482 4.2847586
0.0061217113 2.7108374 2.6155334 2.439341 0.40269214 0.44371155 4.7456584 0.34156317
0.3359929 0.7481825 0.34741357 2.1462874 -0.28292418 -1.1895303 2.708565 3.7875302
-0.32313868 0.25194964 0.05730801 -0.515247 -0.4542058 -0.47755682 -0.5619606 1.6392398
-0.8488694 -0.08926921 -0.30602476 0.21398564 1.6903971 0.20936608 -0.082805365 -0.61121833
0.46276245 0.7882409 -0.7344226 -0.8728619 -0.69368225 -0.3719855 -0.8365532 0.23210976
-0.9014509 0.027497167 -0.6203086 -0.53036106 -0.56862634 -0.5564839 -0.44781297 -0.6520369
-0.656682 -0.61584514 -0.6792671 -0.68946296 -0.48541543 -0.62545604 -0.051968534 0.043333855
-0.8191901 -0.4824883 -0.44649956 -0.2830559 -0.17292863 1.037879 0.112617195 -0.76818925
-0.62846833 -0.69490856 -0.45732263 -0.7541948 -0.2980594 -0.39453927 -0.87630415 -0.30116802
-0.6287382 -0.21526587 -0.4988354 -0.6601913 0.21690513 0.03889327 -0.7240092 0.68777376
00000000: da3d 01be b9d3 0540 f37a 973d 9968 ea3d
00000010: 29bb 273f 61d3 7fbe fcfd 443f 2516 083f
00000020: 36d6 423f f2c2 1141 7859 f33e 396f ea3f
00000030: ba7c 643e 5237 e53e 90b1 1341 ba7a 8340
00000040: ab55 2740 0fe1 0e41 2658 7e40 4126 0641
00000050: 3c37 f940 31ad 83be ec5f b940 4113 c33e
00000060: 85d0 fb40 a694 333f 24a2 fe40 4a75 003f
00000070: 9ce9 a341 577f 4dbe 88b8 563e 3319 5e3e
00000080: 3190 1e41 62d2 6741 5e08 fb40 634b 0e41
00000090: 5a1e 7a3e d33b 8741 cc73 1041 cbc9 0341
000000a0: 9dee 263f cb1f 72be ec07 463e 1e88 2f40
000000b0: c02b 0a41 9037 073f e613 263e 93ab 0e41
000000c0: 3796 4c3e e8d4 9540 89db f140 8394 4c40
000000d0: 213f 23be 5257 3fbe 8249 1741 5a5d 83bd
000000e0: 165d 743e f501 91be 6d23 91be ef6f 5e3f
000000f0: 63f0 2c3f 559b 993e a739 f440 b3d8 183f
00000100: 62bd 523f d31d 3a40 542e e6be dc06 1f3f
00000110: 4808 523f 1a08 183f 6137 6f3e a83a 9541
00000120: b1cc e73f 3ce7 a040 0545 a0bb 1108 2f40
00000130: ff1f db41 8aeb fdbe 0b36 d13f b213 87bf
00000140: f6cd 9c41 974c 0d40 696b 623f 82ba 4c3f
00000150: ca02 a13f 95a5 193f 11fa 94be 7992 f6bd
00000160: c208 1bbf b188 b43d 59ee 1740 e320 efbc
00000170: 581c 8740 6bb7 b63e 3ad6 403f 65fc 8141
00000180: 1ed2 583f 86c9 0c40 88bd 963f 0e5c 5b40
00000190: 0eaa e13e ba92 e33f ae40 9b3f 7a91 3540
000001a0: ba71 57bf 28f9 51be 7ea4 f13e 88b2 973f
000001b0: d9d9 ba3f e9db c941 35f3 143f 55b6 e83e
000001c0: 5802 de3e d067 823f 4d6c ce3f 503d d13e
000001d0: 16b8 4e3f 2e5d 213f 2551 0d40 d8ec b63e
000001e0: 88ff 1cbe 2c17 9c3e dbff bd3e 829c bdbe
000001f0: 2487 8e3e b9ad 53bf 4ab8 3e3f 0cad 9a41
00000200: 0b93 193f 08a8 6540 06b7 9c3e 4683 f83e
00000210: e009 0e3f bc25 fc3e 78b1 f23e 92cb 8640
00000220: eedd 2140 339c 8c40 1241 8c3e 7de2 8140
00000230: 5b8f 7e40 788b 2740 c471 8640 b876 1040
00000240: 4e66 5640 5866 a140 49e2 2e40 afaf 4040
00000250: d5ca 1d40 98c1 053f f6e9 7540 2b34 3e3f
00000260: f0cd 4940 c060 5bbf 9d6d 8340 fa0f 3abd
00000270: 83fa 2d40 e36c 093f a047 0f3f 9e1d 2041
00000280: e804 2640 ff51 8c40 d6ad 8340 91ef 8640
00000290: 0661 143f 1342 4b40 6f3f 2f40 668b 2940
000002a0: 9321 0e40 353c 3a3f e228 e03e 9ac1 9940
000002b0: b35b a040 8847 2f40 5cdd 833e be1c 8940
000002c0: a398 c83b 5c7e 2d40 e664 2740 2a1e 1c40
000002d0: aa2d ce3e 292e e33e 6fdc 9740 5ee1 ae3e
000002e0: 4307 ac3e e388 3f3f 31e0 b13e c65c 0940
000002f0: 70db 90be 8742 98bf 2159 2d40 e566 7240
00000300: 6f72 a5be 8bff 803e cebb 6a3d 3ae7 03bf
00000310: aa8d e8be 5482 f4be a6dc 0fbf 9cd2 d13f
00000320: 814f 59bf c7d2 b6bd 47af 9cbe 0d1f 5b3e
00000330: ef5e d83f 1064 563e dc95 a9bd ce78 1cbf
00000340: 33ef ec3e 28ca 493f 1f03 3cbf e173 5fbf
00000350: 2995 31bf e274 bebe 5a28 56bf 2eae 6d3e
00000360: 7cc5 66bf bd41 e13c 8bcc 1ebf bec5 07bf
00000370: 7f91 11bf bb75 0ebf be47 e5be e4eb 26bf
00000380: 501c 28bf 07a8 1dbf 73e4 2dbf a580 30bf
00000390: 5f88 f8be e31d 20bf f5dc 54bd d77e 313d
000003a0: 71b6 51bf b508 f7be 979b e4be b4ec 90be
000003b0: 3414 31be 38d9 843f d8a3 e63d 0da8 44bf
000003c0: 4de3 20bf 87e5 31bf 3126 eabe e912 41bf
000003d0: 3e9b 98be 0d01 cabe 7855 60bf b232 9abe
000003e0: fdf4 20bf a86e 5cbe 5b67 ffbe 4c02 29bf
000003f0: 611c 5e3e 8d4e 1f3d ab58 39bf f111 303f

h3.bias f4 [4]
-0.76846933 1.9917618 5.9924617 -0.67352045
00000000: 68ba 44bf 0df2 fe3f 3fc2 bf40 d66b 2cbf
