weights/weights_LF=4_dense/w=0.36_1.pth (torch, 38796 bytes, 8 tensors)

input.weight f4 [64, 4]
00000000: 7ad2 083e ab7a 5bbf 4321 f83e e42f 3cbf
00000010: 5e53 7ebf de51 e6bf a2da 1cc0 d239 19c0
00000020: b0c1 c13e 423e 54bf 4e1b 3a3f 944a 143f
00000030: 70b4 2bc0 965a 04c0 274f 11c0 c5fc 02bf
00000040: be7e 21c0 f36a 1fc0 d162 e8bf 952b 4dc0
00000050: 7f1b ec3f 225d 0940 b281 1840 2bf5 2e40
00000060: 3175 0340 8d76 1340 0bb5 d83f f4c8 5140
00000070: 921d b7be 3db9 923e 9886 903e 5b64 9bbe
00000080: 7859 01c0 fee0 07c0 21ff 28c0 761b 30c0
00000090: 7517 1740 47ec 1f40 0dec 333f d5aa f13f
000000a0: 9453 f73f a7d3 da3e 03e4 823e 969c b73e
000000b0: be31 92bf 77be 12c0 1835 d0bf 4af2 cfbf
000000c0: 16bc 0ec0 ba55 63bf 4bf1 23c0 f260 c8bf
000000d0: 53e6 fd3f 714c e23f c6d0 0040 3603 fd3f
000000e0: 596b 1840 17d6 d43f 156a 2640 5948 3c40
000000f0: 1c42 723f b3ae 01bf 7fb2 a43f 32a7 a13b
00000100: 78ab 873f 66b7 923f 7012 bb3f 874b 8a3f
00000110: 9d6b 08c0 61aa 61bf cf91 3fc0 4b2f 9bbf
00000120: e47b b5bf 0845 08c0 846e 8bbf 77b4 83bf
00000130: 70ac 3640 2585 2b40 7fd8 c43f 7c26 0740
00000140: f63d 03c0 0149 ffbf ae9a 75bf 2af1 61c0
00000150: 6274 163f 3634 bf3e b780 63bf 5790 75bf
00000160: 3284 34c0 cc08 c4bf 1bbd 3ac0 c3d1 72bf
00000170: 1860 223e 2b1e a6be 7f09 cfbf 11a1 18c0
00000180: 5f4d b33f 30a5 073e beaf 0440 f0f2 b33f
00000190: 15dc 963f 7b62 0a40 5e36 4c40 7041 5340
000001a0: 7504 32c0 cbfe 09c0 a3b2 54bf a5f6 dabf
000001b0: f2d9 43c0 55cf 2fc0 dd5b 49c0 7a5a 24c0
000001c0: c644 4440 4980 2240 1f85 913f d5c4 1c40
000001d0: 0647 07bf 19b9 77bf 4b0a 95be 4fff 39c0
000001e0: 4306 303f d9fa 63bf 8f35 153f 6bd9 303f
000001f0: bd86 d5bf b1a8 923f f62f 47be 3783 8ebf
00000200: df2b 283f 175c 2e3e d27a d03f 57f7 2f40
00000210: 051e dd3f c6c1 ac3f 0bfa 1a40 0683 fc3f
00000220: 0322 2c3f 67ba e63f 395d 8b3f 13a5 f63f
00000230: e363 853c 60f2 d3bf bde4 f6bf 11c3 adbf
00000240: ab3d 58bf 6d4a 2fbf 4957 11bb a74d efbf
00000250: f757 0dc0 60f3 1cc0 c24c e1bf 80b1 d2bf
00000260: 6e53 b9bf dc79 3fc0 f730 38c0 a7f8 34c0
00000270: 71c5 b03f 7f5f 1140 4e49 7240 2281 1d40
00000280: b439 0fc0 189c 26c0 27ea e8bf 1ef5 03bf
00000290: da8e 1fc0 a046 2ec0 2a65 04c0 6978 11c0
000002a0: a43c 2540 857f 0940 67f7 453f 8cf3 363f
000002b0: 12ab f63f 08fd 1840 83b9 6f3f b2ee e83f
000002c0: 2952 fa3f 6720 3440 38ff 293f 0ed0 5f40
000002d0: 3747 4abf d4ef 81bf ffe2 24c0 0bcd c8bf
000002e0: fa9a cebf 38ad a4bd 8510 e2bf fc21 1cc0
000002f0: 5a7d 073f 616b 9c3f e631 1240 33c8 2440
00000300: bb6b 20c0 64d8 e9bf 3de1 2a3d 2093 1bc0
00000310: f341 33c0 1730 33c0 d88f fbbf eaf5 11c0
00000320: 5770 d43f 872f 383e 209d 7a3f 8a08 a63f
00000330: e149 2a3e 174c aabf a4fc 65bc eff6 d4bf
00000340: 5734 fc3f 75fb 2040 d955 673f cff0 3440
00000350: 10e6 c23e 9716 ddbe 746a 58bf b2cc 17bf
00000360: eacc 7c3e d3bf 79bf bc91 0fbe 032e 31bf
00000370: 52f1 da3f 102a 593f 6d3b a23f b085 ff3f
00000380: 2d8e 3d3d 6074 41bf 7e85 adbe ec5d f33e
00000390: 5260 0240 75ff ed3f a121 1840 f459 3140
000003a0: 1ce2 06c0 a909 ddbf ccc2 623d f70f e9bf
000003b0: 21a2 863e 55fe 46bf 116f 653f 86d2 a7bf
000003c0: 5d89 12c0 c13e 0bbf a7fa 27c0 c9bd 45c0
000003d0: 4f4f 513e cdc0 f43f 4409 983f 20de d03f
000003e0: d6c8 75c0 1f2f 05c0 1702 fbbf 0c0c b9bf
000003f0: 642f 10c0 092f 14c0 f808 56c0 6f91 cbbe
0.1336154 -0.8573405 0.48462877 -0.73510575 -0.9934596 -1.7993734 -2.4508443 -2.394154
0.37843084 -0.829075 0.72697914 0.579263 -2.682888 -2.068029 -2.270456 -0.51166946
-2.5233607 -2.4909027 -1.8155156 -3.205785 1.8445891 2.1463094 2.382916 2.7337139
2.0540278 2.3041108 1.693025 3.2778902 -0.35764748 0.2865695 0.28227687 -0.30350003
-2.0210857 -2.1231074 -2.6405718 -2.751676 2.3608067 2.4987962 0.7028206 1.8880259
1.9322381 0.42739603 0.25564584 0.35861653 -1.142143 -2.292875 -1.6266203 -1.6245816
-2.2302299 -0.88802683 -2.5616024 -1.5654585 1.9835914 1.7679578 2.0127425 1.9766605
2.381552 1.6627835 2.6002247 2.9419158 0.94632125 -0.50657195 1.2866973 0.0049332613
1.0599203 1.1462219 1.4615002 1.0804299 -2.1315682 -0.881506 -2.9932745 -1.2123808
-1.4178433 -2.1292133 -1.0893102 -1.0289448 2.8542747 2.6800015 1.5378569 2.111724
-2.0506568 -1.9944154 -0.9593915 -3.5303445 0.58771336 0.3734452 -0.8886828 -0.9592337
-2.8205686 -1.5315185 -2.917792 -0.9485132 0.1585697 -0.3244489 -1.6174773 -2.3848307
1.4007987 0.13246608 2.0732265 1.4058514 1.1785914 2.1622608 3.1908183 3.300869
-2.781522 -2.1561763 -0.8308508 -1.710652 -3.0601773 -2.7470295 -3.146232 -2.5680223
3.0666976 2.53908 1.136875 2.4495137 -0.5284275 -0.9676681 -0.29109415 -2.9062078
0.68759555 -0.8905464 0.5828485 0.69081753 -1.6681744 1.145773 -0.1945189 -1.1133794
0.6569194 0.17027317 1.6287482 2.7494714 1.7274786 1.3496635 2.4215114 1.9727485
0.672394 1.8025635 1.0887824 1.9269127 0.016282981 -1.6558342 -1.9288555 -1.3575155
-0.844691 -0.6847294 -0.002217727 -1.8695573 -2.208494 -2.4523544 -1.760155 -1.6460419
-1.4478586 -2.9918127 -2.8779886 -2.8276765 1.3810254 2.2714536 3.7857242 2.4610066
-2.237897 -2.6032772 -1.8196458 -0.51545894 -2.493094 -2.7230606 -2.0686746 -2.2729743
2.5818262 2.1484082 0.7733063 0.71465373 1.9270957 2.3904438 0.93642443 1.8197844
1.9556323 2.8144777 0.6640506 3.4970737 -0.79014915 -1.0151315 -2.5763547 -1.5687574
-1.6141045 -0.08040851 -1.7661291 -2.4395742 0.52925646 1.222027 2.2842956 2.5747192
-2.5065753 -1.8269162 0.04171871 -2.4308548 -2.8009002 -2.7998102 -1.9653273 -2.2806344
1.6596783 0.1798688 0.97896004 1.2971356 0.16629745 -1.3304471 -0.014037285 -1.6637858
1.9703473 2.5153477 0.9036537 2.8271978 0.3806615 -0.43181297 -0.84537435 -0.59296715
0.24687544 -0.97558326 -0.14020437 -0.69210833 1.7104895 0.8482981 1.2674385 1.9962673
0.046278168 -0.755682 -0.3389091 0.47532594 2.037129 1.8593584 2.3770525 2.7711153
-2.1075506 -1.7268573 0.055361554 -1.8207997 0.2629557 -0.7773183 0.896226 -1.3111122
-2.289634 -0.5439263 -2.6246736 -3.0897086 0.2044041 1.9121338 1.1877828 1.6317787
-3.840383 -2.081001 -1.9610013 -1.4456801 -2.2528925 -2.3153708 -3.3442974 -0.39759395

input.bias f4 [64]
00000000: a9ea f93d 93ff dabf 47f4 4cbe d1ff d8bf
00000010: 1d65 0ac0 e257 0840 52d5 0740 e84a 86be
00000020: e8c5 f5bf 3957 ea3f 2533 523f 20c4 b9bf
00000030: ddab c2bf dae0 b43f b579 f83f 92cf c53e
00000040: 22fa a93f e78e d6bf 6c73 96bf 5dde 1340
00000050: 6e2e 0dc0 166a d9be d158 06c0 a4d2 99bf
00000060: 09a9 a33f 3afb 1340 b9fd f1bf 4efe 08c0
00000070: 0460 0240 c6f2 8cbf 4991 81bd 2445 bbbe
00000080: fd63 df3f ac13 de3f 0cbd 833f 41d7 9fbf
00000090: e91c 5fbf 236a d2bf e7ad 0fc0 8426 3340
000000a0: f5e7 d4bf 1502 17c0 3a43 c33f c605 c13f
000000b0: 2a1c 2240 fd22 b6bf 1c63 aebf 1963 d03f
000000c0: 1483 95bf 61e7 07c0 1eac 2d3f 223f 48bf
000000d0: 8792 e23f d45f b63c 03ec d13c ecd6 973f
000000e0: aea6 2c3e ef2a 0340 bb90 94bf bddb 7abe
000000f0: 9fbf e9bf d649 aa3f 344e 19c0 5fd4 03c0
0.12202961 -1.7109245 -0.2001506 -1.6953069 -2.1624215 2.130364 2.122395 -0.26229024
-1.9201021 1.8307868 0.8210929 -1.4512978 -1.5208699 1.4131119 1.9412142 0.38634926
1.327946 -1.676236 -1.1753974 2.310447 -2.2059588 -0.4246375 -2.099171 -1.2017407
1.278596 2.3122087 -1.8905555 -2.1405215 2.0371103 -1.1011589 -0.06326539 -0.36576188
1.7452389 1.7349753 1.0292068 -1.2487565 -0.8715349 -1.643864 -2.2449892 2.7992258
-1.6633288 -2.359502 1.5254891 1.5079887 2.532969 -1.4229428 -1.3623996 1.6280242
-1.1680627 -2.1234972 0.67840755 -0.78221333 1.7700967 0.022262491 0.025625234 1.1862464
0.16860458 2.0494955 -1.1606668 -0.24497886 -1.8261603 1.3303783 -2.3953981 -2.059837

h1.weight f4 [64, 64]
00000000: 8faf 523f ac4a a23e 6b9e ffbe 4731 30bf
00000010: 14a3 ad3e 3272 b8be 9445 23bf c168 5abf
00000020: 5fd5 dc3e 8347 e23e 5f6e a13e 46a3 073f
00000030: 3a38 633f 3930 3abf 2033 d4be 2881 3fbf
00000040: 0dcc 39bf af8a a63e b9b4 493f 443f c13e
00000050: 2573 52bf e1d8 ba3e 665b 283f 84e9 5a3f
00000060: a18a 9fbe 1096 05bf 0823 15bf 73ba 5d3f
00000070: 2d18 51bf aaab c73e d1d7 d1be 1caa 463f
00000080: f59f 45bf 008d b4be 4519 27bf e264 0e3f
00000090: c18d 373f d1db 123f ebe1 353f 06eb 29bf
000000a0: 36b5 2abf 8578 213f 50dc e63e 6923 4b3f
000000b0: 053e fcbe 625d cd3e 7c24 473f c771 49bf
000000c0: a55c f43e 5367 5f3f e350 41bf 0442 40bf
000000d0: d38d 41bf d013 303f c417 563f 5dfa 97be
000000e0: 6b3c 013f dc01 15bf e8d4 52bf 44af d4be
000000f0: d58e 2b3f 0544 3f3f f2c8 4fbf 2f0c 023f
00000100: 6e8b 363f 7341 ba3e a67d bfbe 7d65 c13e
00000110: 6722 063f 7926 4dbf c4df 06bf 7b6c e1be
00000120: fced cd3e 9417 e5be a199 a7be 2ba4 ad3e
00000130: aa58 1e3f 359b e8be 90a7 54bf 8728 05bf
00000140: b207 5ebf d69d 623f d1a4 3e3f d692 5dbf
00000150: caaa 543f 69d0 dabe 99fe 0f3f b020 4fbf
00000160: 7c36 18bf 94f9 d0be 10fa 5a3f a900 d13e
00000170: 7bff b9be 8395 383f 82c5 a6be 15d9 3b3f
00000180: 2823 403f 86b5 dfbe c0b7 07bf f6e5 05bf
00000190: e695 bdbe 6318 3d3f 806d 213f 6410 213f
000001a0: aef9 ad3e c887 053f 7a04 08bf 254d 9ebe
000001b0: 3173 4dbf 7a24 fc3e d87b 5c3f 1943 3ebf
000001c0: 10cc 523f d1c1 9e3e 632c aebe fafb b6be
000001d0: b78e 32bf 90d4 be3e 3ec4 643f e9b8 64bf
000001e0: beeb 283f 012d 23bf ddeb 113f 17ea c1be
000001f0: bb76 ce3e 8ce9 983e b818 aa3e 5701 ce3e
00000200: 37c3 94bf bd62 c6bf 9c75 7c3f e035 b4bf
00000210: 3706 f4bf 5c0e d03f 3290 bb3f 0c85 f93e
00000220: 11cb c3bf 1306 fa3f 9251 083f 9caf 8bbf
00000230: c8e2 d3bf e6d2 9e3f aaa6 b93f 6e36 6a3f
00000240: 617e f93f 5895 c1bf 3ac1 cabf 1f7c e53f
00000250: 40ae 00bf 9fdf 8c3e 2570 c2bf de8a 933d
00000260: fd27 bc3f 0276 cf3f 8107 ecbf 440e 86bf
00000270: 07db fe3f a298 97bf 3eea 283f 0228 4cbf
00000280: 6346 66be 27f4 ce3f 4322 ac3f 6cd2 c4bf
00000290: ada7 18be 1f88 aabf b0f5 c6bf cacf d33f
000002a0: ccaf b6bf 0209 b7bf f1af e53f 6db6 0640
000002b0: cb59 563f 5344 c7bf b2de f6bf af30 e33f
000002c0: 836b bbbf bf85 dcbf 5d2e 7d3f 26dd e83e
000002d0: 0f16 0340 6e44 4bbf db92 94bf abc1 f03f
000002e0: eb40 e1be c2ec e83f 8b91 a8bf 5b37 183f
000002f0: 24c3 d9bf 7727 cb3f 983d 0bc0 e88d a3bf
00000300: c602 a33e f779 383f cd2f a3be ae8e 633f
00000310: 283d ec3e 3379 afbe 8c7d 3abf 921d adbe
00000320: 877d 153f f9f8 0abf 7f8f ed3e bde9 cd3e
00000330: f07e 213f 29d2 36bf 1117 aabe d21a f6be
00000340: 9f40 c4be 7c2e 3e3f bc5e 643f d0d1 d0be
00000350: d373 a53e 3a87 abbe 2017 243f d2e9 653f
00000360: 7c80 31bf dd15 44bf e2e1 f63e 8859 493f
00000370: c910 41bf b341 4c3f 33be 5bbf c5a7 283f
00000380: c7cb 05bf 484f 45bf 3140 d2be 67a6 e13e
00000390: b7a1 1a3f c3a8 b73e 940c 253f 6af4 60bf
000003a0: 495b 393f d27c f13e d900 063f b024 23bf
000003b0: d6ba 39bf 0197 e53e 4684 073f f9c3 23bf
000003c0: 05cf 393f 2c5f 323f 81bc 30bf c0b5 b53e
000003d0: de72 9bbe 872d 3d3f 7ecd 313f fb54 bbbe
000003e0: 8b2d 9b3e 037d c6be 881a e83e c7ba 58bf
000003f0: 7f01 c93e 3a53 bdbe 90d0 433f 7b68 613f
0.8229913 0.31697595 -0.4992555 -0.6882519 0.3391348 -0.36024624 -0.6377804 -0.8531609
0.4313154 0.44195184 0.3152952 0.5298351 0.8875767 -0.7272983 -0.41445255 -0.7480645
-0.7257698 0.32527682 0.78791386 0.3774358 -0.82206947 0.3649359 0.6576446 0.85512567
-0.31160453 -0.521821 -0.5825658 0.86612624 -0.81677514 0.38998157 -0.40984967 0.77603316
-0.771972 -0.35263824 -0.65272933 0.55622685 0.71700674 0.57366663 0.7104785 -0.6637424
-0.66682756 0.63074523 0.4508996 0.79350907 -0.49266067 0.40110308 0.77790046 -0.78689235
0.47726932 0.87267035 -0.7551405 -0.7510073 -0.7560703 0.6878023 0.83630013 -0.296832
0.50482816 -0.5820596 -0.8235612 -0.41539967 0.6701482 0.74713165 -0.81165993 0.5079984
0.713065 0.3637806 -0.3740055 0.37772742 0.52396244 -0.8013683 -0.5268519 -0.44028077
0.4022063 -0.4474455 -0.32734397 0.33914313 0.6185404 -0.45430914 -0.8306818 -0.52014965
-0.8673049 0.8852209 0.7447024 -0.8655218 0.83073103 -0.4273713 0.5624786 -0.8090925
-0.59458137 -0.40815413 0.85537815 0.40820816 -0.3632773 0.72103137 -0.32572562 0.73378116
0.75053644 -0.4369318 -0.53014755 -0.5230402 -0.37028426 0.73865336 0.6305771 0.62915635
0.33979553 0.5216031 -0.5313183 -0.30918232 -0.80253893 0.4924658 0.8612647 -0.7432113
0.82342625 0.31007245 -0.3401824 -0.35739118 -0.69749016 0.37271547 0.8936194 -0.8934465
0.65984714 -0.63740546 0.57000524 -0.3787391 0.4032496 0.29865682 0.33221984 0.40235397
-1.1622075 -1.5498883 0.9861696 -1.4078941 -1.9064397 1.6254382 1.465338 0.4873432
-1.5296346 1.9533104 0.53249466 -1.0912967 -1.6553583 1.2408111 1.4503987 0.91489303
1.9491693 -1.5123701 -1.5840218 1.7928504 -0.50265884 0.2751436 -1.5190474 0.07204221
1.4699703 1.6207888 -1.843979 -1.0473104 1.9910592 -1.1843455 0.65982425 -0.7974855
-0.22487788 1.6168259 1.3447956 -1.5376716 -0.14907713 -1.3322791 -1.5543728 1.6547787
-1.4272399 -1.4299624 1.7944318 2.1048844 0.83730763 -1.5567726 -1.9286711 1.7749232
-1.4642185 -1.7228316 0.9889887 0.45481223 2.0482213 -0.7940129 -1.1607317 1.8809103
-0.4399484 1.8197253 -1.3169416 0.59459466 -1.7012677 1.5871419 -2.1756344 -1.2777681
0.31838053 0.72061104 -0.31872407 0.88889587 0.4614041 -0.34272155 -0.7284782 -0.33811623
0.58394665 -0.5428615 0.4639854 0.4021739 0.63084316 -0.7141443 -0.33220723 -0.48067337
-0.38330552 0.7428968 0.89207053 -0.40785074 0.3231493 -0.33501607 0.64097786 0.89809906
-0.69336677 -0.7659586 0.4821921 0.7865224 -0.7541624 0.7978775 -0.85837096 0.65880996
-0.52264065 -0.770741 -0.410646 0.44072267 0.6040301 0.35870942 0.6447232 -0.87872946
0.72404915 0.47165543 0.52345043 -0.63727856 -0.72550714 0.4484177 0.5293621 -0.63970906
0.7258151 0.6967647 -0.69037634 0.35490227 -0.30361074 0.73897594 0.6945418 -0.36588272
0.30308184 -0.3876725 0.45332742 -0.8466 0.39258954 -0.3697756 0.76490116 0.8805005

h1.bias f4 [64]
00000000: 3053 19bf f24e 18bf 1a3e 883f 8e74 25bf
00000010: 8e8c 12bf c0d1 613f cbfa 963f c0a7 04bf
00000020: b800 09bf dcf3 883f 1224 cabd 57d9 2a3f
00000030: 0734 1e3f db47 05bf 7097 26bf 3229 12bf
00000040: 5b5d 4a3f 6954 253f a93f 793f 7276 493f
00000050: 2645 583f c423 c73f 6305 20bf 4f97 833f
00000060: 80ef ab3f 799d 04bf f8f6 10bf fb00 00bf
00000070: d9b3 2abf 0ccb 12bf 2a06 63bd c505 933f
00000080: f1f5 19bf 45ac a73f 5dd6 473f 2965 523f
00000090: 45c9 ab3f 2ee8 1b3f 9a8a 6a3f 1bad a93f
000000a0: 9eeb cd3f 3f2e 3740 f22c 3c3f 9ecc 0fbf
000000b0: fae0 4e3f b1a2 d13f 7a0a a13f 26f2 6e3f
000000c0: d5c6 2dbf 08a1 ffbe 6646 ac3f 9613 29bf
000000d0: 271d 8c3f 52f0 fcbe e99e 28bf 8d94 563f
000000e0: 05be 26bf b94f 2cbf 9bf9 28bf b017 623f
000000f0: b9cc a23f 1d3f bd3f 89be 833f 9d1f 4b3f
-0.5989256 -0.5949546 1.0643952 -0.64630973 -0.5724572 0.8821068 1.1795286 -0.51818466
-0.5351672 1.069942 -0.09870161 0.66737884 0.6179814 -0.5206277 -0.65074825 -0.5709411
0.790487 0.64581925 0.9736276 0.7869636 0.8448051 1.555779 -0.6250822 1.0280551
1.3432465 -0.51802784 -0.56626844 -0.50001496 -0.66680676 -0.57341075 -0.0554258 1.1486136
-0.601409 1.3099447 0.7806147 0.8218561 1.3420798 0.60901153 0.9161774 1.3255953
1.608753 2.8621976 0.7350608 -0.56171596 0.80812037 1.6377774 1.2581322 0.9333824
-0.6788152 -0.49927545 1.3458984 -0.6604551 1.0946397 -0.494021 -0.6586748 0.8382042
-0.65133697 -0.6730915 -0.6600587 0.88317394 1.2718726 1.4784886 1.0292522 0.79345113

h2.weight f4 [64, 64]
00000000: e42a 653d f842 57be d97b 22be 6397 bebc
00000010: 4087 8a3e cc89 b2bd b33d 7a3e c069 473e
00000020: a7d2 223e 3b83 193d c20e 833d bdfc 97be
00000030: 27e8 d4bd 7ad5 8fbe ce8f ae3c 6661 95be
00000040: 1237 513e 5b7f 80be e3d6 623e aef7 36be
00000050: f95a 573d 80f3 9cbd 7109 90be 2f08 9dbc
00000060: 8be7 8f3d 2afd 4d3e fc67 98be a45f 383e
00000070: 01a9 aabd 15ad 95bd 9e59 29be b1ce 8dbe
00000080: 9286 473e 1c38 91be 0c76 7f3e 08ba a0bd
00000090: d253 1a3b 8e48 0d3c 530b 1d3e 2a40 743d
000000a0: 940b 14be 7b8a bdbd 5033 0fbe 031b 123e
000000b0: ef6e 85be b953 26be 1b25 c6bc f77d 6bbe
000000c0: 9edd 55bc c442 d3bd 19c4 22be e560 863e
000000d0: 7425 16be a5ff 8e3d 95a3 32be 6cc8 4e3e
000000e0: d6a4 7dbe 8112 3bbe ad3a cebd d178 a23d
000000f0: f91c 5b3d 31bc f83d bfd5 85be d7c6 5ebe
00000100: 186e 2a3e 53a6 bcbe 0a40 2ebf 2767 46bf
00000110: 643c f8be 4ad1 ddbe aeb3 aa3e b2f8 55bf
00000120: 89ef 9dbe 14a8 423d b47d 88be 9dc0 33bf
00000130: 327a 22bf 1ea3 13bf c7c5 42bd ae28 16bf
00000140: f652 933e 514e 30bf 92c3 fdbd 130a 72be
00000150: 74d3 b7be fb86 3fbe 8a19 1cbf f8eb 55bf
00000160: a075 0cbf c1da afbe 197d 50bf 74c2 51bf
00000170: 467e bebe 7788 2dbf 2573 5d3c 9f73 10bf
00000180: 1581 22bf 3e53 02bf 0f09 5bbf 4d03 c5be
00000190: 0c6f 54be 530c 27bf 8758 213f 6d6d 0abf
000001a0: eef8 dbbd e346 1b3e cb01 21bf ac88 d3bd
000001b0: 59c2 49bf 94f1 babd 74a4 4fbf 9d10 3cbf
000001c0: 63fe c4be 5e9b f4be 8be8 89be 970d 38bf
000001d0: 8a8a c2be 133c 02bf 781c 5ebf fb77 95be
000001e0: 96b4 ebbe 4a4f 9ebd 3ca2 23bf 35a2 c2be
000001f0: 6707 5d3e 0d24 b8bd 8873 b3be ac2d 1ebf
00000200: e6da dd3d b5ec 0e3f fdb0 da3f 4394 c13e
00000210: bb3a fa3e 15da d43f a1da e03f 6d0f 9d3e
00000220: dce3 5f3f c664 c83f 9511 4fbe d573 ad3f
00000230: d7f7 923f c16a 213f 1456 ae3e dab5 993e
00000240: 7a7a b53f 7e05 bc3f 35b0 8e3f 9380 c73f
00000250: d280 b93f 113b de3f c73d 193f ed8a 9e3f
00000260: 5acc a03f f91e 533f ff12 1e3f 5fc7 023f
00000270: 1e07 f43e 11bb 283f f0b9 563e bed2 dd3f
00000280: c234 5f3f 2386 fb3f ae29 893f 68e9 b73f
00000290: 2076 2040 f22e b33f e9cb c53f fc83 a23f
000002a0: 3478 d83f 8de3 5840 0968 963f a77d 1c3f
000002b0: f329 943f bd70 1940 0107 b83f 0d3e 8d3f
000002c0: 1f23 2d3f 0dae 573f a446 e83f a3d8 bf3e
000002d0: 9635 903f c890 413f 7ff9 253f 1ad9 ab3f
000002e0: 2e15 053f 1bfb 113f c8bd e53e f43c 9d3f
000002f0: 0265 d13f 7200 e33f 7bcb cd3f 55c6 ed3f
00000300: c082 263f 9729 173f 831f 0640 13ac c13e
00000310: 1194 f13e 2897 7c3f 49b9 bf3f 3316 283f
00000320: 3f5a 473f 16c1 0240 55f0 53be 6c44 273f
00000330: e791 8f3f 6c92 5b3f 55e9 90bd 93fa 2d3f
00000340: 7fe6 d93f ced5 2c3f f4dd cf3f 198a 893f
00000350: 47ed 603f 8632 1640 9451 0f3f 0d83 6d3f
00000360: d20e 9d3f 7de5 153f 528d 003f aefa 4f3f
00000370: 4d77 313f 3536 bf3e 6649 75be 56bd e13f
00000380: 6d4a a83e 20fa 1540 bb3b 903f 9a2a f83e
00000390: cc28 e93f 8fd3 623f b350 f93f 48d4 cd3f
000003a0: 7ebd 0240 7de4 4840 5926 583f cc58 3c3f
000003b0: c651 bf3f e1f4 0640 b383 ed3f 7ee9 e03f
000003c0: a572 b13e b07c 083f 96b3 2740 603c 933e
000003d0: 448f d23f 1e35 573f da6e 3b3f 26cb 703f
000003e0: 2ba7 dcbd 3044 223f ef12 243f fa76 dc3f
000003f0: 8a7d d43f 3841 0240 3816 9a3f 88c8 7a3f
0.055949107 -0.2102164 -0.15867557 -0.023265546 0.27056313 -0.08717689 0.24437599 0.19473934
0.1590067 0.037478667 0.06399299 -0.29685012 -0.10395842 -0.28092557 0.021308806 -0.29175872
0.20431164 -0.25097165 0.22152285 -0.1786792 0.052576993 -0.076636314 -0.28132203 -0.019168941
0.07026585 0.20116106 -0.29766834 0.18005234 -0.08333016 -0.073084034 -0.16538092 -0.27696756
0.19484928 -0.2836312 0.24947375 -0.07847983 0.0023548496 0.008623255 0.15336351 0.059631504
-0.14457542 -0.09254929 -0.13984418 0.14268117 -0.26061198 -0.16242875 -0.024187615 -0.2299727
-0.013053326 -0.10315469 -0.15895118 0.262458 -0.14662725 0.06982354 -0.17445214 0.20193642
-0.24769911 -0.18268777 -0.10069785 0.079332 0.053494427 0.1214527 -0.26139638 -0.21755539
0.1664356 -0.36845645 -0.68066466 -0.7750115 -0.48483574 -0.43323737 0.3334021 -0.83582604
-0.30846813 0.047523573 -0.26658404 -0.7021578 -0.63467705 -0.5767077 -0.047551896 -0.5865582
0.28774232 -0.688695 -0.12390818 -0.23636656 -0.35903513 -0.18703835 -0.6097647 -0.83563185
-0.5486698 -0.34346583 -0.81440884 -0.81937337 -0.37205714 -0.67786354 0.013516222 -0.56426424
-0.63478214 -0.5090827 -0.855607 -0.3847908 -0.20745486 -0.6525318 0.63025707 -0.5407322
-0.10740839 0.1516376 -0.6289336 -0.103288025 -0.78812176 -0.091281086 -0.8111031 -0.7346285
-0.38475332 -0.47774786 -0.2693523 -0.71895736 -0.37996322 -0.50872916 -0.8676219 -0.291931
-0.46036214 -0.07729967 -0.63919425 -0.3801438 0.21584855 -0.08991251 -0.3504908 -0.6178844
0.10832767 0.55829936 1.7085263 0.37808427 0.48872933 1.6629053 1.756672 0.3067583
0.8745706 1.5655754 -0.20221551 1.3550974 1.1481885 0.6305352 0.34050047 0.30021554
1.4178002 1.4689176 1.1147524 1.5586113 1.4492438 1.7361776 0.5985989 1.2386147
1.2562363 0.82469136 0.61747736 0.51085466 0.4766168 0.6591044 0.20969367 1.7329938
0.8718988 1.965031 1.0715845 1.4368105 2.5072098 1.3998702 1.5452853 1.2696528
1.6911683 3.3888886 1.1750499 0.6112923 1.1575302 2.397506 1.4377137 1.1034561
0.67631716 0.84249955 1.8146558 0.37469968 1.1266353 0.75611544 0.64833826 1.3425629
0.5198544 0.5702378 0.44871354 1.2284226 1.635895 1.7734511 1.6077722 1.8576151
0.6504326 0.59047836 2.0956733 0.37826595 0.47183278 0.98668146 1.497842 0.65658873
0.7787208 2.043035 -0.20697148 0.6533878 1.1216401 0.857703 -0.070757546 0.6796047
1.7023467 0.6751374 1.623961 1.0745269 0.87862056 2.3468337 0.55983853 0.9277809
1.2270148 0.58553296 0.5021564 0.8124188 0.69322664 0.37346044 -0.2395378 1.7635906
0.32869282 2.3433914 1.1268228 0.48470002 1.8215575 0.8860406 1.9477752 1.6080408
2.0428157 3.1389458 0.84433514 0.73572993 1.494683 2.1086962 1.8555816 1.7571256
0.3465778 0.5331526 2.620336 0.28757 1.6449971 0.84065425 0.7321602 0.9405998
-0.10774072 0.63385296 0.6409139 1.7223809 1.6600811 2.0352306 1.2038031 0.97962236

h2.bias f4 [64]
00000000: fd20 aebd df56 19bf 0844 4d3f 13ba 213f
00000010: c09c 26bf 4076 263d b86b 583f 72d0 2bbf
00000020: b339 20bf ac3c 103f ea1c 55bd 639a 11bf
00000030: 2660 433f 2159 1abf 999a 18bf d50d 2e3f
00000040: e955 403f 5056 4e3f 3874 0fbf 2ae0 c4bd
00000050: 5d80 20bf 90eb 023d a927 233f e87f 333f
00000060: 2775 163f c1d3 3d3f d59c 0cbf e38c d0bb
00000070: 8163 c43d 3dd8 02bf c75a 10bf ea4c 1fbf
00000080: 17f4 24bf 16f3 a93f cb9c 023f c073 323f
00000090: 2c81 25bf 4b3c 693f 8b8a 333f 7181 0f3f
000000a0: 3892 2e3f 65f5 13bf 6479 1dbf d95c 543f
000000b0: e366 17bf ed51 543f 64ab 20bf 3182 16bf
000000c0: bd4a 223f 6dea 083f 5572 3e3f aa2f 183f
000000d0: 4de5 413f b122 01bf 7066 58bf 706b 273f
000000e0: 8e7a 1c3f 8458 0dbf e715 0b3f 7292 0f3f
000000f0: c636 1c3f d3b9 27bf abdf c7bd eb4a 313f
-0.08502386 -0.5989818 0.8018193 0.6317455 -0.6508293 0.040640116 0.84539366 -0.6711494
-0.6258804 0.5634258 -0.052029528 -0.568762 0.76318586 -0.6029225 -0.596109 0.67989856
0.7513109 0.8060045 -0.5603671 -0.096130684 -0.62695867 0.03196293 0.6373239 0.70117044
0.5877251 0.74151236 -0.54926807 -0.0063644513 0.09589291 -0.51111203 -0.56388515 -0.62226737
-0.6443495 1.3277309 0.510205 0.6970787 -0.64650226 0.91107625 0.70133275 0.56056887
0.6819186 -0.5779632 -0.6151335 0.82954174 -0.5914137 0.8293751 -0.6276152 -0.58792406
0.6339529 0.53482705 0.74393207 0.5944773 0.7574051 -0.5044356 -0.8453131 0.6539831
0.61124504 -0.5521319 0.54330295 0.5608283 0.6102108 -0.6551792 -0.09759458 0.6925494

h3.weight f4 [4, 64]
00000000: 6249 013e 1b40 d9be 34f1 e9be e78c b8be
00000010: 2264 f0be 3067 b53d ea20 17bf 3e0a bbbe
00000020: 3403 9abe 9160 0cbf 338c 7abd 70ea 0bbf
00000030: 359b eebe 867c a2be f6fd c0be cb1d 4dbf
00000040: 6490 c3be 5191 5cbf af42 b4be 8ad1 2dbe
00000050: 5c0b 08bf 1d3e 6a3d 482a ecbe a0a7 52bf
00000060: d56f 04bf 3878 b3be b4fd b7be 828f 4ebf
00000070: a1c4 733e 058d 9dbe 4a1c 5bbf 7661 d6be
00000080: 0855 20bf e681 a33d 8164 25bf f2c6 c0be
00000090: 50c0 11bf 2748 3cbf eedd 20bf e362 32bf
000000a0: d7ce 0fbf 9963 7a3e 3f3b 39bf 2cc2 aebe
000000b0: 38d0 cfbe cb6b ecbd a276 12bf a906 3ebf
000000c0: 9443 56bf edd9 18bf fff7 4cbf beb9 d0be
000000d0: 7edb 9fbe 39e5 1ebf 3df4 55bf 7624 24bf
000000e0: 1d8a 4abf a73b 34bf 7f01 06bf 3c8e 37bf
000000f0: 48d6 57bf 9451 16bf bec3 8ebe ef6a 61bf
00000100: 4e91 dfbd 324a 323f 9d12 e93f 3e7f de3f
00000110: 6ce3 223f 59f2 fc3d 7254 0140 ba12 e03e
00000120: 8235 99be f1cb d03f 3a9d f6bd 917d 393f
00000130: 544a 1f40 1fce 2f3f a0e7 113f 0e27 e53f
00000140: ab7b 0640 b3c4 0c40 3c9e e43e 4099 313d
00000150: 1d28 c43e 20d8 3cbe 2721 dc3f 391b 0640
00000160: 4577 d63f ce6a da3f 4688 d13e c6e9 3a40
00000170: f5ec 1bbe 763b 16be 4cc1 6b40 271f 6cbe
00000180: b80c b4bd 2410 4f40 1c92 d23f 5509 b93f
00000190: 6cfe 1c3f c169 1540 61f8 c63f 0db5 cb3f
000001a0: 0d64 a93f 66b7 e43e 8644 06be c073 f83f
000001b0: b24e 9d3e 675a 2540 341b 1e3f 4e36 573f
000001c0: 2f64 af3f 4fe1 d93f 23bf 1540 09d6 853f
000001d0: aa7b 0540 8927 c93e edd2 f73e 8353 1f40
000001e0: 34f6 0240 5cce 023f a23c 3740 f127 3e40
000001f0: 2d01 e33f 4c11 563e 8cd4 21be ea56 c93f
00000200: 6050 49be 8129 253f d41b 753f 784f fe3f
00000210: 1c1c 233f 4f3c 943e 9fcd f03f 4271 0d3f
00000220: 07a5 c43e cb11 de3f 4821 f83d 64ec 9a3e
00000230: 0915 c73f 8f73 3f3f 6650 f83e 405f c73f
00000240: 0899 e83f 98e0 633f c4fb 963e c9d3 783d
00000250: b484 0a3f 0cb6 853e 172a cd3f 92d2 0440
00000260: c2f9 8b3f 8406 e23f b067 d93e 69f3 1840
00000270: b3af 97be a225 453f b697 6e3f bce9 b03e
00000280: a941 033f 4687 2440 3eb7 853f 44bd 953f
00000290: 1e79 ba3e a28e 0240 a309 983f f37d cb3f
000002a0: b552 da3f efdb 043f 1196 c63e 0a67 f13f
000002b0: a4ce ad3e 3cc1 0640 a70a 053f dc6a e33e
000002c0: fafc 873f 5162 e63f 84ea f23f 411f b13f
000002d0: 8382 e03f 0e8a a83e 2832 413f 5162 903f
000002e0: 1157 c83f d027 b13e 1c86 773f 15a5 f13e
000002f0: a875 d43f db0f f83e ceaa 75bd e182 c03f
00000300: 3459 6dbe 3d5d bfbe e2df 24bf c442 65bf
00000310: d294 4dbe c20c 07be e246 2dbe c854 e3be
00000320: e286 0cbf 2960 3bbf 441f 503e 6457 4dbf
00000330: 390a 26bf 1b4b f5be b766 16bf 2988 33bf
00000340: 4b70 4fbf 2cbd bebe 0f2a 0bbf 0cce 4ebd
00000350: fd89 9abe b85c 1a3e 294b 5abf 758a 36bf
00000360: 0bad 19bf 6813 3dbf 6734 8bbc adcc b5be
00000370: 072f 27be bf61 e5be 0f52 f0be ca7e c9be
00000380: 1eae 13bf da9b 98be f7a8 31bf f214 2fbf
00000390: 4dfb f7be 3e36 f73c 6925 d0be e3b8 5fbf
000003a0: 7627 5ebf dd7e 96be 0bf4 e6be 134c 0abf
000003b0: 3ff4 51bf 3feb 0ebe 5b13 54be 4c44 c9be
000003c0: 5e4b 0cbf 0084 58bf 08de 25bf c482 5abf
000003d0: c8df 1fbf 19c7 f2be bc9e e4be f392 64bf
000003e0: a92b 49bf 26ba babe 5bc1 53bf fe68 4abf
000003f0: 09b2 e4be cb0a e2be a510 373e 7dc6 2dbf
0.1262565 -0.4243172 -0.45691836 -0.36045 -0.46951395 0.08857572 -0.590346 -0.36531252
-0.3008057 -0.5483485 -0.06116886 -0.546546 -0.4660279 -0.3173563 -0.37693757 -0.80123585
-0.381961 -0.86159235 -0.35207126 -0.16974464 -0.53142333 0.057188142 -0.46126008 -0.82287025
-0.5173314 -0.35052657 -0.35935748 -0.80687726 0.23805477 -0.30771652 -0.8559004 -0.41871232
-0.6262975 0.079837605 -0.6460648 -0.37651783 -0.5693407 -0.73547596 -0.6283864 -0.6968214
-0.5617499 0.24452056 -0.7235603 -0.34132516 -0.40588546 -0.115439974 -0.5721227 -0.7422891
-0.83696866 -0.5970753 -0.8006591 -0.4076671 -0.31222147 -0.62068516 -0.83575803 -0.64118135
-0.79116994 -0.7040352 -0.5234603 -0.7170141 -0.8431134 -0.5871823 -0.27883714 -0.8805379
-0.109163865 0.69644463 1.8208805 1.7382581 0.6362827 0.12350912 2.0207791 0.43764287
-0.29923636 1.6312238 -0.12041707 0.72457224 2.4889116 0.6867389 0.56994057 1.7902544
2.101298 2.1995056 0.44651973 0.04335904 0.38311854 -0.1844182 1.7197617 2.0954115
1.6755148 1.7063844 0.4092428 2.9205184 -0.1522711 -0.1467112 3.683673 -0.23058759
-0.087914884 3.2353601 1.6450839 1.4455973 0.61325717 2.3345797 1.5544549 1.5914627
1.3233658 0.44671172 -0.13112077 1.9410324 0.30724102 2.5836427 0.6176026 0.8406724
1.3702449 1.7021884 2.339791 1.0455943 2.0856729 0.39287975 0.4840311 2.4894722
2.046277 0.5109613 2.8630757 2.9711878 1.7734734 0.20905036 -0.15803736 1.5729649
-0.19659567 0.64516455 0.9574559 1.9868002 0.63714767 0.28952262 1.881275 0.5525094
0.38407156 1.734918 0.12115723 0.30258477 1.5553294 0.74785703 0.4849884 1.5575943
1.8171701 0.8901458 0.29488957 0.06074885 0.5410874 0.26115453 1.602847 2.0753522
1.0935595 1.7658238 0.4246192 2.3898566 -0.29626235 0.7701055 0.9320024 0.34553325
0.51272064 2.5707564 1.0446546 1.1698384 0.3642053 2.0399556 1.1877941 1.5897812
1.705649 0.5189809 0.38786367 1.885957 0.33946717 2.105544 0.5196938 0.44417465
1.0624077 1.7998754 1.8977818 1.3837663 1.7539829 0.32917827 0.7546716 1.1280004
1.565157 0.34600687 0.9668901 0.4719626 1.6598406 0.48449597 -0.059977345 1.5039941
-0.2317856 -0.37375823 -0.6440412 -0.89555 -0.20076302 -0.1318846 -0.16921571 -0.4440062
-0.54893315 -0.73193604 0.20324427 -0.8021147 -0.6485935 -0.47908863 -0.5875048 -0.7012964
-0.8103072 -0.37253702 -0.5436105 -0.05048947 -0.30183402 0.15074432 -0.85270935 -0.7130502
-0.6002967 -0.73857737 -0.01699276 -0.35507718 -0.16326533 -0.44801137 -0.46937606 -0.39354545
-0.57687557 -0.29806405 -0.69398445 -0.68391335 -0.48433915 0.030177232 -0.40653542 -0.8739149
-0.8677896 -0.29393664 -0.45108065 -0.5402233 -0.82013315 -0.13956927 -0.20710509 -0.3930992
-0.548025 -0.84576416 -0.6479192 -0.8535578 -0.6245084 -0.47417524 -0.44652355 -0.89286727
-0.78582245 -0.36470145 -0.8271691 -0.79066455 -0.4466708 -0.4414886 0.17877443 -0.67880994

h3.bias f4 [4]
00000000: 7793 0bbf daf2 643f 461d 183f 8958 2ebf
-0.5452189 0.8943306 0.5941967 -0.68103844
