weights/weights_LF=4_dense/w=0.34_1.pth (torch, 38796 bytes, 8 tensors)

input.weight f4 [64, 4]
00000000: e1b1 b1c0 ad1e 97c0 8aa6 acc0 e9f0 b9c0
00000010: 0643 2240 776b 4640 71e0 df40 0be4 9640
00000020: ed09 78c0 b7cc 90c0 e157 a5c0 da81 87c0
00000030: fded a5c0 3495 9fc0 777a 58c0 c1f4 7fc0
00000040: 7117 03c0 8061 82c0 3743 55c0 b648 44c0
00000050: b27a efc0 c34b 00c1 da4e efc0 ed9e dac0
00000060: 3cf1 6dc0 eb54 61c0 bfd4 3ac0 bacf 91c0
00000070: 4a82 61c0 fcf6 64c0 da7b 19c0 fe05 61c0
00000080: 765f 7c40 6e33 ad40 062d b940 4d42 8d40
00000090: 8c33 c740 7373 8040 9f9b 8540 680e 9f40
000000a0: dc01 8fc0 bde6 a0c0 bda3 b9c0 c00b 89c0
000000b0: 4c4f 0541 385a 1641 1ee5 1a41 aa4d 1941
000000c0: dc7f 94c0 d1d0 b5c0 0b01 a7c0 a5a0 b3c0
000000d0: efa3 7b40 acd9 4b40 68f6 b340 0796 9940
000000e0: 5e4b 9540 879c 9a40 f92b 9f40 d2a6 6340
000000f0: 7c5c d23f aee8 cb3f 86a8 0140 8fa4 d43f
00000100: 282d 2540 e937 8e40 3dc8 9440 e1c6 9940
00000110: e96d e4bf 7522 4fc0 69e5 39c0 6114 97bf
00000120: c550 a4c0 cc04 bdc0 b2e4 acc0 3af5 bcc0
00000130: 3afb 65c0 a724 8ec0 9f7a 8ac0 49c2 70c0
00000140: 1e83 8a3f 3044 3640 9c6e 3940 41da f93f
00000150: 3076 6dc0 85a4 a1c0 1a8c 9cc0 23e2 b3c0
00000160: 840a 2ec0 b312 6ac0 3ce2 b3c0 35d0 1fc0
00000170: e59f 6ac0 734c 98c0 ca51 7bc0 e92c a1c0
00000180: f92a 7440 c3c7 1540 c2dc 5f40 a883 8240
00000190: 9622 8940 8df6 7240 47c9 6a40 6256 9940
000001a0: dd09 ac3f aaec f13f e3f5 c93f abb3 1140
000001b0: 81ad 2a40 a214 2340 af02 6040 038f 3d40
000001c0: 7609 0ebf 49c2 00bf b3ba 3cbf 54c6 603f
000001d0: 1b4e a1c0 8d05 a8c0 e2b9 90c0 08d6 5dc0
000001e0: df44 6540 8be6 7040 1836 a940 8166 7940
000001f0: 0f0a 7c40 cbb1 8d40 eb89 5340 4778 1f40
00000200: d1ee 2fc0 d0dc 70c0 2a08 13c0 86a3 2cc0
00000210: 19d2 8b40 c1fe cc40 ebfc d640 ff23 9240
00000220: 061a 4cc0 4339 a2c0 de60 b2c0 92c6 7fc0
00000230: 9820 7b40 3811 7240 4943 8a40 b2ac a040
00000240: 0af7 3640 6079 c840 a419 0c41 7148 bf40
00000250: 7eb8 bf40 0a1d cc40 0ced ab40 9f28 a940
00000260: f930 4940 3a7f 7440 5c81 7940 9d1e 3c40
00000270: 4170 de40 d8dc b240 7e6b 8b40 6e11 b740
00000280: 1e24 7140 8f90 6640 7ca0 7e40 7846 8140
00000290: 07e8 85c0 be51 65c0 20c4 b7c0 b679 9dc0
000002a0: 7f5d e240 3eea 0141 5b54 b840 ebb5 ed40
000002b0: f5fe 9940 072f c340 005b 9c40 c32e a740
000002c0: f261 f2bf efe5 4fc0 06c9 38c0 e442 acbf
000002d0: 7a60 3140 9246 7940 64b2 3940 4393 3740
000002e0: 6e3c 9840 8786 b440 d66b c740 64a5 bb40
000002f0: 3592 49c0 ceeb 87c0 dcfe 9fc0 d7fe 85c0
00000300: bfd8 4d40 eb30 3c40 38ce 4d40 6873 eb3f
00000310: d91b d340 e204 b340 165b a040 63cd b840
00000320: 4c17 6ec0 5d57 a7c0 d038 83c0 7a75 9ac0
00000330: d946 2640 0841 aa40 fae3 9540 4c04 ac40
00000340: 0940 67c0 855a 72c0 7d23 95c0 c2e9 8ac0
00000350: a93b 5b40 a017 3940 5c3f a240 e0d3 7640
00000360: ed90 48bc f13e b2bf 0357 83bf a0b1 0ac0
00000370: c868 8c40 fb8e 9640 58c0 a240 6501 5e40
00000380: fd82 da40 5976 a640 b02f f340 2227 cf40
00000390: ecef 8240 8ca0 8a40 78ca 1a40 cee6 8440
000003a0: 1e48 cec0 0ec5 9fc0 183b aec0 b83e b8c0
000003b0: aecd 3040 b11a 6140 0581 3340 2b77 fb3f
000003c0: 337d 1240 24d1 8340 0fbd 8040 63da 9840
000003d0: 6e82 7c40 7ece 4340 265c 9140 db55 6840
000003e0: 080b adc0 8ef7 8fc0 24d8 93c0 e542 acc0
000003f0: e335 173f 0b93 4f3f c2b9 2840 04e7 783f
-5.5529637 -4.7224946 -5.3953295 -5.810658 2.5353408 3.1003091 6.9961476 4.7153373
-3.8756058 -4.5249896 -5.1669774 -4.234601 -5.1853013 -4.9869633 -3.3824747 -3.9993136
-2.0483057 -4.074402 -3.3322275 -3.066938 -7.4837275 -8.0184965 -7.4783754 -6.8319
-3.7178488 -3.520808 -2.919235 -4.5566072 -3.5235772 -3.5775747 -2.3981843 -3.5159907
3.9433265 5.412528 5.786746 4.4143434 6.2250423 4.014093 4.1752467 4.9705086
-4.468977 -5.0281663 -5.8012376 -4.2826843 8.33186 9.397026 9.680937 9.581461
-4.640608 -5.6817403 -5.2188773 -5.61336 3.9318807 3.1851606 5.623829 4.799564
4.66545 4.8316073 4.9741178 3.557057 1.6434474 1.5930383 2.0259109 1.6612719
2.580881 4.444325 4.649443 4.805527 -1.7846042 -3.236478 -2.904627 -1.1803094
-5.1348596 -5.9068356 -5.402917 -5.904935 -3.5934587 -4.441974 -4.3274684 -3.7618582
1.0821264 2.8479118 2.897376 1.9519731 -3.7103386 -5.051333 -4.8921022 -5.6213546
-2.7193918 -3.6573913 -5.6213665 -2.497083 -3.6660092 -4.759332 -3.926867 -5.036732
3.8151228 2.3403175 3.497849 4.0785713 4.285472 3.7962983 3.668535 4.791795
1.344051 1.8900349 1.5778164 2.276591 2.6668398 2.5481343 3.5001638 2.9618537
-0.55483186 -0.50296456 -0.7372238 0.87802625 -5.0407844 -5.2506776 -4.522691 -3.4661884
3.5823286 3.7640712 5.2878532 3.8968813 3.938114 4.4279532 3.3052928 2.4917161
-2.7489512 -3.7634773 -2.2973733 -2.6974807 4.3693967 6.406098 6.718374 4.566894
-3.1890883 -5.06949 -5.5743246 -3.9964948 3.9238644 3.782301 4.3207135 5.021081
2.858828 6.2648163 8.75626 5.977593 5.991271 6.378545 5.3726864 5.2862086
3.143614 3.8202653 3.8985205 2.9393685 6.951203 5.5894585 4.3568716 5.7208776
3.7678294 3.6025732 3.9785452 4.039852 -4.1845737 -3.5831141 -5.742691 -4.9211073
7.073913 8.119688 5.7602973 7.428457 4.8123727 6.0994906 4.8861084 5.224458
-1.893614 -3.248409 -2.8872695 -1.3457913 2.7715135 3.8949323 2.901513 2.8683631
4.7573767 5.641422 6.2319136 5.8639393 -3.1495488 -4.2475348 -4.999861 -4.1873584
3.2163541 2.9404857 3.2157116 1.8394594 6.5971494 5.594346 5.011119 5.7750716
-3.720172 -5.2294145 -4.100685 -4.8268404 2.5980742 5.3204384 4.684079 5.3755245
-3.6132834 -3.7867749 -4.660582 -4.341035 3.4255164 2.892067 5.0702343 3.8566818
-0.012241584 -1.3925458 -1.0260929 -2.1670914 4.3877907 4.7049537 5.0859795 3.468835
6.82849 5.2019467 7.599571 6.473527 4.0917873 4.332098 2.4186077 4.1531744
-6.4463034 -4.9928045 -5.4447136 -5.757656 2.7625537 3.517254 2.8047497 1.9645742
2.2888916 4.11928 4.0230784 4.7766585 3.9454608 3.0594783 4.5424986 3.6302402
-5.4075966 -4.498969 -4.6201344 -5.383166 0.590666 0.81083745 2.6363378 0.972275

input.bias f4 [64]
00000000: bcea a6c0 70a4 8a40 2da9 82c0 5be7 72c0
00000010: 3e53 45c0 a434 eac0 8876 5ec0 4a5a 48c0
00000020: e5a2 9b40 1203 a340 bb03 9ac0 b401 1041
00000030: 00f6 99c0 b6ba 8b40 e881 9f40 963d b93f
00000040: a4e2 7140 90c2 01c0 2b1b c0c0 abe1 7fc0
00000050: 42a0 0840 64bd 93c0 f3c9 72c0 1629 8ac0
00000060: 86b4 3d40 5b8b 7e40 0b7a ae3f c096 2440
00000070: 27d6 64bd 7e63 7cc0 55ea 7d40 d0e1 5740
00000080: 7f18 3ec0 bc6f ac40 889d 8ac0 4eb9 7840
00000090: e2d0 c940 f4cf 9440 2c36 4440 67ca bb40
000000a0: 3a1f 8740 842c 89c0 cca3 df40 e958 9b40
000000b0: 9984 07c0 731e 3740 c50d b440 ec5f 74c0
000000c0: 50a1 2840 000d bb40 ec3b 97c0 126d 8d40
000000d0: 85f2 67c0 0ab7 8440 5c37 c1bf 855f 8840
000000e0: 3909 c140 799d 6740 370b aec0 f163 2740
000000f0: 70ca 8540 977a 6f40 0ef5 8cc0 91f2 ae3f
-5.216154 4.332573 -4.0831513 -3.7953708 -3.0832057 -7.318926 -3.4759846 -3.1305108
4.8636346 5.094125 -4.8129554 9.000416 -4.8112793 4.366542 4.9846077 1.447192
3.779458 -2.0275002 -6.0033164 -3.9981487 2.1347814 -4.616869 -3.793576 -4.3175154
2.9641433 3.9772556 1.3630995 2.571701 -0.055868294 -3.9435725 3.9674275 3.3731575
-2.9702451 5.3886395 -4.33173 3.88631 6.3067484 4.650385 3.0658064 5.8684573
4.222562 -4.286684 6.9887447 4.8546033 -2.117468 2.8612335 5.626681 -3.8183546
2.6348457 5.845337 -4.7260647 4.4195642 -3.6241772 4.1473436 -1.5095019 4.26166
6.032376 3.6189864 -5.438869 2.615475 4.1809616 3.7418573 -4.404914 1.3667775

h1.weight f4 [64, 64]
00000000: 4bf4 083f af52 c73e 5d2e ec3e c5ab f33e
00000010: 1f15 443f 29ea 38bf 6326 b33e 5b8f f93e
00000020: 4655 acbe 5431 53bf daee 153f 4660 973e
00000030: c722 2bbf c363 9c3e 7f8c 37bf ac4b 52bf
00000040: e033 c33e 8be5 c33e b03d 473f 4a30 b33e
00000050: d933 e33e 84ba 87be 467e ab3e 6a92 2b3f
00000060: 5e61 b9be 3115 2abf 37ec 5abf 0b0f 4ebf
00000070: c8e4 213f 5963 0d3f d555 acbe a7d0 1dbf
00000080: b597 393f 16f3 7f3e a175 b0be 2711 8dbe
00000090: eb46 293f 5072 dcbe 3fdb 54bf 085c 073f
000000a0: 79a5 da3e d44f c4be 85a9 e6be 5502 1bbf
000000b0: 525c 833e 478a 18bf cf09 9b3e 6947 393f
000000c0: 1288 8dbe 4723 04bf 7ac1 143f 9dba 8a3e
000000d0: b7ec 4d3f 6126 f1be 98af 9ebe 3db6 46bf
000000e0: a73e ca3e 7bb2 35bf 0536 d93e 7beb c8be
000000f0: e67d ce3e 4293 31bf c562 383f e008 3e3f
00000100: 95ec 973e e43d df3c 8c5b 393e 4f99 20bc
00000110: 289f 9f3c 89ba 773e 1fe3 6e3e 396d debc
00000120: 3627 2abe 4b6a 983e e3d2 dbbb 3687 c73d
00000130: 9c1a 913e 4817 49be c825 243e 39a0 60bb
00000140: b991 59bb 60b6 823e 76da d53d 4bdf a6bd
00000150: c174 b13d c3af c5bd 2663 2abe 9355 63be
00000160: e89d aabd cf86 8fbc 6be9 c3bd 10cd 37be
00000170: 5610 b4bb 68f4 77be 42cf 13bd b83b debd
00000180: d4af 45be 7a9c 0d3e 4526 bebd 7719 993d
00000190: 546c ecbd 2e0b 35be c91e 4dbe 4871 82bc
000001a0: 3479 8bbe 6a75 debc ae3b 2e3d de54 8b3e
000001b0: 1178 063e 703b 41be bb13 933e ab12 2c3d
000001c0: 1886 34be 9c7d 0abe be32 313e 8044 733e
000001d0: 21cc be3c a70f 75be 3277 173d 62ad 683e
000001e0: 9f00 733d b253 8cbe 83ec 8cbe bdad 6e3e
000001f0: d318 39be 9c90 863e fb4f 0c3e f574 8e3e
00000200: a592 b93e cd8a 4dbf a5b9 5c3f 1c24 603f
00000210: beed 073f 7839 04bf f9d8 213f abe9 583f
00000220: ed58 debe ba5d 26bf 591a e23e 9409 9c3e
00000230: 399a af3e f510 f4be 2c28 59bf ae77 bebe
00000240: 3cbf 9fbe fe2b 1e3f e687 1f3f 5f49 d13e
00000250: ec8c 9c3e ce12 143f a468 cabe ab3b 513f
00000260: 2949 d8be 0f3b 53bf 3cc1 eabe dce2 59bf
00000270: b23d f63e eddb c23e f1bc 24bf df90 ac3e
00000280: d56e ef3e cde9 0dbf 2f8e 093f 399a cabe
00000290: 85a2 e7be 6cfb 3ebf 297e 1fbf cfb9 473f
000002a0: 3bbf 593f 305f af3e 9a9a 0cbf 87d4 5dbf
000002b0: bf9e f53e 864b 2dbf 5153 1fbf 0ac2 013f
000002c0: f75d 16bf 0ccc 9abe 9683 06bf e241 48bf
000002d0: 0083 0b3f fa5c e4be 1dcd 4abf c7a4 40bf
000002e0: 87e6 b1be 1f24 03bf da18 543f 8a3e 64bf
000002f0: 74da 3abf 10ff 47bf cbe4 293f b3cc a73e
00000300: 2b11 0ac0 f8a5 0b40 f006 11c0 7aa0 dabf
00000310: 8eae 13c0 940c 2ac0 8c03 05c0 ca96 c4bf
00000320: da28 3140 75f7 e63f 691b 2fc0 2d47 3540
00000330: 6566 0ec0 1077 7e40 815a 8840 8fa3 853f
00000340: e73f 1140 4c5b dcbf e187 57c0 496c 3dc0
00000350: 7333 763b 41dc eebf 43b1 1fc0 d968 0dc0
00000360: c230 d93f 749a 0a40 139c b93f a80c bf3f
00000370: aa7c 60bf 71fa ebbf 54c4 2140 41f0 a23f
00000380: bf00 abbf 95cd 5140 f067 59c0 57e9 fb3f
00000390: dc03 3740 5836 f83f d82c 0540 fb96 823f
000003a0: e36f 3940 d4ba 55c0 d92b 0d40 b34b 1040
000003b0: 26a3 9ebf 99b1 1340 57bc 5640 d44f 11c0
000003c0: f528 1240 a5c6 4c40 15db 6dc0 5dbe 2b40
000003d0: dcd1 cbbf a7d8 3740 c602 f73d b5df 5640
000003e0: 8668 b140 1a70 fb3f b7e5 1ac0 db56 0e40
000003f0: 3f10 6340 b8e2 c93f e2e0 e7bf 7e41 cbbe
0.5349776 0.3893027 0.46129122 0.47591987 0.7659473 -0.722323 0.34990224 0.48742184
-0.33658808 -0.82497144 0.58567584 0.29565638 -0.6684994 0.30544862 -0.71698755 -0.82146716
0.38125515 0.38261065 0.778285 0.3499778 0.44375494 -0.26509488 0.33494776 0.67020285
-0.36207098 -0.66438586 -0.85516685 -0.80491704 0.6323972 0.5522972 -0.33659235 -0.61646503
0.7249711 0.24995074 -0.34464744 -0.2755215 0.6612384 -0.43055964 -0.83147043 0.52874804
0.4270437 -0.38342154 -0.45051208 -0.60550433 0.25656372 -0.59585994 0.3028092 0.7237459
-0.27642876 -0.5161633 0.5810772 0.270955 0.80439323 -0.47099593 -0.30993342 -0.77621824
0.39500925 -0.70975465 0.42424026 -0.39242157 0.40330428 -0.6936532 0.7202571 0.7423229
0.29672685 0.027251191 0.18101329 -0.009802177 0.019485071 0.24192251 0.23328827 -0.02715169
-0.1661652 0.29768595 -0.0067084893 0.09742586 0.28340614 -0.19637787 0.16030037 -0.0034275188
-0.003319843 0.25529766 0.10442059 -0.081480585 0.08664847 -0.096526645 -0.16639385 -0.22200613
-0.083308995 -0.017520336 -0.09566005 -0.17949319 -0.0054951115 -0.24214327 -0.03608633 -0.10851234
-0.19305354 0.13829222 -0.09284643 0.0747556 -0.115440995 -0.17680046 -0.20031275 -0.015923157
-0.27240908 -0.027155597 0.042537384 0.27213186 0.13131739 -0.1887033 0.2872599 0.04200999
-0.17629278 -0.13524479 0.17304513 0.237566 0.023290696 -0.23931752 0.036978908 0.2272239
0.059326764 -0.27407604 -0.27524194 0.23308463 -0.18075876 0.26282203 0.13702385 0.27823606
0.36244693 -0.8028992 0.8622077 0.875551 0.5309714 -0.5165019 0.632217 0.8473155
-0.4342722 -0.64986765 0.44160727 0.30476058 0.3429735 -0.47669187 -0.8482692 -0.37200683
-0.31200588 0.61785877 0.6231674 0.4087629 0.30576265 0.57841194 -0.3953296 0.8173167
-0.42243317 -0.8251199 -0.4585055 -0.85111785 0.48093945 0.38058415 -0.643508 0.33704278
0.46764246 -0.55434877 0.5373258 -0.39570788 -0.4524118 -0.7460239 -0.6230188 0.78017896
0.8505742 0.3425231 -0.54923403 -0.86652416 0.47972676 -0.67693365 -0.62236506 0.50686705
-0.5873713 -0.302338 -0.52544534 -0.7822553 0.54496765 -0.44602185 -0.7921923 -0.7525143
-0.3474619 -0.5122699 0.8285042 -0.8915793 -0.72989583 -0.7812357 0.66364735 0.3277336
-2.1572978 2.182005 -2.2660484 -1.7080224 -2.307529 -2.6570177 -2.0783415 -1.5358517
2.7681184 1.8044268 -2.736048 2.8324692 -2.2249997 3.976017 4.261048 1.0440539
2.2695253 -1.7215362 -3.3676684 -2.9597342 0.0037567287 -1.8660966 -2.4951942 -2.2095244
1.6968005 2.165677 1.4500755 1.4925737 -0.8769022 -1.8435804 2.527608 1.272957
-1.3359603 3.2781727 -3.3969688 1.9680585 2.8596106 1.9391584 2.080862 1.0202326
2.897454 -3.339528 2.2058012 2.2546203 -1.2393539 2.3077147 3.3552454 -2.2704973
2.2837498 3.1996243 -3.7164967 2.6834939 -1.5923419 2.8725984 0.12061076 3.357404
5.544009 1.9643586 -2.4202707 2.2240512 3.5478666 1.5772314 -1.8115504 -0.39698404

h1.bias f4 [64]
00000000: 7242 18bf 0d9b f0bc baca 29bf 24f8 a23f
00000010: 9dd9 be3f 59df 4940 c15b 933f 9d62 8e3f
00000020: 9f0c 8f3f 9ad1 843c 605d 06bf e7dd 733d
00000030: 1b0d 20bf ae11 12bf 67ac 1a40 3fce 8d3f
00000040: 4da3 bc3f 1758 02bf c445 1bbf c712 8f3f
00000050: a74b 1ebf 3367 d13f 0990 19bf 08be 30bf
00000060: 0ddc 613d b020 16bf ad2e 5d40 4153 10bf
00000070: a71f 1abf 7802 d7be cdba eebe 909d 193d
00000080: cded 14bf 86cd 993f 71cb 1cbf a358 993f
00000090: 362f 1cbf 4c8b 16bf 0572 7b3f bdd9 25bf
000000a0: c1df 27bf 5532 2ebf 29c1 653f 004c db3b
000000b0: 1b52 613f 617a 08bf e6b3 1cbf fd11 d73f
000000c0: 65fa 1b3f ae42 a3be 17c0 4a3f 173d 9b3f
000000d0: 5274 24bf f309 c63f 7a5c 513f 28c5 1ebf
000000e0: 498c 05bf 97d9 5240 df56 6b40 3591 2440
000000f0: 1b72 663f 7cdc 0cbf edd1 443f 67e8 c03f
-0.5947639 -0.029370809 -0.6632496 1.2731977 1.491016 3.154257 1.1512376 1.1123844
1.1175727 0.016213227 -0.5248623 0.059537794 -0.6252 -0.5705823 2.4167726 1.1078566
1.4737335 -0.50915664 -0.6065333 1.1177605 -0.61834186 1.6359619 -0.59985405 -0.69039965
0.055141497 -0.5864363 3.4559739 -0.56377035 -0.6020455 -0.4199407 -0.46626893 0.03750378
-0.58175355 1.2015846 -0.61247927 1.1980175 -0.6100954 -0.588063 0.98220855 -0.6478537
-0.65575796 -0.6804555 0.89747864 0.0066924095 0.8801591 -0.53311735 -0.61212003 1.6802365
0.60928947 -0.3188681 0.79199356 1.2128018 -0.6423999 1.5471786 0.81781733 -0.62019587
-0.52167183 3.2945306 3.6771772 2.5713627 0.9001786 -0.5502393 0.7688282 1.5070924

h2.weight f4 [64, 64]
00000000: 526d 463f 16b9 52be ff45 59bf fbfe ea40
00000010: 344b 3c41 468c 4441 f5cb 6f40 70f1 9c40
00000020: 0238 d140 6333 853d d962 24bd e6ba f7bc
00000030: c412 b2be f0e6 a3be aa9d 3541 afb9 c540
00000040: ecd4 0241 8792 ecbd af2e 27be 119e e140
00000050: bc4f 4ebf 956c 0c41 9d43 20bd c364 c0be
00000060: 6ccd ae3b df23 67bf 728a 3841 79a0 093f
00000070: cd62 57bf 6955 85bc 6936 883e facd 943e
00000080: eb47 f2be da10 ca40 7af6 40bf 0946 a540
00000090: d394 0c3c 628b 2d3e 8355 8740 de66 1cbf
000000a0: 94a2 893e 5c98 47bb a33f 2440 9f63 1d3d
000000b0: 3d48 e540 3af6 ecbe 03c8 c83e 9e43 0241
000000c0: 16be e340 5f97 0d3c 2df1 2c40 3af4 fb40
000000d0: 1437 31bd 755e 0b41 d2d7 6041 69b6 4cbf
000000e0: c05b 23bf 934e 3c41 4f9e 4641 c73c 3241
000000f0: a655 4640 2f0c 1dbf 020a c440 470e 7740
00000100: 816b 913e 0880 103e 812b b93e 9e4f 9f3f
00000110: 2f80 1440 d3be d440 e22b ba3f 125f 3d40
00000120: 2b59 9a3f 5e27 653d f5e0 ba3e a44d 9bbe
00000130: 5767 d53e 55bf 4abf 28cc c140 402e a83f
00000140: 033b ef3f a06d 123f 5bb5 9e3e cd94 0040
00000150: d2ed 133f 6f66 dc3f bfac cc3e 638c 0b3f
00000160: e16f 363e 9e40 ef3e 1762 be40 5655 e73e
00000170: 769b 423f 54ce 943e 2c9e a03d b46c 073c
00000180: 8784 003f 7fa7 be3f f4a9 0f3f 4842 d43f
00000190: 9df6 493f e9cf 3a3f d768 a83f ff32 473f
000001a0: f5f8 c93e dff3 c93e e520 af3f 5261 de3d
000001b0: 2b0b ad3f 0ccc b83e 4378 5c3f ad7a 1040
000001c0: 37cb a83f a895 133f dae3 c13f 99a3 e03f
000001d0: fbf7 943e 0359 c13f ab94 9b3f 670b 673f
000001e0: 97b3 36bf 9641 d540 e1aa de40 19f8 a740
000001f0: 3369 9e3f d88f 403f 7924 be3f f52e a53f
00000200: e409 ae3e 7be2 8cbe d9f8 1a3f 4975 b43f
00000210: d847 d83f 7ae0 ef40 f081 a33f 6cd7 6d40
00000220: a23f cc3f 5ee3 4cbe d5b5 1b3e 830c 9abe
00000230: 94f8 e73e c71e 8b3e e38e cf40 51b8 ad3f
00000240: 3de8 b03f a7df 1e3f 9127 be3e d435 d13f
00000250: c1ab 2a3f 02a5 d33f eddc f63e fb24 fb3e
00000260: 72b4 80be 15f5 df3e 55d0 ce40 9a6e db3e
00000270: d3dc 2e3f 3877 4e3f ae29 debc f8f0 af3d
00000280: 971e 9b3e 1668 9b3f f9ee 553f 4b67 a83f
00000290: 5aff 2b3f e88b fa3e fb12 983f d22d 523f
000002a0: bf19 0b3f 6c28 b63e 7116 7c3f 6598 9abe
000002b0: 9375 8a3f 6b6c 243f f942 e13e b34a 2540
000002c0: 0e57 853f c194 153f 2969 b23f 871e b83f
000002d0: b87a 3c3f 8e58 c13f cc18 9e3f c70b 2a3f
000002e0: 3a44 e33d e1e6 df40 f436 ea40 14e2 b840
000002f0: 1442 903f 2253 63bc 9e64 9c3f 9b06 a13f
00000300: ce28 9e3e 7a8e 7c3e 3012 f53e 306d c73f
00000310: 9f91 f33f 7949 d640 c8af 853f 02c8 2640
00000320: 0127 ad3f 2701 813e 4e55 973e 7f3b 593d
00000330: 3a8d f93e bba2 38bf 4bdf b740 86a2 bb3f
00000340: f6a8 dd3f 92e3 c73e a09d d73e 631b ae3f
00000350: 9d30 d33e 0f4b a43f 29ce 433f f45a 4f3f
00000360: 580a 71be 0f5d 243f 0d2a bd40 76b4 513f
00000370: f0b0 0c3f 57de c33e 3665 0d3e a197 aebd
00000380: 8bf6 213f aeab a83f 4ea2 643f 1dd1 ab3f
00000390: e542 fa3e 5ea5 133f ef1c 463f 8455 b73e
000003a0: eab6 123f 2aab 1b3f 91c9 b23f 0387 333d
000003b0: e024 963f 180b 263f f9ab 223f 46ba 1a40
000003c0: dffe 8e3f 4a45 9c3e bf48 ad3f 7693 cd3f
000003d0: 033e eb3e c77c ab3f 03ec 8a3f 18b0 513f
000003e0: 8ce6 d8be 18a4 c840 bce3 d840 7bf9 a640
000003f0: f1b6 a63f 8e34 0a3f 2d85 8c3f 47f2 793f
0.7751056 -0.20578417 -0.8487243 7.3436255 11.76836 12.284246 3.7468235 4.9044724
6.538087 0.06503942 -0.04013333 -0.030240487 -0.34779942 -0.3201213 11.350992 6.1789165
8.176983 -0.115513854 -0.16326402 7.050545 -0.80590415 8.776509 -0.03912698 -0.37576875
0.005334547 -0.9028911 11.5338 0.53760487 -0.84135133 -0.016276078 0.26604012 0.29063398
-0.47320494 6.314557 -0.75376093 5.164799 0.008580404 0.16947702 4.2291884 -0.6109446
0.2688185 -0.0030455803 2.566384 0.038425084 7.165068 -0.46281606 0.39215097 8.141508
7.116954 0.008642047 2.7022202 7.873563 -0.043265417 8.710561 14.0526905 -0.79965836
-0.63811874 11.769183 12.41365 11.139838 3.0989776 -0.61346716 6.1262217 3.8602464
0.2840233 0.1411134 0.36166003 1.2446172 2.3203237 6.648294 1.4544642 2.9589276
1.2058462 0.055945747 0.36499754 -0.30332673 0.41680405 -0.791982 6.0561714 1.3139114
1.8689884 0.57198524 0.30997738 2.009082 0.5778476 1.721876 0.39975545 0.5451109
0.17816116 0.46728987 5.949474 0.45182294 0.76018465 0.29063666 0.07842669 0.008265663
0.5020222 1.4894866 0.561187 1.6582727 0.78891927 0.72973496 1.3156995 0.7781219
0.39447752 0.3944387 1.3681914 0.10858406 1.3519033 0.36093175 0.86121005 2.2574875
1.3187016 0.5765023 1.514766 1.7549926 0.29095444 1.5105289 1.2154745 0.90251774
-0.7136778 6.664256 6.9583592 5.2490354 1.2375854 0.7521949 1.485488 1.2904955
0.3399192 -0.2751654 0.6053596 1.4098293 1.6896925 7.496152 1.2774029 3.7162733
1.5956919 -0.20008609 0.15206082 -0.3008767 0.45306838 0.2717192 6.486192 1.3571874
1.3820873 0.62060016 0.37139562 1.6344552 0.66668326 1.6534731 0.48215428 0.4905165
-0.2513767 0.4374167 6.462931 0.4285782 0.683057 0.80650663 -0.027119484 0.08590883
0.30296776 1.214114 0.8356777 1.3156523 0.6718651 0.48934865 1.1880792 0.82101166
0.5433616 0.35577714 0.9847174 -0.30194393 1.0817131 0.6422793 0.4399641 2.5826843
1.0417192 0.58430105 1.3938342 1.4384316 0.73624754 1.510515 1.2351317 0.6642422
0.110969976 6.9969335 7.319208 5.7775974 1.1270165 -0.013874801 1.2218206 1.2580141
0.30890507 0.24663725 0.47865438 1.5580196 1.9028815 6.696469 1.0444269 2.6059575
1.3527528 0.25196192 0.2955727 0.053035256 0.4874056 -0.72123307 5.7460074 1.4658973
1.7317188 0.3904081 0.42112446 1.3602108 0.41248026 1.2835406 0.7648645 0.8099816
-0.23539102 0.64204496 5.911383 0.81915987 0.54957485 0.3825557 0.1380814 -0.08525015
0.6326682 1.3177392 0.8931016 1.3423191 0.4887916 0.57674205 0.773879 0.3580743
0.57310355 0.6080805 1.3967763 0.04382993 1.1730003 0.6486068 0.6354366 2.4176192
1.117153 0.30521613 1.3537825 1.6060627 0.4594575 1.3397454 1.0853275 0.8190932
-0.42363393 6.270031 6.7777996 5.217954 1.3024579 0.5398644 1.0978142 0.9763531

h2.bias f4 [64]
00000000: ad8e fdbe 0c49 3e3f 8fc5 713f 049b 473f
00000010: ca33 2ebf 4d26 13bf b5fa 2a3f fffd 20bf
00000020: 130d 2bbf cb5b 2f3f dd34 393f 72d1 a83e
00000030: f6b1 13bd de96 24bf dfe1 073f 64b5 223f
00000040: c716 9f3c 60df 7fbd 8d9c 803f 9f4b 193f
00000050: ee72 f63e 4dbc 6d3d 597a 03bf 1657 ab3e
00000060: fc50 723f 0392 07bf 98df 14bf f3fc ebbe
00000070: 66d0 2e3f 67e7 1e3f 5268 5b3f 7c22 5e3f
00000080: c806 0dbf 2d13 04bf f2c9 0dbf ce77 193f
00000090: 4d28 273d 8926 e4be 2217 16bf 9f1b 0dbf
000000a0: b998 27bf 2cbc 7c3f 14fe 14bf 8f6c 22bf
000000b0: cecc 0cbf 7f79 11bf 27cf 29bf f22c 1abf
000000c0: 1662 27bf a365 9b3d 2b4e 563f 379a 193d
000000d0: 17c9 803f 2215 4c3f 8fb6 f83e 2d1d 5e3f
000000e0: 914b 483f aa39 6bbd 2a5c 733f 9343 0f3f
000000f0: 4f65 08bf edb7 133f 0803 26bf 1265 fd3e
-0.49522915 0.7433021 0.94442075 0.7797091 -0.68047774 -0.5748032 0.667888 -0.6288757
-0.66816825 0.6849944 0.7234629 0.32972294 -0.03605839 -0.64292705 0.53079027 0.6355803
0.01942004 -0.062468886 1.0047776 0.59881014 0.4813456 0.058040906 -0.5135856 0.3346488
0.9465482 -0.5295717 -0.58153677 -0.46091422 0.6828674 0.6207184 0.85706055 0.8677137
-0.5508847 -0.5159176 -0.5538627 0.5994843 0.04080992 -0.4456065 -0.5862905 -0.5512027
-0.6546741 0.9872463 -0.5820019 -0.634469 -0.5500001 -0.56826013 -0.66331714 -0.6022483
-0.6538404 0.07587745 0.83713025 0.037500586 1.0061368 0.79719746 0.4857678 0.8676327
0.78240305 -0.05742804 0.95062506 0.55962485 -0.53279585 0.57702523 -0.64848375 0.49491173

h3.weight f4 [4, 64]
00000000: b63f 14bf 7436 cdbe ba9e ef3c 1474 e8be
00000010: b783 90bc 6402 c4be ff9e 5cbf dad2 45bf
00000020: 2747 ebbe b7f4 a1be 4e30 56bf 6bfe 083d
00000030: 563e 98be 209e 28be 735a 933c 6d33 bdbe
00000040: 63e2 5cbe 6df9 57be e83f c53d 0da6 47bf
00000050: 7a6a 36bf af94 02bd 8b0b 07bf c148 53bf
00000060: 4cb6 20bf 2c1a c8be defc 66bf ccd5 5abf
00000070: 1449 a1be 51b9 a1bd b6ed 5ebf d1e5 58bf
00000080: 12d1 dabe b074 b43d c4f2 5b3d 9210 53bf
00000090: 4d87 89bd 1b66 66bf 63a1 36bf 9806 18be
000000a0: 9435 59bf 5475 88be c6a8 52bd 2b37 f8be
000000b0: 0a89 fcbd 920c e0be 975c dbbe b8e2 41bf
000000c0: ac0d 56bf ec0c ca3d 5077 48bf 5dc6 1cbe
000000d0: 1810 b2be 68c2 51bf aee0 1dbe be89 6a3d
000000e0: 6c94 53bd f980 4b3c b7a6 59bf 7366 02bf
000000f0: af3b d1be 1736 b5be 3188 47bf d511 1ebf
00000100: 9b72 4841 2cab 0a40 33f0 4140 c064 2340
00000110: 9ed8 cf3e 26f0 9b3e e11a 3d40 7e2d 1e3f
00000120: 89cd da3e 5857 2140 223e f140 dad9 b83e
00000130: 04ea bc3e d153 a43e b5fb 4140 7e02 2c40
00000140: 1cba 06be ef87 3a3e 9559 2b40 14be 2540
00000150: e58e ff3f 4baf c4bd 7630 033f 4bd1 533f
00000160: 0ef1 1d40 205e bb3e d068 c33e db6e e73e
00000170: 3469 0a41 a2ff f940 521d 4040 8fb8 ea40
00000180: 3a9d 5fbd 952a e13e c7c1 2c3f 0a77 f03f
00000190: 4026 6c3e e676 0e41 0179 3a3f 9521 0a3f
000001a0: 918e 5d3f 015e 0441 87c7 8b3e 86cd 693e
000001b0: b971 63be 7d23 f63e e020 1a3f 7261 043f
000001c0: abb6 983e 0a8b abbd eaea 6240 df38 25be
000001d0: 0de1 1840 1738 a240 dbaa 543f 7a59 4840
000001e0: 6817 c040 602f 82bd 08e2 7540 dc47 1c40
000001f0: 845b 183f 19db 1740 5644 9b3e af8f e53f
00000200: 66bd 0341 855b 2540 9020 3740 71e6 2840
00000210: 2968 543f f346 4f3f 08d5 5640 9f66 e23e
00000220: 558a 193f cb5b 2d40 c10d b140 a995 f63e
00000230: 7be0 603f 0af9 c63e ab9e 6040 3609 3f40
00000240: df5a c93d c9f6 913e af41 5640 5782 2f40
00000250: cde6 2340 dc51 19be b069 e23e 53e7 6e3f
00000260: 284f 2140 6027 353f bb7c b93e 6dbe d73e
00000270: 00db 4b40 c4e1 b440 f7af 3a40 f8ce a940
00000280: 5ead a33e c4c9 583f 9d21 2f3f 1f4d 0e40
00000290: 16b1 863e e048 6840 a79f ca3e 303f 593f
000002a0: 9e2b b33e 87e1 bb40 3909 513f bc8c c43e
000002b0: d24b f33e 484a c43e a978 fa3e 97e4 cd3e
000002c0: 2b55 663f 0367 40be 387a 6d40 2bba 573e
000002d0: 22c3 2940 9bbc 9640 380c ba3f 5c7d 6640
000002e0: 484f 9a40 1baf 8bbe 463a 6440 5db9 4b40
000002f0: 2ae5 3a3f c1e2 3240 6cfc ab3e 461f 1040
00000300: 7e31 1abf abaa 2abf fa5e 48bf dfb4 3cbf
00000310: e60f d3be c72f 20bf a761 35bf 4def bebe
00000320: 7e49 00bf 3113 67bf 2fc4 c4be 4274 5abf
00000330: 5c25 25bf 8500 c6bc 3528 5abf 21f7 4dbf
00000340: e7b6 fdbd 9a92 d33d 5cec 0dbf e929 64bf
00000350: 4dc4 11bf 7ef5 423e d24c 18bf 4307 1bbf
00000360: a633 23bf 39c9 7abe 4149 fabe 8724 05bf
00000370: 9096 3ebf b351 873d f029 03bf f27c 14bf
00000380: 9b04 abbe fc22 ccbd e18b 0fbf ac0b 27bf
00000390: a25d 95be d574 b1be 0a32 eebe 737d dabe
000003a0: 0c16 07bf 0913 5dbf da9f 9abe 2b7e c4bd
000003b0: 5864 f9be 2669 a7be 8123 35bf 264e d4be
000003c0: c55d 02bf 845e 703e 6617 16bf 893c 8ebe
000003d0: d11f 15bf 82f5 2abf 57a4 5bbf 7d62 53bf
000003e0: 3491 e2bd 9bc6 983e adad 8ebe 2d32 38bf
000003f0: 8be3 f9be 0dd2 4bbf 5b3d 7a3c e457 31bf
-0.57909715 -0.40080607 0.029250491 -0.4540106 -0.017640932 -0.38283074 -0.8618011 -0.7727486
-0.45952722 -0.31632015 -0.8366746 0.033445757 -0.2973506 -0.1646657 0.017987465 -0.36953297
-0.21570735 -0.21091242 0.0963133 -0.7798775 -0.7125622 -0.031880077 -0.5275199 -0.8253289
-0.6277816 -0.39082468 -0.90229595 -0.8548248 -0.31501067 -0.078966744 -0.8708147 -0.8472567
-0.42737633 0.08811319 0.053698316 -0.8244716 -0.0671526 -0.8999955 -0.71340007 -0.14846265
-0.8484738 -0.26652014 -0.051430486 -0.4847959 -0.123308256 -0.4375959 -0.42844078 -0.7573657
-0.8361461 0.09865746 -0.78307056 -0.15310045 -0.34777904 -0.81937265 -0.1541774 0.057260267
-0.051655218 0.012420886 -0.8502001 -0.50937575 -0.40865847 -0.3539283 -0.77942187 -0.6174596
12.52798 2.1666975 3.0302856 2.5530243 0.40594953 0.30456656 2.9547656 0.61788166
0.42734936 2.520956 7.5388346 0.36103708 0.3689729 0.32095197 3.030988 2.687652
-0.13156933 0.18215917 2.6773427 2.5897264 1.9965483 -0.09603747 0.5124582 0.8274123
2.4678378 0.3659525 0.38165903 0.45201764 8.650684 7.812455 3.0017896 7.335029
-0.054593302 0.439778 0.6748318 1.8786328 0.23061466 8.904028 0.7284089 0.5395749
0.86545664 8.27295 0.27300665 0.22832307 -0.2221135 0.4807395 0.60206413 0.5171119
0.29826865 -0.08376129 3.545588 -0.16134976 2.388736 5.069347 0.83073205 3.1304612
6.002857 -0.06356692 3.8419209 2.441886 0.5951464 2.3727477 0.30325574 1.7934474
8.23374 2.583711 2.8613625 2.639065 0.82971436 0.80967635 3.3567524 0.4421892
0.599767 2.7087276 5.532929 0.48161057 0.8784253 0.38861877 3.5096843 2.9849372
0.098317854 0.28508595 3.347759 2.7423303 2.560962 -0.14972633 0.44221258 0.9332172
2.5204563 0.70763206 0.36227974 0.4213747 3.1852417 5.6525593 2.91699 5.3065147
0.31968206 0.8468287 0.68410665 2.223457 0.2630698 3.629448 0.3957493 0.8486204
0.34994215 5.87128 0.816547 0.38388622 0.47518784 0.38337922 0.4892018 0.40213463
0.89973706 -0.18789296 3.7105846 0.21067111 2.652535 4.710523 1.4534979 3.6014013
4.822178 -0.27282032 3.5660567 3.1831887 0.73005927 2.79509 0.3359102 2.2519088
-0.6023177 -0.6666667 -0.7826992 -0.7371349 -0.41223067 -0.625729 -0.7085213 -0.37291947
-0.5011214 -0.9026366 -0.38430926 -0.85333645 -0.6451013 -0.02417017 -0.852176 -0.80455214
-0.123884015 0.103306964 -0.5543878 -0.8912645 -0.56940156 0.1903896 -0.5949222 -0.60557956
-0.63750684 -0.24490823 -0.48884013 -0.5200886 -0.7444849 0.0660738 -0.51235867 -0.5800315
-0.3340195 -0.0996761 -0.56072813 -0.65252185 -0.29173 -0.34659448 -0.46522552 -0.42673835
-0.52768016 -0.8635717 -0.30200082 -0.09594377 -0.4870937 -0.3269741 -0.707573 -0.41465873
-0.5092433 0.23473555 -0.58629453 -0.2778056 -0.58251673 -0.66780865 -0.8579764 -0.82572156
-0.110628515 0.29839024 -0.2786688 -0.7195156 -0.48806414 -0.7961739 0.015273417 -0.69274735

h3.bias f4 [4]
00000000: c7df 2fbf 3f37 723f 1df1 283f ee70 32bf
-0.6870083 0.9461555 0.6599291 -0.6970357
