weights/weights_LF=4_dense/w=0.34_2.pth (torch, 38796 bytes, 8 tensors)

input.weight f4 [64, 4]
0	0x3b7dc85a	0.0038724155
1	0x3e2ce72c	0.1688506
2	0x3e0d2631	0.137841
3	0xbfda1642	-1.7038043
4	0x3cadae40	0.021201253
5	0xbf9355e7	-1.151059
6	0xbf2f50a8	-0.68482447
7	0xbeea4809	-0.45758083
8	0xbf29f0f5	-0.66383296
9	0x3f1a4cba	0.60273325
10	0x3f908ccb	1.1292967
11	0xbdb09bb6	-0.086234495
12	0xbfb77387	-1.4332131
13	0xbd036906	-0.03208258
14	0x3df0db76	0.11760609
15	0xbea53a89	-0.3227122
16	0xbcb7cdde	-0.022437032
17	0x3f084150	0.5322466
18	0xbed00be9	-0.40634087
19	0xbf36bb8b	-0.7137992
20	0x3fa3e536	1.2804325
21	0xbf2eef99	-0.68334347
22	0x3f2afc0e	0.66790855
23	0xbecb5905	-0.39716354
24	0x3eead327	0.4586422
25	0xbf9319a3	-1.1492199
26	0xbf3a0d54	-0.7267659
27	0x3f4ca0da	0.7993294
28	0xbf05fffc	-0.52343726
29	0xbf252628	-0.64511347
30	0xbb09c17f	-0.0021019874
31	0x3ec526ee	0.38506263
32	0xbf2cd8bb	-0.67518204
33	0xbdf62798	-0.12019271
34	0xbf724535	-0.9463685
35	0xbf868882	-1.0510409
36	0x3e2efda8	0.1708895
37	0x3f94e887	1.1633462
38	0x3f3e9974	0.744529
39	0x3f7fc90d	0.99916154
40	0x3f67a9e8	0.9049363
41	0xbed0be04	-0.4076997
42	0x3e387eec	0.18017167
43	0xbf53ff64	-0.8281157
44	0xbf3b0b64	-0.73064256
45	0xbec76e1d	-0.38951197
46	0xbf4a6230	-0.7905607
47	0xbf0740ee	-0.5283345
48	0x3deed942	0.116625324
49	0x3f87bc8b	1.0604414
50	0xbe7816d8	-0.24227464
51	0xbf6ff9dd	-0.93740636
52	0xbe446e0e	-0.19182608
53	0x3c7dfad3	0.015501696
54	0x3f6790b7	0.9045519
55	0xbf536fce	-0.82592475
56	0xbe65c707	-0.22439204
57	0xbf3a1324	-0.72685456
58	0xbfd6c1b1	-1.677786
59	0xbdc16f7e	-0.094450936
60	0xbf7367cf	-0.95080274
61	0xbca00219	-0.01953225
62	0xbf12c884	-0.5733721
63	0x3e5024df	0.20326565
64	0xbf17a803	-0.5924074
65	0xbd462db8	-0.048383445
66	0xbfd06b0b	-1.6282667
67	0xbe7c0021	-0.24609424
68	0x3f2e9e39	0.6821018
69	0xbf934bb9	-1.1507484
70	0xbeac444e	-0.33645862
71	0xbed735f3	-0.42033347
72	0x3ea65e78	0.3249395
73	0x3f6f314f	0.93434614
74	0xbec04004	-0.3754884
75	0x3fcec47d	1.6153713
76	0xbf5d8da5	-0.8654426
77	0xbe9f466e	-0.3110842
78	0x3f6ce7be	0.9254111
79	0x3f1bb303	0.60820025
80	0xbf004953	-0.50111884
81	0xbe8f4755	-0.2798411
82	0x3f7203dc	0.9453714
83	0x3e5ac137	0.21362768
84	0x3eb9340a	0.36172515
85	0x3dd2c5cb	0.10291632
86	0xbf7f092c	-0.9962337
87	0x3db9fb55	0.09081141
88	0xbbbe2df9	-0.00580382
89	0xbed3f91c	-0.41400993
90	0x3dc7e33e	0.0976014
91	0xbeac5beb	-0.33663878
92	0xbf14716c	-0.5798557
93	0x3e4cd83c	0.20004362
94	0xbeef2cfd	-0.4671401
95	0x3f4c27ec	0.79748416
96	0x3f91eadb	1.1399797
97	0x3d3b6261	0.04574812
98	0xbf61dfdd	-0.88232213
99	0xbdb0c17d	-0.08630655
100	0xbfcf0af0	-1.6175213
101	0xbe05f19d	-0.1308045
102	0xbf3ea9c5	-0.744778
103	0xbc954b8a	-0.018224496
104	0xbdb6f4de	-0.089334235
105	0xbe0f3837	-0.13986288
106	0xbe848708	-0.2588427
107	0x3f55f7f7	0.8358149
108	0xbeb71dc5	-0.357649
109	0xbf0da54d	-0.55330354
110	0x3f97627d	1.1826931
111	0xbf4ceb61	-0.8004666
112	0x3f848d22	1.035557
113	0xbd7fdbc6	-0.06246545
114	0xbf18c6a7	-0.5967812
115	0x3e19b2c1	0.15009595
116	0x3dd8d6c4	0.10587838
117	0xbe5d9152	-0.21637467
118	0x3ecb2653	0.39677677
119	0x3eff7730	0.4989562
120	0xbe9ea56d	-0.30985585
121	0xbdc9f17d	-0.09860513
122	0xbf12d1a0	-0.5735111
123	0x3fbea0e2	1.4892848
124	0x3fcd1374	1.6021562
125	0xbecec44e	-0.40384144
126	0xbea67ef6	-0.32518739
127	0x3e2d374f	0.1691563
128	0xbf2d5c30	-0.6771879
129	0xbe342f3f	-0.17596148
130	0xbfb379c8	-1.402154
131	0xbd87285a	-0.06599493
132	0xbf66d99c	-0.90175796
133	0x3f8d4198	1.1035643
134	0xbd328462	-0.04358328
135	0xbd72e442	-0.059299715
136	0xbfb44dcb	-1.408624
137	0xbfa09f60	-1.2548637
138	0xbe913709	-0.283623
139	0x3e5905b4	0.21193582
140	0x3f7d9dd1	0.99068934
141	0x3ede878e	0.43462795
142	0xbf21b2a0	-0.63163185
143	0xbe8e379c	-0.27776802
144	0xbdd0bf94	-0.10192791
145	0x3ed93665	0.42424312
146	0x3e8306fc	0.25591266
147	0x3d058f28	0.032607228
148	0xbf6a917b	-0.91628236
149	0xbf288818	-0.6583266
150	0x3f9f9cad	1.2469689
151	0x3f5e2071	0.8676825
152	0xba5a9efe	-0.0008339732
153	0x3fd3aafb	1.6536554
154	0xbe5de542	-0.21669486
155	0x3f3eac64	0.744818
156	0xbf07ec5c	-0.5309503
157	0xbfc76319	-1.5577117
158	0x3e9ff9b6	0.31245202
159	0xbf73d098	-0.95240164
160	0xbf0ca10e	-0.5493325
161	0x3e9c397f	0.30512616
162	0x3fa21776	1.266341
163	0x3eab5da1	0.3346987
164	0xbe097e07	-0.13426982
165	0x3ff193f0	1.8873272
166	0xbec12745	-0.37725273
167	0xbea7a516	-0.32743138
168	0xbecc348e	-0.39883846
169	0xbdb1b73a	-0.08677526
170	0x3f31942a	0.69366705
171	0xbf76e77e	-0.9644698
172	0xbe869dfb	-0.26292405
173	0xbea738cc	-0.3266052
174	0xbf864fa8	-1.0493059
175	0xbf91959c	-1.1373782
176	0x3e1e3105	0.15448387
177	0x3fb31c10	1.3992939
178	0xbe5d22c7	-0.21595298
179	0xbe90d524	-0.28287613
180	0xbeda82f9	-0.4267805
181	0xbf5fb5e4	-0.8738692
182	0x3fb889ac	1.4417014
183	0xbd111653	-0.03542168
184	0x3dc270bc	0.094941586
185	0x3f276781	0.6539231
186	0xbe707120	-0.23480654
187	0xbfb081a1	-1.378956
188	0xbfd15713	-1.6354698
189	0x3f4efaa5	0.80851203
190	0xbf547568	-0.8299165
191	0x3f49dfc5	0.7885707
192	0x3f2613a4	0.6487372
193	0xbed84710	-0.42241716
194	0xbeced4ff	-0.40396878
195	0xbf83e95c	-1.0305591
196	0x3edcf39e	0.43154615
197	0xbf24c4fb	-0.6436307
198	0x3ed7c746	0.4214422
199	0xbeb7413d	-0.3579196
200	0xbf8e3e30	-1.1112728
201	0x3f4d03ce	0.8008393
202	0x3f4503ec	0.7695911
203	0x3ee1b601	0.4408417
204	0x3ec58524	0.3857814
205	0x3ef7abb1	0.48373178
206	0x3e306484	0.17225844
207	0x3b4afe38	0.003097428
208	0x3ebae85f	0.3650541
209	0x3f628d10	0.88496494
210	0xbd054250	-0.032533944
211	0xbf26f767	-0.65221256
212	0x3f675de6	0.9037765
213	0x3f2b33ac	0.6687572
214	0xbf1be3d0	-0.6089449
215	0xbf1df7c8	-0.6170621
216	0x3fd41af9	1.6570731
217	0x3f658e1b	0.8966996
218	0xbead95e5	-0.33903423
219	0x3f15dadf	0.58537096
220	0xbe8218c0	-0.25409508
221	0xbf081438	-0.5315585
222	0xbe69f2d2	-0.22846535
223	0x3f95b96e	1.1697214
224	0xbeb93c45	-0.36178795
225	0xbe5812fe	-0.21100995
226	0xbf0e1499	-0.5550018
227	0xbf9677aa	-1.1755269
228	0xbe6670bb	-0.22503941
229	0xbf835be3	-1.0262417
230	0x3e5f10ec	0.21783799
231	0xbe18943d	-0.14900298
232	0x3eb82166	0.3596298
233	0x3f41f999	0.7577148
234	0x3e422cdb	0.18962424
235	0xbe38b942	-0.1803942
236	0xbdb3f9e3	-0.087878965
237	0xbfa8e645	-1.3195273
238	0xbfebcf59	-1.8422652
239	0xbe283cb4	-0.16429406
240	0x3f7505e9	0.95712143
241	0xbe8ea507	-0.2786028
242	0x3e002a39	0.12516107
243	0x3fe6f99c	1.8044925
244	0x3dbac456	0.09119479
245	0x3fda0548	1.7032862
246	0xbcdbd3b2	-0.026834343
247	0xbeb7c602	-0.35893255
248	0xbf5d9eda	-0.86570513
249	0x3f5cdfa9	0.8627878
250	0xbeaaf53c	-0.33390224
251	0xbef7f638	-0.48430037
252	0xbef6a5ec	-0.48173463
253	0xbde1407c	-0.109986275
254	0x3fe34516	1.7755458
255	0x3f0f7752	0.56041443

input.bias f4 [64]
0	0xbf5c2ca6	-0.8600563
1	0xbf7a649a	-0.97809756
2	0x3eb3c599	0.35111693
3	0xbf7b06a0	-0.98056984
4	0xbf5e7929	-0.86903626
5	0x3ede4f16	0.43419713
6	0xbe7a1cd5	-0.24425061
7	0x3d82bcf1	0.06383694
8	0xbf8143b6	-1.0098789
9	0x3f567aa1	0.83780867
10	0x3e86c2a3	0.2632037
11	0xbf4fc8de	-0.81165874
12	0xbe0d807f	-0.13818549
13	0xbcfd3f57	-0.030913992
14	0xbf67a1be	-0.90481174
15	0xbf5e7d9b	-0.8691041
16	0xbf6d16a7	-0.9261269
17	0xbe55c08a	-0.20874229
18	0x3f5eb942	0.8700143
19	0x3ea2dbe0	0.31808376
20	0x3d9be621	0.07612253
21	0xbf1e55ba	-0.6184956
22	0xbf2e7fcd	-0.6816376
23	0x3ee9a4fb	0.45633683
24	0x3f422f7e	0.7585372
25	0xbf6713d0	-0.90264606
26	0x3f3d227a	0.7388073
27	0x3e8f1e76	0.27952927
28	0x3ea206b3	0.31645736
29	0x3edb21dd	0.42799273
30	0x3eed5eb5	0.46361318
31	0x3f23b807	0.6395268
32	0xbf74257d	-0.953697
33	0x3d133131	0.035935584
34	0xbf652c49	-0.895207
35	0x3ebf30b7	0.37341854
36	0x3df5d9ac	0.12004408
37	0x3d6ea460	0.05826223
38	0x3f751479	0.95734364
39	0xbf64c77d	-0.89366895
40	0x3ebb4214	0.3657385
41	0x3f56519d	0.8371828
42	0xbf449b04	-0.76799035
43	0xbf5d3541	-0.86409384
44	0x3eefabca	0.46810752
45	0x3eec9b6b	0.46212325
46	0xbedfb405	-0.43692032
47	0xbf0ee9f2	-0.5582572
48	0xbea642ad	-0.32472745
49	0xbeb33c8c	-0.3500713
50	0xbe0f8212	-0.14014462
51	0x3e5787d3	0.21047907
52	0x3e84e83f	0.2595844
53	0x3eab77b2	0.33489758
54	0x3f7c8657	0.98642486
55	0x3eaf1e97	0.34203026
56	0xbf3ed7f3	-0.7454826
57	0xbf375607	-0.7161564
58	0x3f6a7004	0.9157717
59	0xbf5f24f0	-0.8716574
60	0x3f6059a8	0.87636805
61	0x3f049155	0.5178426
62	0x3eaecd0d	0.34140816
63	0x3f00cb98	0.5031066

h1.weight f4 [64, 64]
0	0xbdd68e36	-0.10476343
1	0xbdb808e5	-0.089860715
2	0x3ddee127	0.10882788
3	0x3cdf4cf8	0.027258381
4	0x3c349d56	0.01102384
5	0x3b5c9d46	0.0033663078
6	0xbe233023	-0.15936331
7	0xbe65de8e	-0.22448179
8	0x3dc31317	0.095251255
9	0x3e76e6e2	0.24111512
10	0x3d6dfc8e	0.058102183
11	0xbd54afc2	-0.05192543
12	0xbdb69dae	-0.08916794
13	0x3cb08bd8	0.021551058
14	0x3e73b757	0.23800407
15	0xbbd46663	-0.006481932
16	0xbc833e0b	-0.016020795
17	0x3e64875e	0.22317263
18	0xbe24ab79	-0.16081037
19	0x3c118d7c	0.00888383
20	0x3e7cbf55	0.24682362
21	0xbe889a1c	-0.26680076
22	0xbe809bdb	-0.25118908
23	0xbdea69d2	-0.11445965
24	0x3e8320cf	0.25610968
25	0xbe4504ac	-0.19240063
26	0x3df3e91d	0.11909697
27	0xbd26a515	-0.04068478
28	0x3d92dfe6	0.071716115
29	0x3e9104d4	0.28323996
30	0x3dcfd115	0.10147301
31	0xbe516af1	-0.20450951
32	0xbe80842a	-0.25100833
33	0x3e0d54d7	0.13801895
34	0x3e7ed3d1	0.24885489
35	0x3e8d70e7	0.276252
36	0xbe87c37a	-0.26516324
37	0xbd110577	-0.035405602
38	0x3a7d684a	0.00096667244
39	0xbe3bc2b4	-0.18335992
40	0xbc7cabd5	-0.015421827
41	0x3e0fdcc2	0.14049056
42	0xbe7cf353	-0.24702196
43	0x3db291ae	0.087191924
44	0x3dae7633	0.085186385
45	0xbe8d5671	-0.27605012
46	0x3e20b8e2	0.15695527
47	0x3d4db40d	0.050220538
48	0x3e2016aa	0.15633646
49	0x3e81b812	0.25335747
50	0x3e97d175	0.2965199
51	0xbcb099ed	-0.021557773
52	0xbc959950	-0.018261582
53	0x3d09a93b	0.033608656
54	0x3d7ddd85	0.061978836
55	0x3d9da45c	0.07697365
56	0xbdd4697d	-0.10371683
57	0x3ddf2a5a	0.1089675
58	0xbe2efc7d	-0.17088504
59	0x3e8401fa	0.25782758
60	0xbe743e03	-0.2385178
61	0x3d98ddcc	0.074641794
62	0x3deff25b	0.117161475
63	0x3e0f2173	0.13977604
64	0xbf07afd4	-0.5300267
65	0xbf1bfa9c	-0.60929275
66	0xbefdcb0c	-0.49568975
67	0xbf10d515	-0.5657514
68	0xbf545f37	-0.82957786
69	0x3f131429	0.57452637
70	0xbed33a6d	-0.41255513
71	0x3e9e28b4	0.3089043
72	0xbf057986	-0.52138555
73	0x3f1c554d	0.6106766
74	0x3f3e4a2b	0.7433192
75	0xbed2e4fa	-0.4119032
76	0xbf0098fe	-0.5023345
77	0xbe84b831	-0.25921777
78	0x3ee3ec93	0.4451643
79	0xbf0e858a	-0.55672514
80	0x3ec55419	0.38540724
81	0xbe7dc310	-0.24781442
82	0x3f541d93	0.82857627
83	0x3f2fb406	0.6863407
84	0xbf182fd9	-0.5944801
85	0xbef1036d	-0.47072926
86	0xbf2a2100	-0.66456604
87	0x3f09570a	0.53648436
88	0x3f1c4474	0.6104195
89	0xbf14681f	-0.57971376
90	0x3f3583b8	0.7090411
91	0xbef4bdcc	-0.47801054
92	0x3e946033	0.28979644
93	0x3e9cfdf7	0.3066251
94	0x3f326a95	0.6969388
95	0x3f0ab39f	0.5418033
96	0x3eb0e472	0.3454929
97	0x3f1d84a6	0.6153053
98	0xbf04172d	-0.51597863
99	0x3f0ed892	0.5579921
100	0xbf027728	-0.5096307
101	0xbf55b409	-0.83477837
102	0x3f1bfa14	0.60928464
103	0xbf16bcd1	-0.5888186
104	0xbf1ab141	-0.6042672
105	0x3e9ad482	0.30240256
106	0xbf254783	-0.64562243
107	0xbf365a06	-0.71231115
108	0x3f399e42	0.7250711
109	0xbeadf837	-0.33978435
110	0xbec0da5f	-0.37666604
111	0x3efa92c9	0.48940113
112	0xbeefa241	-0.46803477
113	0xbef7d095	-0.48401323
114	0xbe9b6e65	-0.30357662
115	0xbf1e3e1c	-0.6181352
116	0x3ebdbc4c	0.37057722
117	0x3f0179a4	0.50576234
118	0x3e819048	0.2530539
119	0x3ec5ccfd	0.38632956
120	0xbf2ef020	-0.6833515
121	0xbe9a1a1a	-0.3009804
122	0x3ee8521a	0.4537514
123	0x3e87455a	0.264201
124	0x3f4cb23b	0.7995946
125	0x3f39d5d2	0.7259189
126	0x3f10f74b	0.5662734
127	0xbf5131a4	-0.8171637
128	0xbec08077	-0.3759801
129	0xbe96f765	-0.29485622
130	0x3e47c32f	0.1950805
131	0xbed67506	-0.41886157
132	0xbb3a2a89	-0.00284067
133	0x3ed916d0	0.42400217
134	0xbee42116	-0.44556493
135	0x3ebcaa3c	0.3684863
136	0x3ed45d89	0.41477612
137	0xbf19e9d0	-0.60122395
138	0x3e8c7329	0.2743161
139	0x3d88fd99	0.06688995
140	0xbe1e45fc	-0.15456384
141	0xbe140bd2	-0.14457634
142	0x3f10a01a	0.56494296
143	0xbf0ec6ca	-0.5577208
144	0x3f15ac4f	0.5846605
145	0x3f50cdb6	0.8156389
146	0x3ea0f84e	0.3143944
147	0x3eef7ee7	0.46776506
148	0x3cdd507f	0.027015923
149	0xbbb5f47e	-0.0055528274
150	0xbeb84c54	-0.35995734
151	0x3e08eb09	0.13370909
152	0x3f071ffa	0.5278317
153	0xbf1180e1	-0.5683728
154	0x3e184945	0.148717
155	0x3e9c0343	0.30471238
156	0x3f550b58	0.83220434
157	0x3e6440cc	0.22290343
158	0x3ea9278e	0.3303799
159	0x3f5c6b79	0.8610149
160	0xbb6497c3	-0.0034880496
161	0x3ed1a626	0.40947074
162	0x3d0c9538	0.034321994
163	0x3eee76cf	0.4657502
164	0xbf10563f	-0.563816
165	0xbe206088	-0.15661824
166	0x3f05bba0	0.5223942
167	0xbf123c54	-0.57123303
168	0xbe527e9a	-0.20556107
169	0x3e39174f	0.18075298
170	0xbf242a72	-0.64127266
171	0x3ee6ac33	0.45053253
172	0x3ec0ef80	0.37682724
173	0x3ec3d7fd	0.38250723
174	0xbe54031b	-0.2070431
175	0x3ed38f43	0.41320238
176	0xbedbae41	-0.42906383
177	0xbefe8781	-0.49712756
178	0xbf27bb15	-0.6551984
179	0xbec4656f	-0.38358638
180	0xbe63f2b8	-0.22260559
181	0x3f22040b	0.6328742
182	0x3ecba08b	0.39770922
183	0x3ea1657e	0.31522745
184	0x3d52aa71	0.051432077
185	0xbf3d0841	-0.7384072
186	0x3efd3206	0.49452227
187	0x3f542379	0.82866627
188	0xbee65aaf	-0.4499106
189	0x3f64965f	0.8929195
190	0x3e8d7bdd	0.27633563
191	0x3e456733	0.19277649
192	0xbf2bfb91	-0.67180735
193	0xbee448a1	-0.4458666
194	0x3e74e692	0.2391608
195	0xbf548056	-0.83008325
196	0xbf3a609b	-0.7280366
197	0xbe81166f	-0.25212428
198	0xbf02e3e4	-0.51128983
199	0x3f310511	0.69148356
200	0xbf10d353	-0.56572455
201	0x3f226339	0.6343265
202	0x3e753a92	0.23948124
203	0xbe7bc290	-0.24585938
204	0x3eb02aba	0.34407598
205	0x3ed7bfed	0.42138615
206	0xbf5118fd	-0.81678754
207	0xbf0f28c9	-0.5592161
208	0xbf046f0f	-0.5173196
209	0xbf28df6d	-0.6596592
210	0xbf353b1b	-0.7079331
211	0x3f27210b	0.65284795
212	0x3ee0e2a0	0.439229
213	0xbef9f974	-0.4882313
214	0xbf4f7f1c	-0.8105333
215	0x3f2418d8	0.6410041
216	0x3eae9173	0.34095344
217	0x3ed90852	0.4238916
218	0x3f22c0b3	0.63575286
219	0x3f27c13a	0.65529215
220	0xbef68223	-0.4814616
221	0x3f21dea2	0.63230336
222	0x3f1ca7c7	0.6119351
223	0xbf0f7525	-0.56038123
224	0xbf57a5be	-0.8423728
225	0x3f1484ff	0.58015436
226	0xbec481d6	-0.38380307
227	0xbe723a8d	-0.23655148
228	0x3e7345dd	0.2375712
229	0x3ef7c6d2	0.48393875
230	0x3eb6a9d0	0.35676432
231	0xbf5862fa	-0.84526026
232	0x3f0d97c7	0.5530972
233	0x3f387ab8	0.72062254
234	0xbf536b3a	-0.8258549
235	0xbee3bed7	-0.44481537
236	0x3f2ebb7f	0.68254846
237	0x3e7ec630	0.2488029
238	0xbf4bd44f	-0.7962083
239	0x3ecf353b	0.404703
240	0xbf42285e	-0.75842845
241	0xbe938d33	-0.28818664
242	0x3f542697	0.82871383
243	0x3f3237d7	0.69616455
244	0x3ecdaf4b	0.401728
245	0x3ee3eea4	0.44518006
246	0xbec5202a	-0.38501102
247	0x3f2aafb3	0.66674346
248	0xbf2efaac	-0.68351245
249	0xbececb49	-0.4038947
250	0x3e9eff3a	0.31054097
251	0xbec8b54f	-0.39200827
252	0xbf12e9d0	-0.5738802
253	0x3f066030	0.5249052
254	0x3eee7133	0.4657074
255	0x3eeddc34	0.46457064

h1.bias f4 [64]
0	0xbdbcbea8	-0.09216052
1	0xbf01e84b	-0.50745076
2	0xbeea5942	-0.45771223
3	0xbee76c12	-0.4519964
4	0x3f4e5942	0.80604947
5	0xbefbeb02	-0.49202734
6	0xbeeaac00	-0.4583435
7	0xbf52d042	-0.82349026
8	0xbec9e1f6	-0.39430207
9	0xbf00f21c	-0.5036943
10	0xbe4eafdf	-0.20184277
11	0xbf1a3268	-0.60233164
12	0xbf13aafa	-0.57682765
13	0x3ee85675	0.4537846
14	0xbe362bfd	-0.17790218
15	0xbf0a000f	-0.5390634
16	0x3f57011f	0.83986086
17	0xbdb97acb	-0.09056624
18	0x3bd75aa1	0.006572083
19	0xbc41b833	-0.011823702
20	0xbecbbb7d	-0.3979148
21	0xbf0315a2	-0.51204884
22	0x3d981f8a	0.074278906
23	0xbd8234dd	-0.06357739
24	0xbe905d4c	-0.2819618
25	0x3ce0a14d	0.027420664
26	0xbef89a49	-0.4855521
27	0xbf1b0112	-0.6054851
28	0xbed6f756	-0.41985577
29	0xbef40c34	-0.4766556
30	0x3f0d1590	0.55111027
31	0x3ef39bf6	0.47579926
32	0xbf0cbb33	-0.54973143
33	0xbf1654ff	-0.58723444
34	0xbf54c9cf	-0.83120435
35	0xbeed67f0	-0.4636836
36	0xbf12eb2d	-0.573901
37	0xbe47e2df	-0.19520138
38	0xbf194ade	-0.59879863
39	0xbf00f79c	-0.5037782
40	0xbefa9734	-0.48943484
41	0xbbc38acd	-0.005967474
42	0xbe052e03	-0.13005833
43	0x3f5c849b	0.8613984
44	0xbee90f8d	-0.45519677
45	0xbe8a3866	-0.26996154
46	0xbd8f645f	-0.07001566
47	0xbf565d01	-0.8373566
48	0xbd34b8d4	-0.04412158
49	0xbeff6362	-0.4988051
50	0xbe6bb9c2	-0.2302008
51	0xbf4871c4	-0.7829859
52	0xbd92c8cf	-0.071672074
53	0xbf3b4876	-0.7315744
54	0x3d93acca	0.07210691
55	0xbef95404	-0.4869691
56	0xbd4b09da	-0.049569942
57	0xbf249ecf	-0.6430482
58	0xbeea2fa3	-0.4573947
59	0xbf06a045	-0.525883
60	0x3f540ac9	0.82828957
61	0xbedfd0b8	-0.43713927
62	0xbd86a45d	-0.065743186
63	0x3d834f77	0.06411641

h2.weight f4 [64, 64]
0	0xbe65809a	-0.22412339
1	0x3ebe41ea	0.37159663
2	0x3f1286b1	0.5723677
3	0x3ca6b379	0.020349251
4	0x3f6a4fc7	0.9152798
5	0xbee9f7cd	-0.4569687
6	0x3f539f0e	0.82664573
7	0x3f3eef58	0.7458396
8	0x3ea60d20	0.3243189
9	0x3ed9db25	0.42550007
10	0x3e9c3a53	0.30513248
11	0x3f263129	0.6491876
12	0x3ef678b4	0.48138964
13	0x3e6a56c9	0.22884668
14	0x3f75a4af	0.9595441
15	0xbdfdc31c	-0.1239073
16	0x3f88907e	1.0669096
17	0xbc9ea0a3	-0.019363707
18	0x3f427d71	0.7597266
19	0xbd96c25a	-0.07361288
20	0x3f2aaa42	0.6666604
21	0xbf2aa2f5	-0.666549
22	0xbe50c0dd	-0.20386072
23	0xbe64489c	-0.22293323
24	0x3f5d0f34	0.86351323
25	0xbe3c7015	-0.18402131
26	0x3f0076f0	0.50181484
27	0x3ee0efac	0.43932855
28	0x3f1bc993	0.6085445
29	0x3e1563e8	0.14588892
30	0x3f90887e	1.1291654
31	0x3ef2088c	0.47272146
32	0x3f3bcf79	0.73363453
33	0x3f15f6a0	0.58579445
34	0x3f36fe87	0.7148213
35	0x3f02b78b	0.51061314
36	0x3edb7f00	0.4287033
37	0x3e7163dd	0.23573251
38	0x3f18f9da	0.59756243
39	0xbeb672bb	-0.35634407
40	0x3f153df3	0.5829765
41	0x3d8fec4f	0.07027494
42	0x3ed7d1e9	0.42152336
43	0x3f3aea43	0.73013705
44	0x3f31c7ee	0.69445693
45	0x3f68f79c	0.9100282
46	0xbe5970c5	-0.21234424
47	0x3ed5556f	0.41666743
48	0x3f0fd8ea	0.5619036
49	0x3ea7db65	0.32784572
50	0x3e7a2828	0.24429381
51	0x3f79a5a7	0.9751839
52	0x3e6b59fd	0.22983547
53	0x3f36ca74	0.7140267
54	0x3f308256	0.68948877
55	0x3f37a994	0.7174313
56	0xbdfa6f48	-0.122282565
57	0x3f570f7c	0.84008
58	0x3f2031be	0.625759
59	0x3eddca87	0.4331858
60	0x3f778769	0.96690995
61	0x3ef2e2e1	0.4743872
62	0xbcffcd94	-0.031225957
63	0x3f82abe5	1.0208708
64	0x3e89e1d8	0.26930118
65	0x3e1f4574	0.15553838
66	0xbee7263b	-0.45146355
67	0xbe49f54e	-0.19722483
68	0xbe74c941	-0.23904897
69	0x3d066b8b	0.032817405
70	0xbdff931e	-0.12479232
71	0xbf0352f8	-0.51298475
72	0xbe8ff530	-0.2811675
73	0xbdc55ffb	-0.096374474
74	0xbf2d07aa	-0.6758982
75	0xbdf3b7aa	-0.119002655
76	0x3e69443a	0.22779933
77	0x3e410293	0.18848638
78	0xbe899e6a	-0.26878673
79	0xbe2359a7	-0.15952168
80	0xbf26a310	-0.65092564
81	0x3d9cf0a6	0.076630875
82	0xbf3d51b9	-0.73952824
83	0x3e44805a	0.19189587
84	0xbeb2c458	-0.34915423
85	0x3e646799	0.22305144
86	0x3e01a01a	0.1265873
87	0x3e9af82e	0.3026747
88	0xbf0515d9	-0.5198646
89	0xbc9368c4	-0.017994292
90	0x3e335aa7	0.1751505
91	0xbe79fef7	-0.24413668
92	0xbe97985b	-0.29608425
93	0xbefe8bec	-0.49716127
94	0xbef52cfb	-0.4788588
95	0xbe7a60d3	-0.24450998
96	0x3cddd125	0.027077267
97	0xbe78bcab	-0.24290721
98	0xbf26604b	-0.6499068
99	0xbf3418f0	-0.7035055
100	0xbe645026	-0.22296199
101	0xbf1d8f9d	-0.6154726
102	0x3e9c97a3	0.3058444
103	0x3c92150d	0.017832303
104	0xbe68d55a	-0.22737637
105	0x3d210e4f	0.039320286
106	0xbf11e871	-0.569953
107	0xbe82aacf	-0.25520942
108	0x3dead416	0.114662334
109	0xbf359c85	-0.70941955
110	0x3e39c7d2	0.18142632
111	0xbe210c46	-0.15727338
112	0xbf00b1e8	-0.50271463
113	0xbe837d0d	-0.25681344
114	0xbf3c9560	-0.7366543
115	0xbf47af20	-0.78001595
116	0xbd4d7876	-0.05016371
117	0xbe98e0e4	-0.29859078
118	0xbe526468	-0.20546114
119	0x3e3de219	0.1854328
120	0x3e358444	0.17726237
121	0xbea751a2	-0.32679468
122	0x3e56ab80	0.2096386
123	0xbf0a1ac6	-0.53947103
124	0xbe8e639b	-0.27810368
125	0xbf257d33	-0.64644164
126	0x3e881584	0.26578915
127	0xbef66c94	-0.48129714
128	0x3dec929a	0.115513995
129	0xbe724d94	-0.23662406
130	0x3db4e684	0.0883303
131	0xbe337161	-0.1752372
132	0xbe7bef6c	-0.24603051
133	0xbcdbdd11	-0.026838811
134	0xbe5cca69	-0.21561588
135	0x3e91b8e5	0.28461376
136	0xbe435d4d	-0.1907856
137	0x3dac8d0c	0.0842534
138	0xbe3f431f	-0.18677948
139	0xbe2d1943	-0.16904168
140	0x3e903534	0.2816559
141	0x3e175620	0.14778948
142	0x3dbfce74	0.0936555
143	0xbe15e3c1	-0.14637662
144	0xbd0187d1	-0.031623665
145	0x3e8a45ed	0.27006474
146	0xbe4d6ad6	-0.20060286
147	0x3e9b49b0	0.30329657
148	0xbe886454	-0.26639044
149	0xbe0211ea	-0.12702146
150	0xbe45990e	-0.19296667
151	0xbe66fef1	-0.2255819
152	0x3dcbe670	0.09956062
153	0xbd74e28f	-0.059786376
154	0xbe9c8c87	-0.30575964
155	0xbd0807e6	-0.033210658
156	0x3e264994	0.16239005
157	0xbe82ada0	-0.2552309
158	0xbde85df5	-0.11346046
159	0xbda151d3	-0.07876935
160	0xbe366502	-0.17811969
161	0xbe782eb4	-0.24236566
162	0xbe354d0a	-0.1770517
163	0x3e8f4f28	0.2799008
164	0xbe4f8eb2	-0.20269278
165	0xbe932eaa	-0.2874654
166	0xbcaa6b19	-0.020803021
167	0xbe274c2c	-0.16337651
168	0xbe65617c	-0.22400469
169	0xbe3f6dce	-0.18694231
170	0xbe4d55e6	-0.20052299
171	0x3ccb0322	0.024781767
172	0xbd8fc837	-0.0702061
173	0x3bddf173	0.0067731678
174	0x3e5bc3c9	0.21461405
175	0x3e7a1baf	0.24424623
176	0x3d9d081c	0.07667562
177	0x3db9a9e2	0.09065606
178	0xbe0d6830	-0.13809276
179	0x3e40ba1a	0.18820992
180	0xbd0edc87	-0.03487828
181	0xbe1aaded	-0.1510541
182	0xbe53313f	-0.20624255
183	0xbe745f37	-0.23864447
184	0x3e0e4c07	0.1389619
185	0x3d52924e	0.05140906
186	0x3e8fb92e	0.28070968
187	0xbe74f0c7	-0.23919974
188	0x3e570afc	0.21000284
189	0xbe3db32f	-0.18525384
190	0xbcf5e7a9	-0.03001769
191	0xbe8ba005	-0.27270523
192	0x3d05bcb6	0.032650672
193	0xbeeb04f4	-0.45902216
194	0xbf1af5e7	-0.6053147
195	0xbd3070dc	-0.04307638
196	0xbede29e6	-0.4339134
197	0xbe8b33d9	-0.27187994
198	0xbebb4ef3	-0.3658367
199	0xbec82a23	-0.39094648
200	0xbf575b83	-0.8412401
201	0xbe8d992a	-0.27655917
202	0xbdf5d119	-0.12002773
203	0xbe9166d0	-0.28398752
204	0xbe7a4955	-0.24442036
205	0x3e7aeab2	0.24503592
206	0xbf14a3a5	-0.580622
207	0x3c391032	0.011295365
208	0xbe803f5a	-0.25048333
209	0x3d82d1dd	0.063876845
210	0xbf18b4a5	-0.5965064
211	0xbdead403	-0.11466219
212	0xbecaf4f9	-0.39640024
213	0x3f025db4	0.5092423
214	0x3e5bd7c4	0.21469027
215	0x3e90d951	0.282908
216	0xbef3b081	-0.475956
217	0xbe39eb5e	-0.18156192
218	0xbf32ac56	-0.69794214
219	0xbf0e7de3	-0.5566084
220	0xbf52b0d4	-0.8230107
221	0xbe8c6e2a	-0.27427799
222	0xbee4dbf5	-0.44699064
223	0x3e2682c2	0.16260818
224	0xbf01ec99	-0.50751644
225	0xbf0240a3	-0.5087988
226	0xbeecd0c2	-0.4625302
227	0xbf343604	-0.7039492
228	0xbf23da4d	-0.64004976
229	0xbf526e1f	-0.8219928
230	0xbe815983	-0.25263605
231	0xbea570a3	-0.32312497
232	0xbf3c618f	-0.7358636
233	0x3e135e22	0.14391378
234	0xbf43e168	-0.7651582
235	0xbf15d5e4	-0.58529496
236	0xbea4888f	-0.32135436
237	0xbe991ef5	-0.2990643
238	0xbe84a073	-0.25903663
239	0xbf2cc4e2	-0.6748792
240	0xbf44171d	-0.7659777
241	0xbe93cc64	-0.28866875
242	0x3e7d6195	0.24744256
243	0xbf07a6e7	-0.5298905
244	0x3e96bfb0	0.2944312
245	0xbea716e3	-0.3263465
246	0x3ef55b97	0.4792144
247	0xbf2eed79	-0.68331105
248	0xbe887c59	-0.2665737
249	0xbf2acc09	-0.6671758
250	0xbec0a171	-0.3762317
251	0xbf062472	-0.5239936
252	0xbe9cbcde	-0.30612844
253	0xbf32555f	-0.69661516
254	0xbe735014	-0.23761016
255	0xbf58d819	-0.8470474

h2.bias f4 [64]
0	0x3f46bfad	0.77636224
1	0xbef0b670	-0.4701419
2	0xbdc8f5cf	-0.09812509
3	0xbef598c8	-0.47968125
4	0x3edd6e8a	0.43248397
5	0xbf01d199	-0.50710446
6	0x3f33b618	0.7019973
7	0x3d033427	0.03203216
8	0x3e3ad3ec	0.18244904
9	0x3ee0be3d	0.4389514
10	0xbd0c2887	-0.034218337
11	0xbf1b3af5	-0.60636836
12	0x3d90434d	0.070440866
13	0x3ea47130	0.32117605
14	0xbe0d0850	-0.13772702
15	0xbe156a20	-0.14591265
16	0xbec87441	-0.39151195
17	0xbefb302c	-0.4906019
18	0xbf127c2a	-0.5722071
19	0xbf1b237d	-0.60601026
20	0xbef1cdc6	-0.47227305
21	0xbf098d38	-0.5373111
22	0xbef1a79c	-0.47198188
23	0x3f2de09a	0.6792084
24	0xbd712f3d	-0.05888294
25	0x3f43c685	0.7647479
26	0x3e72a8d8	0.23697221
27	0xbf0d69b0	-0.5523939
28	0xbdd42c6b	-0.103600346
29	0xbe50c2b3	-0.20386772
30	0xbf166216	-0.5874342
31	0xbdc162d8	-0.09442681
32	0x3e82e9d7	0.2556903
33	0xbcb5b3ba	-0.022180427
34	0x3e85b9cf	0.26118323
35	0xbf109f10	-0.5649271
36	0xbdac33d5	-0.08408324
37	0x3dfb894b	0.12282046
38	0xbdaaa9fd	-0.08333204
39	0x3ec3933a	0.38198262
40	0xbe91d6af	-0.28484103
41	0x3e296f29	0.1654631
42	0xbe9836b0	-0.29729223
43	0x3c86ef1a	0.016471434
44	0xbf195aa3	-0.59903926
45	0xbf065fab	-0.5248973
46	0xbede52de	-0.43422598
47	0x3e977aae	0.29585785
48	0xbf311041	-0.69165426
49	0xbd3ad5e7	-0.04561415
50	0x3eed234d	0.46315995
51	0xbecc55d2	-0.39909226
52	0x3d568877	0.052376237
53	0x3c86f587	0.016474498
54	0x3eb3d7f5	0.351257
55	0xbf1dcdb4	-0.61642003
56	0xbf15e9de	-0.5855998
57	0xbefb89e1	-0.4912863
58	0xbf1f3e48	-0.6220441
59	0xbeee213b	-0.46509728
60	0xbf01e56c	-0.50740695
61	0x3da53889	0.08067424
62	0xbee6a889	-0.45050457
63	0xbf319fea	-0.69384634

h3.weight f4 [4, 64]
0	0xbf376edb	-0.7165353
1	0x3e7fbd27	0.249745
2	0x3da19884	0.07890418
3	0xbe863bfb	-0.26217636
4	0xbf43f151	-0.76540095
5	0xbf3b4d9f	-0.73165315
6	0xbda6d7e8	-0.081466496
7	0xbe1457b9	-0.14486589
8	0xbf3ee67e	-0.74570453
9	0xbf5784a7	-0.84186786
10	0xbe829ce9	-0.25510338
11	0xbe98ff52	-0.29882294
12	0xbf123081	-0.5710526
13	0xbf2cdc80	-0.67523956
14	0xbeabbeb3	-0.3354393
15	0xbea29e40	-0.3176136
16	0xbf1af43f	-0.6052894
17	0xbf12c479	-0.57331043
18	0xbec7cd90	-0.3902402
19	0xbeb5845b	-0.35452542
20	0x3d054da4	0.032544747
21	0xbe9184c5	-0.28421608
22	0xbd941e95	-0.072323956
23	0xbccc03cb	-0.024904152
24	0x3e4d72d3	0.20063333
25	0xbf280416	-0.65631235
26	0xbf52e521	-0.8238087
27	0xbea7cd62	-0.32773882
28	0xbf054c19	-0.5206924
29	0xbf2ead4d	-0.68233186
30	0xbe5d9c8a	-0.21641746
31	0xbe7273da	-0.23677006
32	0xbf04f093	-0.5192959
33	0xbd812a16	-0.063068554
34	0xbf585daa	-0.8451792
35	0xbe4ed1a8	-0.20197165
36	0xbf38cccd	-0.721875
37	0xbf448d4e	-0.76778114
38	0xbde5d05d	-0.11221383
39	0x3e828eb5	0.25499502
40	0x3e30dae1	0.17270996
41	0x3dc424c3	0.09577324
42	0xbde8aee7	-0.11361485
43	0x3e520a8d	0.20511837
44	0xbf4ee76c	-0.8082187
45	0xbf31d4ff	-0.6946563
46	0xbd4d3edc	-0.050108775
47	0xbe87861f	-0.26469514
48	0xbf1620d4	-0.5864384
49	0x3e8534a9	0.2601674
50	0xbf3ea026	-0.7446312
51	0xbe763094	-0.24041969
52	0x3e09a277	0.13440882
53	0x3dad1e3d	0.08453033
54	0xbf57a750	-0.84239674
55	0xbe7a2a82	-0.24430278
56	0xbeb400b5	-0.3515679
57	0xbeb72a91	-0.35774663
58	0xbf085266	-0.5325073
59	0xbf211988	-0.6292958
60	0xbf4325d6	-0.7622961
61	0xbf255871	-0.64588076
62	0xbf2c4ff4	-0.673095
63	0xbedd5b0e	-0.43233532
64	0xbf07f862	-0.5311338
65	0xbf1325fe	-0.57479846
66	0x3e10b0d0	0.14129949
67	0x3f422d68	0.75850534
68	0xbea9686d	-0.33087483
69	0x3e7fbbee	0.24974033
70	0xbf57e2bb	-0.8433034
71	0x3c29c7e7	0.010362602
72	0x3cac76c1	0.02105272
73	0xbeb1e48c	-0.3474468
74	0x3e916f92	0.28405434
75	0x3e9c33a3	0.30508146
76	0xbdebf8e6	-0.11522083
77	0xbea3db81	-0.32003406
78	0xbe8bf5a9	-0.2733586
79	0xbe395551	-0.18098952
80	0xbeb21d14	-0.3478781
81	0x3eb1ea56	0.34749097
82	0x3f3cfb7d	0.7382124
83	0x3e743a5d	0.23850389
84	0xbe3d99f8	-0.18515766
85	0x3e927d27	0.2861111
86	0x3ef990ec	0.4874338
87	0xbf3ea73c	-0.7447393
88	0xbe15bd0c	-0.14622897
89	0xbf463c49	-0.7743574
90	0xbeb73ab0	-0.35786963
91	0x3f073bce	0.5282563
92	0xbcf63be2	-0.030057851
93	0xbee645c9	-0.44975117
94	0xbf17df1a	-0.593248
95	0xbe6de2cc	-0.23231047
96	0xbdd3ab81	-0.10335446
97	0xbebd32cc	-0.36952817
98	0xbe126f3f	-0.1430025
99	0x3e738e47	0.23784743
100	0xbeca2939	-0.39484575
101	0xbec3e97f	-0.3826408
102	0xbd67f5f3	-0.05663104
103	0xbf37d38a	-0.7180716
104	0xbecbbe07	-0.39793417
105	0xbeafcbf6	-0.34335297
106	0xbe823578	-0.25431418
107	0xbdc45392	-0.09586252
108	0x3f1940ec	0.5986469
109	0x3e84171f	0.2579889
110	0xbed314f6	-0.4122693
111	0xbdefaf98	-0.11703414
112	0x3f0c3a03	0.5477602
113	0xbe221834	-0.15829545
114	0xbecacacf	-0.39607856
115	0xbeba952c	-0.36441934
116	0xbe2a41ea	-0.16626707
117	0xbdd4222f	-0.103580825
118	0xbe18a94d	-0.14908333
119	0x3ebaf417	0.3651435
120	0x3ecfce1f	0.40586945
121	0x3e746f89	0.23870672
122	0x3c91d598	0.017802045
123	0x3e85fa1d	0.26167384
124	0x3eba87c2	0.364317
125	0xbd730d9c	-0.05933915
126	0x3eab31c9	0.3343642
127	0x3f0c2ba3	0.54754084
128	0xbf291ee3	-0.66062754
129	0xbeddc8c9	-0.4331725
130	0xbe090ff2	-0.13384989
131	0x3e328eab	0.17437236
132	0xbf2f6d30	-0.6852598
133	0x3f150184	0.5820544
134	0xbf2e7da0	-0.6816044
135	0xbe3781e8	-0.17920649
136	0xbecb8836	-0.39752358
137	0xbf4a887d	-0.79114515
138	0x3e5ff03c	0.21868986
139	0x3f1cfed2	0.61326325
140	0xbe7016c7	-0.23446189
141	0xbef9cba5	-0.4878818
142	0xbec3faf7	-0.38277408
143	0xbe3072cd	-0.17231293
144	0xbecfc94b	-0.40583262
145	0x3f2829d6	0.65688837
146	0xbe539dc2	-0.20665649
147	0x3dc6790a	0.09691055
148	0xbed288c1	-0.4111996
149	0x3ea78d7c	0.32725132
150	0x3ef2bf5f	0.4741163
151	0xbf1ca0e6	-0.6118301
152	0xbec50ad7	-0.38484833
153	0xbf1f1bde	-0.62151897
154	0xbe725103	-0.23663716
155	0x3ed5e33a	0.41774923
156	0xbed7260d	-0.42021218
157	0xbe90b3eb	-0.28262267
158	0xbed31474	-0.41226542
159	0x3dec9ca1	0.11553312
160	0xbed9e7ef	-0.42559764
161	0xbf11a026	-0.5688499
162	0xbe3eb654	-0.1862424
163	0x3f262459	0.6489921
164	0xbe92ca27	-0.28669855
165	0xbe5d5d29	-0.21617569
166	0xbd85436c	-0.06507
167	0xbe82d40d	-0.25552407
168	0xbe1cf5d4	-0.15328151
169	0xbf021702	-0.5081636
170	0xbebc1cf2	-0.36740834
171	0x3ca6ed30	0.020376772
172	0x3e9c986e	0.30585045
173	0x3f2a5058	0.66528845
174	0xbe80a1d1	-0.25123456
175	0xbf1c4757	-0.61046356
176	0xbe455eb8	-0.19274414
177	0xbd20e55c	-0.039281234
178	0xbf067e57	-0.5253653
179	0xbe972820	-0.295228
180	0x3df7a969	0.12092859
181	0xbe3a9e78	-0.18224514
182	0xbe391037	-0.18072592
183	0x3ee243ff	0.44192502
184	0x3f057842	0.52136624
185	0x3e981015	0.2969977
186	0xbd9fc950	-0.07802069
187	0x3f055767	0.5208649
188	0xbc98d157	-0.018654509
189	0xbf21fbab	-0.6327464
190	0x3e848401	0.2588196
191	0x3f3ab77a	0.72936213
192	0xbf325750	-0.6966448
193	0xbe3e98c2	-0.1861296
194	0xbda167ed	-0.078811504
195	0xbef297e9	-0.47381523
196	0xbf0110cd	-0.5041626
197	0xbe8607fc	-0.26177967
198	0xbe7736cf	-0.24142002
199	0x3e856108	0.2605059
200	0xbeec6dac	-0.46177423
201	0xbf1ddc16	-0.6166395
202	0x3db1a3ed	0.086738445
203	0xbef2774d	-0.47356644
204	0xbe95dbe3	-0.29269323
205	0xbf31b7aa	-0.69420874
206	0xbed0c764	-0.40777123
207	0xbf2c90b4	-0.674083
208	0x3e212680	0.15737343
209	0xbe9dcd4f	-0.308207
210	0xbe930ae8	-0.28719258
211	0x3def2603	0.11677172
212	0x3e2f76f2	0.17135218
213	0x3e7d4376	0.24732766
214	0xbe90acfa	-0.2825697
215	0xbe646709	-0.2230493
216	0xbf36f444	-0.7146647
217	0xbf08b96b	-0.53407925
218	0xbf451ee5	-0.77000266
219	0xbe76aca7	-0.24089299
220	0xbed0e668	-0.40800786
221	0xbf03aa18	-0.5143142
222	0x3e27aff6	0.16375718
223	0x3e79df60	0.24401617
224	0xbf41ece8	-0.75752115
225	0xbf1777eb	-0.59167355
226	0xbf0d6763	-0.5523588
227	0xbe9af77a	-0.30266935
228	0xbef0ebc2	-0.4705487
229	0xbf3fb35b	-0.7488305
230	0x3df5d9a7	0.120044045
231	0x3bc093a8	0.005876977
232	0xbcf039f7	-0.029324515
233	0xbda4eb63	-0.08052709
234	0xbf3078e9	-0.68934494
235	0x3e0c1623	0.1368032
236	0xbe7215f7	-0.23641191
237	0xbee108c1	-0.4395199
238	0xbe853a4d	-0.26021042
239	0xbf39f947	-0.7264599
240	0xbe9e455a	-0.30912286
241	0xbe4962e2	-0.19666627
242	0xbf35381c	-0.7078874
243	0xbcd4d48a	-0.025980253
244	0xbe255acd	-0.16147919
245	0x3e877c99	0.26462248
246	0xbf4d16d2	-0.80112946
247	0xbf1d6737	-0.6148562
248	0xbf110153	-0.56642646
249	0xbf0d59c8	-0.5521512
250	0xbee65d71	-0.44993165
251	0xbf4094ca	-0.75227034
252	0xbe7de88b	-0.2479574
253	0xbefb3c25	-0.49069324
254	0xbeaeb7b9	-0.34124544
255	0xbe83f69d	-0.25774089

h3.bias f4 [4]
0	0xbf0c498a	-0.5479971
1	0x3e36d3f0	0.17854285
2	0xbce90e4e	-0.028449204
3	0xbee2b0eb	-0.44275603
