weights/weights_LF=8_dense/w=0.40_1.pth (torch, 39820 bytes, 8 tensors)

input.weight f4 [64, 4]
000000 d4 63 c7 bd 24 12 38 3f 6e ab 59 3f 42 5e 24 bf
       -0.097358376 0.7190268 0.85027206 -0.64206326
000010 42 c2 e1 be 6b 9f db be ed b4 69 bf a7 b8 e2 bf
       -0.4409352 -0.42895064 -0.91291696 -1.7712601
000020 04 a9 e2 3f df df a6 3f 9d e2 b2 3e bf 49 f5 3f
       1.770783 1.303707 0.34938517 1.916313
000030 37 27 5a bf b4 a8 47 bf 33 a0 6a bf ad 2e 51 bf
       -0.8521609 -0.77991796 -0.91650695 -0.81711847
000040 3f 39 61 be b4 4d b5 bf 09 53 fc be 31 0e 15 c0
       -0.21994494 -1.4164338 -0.492821 -2.3289912
000050 61 85 6c 3f c3 ab 90 bf 82 1f 22 3f 24 11 24 3f
       0.9239102 -1.1302418 0.6332933 0.64088655
000060 8e 11 8a bf 2b 71 a3 bd 16 51 a8 bf 62 7f b2 bf
       -1.0786607 -0.079805695 -1.3149745 -1.3945124
000070 18 bf 51 3f ec a0 06 40 9c fc 86 3f f3 f2 ef 3f
       0.8193221 2.103572 1.054584 1.8746017
000080 59 3a 7f bf 1f a1 91 3f 44 43 8b 3e f3 f5 b6 bf
       -0.99698406 1.1377295 0.27199757 -1.4293808
000090 d7 43 15 bf a8 19 ec be cc 98 c8 be c1 c3 a0 bf
       -0.5830664 -0.46113324 -0.39179075 -1.2559739
0000a0 d2 6f 03 40 a9 0f dc 3d f2 30 a4 3f 42 f7 6a 3f
       2.0537 0.107451744 1.2827437 0.91783535
0000b0 9e cf 97 bf 0c 66 b9 bd c0 b2 63 be ad a7 8f bf
       -1.1860235 -0.09052667 -0.22236156 -1.1223046
0000c0 67 49 56 bf 10 25 0c bf 0f 27 2c bf 4c 7e 53 bf
       -0.83705753 -0.5474405 -0.672471 -0.8261459
0000d0 b3 15 d5 3f 92 0b ed 3f f1 f5 ed 3f 51 bc 34 3f
       1.6647247 1.8519156 1.859068 0.7059985
0000e0 4e a9 03 c0 4b 03 3b bf d9 33 81 bf 70 d3 ca bf
       -2.0572085 -0.730519 -1.0093948 -1.5845776
0000f0 15 ee ff 3f 00 b5 8d 3e 9b fc e8 3f 1d 40 ed 3f
       1.9994532 0.27677155 1.8202089 1.8535191
000100 e8 c6 11 3f 6e 02 97 3f db 5c 0f 3f 36 0a 4d 3f
       0.5694413 1.1797616 0.5600106 0.80093706
000110 cd ec 3b 3f 36 b8 d7 3e db 31 a7 bf f2 80 d3 3f
       0.73408204 0.4213273 -1.306209 1.6523726
000120 17 09 5c be 73 8e 68 bf 2d b6 73 3f 01 7d 68 3f
       -0.21487843 -0.9084236 0.95199853 0.9081574
000130 dd b2 47 bf 81 80 84 bf 90 40 71 3f 16 56 54 3f
       -0.780073 -1.0351716 0.9423914 0.82943857
000140 ac 3c 16 bf 69 df 0d 3e 51 d4 9f 3f e5 8e 75 bf
       -0.5868633 0.13854755 1.2486669 -0.95921165
000150 66 fd 64 3f 2b 2d 92 be 1b 91 6d bf 58 61 91 bf
       0.89449155 -0.28550085 -0.9279954 -1.1357832
000160 99 44 29 bf 09 81 2b bf be 0b 9d bf c1 fb dd bf
       -0.66120297 -0.6699377 -1.2269208 -1.7342454
000170 24 bf 14 3f b0 9d 69 3f 4c 29 bc bf 33 bf e5 bf
       0.5810416 0.9125624 -1.4700103 -1.7948974
000180 41 4f a3 bf d3 bf cf bf 79 52 9b 3e a5 3f 0d c0
       -1.2758561 -1.6230415 0.3033636 -2.2070096
000190 13 7d 01 40 3d a0 43 3f de c9 96 3f a6 45 eb 3f
       2.023259 0.7641638 1.1780355 1.838063
0001a0 d3 5c c5 bf c4 3b 44 bf c6 e9 1e 3d 3b ca cb bf
       -1.5418953 -0.76653695 0.038797162 -1.5921091
0001b0 ea e8 4c bf 4d 56 60 bf 26 ed 0e 3e 1f 2b a3 bf
       -0.800429 -0.87631685 0.13957652 -1.2747535
0001c0 ee e6 33 bf bf 85 f8 be 48 60 67 3f 67 60 4c 3f
       -0.70274246 -0.4853954 0.9038129 0.798346
0001d0 4c 30 d1 3f 0a 34 86 3f 52 31 83 3f 7d 61 d4 3f
       1.6342864 1.0484631 1.0249426 1.6592251
0001e0 42 38 46 bf 6e 66 e4 be 62 74 7d bf 69 59 9c bf
       -0.7742959 -0.44609398 -0.9900571 -1.2214786
0001f0 82 dc 1f bf b4 e9 5c 3f 4d a4 79 3e 5b 91 88 3f
       -0.62445843 0.862941 0.24379082 1.0669359
000200 3b 3c cd 3f 94 4d 01 3d 92 98 c3 3e 79 53 8d 3f
       1.6034006 0.031568125 0.3820234 1.1041099
000210 ca 2d 28 3f df 1d 1d be c1 f8 bf bf fb 7e 90 3f
       0.6569487 -0.15343426 -1.4997789 1.1288751
000220 89 6f 9f 3e c6 2e a3 be 54 11 4b bf d9 fe 54 bf
       0.31139782 -0.31871623 -0.79323316 -0.83201367
000230 3a 74 20 bf 9c b4 9c bf e9 28 52 3f 2e c6 9b bf
       -0.6267735 -1.2242618 0.82093674 -1.2169855
000240 5d b9 4d 3f 77 fd 8e 3f 9c 3a 0e 3f 6d 77 8d 3f
       0.80360967 1.1171101 0.5555818 1.1052071
000250 58 17 05 c0 45 3b 8e be 58 dd 91 bc ca 4a 61 bf
       -2.0795498 -0.27779594 -0.01780574 -0.88004744
000260 73 4e e8 3f e3 1a c4 3f 6b a6 9d 3f 5c b0 5c 3f
       1.8148941 1.5320705 1.2316412 0.86206603
000270 3e 96 8f bf e1 4f 7b 3f eb ba aa 3e 91 4e ea bf
       -1.1217725 0.9816876 0.33345732 -1.8305227
000280 21 c5 c6 3f 28 ef 48 3f 5d 3f cf 3f 0a 2b d3 3f
       1.5528909 0.78489923 1.6191212 1.649751
000290 c3 78 b2 3e c9 09 bc 3f 79 9d d5 3f 4c 7a 16 40
       0.3485776 1.4690486 1.6688682 2.3512144
0002a0 e5 dd 2f 3b 7b 38 6b be 72 37 a0 3f 09 8a fa 3f
       0.002683514 -0.22970764 1.251692 1.9573375
0002b0 ab f1 41 bf 9c 7c 04 3e 45 2e 90 bf 2c c9 1f c0
       -0.7575938 0.1293816 -1.126412 -2.4966536
0002c0 ea 2e ae 3c 48 ed 59 3f d1 ec 15 bf 93 4c 1e bf
       0.021262605 0.8512769 -0.5856448 -0.61835593
0002d0 00 33 e0 bf c8 51 b5 bd 55 b9 a0 bf da 63 ba bf
       -1.7515564 -0.08853489 -1.2556559 -1.4561722
0002e0 b9 d7 34 bf a2 7c fd 3e 7d 77 de 3c 89 ef 77 bf
       -0.70641667 0.4950915 0.027156586 -0.96849877
0002f0 4b 16 ec 3f 81 2a 89 3f 32 da 57 be 73 b4 04 40
       1.8444303 1.0716096 -0.21079329 2.0735137
000300 37 48 14 3f dc 2d 00 bf 46 c0 13 bf d9 18 c4 bf
       0.5792269 -0.50069976 -0.5771526 -1.5320083
000310 9b f6 a1 be 36 1a 94 3f f3 15 bf 3f 55 b5 e2 3f
       -0.31633458 1.1570499 1.4928573 1.7711588
000320 57 5d 9d bc 27 97 4f 3f bc 43 9e 3f b5 1b c4 3f
       -0.019209547 0.81090015 1.2364421 1.5320956
000330 54 f3 09 c0 90 69 68 be a1 77 92 bd 40 a1 e7 bf
       -2.1554766 -0.22696519 -0.07151724 -1.8096085
000340 f0 0a 32 be b2 2a e6 bf a8 8a fd 3d 08 66 2d c0
       -0.17386985 -1.798178 0.12379962 -2.7093525
000350 94 03 f2 3e 96 a3 13 3f 2d af c4 3e ab 82 51 3f
       0.47268355 0.5767149 0.384149 0.8184001
000360 89 63 e3 be dc 5d 6d 3e f6 11 f2 3f f8 f6 10 40
       -0.44411877 0.23180336 1.8911731 2.2650738
000370 60 0e 1e 3f 72 60 43 3f 0a 5c f6 3e 3b ba f7 3f
       0.61740685 0.7631904 0.48117095 1.9353708
000380 d1 f7 6c 3e 25 90 3b bf 7f c3 87 3e 2e ff 9f be
       0.2314141 -0.7326682 0.2651634 -0.31249374
000390 1c 54 5f bd 16 ca d8 3e 28 6a bc 3e 90 fe 94 3e
       -0.054523572 0.4234168 0.3679974 0.29100466
0003a0 88 05 71 3f 9b 13 2f 3f 28 18 d5 3f 38 42 eb 3f
       0.94149065 0.6838929 1.6647997 1.8379583
0003b0 8d f3 1d 3f 27 89 90 bf 06 5c bf bf c5 81 b6 bf
       0.61699754 -1.1291856 -1.4949958 -1.4258353
0003c0 7d 84 38 bf 1c 2b 3e bf 09 a0 e3 be 7d eb 18 c0
       -0.7207716 -0.7428453 -0.44458035 -2.389373
0003d0 ba 29 7b be 61 b0 5f bc 98 85 ce 3e 3a c3 bd 3f
       -0.24527636 -0.013652892 0.403363 1.4825203
0003e0 38 e3 f6 3d 2b e6 70 bf 0b 78 02 bf b5 87 f5 3e
       0.12055057 -0.9410121 -0.5096442 0.479551
0003f0 37 7f 1f 3f 24 f7 62 3f d5 66 16 bf c4 02 7d 3f
       0.6230349 0.88658357 -0.5875066 0.98832345

input.bias f4 [64]
000000 49 09 e8 be ec b5 07 be 5e 66 07 3f ed d6 8d bc
       -0.45319584 -0.13252991 0.52890575 -0.017314399
000010 a1 78 29 bf 60 55 d1 3c e9 53 15 bf 4d 86 4d 3f
       -0.6619969 0.025553405 -0.5833116 0.8028305
000020 83 1b 8b 3c 69 ca 84 3e 2a f0 3c 3f 40 6b 44 bc
       0.016980892 0.25935677 0.7380396 -0.011988461
000030 b2 ce 4f 3e 81 be 15 3f 7e e2 3d bf 25 1c 43 3f
       0.20293692 0.5849381 -0.74173725 0.7621482
000040 97 98 04 bd 30 8c 5e be 93 da fb bd 4a 67 06 3e
       -0.032372084 -0.21733165 -0.12297549 0.13125339
000050 0a f4 a3 3e 6a f8 1c bd 53 8b c8 be 3f 64 5a bd
       0.32022125 -0.038322844 -0.39168796 -0.05331826
000060 0b da 28 bf e9 55 46 3f a2 d2 6f be 5f 87 8f bd
       -0.6595771 0.7747484 -0.23420194 -0.07008242
000070 e1 b6 e4 3e f0 ee 25 3f d0 d0 3d be f7 6f 01 3f
       0.44670776 0.64817715 -0.18536687 0.5056147
000080 5e d4 3b 3f 5d 8e eb be 33 23 87 3e cb 11 f7 3c
       0.7337092 -0.46007052 0.26394042 0.030159852
000090 d9 f1 df 3e b4 ee 30 bf 6d 7f b3 3e 0b b5 96 be
       0.43739203 -0.6911423 0.35058156 -0.29435
0000a0 c5 12 37 3f 8c fe 0e 3f 1d b7 6c 3f 4a a2 20 bf
       0.71513015 0.5585716 0.9246691 -0.62747633
0000b0 7e 13 d9 be 87 32 5c bf f8 bd d2 be 0f 94 35 3f
       -0.42397684 -0.860146 -0.4116056 0.70929044
0000c0 1e 5d 2f 3e d9 df 1d 3f ac 54 93 3d b3 6f 72 bf
       0.17125365 0.6166969 0.07193884 -0.9470169
0000d0 10 7b 48 bf e9 57 c9 bd a9 dd 4e 3f 74 db 3f 3f
       -0.7831278 -0.09831221 0.80806977 0.74944234
0000e0 7e 78 a2 3e b5 db bd bd 6c 72 15 3f 5c b7 09 bf
       0.31732553 -0.092704214 0.5837772 -0.5379541
0000f0 d0 32 47 bf dd b6 15 bd 3f 35 89 3e 70 80 ba bd
       -0.7781191 -0.036551345 0.26798436 -0.09106529

h1.weight f4 [64, 64]
000000 10 0d ec bd 03 7f 98 3e e4 18 89 bf 2c e8 2c 3f
       -0.11525929 0.29784402 -1.0710721 0.67541766
000010 c4 c7 82 3f 26 b6 31 3e 51 b4 95 3f 17 36 8d bf
       1.0217214 0.1735464 1.1695653 -1.1032132
000020 69 a0 4d 3e c5 17 59 3e f4 84 93 bf 5f d7 69 3d
       0.20080723 0.21200474 -1.1524949 0.05709016
000030 53 bb a8 3e 13 30 98 bf df 2c 5c 3f c0 fa 9c bf
       0.32955417 -1.1889671 0.8600597 -1.2264023
000040 64 d6 04 bf 9e 0d 5f be 3f 31 2d 3e 7b 66 30 3f
       -0.51889634 -0.21782538 0.16913317 0.6890637
000050 a8 c4 9e 3c bf aa e6 bd 89 51 66 3f 6e ad df 3d
       0.019380882 -0.11263036 0.8996816 0.10921751
000060 47 33 23 3f 66 c5 70 bf 3a ce aa 3d 9e 62 88 bd
       0.6375012 -0.94051206 0.08340116 -0.06659435
000070 f9 19 5f be 06 de 3c bf f1 fe f1 3e 31 a7 b1 bd
       -0.21787252 -0.7377628 0.47264817 -0.08674467
000080 22 9d 8c bf 80 fd 51 3e a3 a0 16 be f4 74 04 bd
       -1.0985453 0.20506859 -0.14709716 -0.032338098
000090 d6 1c 6a bf 8d 8f 8f 3f b5 b7 58 bf 8b 83 17 3e
       -0.9145025 1.1215683 -0.84655315 0.14796273
0000a0 28 67 8c bf 1c b5 90 bf f1 6e 46 bd bd fc 40 3f
       -1.0968981 -1.130527 -0.048445646 0.7538565
0000b0 9d 18 d9 3c 56 29 51 3f d8 2a a5 be 44 35 3d bf
       0.026500994 0.817037 -0.3225925 -0.739094
0000c0 e5 83 60 bd 80 14 19 bf 2e 0a 4d bf 20 a4 57 3f
       -0.054813284 -0.59796906 -0.8009366 0.8423481
0000d0 7f db 7c 3f 93 b9 84 be d0 49 31 bf cb b2 43 bf
       0.98772424 -0.25922832 -0.69253254 -0.7644469
0000e0 86 29 86 bd cf 2e cf bc dd c9 8c bf ad 4a 4c 3f
       -0.06550889 -0.025290875 -1.0999104 0.79801446
0000f0 3d d7 0f 3f 98 35 65 3d b6 c3 47 3e 48 51 d6 3d
       0.561878 0.055959314 0.19508252 0.10464722
000100 aa 75 4d 3f b7 58 20 bf 76 53 eb 3e b8 d1 25 bf
       0.80257666 -0.6263537 0.45962113 -0.6477313
000110 92 29 98 3e 2f f3 89 3f dd c7 8f 3e d5 3f 70 3e
       0.29719216 1.0777339 0.2808217 0.2346185
000120 5d 83 69 bf e9 78 e8 be 75 19 bb be c8 29 45 bf
       -0.9121607 -0.45404747 -0.3654286 -0.7701688
000130 95 63 11 bf 47 c7 cd 3e f5 4a a4 be b8 e5 f8 3c
       -0.56792575 0.401911 -0.32088438 0.030382976
000140 33 81 17 3f 56 bd 3f 3f 99 8e 69 3f 4c 07 03 3e
       0.5918152 0.7489828 0.9123321 0.12795752
000150 3e 92 a8 bf 86 80 8c bf 7c 9c 1d be cc 91 87 bf
       -1.316963 -1.0976722 -0.15391725 -1.0591369
000160 4c 9c 10 bd df 7f 6a bd d2 20 ac be 38 b3 1d bf
       -0.035305306 -0.057250854 -0.3361879 -0.6160159
000170 09 74 82 bf 59 d6 8f 3d 38 a5 c4 be df 9d 68 bf
       -1.0191661 0.070233054 -0.38407302 -0.9086589
000180 37 85 a4 bf 1d 50 63 3f 22 fd 79 bf 0b 89 41 bf
       -1.2853154 0.8879412 -0.97651875 -0.75599736
000190 92 51 53 3e 4e dd 00 40 c3 e3 34 3e be 9c 4d bf
       0.20636585 2.0135074 0.17665009 -0.80317295
0001a0 0d 10 e9 3e 4f 1b 13 3f 9c f9 84 bf 1d 26 d1 3d
       0.45520058 0.57463545 -1.0388675 0.10212348
0001b0 09 f1 92 3f f6 75 1b 3f 8d da 95 3f c8 ec b3 be
       1.1479808 0.6072687 1.1707321 -0.35141587
0001c0 17 84 e5 be f8 37 1d bf a6 fc 86 3e 7e 75 0a 40
       -0.4482734 -0.61413527 0.2636463 2.1634212
0001d0 a3 f6 8b 3f 2c 65 4d 3f f9 30 94 be 56 19 2d bf
       1.0934643 0.802325 -0.28943613 -0.67616785
0001e0 dc 37 a2 bf 72 f9 a3 3f 3a 30 ed bc be 27 d3 3e
       -1.2673297 1.28105 -0.02895366 0.41241258
0001f0 4a 3c 02 3f 93 5d 75 3f c9 08 26 bf df 38 46 3f
       0.50873244 0.9584591 -0.64857155 0.7743053
000200 f4 65 83 3d 7b cc e7 3e b7 e1 28 bf 4f 8d 0d 3f
       0.064159304 0.45273194 -0.65969414 0.55293745
000210 3e 12 6f 3f 09 36 0b bf 8c 9c 7c 3f 30 7b 3f bf
       0.9338721 -0.54379326 0.9867637 -0.74797344
000220 be 6d 07 3f 8d 51 d6 3e 4e 20 4e bf 69 c9 dd 3e
       0.5290183 0.41859093 -0.80518043 0.43317726
000230 c4 ba cd 3e fb ec 74 bf 6d f5 79 3f 26 c6 52 bf
       0.40181553 -0.95674103 0.97640115 -0.823336
000240 a3 cc af be 0e e9 3d be ab e1 d3 be e8 f9 4d 3e
       -0.34335813 -0.18545935 -0.41383108 0.20114863
000250 0f 89 95 3e 41 ec c2 3e a3 fb 56 3f df a0 16 3f
       0.2920613 0.38070872 0.8397772 0.5883922
000260 d4 8c 73 3f 85 e8 61 bf 95 a0 14 3f a5 2d b5 3e
       0.9513676 -0.8824542 0.5805753 0.35386387
000270 fd cc c5 3e 57 4e 73 bf f4 9f 02 3f c0 6c 8f 3c
       0.38632956 -0.9504141 0.5102532 0.01750791
000280 04 94 9e bf b3 1b 84 be 23 d0 8f 3e 97 fb ed 3d
       -1.2388921 -0.25802383 0.28088483 0.116202526
000290 55 ce 68 bf bd 53 93 3f 1c 4b 51 bf 15 a6 21 3f
       -0.9093984 1.150993 -0.8175523 0.63144046
0002a0 13 99 2b bf c3 b6 60 bf 02 6c bb 3e 72 6d 69 3f
       -0.6703045 -0.8777887 0.3660584 0.91182625
0002b0 61 6d 3e 3e 00 d5 1b 3f 05 61 91 3d e6 c5 8b bf
       0.18596412 0.6087189 0.07098583 -1.0919769
0002c0 10 12 b8 3e 22 2f 6b bf d4 77 1f bf 31 92 a5 3f
       0.3595128 -0.91868794 -0.6229222 1.2935239
0002d0 86 32 80 3f ef 5f f7 be f1 a0 97 bf 64 42 4c bf
       1.0015419 -0.4831538 -1.184599 -0.79788804
0002e0 e8 b9 3f 3d e7 4e fc 3d d7 a4 72 bf ed 9f e4 3e
       0.046808153 0.12319737 -0.94782776 0.44653264
0002f0 28 95 a6 3f 1f ec 09 be 70 49 87 3e 90 6a 00 bf
       1.3014269 -0.1346898 0.26423216 -0.501626
000300 07 9b 45 3f be 80 9a bd 69 2e 9a bf 6f de 68 3f
       0.7718968 -0.07544087 -1.2045413 0.90964407
000310 76 50 4e 3f 47 dd 95 be d2 15 94 3f 97 70 a0 be
       0.80591524 -0.29270384 1.1569159 -0.313359
000320 c4 d6 be 3d 73 39 fb 3d c5 e3 8e bf 0d 38 27 3e
       0.09318307 0.12266817 -1.116326 0.16329975
000330 43 1a a5 3f b5 c1 1a be 0a b1 9c 3f d8 c3 9c bf
       1.289864 -0.15112956 1.2241528 -1.2247267
000340 52 b1 64 bf f0 56 69 3e 96 77 7a be 5a b8 36 be
       -0.8933307 0.2278707 -0.24459681 -0.17843762
000350 0a 31 82 be 5b a4 81 bf 92 ef 9c 3f 21 3e 8a be
       -0.2542804 -1.0128282 1.2260611 -0.27000526
000360 56 5e 25 3f f6 d8 51 bf 71 b3 0e bc ee ea c7 be
       0.6459707 -0.8197168 -0.008709774 -0.39046425
000370 62 ef 91 bf 8e 44 9d bf 83 e6 06 3f 3c c7 96 3e
       -1.1401179 -1.2286546 0.5269548 0.2944888
000380 05 75 34 bf 14 60 a7 3e e8 0c d5 bc 3a a9 b7 bd
       -0.7049106 0.3269049 -0.02600713 -0.08967824
000390 30 bd 86 be 07 68 43 3f 83 10 a0 bf cc af 3d 3e
       -0.26316214 0.7633061 -1.2505039 0.18524092
0003a0 1e e9 5d bf 5e 41 64 bf 2c 8e 61 bf 55 bc e5 3c
       -0.86683834 -0.8916224 -0.8810756 0.028043905
0003b0 53 68 80 3f 1b ef a1 3f 4a 62 80 3f 02 08 71 bf
       1.0031837 1.2651094 1.0029995 -0.94152844
0003c0 81 34 0d 3e ee 73 71 be 13 27 97 bd 5c d2 dd 3e
       0.1378956 -0.2357938 -0.073805 0.43324554
0003d0 a8 a4 10 3f b8 03 a1 3d 05 a4 62 be 0e aa 22 bf
       0.56501245 0.078620374 -0.22132881 -0.6354073
0003e0 3a 28 3e bf b9 a7 63 3f c8 d8 89 bf 79 f4 66 be
       -0.7428013 0.889278 -1.0769281 -0.22554196
0003f0 2f bd 9d 3e a1 b7 60 3e bb 6a bd be 44 03 b1 3e
       0.30808398 0.21945049 -0.3699549 0.34572804

h1.bias f4 [64]
000000 d3 ea 6a bf 25 17 ef 3e 8f b2 36 bf 5d 93 3d bf
       -0.91764563 0.46697345 -0.7136621 -0.74052984
000010 33 a1 30 3f 92 40 f9 be 1b 37 5e bf 64 04 4a 3e
       0.6899597 -0.48682076 -0.86802834 0.19728237
000020 a2 71 21 bf 50 62 ff be db 39 19 be dd 49 6c bf
       -0.63064015 -0.49879694 -0.14963476 -0.92300206
000030 fc 8b 50 bf 57 a4 bc 3e 74 fe a5 bf cb 7e 9e bd
       -0.814636 0.3684413 -1.2968278 -0.077390276
000040 62 fd 15 bf 66 30 07 3e 60 18 7b bd be 3c 08 3e
       -0.58589756 0.13202056 -0.061302543 0.13304421
000050 46 f7 1f bf 32 14 8c bf f7 6e 6d bf 7e 9a 44 bf
       -0.62486684 -1.0943663 -0.92747444 -0.76798236
000060 dc 21 cb 3e c2 da d3 3e aa 3b 75 bf f8 ac 4d bf
       0.3967427 0.41377836 -0.95794165 -0.80342054
000070 ac 9a c9 be 41 27 a5 3e 9e a2 45 bf 0a 3b f4 3e
       -0.39375818 0.3225651 -0.7720126 0.47701293
000080 8f 9e e5 be 58 e2 a0 3e 0c b5 aa bf 95 ae 85 3f
       -0.44847533 0.31422687 -1.3336501 1.0443903
000090 67 e4 a6 3e 92 79 a1 3e 5d 89 3a 3f ca 2f 02 bf
       0.32596132 0.31538063 0.7286585 -0.5085417
0000a0 79 9f c0 3e a8 0b 43 bf b6 c4 08 3f ec ca 2b bf
       0.37621668 -0.7618966 0.5342516 -0.6710651
0000b0 de 9a b7 3e 46 05 cb 3e 4d 8a 01 bf 97 eb 39 bf
       0.35860342 0.3965246 -0.50601655 -0.72625107
0000c0 27 24 ec be 69 9a b7 3e 19 cc 47 3e 59 31 51 bf
       -0.46121332 0.35859993 0.19511451 -0.81715924
0000d0 cd bd b8 3d ae d6 00 bf 76 0a c4 3e a3 03 f1 3e
       0.090205766 -0.50327575 0.3828923 0.47073087
0000e0 0d 15 d6 3e 57 c2 db 3e 66 f0 b3 3f 71 3e 1a bf
       0.41812935 0.42921707 1.4057739 -0.6025153
0000f0 22 4f e0 be c8 69 35 bf a1 13 74 bf 99 68 d9 3f
       -0.43810374 -0.70864534 -0.9534245 1.6985046

h2.weight f4 [64, 64]
000000 7a 1f da be 71 fb cf be 56 01 c4 be 96 dd fc be
       -0.4260214 -0.40621522 -0.3828227 -0.49387807
000010 eb 60 58 bf 5a 8d f9 be 5d 40 cd be 5e a2 0a bf
       -0.84522885 -0.48740655 -0.40088168 -0.54154
000020 f4 35 34 bf bb 80 3e 3e a6 df ec be ef 3a 45 bf
       -0.70394826 0.18603794 -0.4626438 -0.7704305
000030 d2 93 58 bf fa e9 06 bf 93 90 5c bf 1b 79 27 3e
       -0.84600556 -0.5270077 -0.861581 0.16354792
000040 bc 5c 13 bf 15 6a 22 3e e9 f2 95 bd 1e 5d 60 bf
       -0.57563376 0.1586078 -0.07321722 -0.87642086
000050 ca 8a db be e7 e7 fb be ca 6c c0 3d 2a 60 61 bf
       -0.42879325 -0.49200365 0.0939575 -0.8803736
000060 be 5a d9 be fe 51 c3 be 2a 40 0d 3f 2c 9b c2 be
       -0.42452043 -0.38148493 0.5517603 -0.38009012
000070 a7 59 41 bf 62 0d 58 bf 0f cc 55 bf c0 9c 21 bf
       -0.75527424 -0.8439542 -0.83514494 -0.63129807
000080 cd 6d 37 3e 6b dd 42 bf ed 50 99 be 42 13 97 3e
       0.1791298 -0.76119107 -0.29944554 0.2950688
000090 ce 98 ea be 63 fe 43 bf b5 68 09 bf 4a 7a 2f bf
       -0.45819706 -0.7656004 -0.53675395 -0.68545973
0000a0 15 89 b9 be 56 06 08 bf 39 a2 5a bf e0 f5 0b bf
       -0.36237398 -0.5313467 -0.8540378 -0.5467205
0000b0 08 f8 4b 3e 94 8e da be cc 0b 5a bf 33 be f7 be
       0.19918835 -0.42686903 -0.8517425 -0.48387298
0000c0 75 83 de be 5e 05 4a bf f5 43 26 bf 02 85 d6 be
       -0.4345967 -0.7891444 -0.64947444 -0.41898352
0000d0 bd 7c 1d be a7 69 51 bf c4 f9 c1 be c9 6e 67 bf
       -0.15379615 -0.8180184 -0.3788587 -0.9040342
0000e0 6f 68 50 bf 53 6d 23 bf 7d 3d 79 be ca 6a af be
       -0.81409353 -0.6383869 -0.24339862 -0.3426116
0000f0 dc 5a fa be c7 60 13 bf 8d de 20 bf f3 4c 56 bf
       -0.48897445 -0.57569546 -0.62839586 -0.83711165
000100 3b 03 6a bf 1c 7f 90 be e6 a4 1a bd 8a f0 40 bf
       -0.9141118 -0.28221977 -0.037754916 -0.75367033
000110 e1 86 b1 bf c8 79 8e 3d e3 92 93 bf 85 93 b4 bd
       -1.3869287 0.06956822 -1.1529201 -0.088171996
000120 54 42 28 3e 20 f8 2a bf 6d ec 7f bf fe d2 93 bf
       0.16431552 -0.6678486 -0.9997013 -1.1548765
000130 8c 80 46 be 6a fb 11 be 89 8c 37 3e 65 a4 15 3e
       -0.19384974 -0.14256063 0.17924704 0.14613493
000140 c0 ea 54 be 3d 72 50 bf b1 d8 bb bb 74 56 37 3e
       -0.20792675 -0.81424314 -0.0057326187 0.17904073
000150 f0 11 09 be fa 76 e4 be 15 d7 82 bf e8 64 1d bd
       -0.13385749 -0.44622022 -1.0221888 -0.03842631
000160 0e 17 11 be 7d 2d 39 bf 32 00 66 bf c1 7a 80 be
       -0.14168951 -0.72335035 -0.8984405 -0.25093654
000170 00 a6 8b 3d ae d6 d8 be 74 22 ca bf df 9f 3c bf
       0.06818771 -0.42351288 -1.5791764 -0.73681444
000180 1a d5 26 bf 5a b4 3b bf 60 c0 9c 3d 49 3f 33 bf
       -0.6516892 -0.7332207 0.0765388 -0.7001844
000190 48 38 21 bf d5 60 63 bf fa c9 7e bf 8d 31 78 3e
       -0.62976503 -0.8881963 -0.9952694 0.24237652
0001a0 13 7e 5c bf bd b8 a0 3d 1b 31 46 bf 21 5a 2e 3e
       -0.86129874 0.07847736 -0.7741868 0.17026569
0001b0 c3 82 33 bf 58 1f 46 be 2d 2f 40 bf 14 b8 e0 3d
       -0.701214 -0.19347894 -0.75071985 0.1097261
0001c0 e3 c6 95 3e 37 82 76 bf 9a 72 24 bf 22 73 ab bf
       0.292533 -0.9629244 -0.6423737 -1.3394511
0001d0 ad 16 0c be fc 75 14 3e 66 c1 1a bf d3 87 96 be
       -0.13680525 0.14498132 -0.6045135 -0.294005
0001e0 de 3b 83 bf 0c 68 6a bf 95 62 f9 be 51 9d 06 bf
       -1.0252645 -0.9156501 -0.48708025 -0.52583796
0001f0 e6 38 5f bf 0e b0 11 be bc 06 9c bf 1a 1e 92 bf
       -0.87196195 -0.14227316 -1.2189555 -1.1415436
000200 d1 3d fa be 02 74 cf be 64 4c 27 bf 54 73 b5 be
       -0.48875287 -0.40518194 -0.6535094 -0.3543955
000210 7b 24 15 bf ad 8c 39 bf ce f9 aa be f7 79 0f bf
       -0.5825879 -0.7248028 -0.3339371 -0.5604548
000220 67 02 0a bf 56 3f 99 bc 4c 14 2d bf ef 71 16 bf
       -0.53909916 -0.018706959 -0.67609096 -0.587676
000230 ed 1e 5c bf 9b 0f b3 be f3 33 dd be 5a ad 61 3e
       -0.8598469 -0.34972844 -0.43203697 0.22038785
000240 6b 3a 2f bf f0 f5 49 3e 62 df 2f be 57 30 01 bf
       -0.68448514 0.19722724 -0.17175058 -0.50464386
000250 f7 52 44 bf 0c d5 3b bf 9b 0a 38 3e d4 a1 2c bf
       -0.76689094 -0.7337196 0.17972796 -0.6743443
000260 ed ff 0e bf c9 90 09 bf fc 8c c2 be b6 2e 30 bf
       -0.5585926 -0.5373655 -0.37998188 -0.68821275
000270 9f fd 0f bf 84 50 08 bf f6 1a f9 be a7 ef 2f bf
       -0.5624637 -0.5324786 -0.48653382 -0.68725055
000280 1e 84 be bd 95 1e c7 be dc 94 27 bf 39 b1 26 3e
       -0.09302543 -0.3889052 -0.65461516 0.16278543
000290 57 18 a6 be 74 2a f3 be 01 92 49 bf 96 c7 2c bf
       -0.32440445 -0.47493327 -0.7873841 -0.67492044
0002a0 52 f9 16 bf 2c bb c4 be 6c 83 e9 be 36 4b 44 bf
       -0.5897418 -0.3842405 -0.4560808 -0.7667726
0002b0 7f dc 19 be 6d 0a 23 bf 4e 38 45 bf 38 bf be be
       -0.15025519 -0.63687783 -0.7703904 -0.37255263
0002c0 a6 92 66 bf 13 3a 48 bf 9c 0d bf be b6 6b 06 bf
       -0.9006752 -0.78213614 -0.3731507 -0.52508104
0002d0 fd ea 5e bc 95 e7 2a bf 5b a8 03 3f 93 b8 2e bf
       -0.01360583 -0.66759616 0.51428765 -0.6825039
0002e0 f4 73 cf be 1b 42 4e bf 9e 97 84 be d9 01 3a bf
       -0.40518153 -0.8056962 -0.25896925 -0.7265907
0002f0 dd 24 5b bf ea a8 ce be ae d0 25 bf 6f 53 4e bf
       -0.85603124 -0.40363246 -0.64771545 -0.8059606
000300 62 57 4b 3e e8 2c 27 bf 96 4f 8a be 2f 09 e1 be
       0.19857553 -0.65302896 -0.27013844 -0.4395232
000310 bd bc f2 be 9d 67 84 be 70 d8 a4 3e 5c fc 19 bf
       -0.4740962 -0.258603 0.3219638 -0.60150695
000320 f0 dd 8d be ed 84 2f bf ce 20 05 be 51 30 81 bb
       -0.27708387 -0.68562204 -0.13000795 -0.0039425273
000330 c6 44 54 be 9b 8d bc 3e 4b e6 52 3f ef f9 8d 3d
       -0.2072936 0.36826786 0.8238265 0.06932437
000340 e6 57 a4 3d a4 48 2b bf 6e 8f 46 3e 3e 8e 10 3e
       0.08024578 -0.66907716 0.19390652 0.14116761
000350 f1 92 18 be 9d cf 06 3d e2 97 c6 be dd be a7 be
       -0.14899804 0.03291284 -0.38787752 -0.32762805
000360 c4 e4 5b be ca bc 2c bf f1 d8 17 bf ef aa 4b 3f
       -0.21473986 -0.6747557 -0.593154 0.795577
000370 ec d0 5f bf d1 6c 05 bf 84 23 c3 be 72 0d db be
       -0.87428164 -0.52119166 -0.38113034 -0.42783695
000380 1e cc 3b bf b8 3b bb be 33 c7 25 bf c4 3a 31 bf
       -0.73358333 -0.36569 -0.6475708 -0.69230294
000390 c3 1b f4 be a9 a2 d2 bd 29 f4 67 bc 09 ce 3a be
       -0.4767743 -0.10284931 -0.014157333 -0.18242659
0003a0 37 aa d0 be f3 89 cf bc bb dd ba be 79 49 b1 be
       -0.40754864 -0.025334334 -0.36497292 -0.34626368
0003b0 69 31 0c bf df 6c 8a be b3 0a cb be 9b 29 02 be
       -0.54762894 -0.27036187 -0.396566 -0.12711184
0003c0 1e 67 62 bf f8 07 a1 be 27 00 d5 be 49 4c 4b be
       -0.88438594 -0.31451392 -0.4160168 -0.19853319
0003d0 96 fb 24 3e 92 40 27 bf f7 b0 10 bf 52 83 c3 be
       0.16111597 -0.653329 -0.56520027 -0.38186127
0003e0 d4 8d f7 be 5b 0a c7 3d ec a9 9c bf 56 58 ad 3e
       -0.48350394 0.09718772 -1.2239356 0.33856457
0003f0 49 14 b7 be eb ff e9 3d af c5 cf 3d 20 80 80 be
       -0.35757664 0.114257656 0.10145127 -0.25097752

h2.bias f4 [64]
000000 73 c1 29 bf 37 c5 9d bf 34 e3 05 bf a6 a1 21 be
       -0.66310805 -1.232581 -0.5229981 -0.1578432
000010 41 96 50 3e 2b af 10 bf b6 d2 31 bf e3 fc 56 bf
       0.20369817 -0.56517285 -0.69462144 -0.83979625
000020 9f 1c 9e 3d f0 1c 21 3e c4 68 fd 3e cc 23 f2 3f
       0.07720303 0.15733695 0.49493992 1.8917174
000030 f0 fd 1a bf 97 f5 9c 3e bd 09 03 bf d8 f5 03 bf
       -0.6054373 0.3065612 -0.51186734 -0.51547
000040 3c a4 ea 3f 09 a8 5b bf f1 69 17 bf 3a 16 8d 3f
       1.833137 -0.85803276 -0.5914603 1.1022408
000050 6d 13 05 3f f9 12 25 bf 48 97 0b bf 16 7d 02 3f
       0.51982766 -0.64482075 -0.5452771 0.50972116
000060 9b 29 03 bf 3f 67 17 3e ca f0 09 bf 0c f4 1d bf
       -0.5123536 0.14785479 -0.5388304 -0.6170051
000070 55 b7 14 bf f3 74 77 3e 8e 30 35 3f cd 7d 01 bf
       -0.5809224 0.24165706 0.70777214 -0.5058258
000080 62 3d 9b 3e 31 3c 24 bf c2 e9 61 3e e9 92 60 bf
       0.3032027 -0.64154345 0.22061828 -0.8772417
000090 cb 81 4c bf 55 ad 86 3e 51 6d 1d bf 20 b7 46 be
       -0.7988555 0.26304117 -0.6149493 -0.19405794
0000a0 af 1e 3c bd 3d 4f 39 3f 72 4d d0 3e b5 d4 0b 3d
       -0.0459277 0.72386533 0.40684086 0.0341384
0000b0 92 53 0e bf a7 9d 0b bf 7c e0 86 3e 10 18 30 bf
       -0.5559627 -0.54537433 0.26343143 -0.68786716
0000c0 95 d3 10 3f ad fd 0e bf 30 a9 37 bf 52 8d 0f bf
       0.5657285 -0.5585583 -0.71742535 -0.5607501
0000d0 c4 21 c5 be 28 33 cc bd be db 20 3f 18 fb 1f bf
       -0.38502324 -0.09970695 0.628353 -0.62492514
0000e0 07 d4 02 bf dd 3e d4 3c 33 80 77 3f 50 47 0d 3e
       -0.5110478 0.025908882 0.9667999 0.13796735
0000f0 18 e1 5a bf b6 23 01 40 1f 9d f3 3f e0 5d 49 3e
       -0.85499716 2.0178046 1.9032325 0.19664717

h3.weight f4 [8, 64]
000000 a5 b9 49 bf 32 65 0a bf 52 81 c7 be 92 ae 89 bd
       -0.78798896 -0.5406066 -0.3896585 -0.0672275
000010 4a 51 0c bf b2 03 5f 3e 72 19 b6 be 52 76 19 bf
       -0.5481154 0.21778753 -0.35566288 -0.5994617
000020 5b 4f 51 3e 85 a1 3a bf f0 94 08 3e 8c 9d 9d be
       0.20440428 -0.7290271 0.13338065 -0.3078426
000030 d0 06 65 bf 8e ec 63 bf 12 15 06 bf a8 8f 88 be
       -0.8946352 -0.8903283 -0.523759 -0.266721
000040 92 df 40 bf 59 21 62 bf 03 23 52 bf 49 6d cd 3d
       -0.7534114 -0.88332134 -0.82084674 0.1003061
000050 ff df 02 bf 1a 76 d9 be af bf b4 be af ab 67 bf
       -0.5112304 -0.42472917 -0.35302493 -0.90496343
000060 6f c1 9e be ac 22 01 bf d2 bc 59 bd 9a fa c8 be
       -0.31006953 -0.5044353 -0.05315859 -0.39253694
000070 ee 8f fa be d2 1a f3 3d b6 2a cc be 88 5a 45 bf
       -0.48937935 0.1187035 -0.39876336 -0.77091265
000080 fb 92 11 bf 1f fe a4 be 44 16 2a bf 5e 69 4e bf
       -0.568649 -0.3222513 -0.66440225 -0.8062953
000090 e7 f5 01 bf 02 f2 c9 be 58 a0 bb be 0e fd 99 be
       -0.5076584 -0.3944245 -0.3664577 -0.30075878
0000a0 6d e9 dc be 5d 94 cd be 57 97 15 bf dd 40 4b bf
       -0.4314684 -0.40152255 -0.5843405 -0.7939585
0000b0 ca 0f 14 bf c2 2e f8 be 8f a6 5a bf 11 52 b3 be
       -0.5783659 -0.48473173 -0.854104 -0.3502355
0000c0 0f 59 57 bf 28 8e 38 bf 59 17 0c bf 86 15 43 bf
       -0.8412027 -0.72091913 -0.54723126 -0.7620472
0000d0 a0 a8 8e 3e e9 55 64 bf 31 ae f8 be 4c 5a 44 bf
       0.27863026 -0.8919359 -0.48570397 -0.7670028
0000e0 44 92 85 3c cd 2c 63 bf de 86 e7 be 82 49 5a bf
       0.016305096 -0.88740236 -0.45220083 -0.85268414
0000f0 7a ce 13 3e 14 85 53 bf 24 e6 8f be 1a df 66 bf
       0.14434233 -0.82624936 -0.2810527 -0.90184176
000100 53 95 36 bf 79 38 16 bf a6 e1 3c bf 2e 24 03 bf
       -0.713216 -0.5867992 -0.7378181 -0.5122708
000110 25 04 d3 be 6f cd 60 3e 81 ca 61 bf db 3d 34 bf
       -0.412141 0.21953367 -0.8819962 -0.70406884
000120 22 cf 6a 3d 0a f3 e7 be fd 9e 14 be b6 97 d3 bd
       0.057326443 -0.45302612 -0.14513774 -0.10331671
000130 ca d8 f9 be 98 a8 d9 be b1 f5 eb be 76 57 93 3e
       -0.4879821 -0.4251144 -0.46085885 0.28777665
000140 3d f4 c1 be 60 56 2c bf b9 d6 3f bf 5b c7 8e be
       -0.37881652 -0.673193 -0.74937016 -0.2788647
000150 01 88 48 bf 75 da 47 bf 3e e4 ec be 3d 3e 59 bf
       -0.78332525 -0.78067714 -0.46267885 -0.84860593
000160 70 d4 23 bf db 77 51 bf 93 a4 5e 3e 63 17 35 bf
       -0.6399603 -0.8182351 0.21742468 -0.7073881
000170 d0 e7 f8 be 0d 7a ec 3d ab cd 56 bf 9a 08 62 bf
       -0.4861436 0.11546717 -0.83907574 -0.88294375
000180 aa 1a 66 bf 8c 62 bc be 61 6d 3c bf 5f d4 b5 be
       -0.89884436 -0.36793935 -0.736044 -0.3551359
000190 80 40 f3 be 1b 37 dc be 19 a1 23 bf 82 e8 e0 be
       -0.47510147 -0.43010792 -0.6391769 -0.4392739
0001a0 3e bc 06 bf ae 51 5d bf e5 e3 13 bf cf 2c a2 be
       -0.52630985 -0.8645276 -0.57769614 -0.3167481
0001b0 43 2c 45 bf 7a fb b5 be 90 ef 67 bf d8 48 57 bf
       -0.77020663 -0.35543424 -0.9059992 -0.84095526
0001c0 13 ca e6 be 29 66 0b bf ff ef 24 bf b1 a1 cb be
       -0.45076045 -0.5445276 -0.64428705 -0.39771798
0001d0 00 6a 96 bd f5 d8 5a bf 66 b0 ad be 4b e3 4d bf
       -0.07344437 -0.854873 -0.33923644 -0.80424947
0001e0 75 16 47 be 23 1c 41 bf 83 92 10 bf cd e9 ef be
       -0.1944216 -0.7543356 -0.5647356 -0.46858063
0001f0 46 4a 37 3c 85 39 9d bd ca cd ff bd d0 50 3e bf
       0.011187142 -0.076769866 -0.12490423 -0.7434206
000200 e0 07 ad be f1 92 03 3d 49 0b 15 bf 8b f6 40 bf
       -0.3379507 0.032122556 -0.58220345 -0.75376195
000210 a3 8e 54 bf 33 2c 47 3f 12 5e 36 bf 3c 3d 25 bf
       -0.83030146 0.7780182 -0.7123729 -0.6454656
000220 22 60 ef bd 4a f1 f2 3e 4e d9 85 3e 9b 01 a3 3f
       -0.11688258 0.47449714 0.26142353 1.2734865
000230 15 08 33 bf 8c 79 5f bf 0f 02 ad be 69 51 86 3e
       -0.6993421 -0.8729484 -0.33790633 0.26233986
000240 32 f1 37 3f 7e c7 d1 3e 19 fc 4f bf ac f9 3f 3f
       0.7185241 0.40972513 -0.81244045 0.74990344
000250 cd a5 ee be 1b d9 bf ba d7 8c d3 be d2 1f 29 3f
       -0.4661087 -0.0014636846 -0.4131839 0.6606418
000260 c4 0c 30 bf 41 61 df be 9f aa 42 3e c4 4c 0f bf
       -0.6876948 -0.43628886 0.190104 -0.5597651
000270 f5 35 5c bf 9f a4 13 3f db db cc be 06 8a 1d bf
       -0.8601983 0.57673067 -0.40011486 -0.6153873
000280 c0 10 01 3e df a3 e7 be 89 95 5d bf 30 71 1f bf
       0.12604046 -0.4524221 -0.865563 -0.62282085
000290 7a 19 66 bf f3 c4 86 3e 8f eb 3b bf 89 35 c6 be
       -0.89882624 0.26322135 -0.7340631 -0.3871272
0002a0 04 a6 86 bd 57 68 45 3f bd 34 fa 3e ba 1e 9c 3e
       -0.06574634 0.77112335 0.4886836 0.30492193
0002b0 de 1d a3 be 5d 60 aa be dc 0d 40 bf 27 bd 12 bf
       -0.31858724 -0.33276644 -0.7502115 -0.57319874
0002c0 17 99 0d 3e 02 61 c6 be 69 79 cd be 02 a2 46 bf
       0.1382793 -0.38745886 -0.4013169 -0.77590954
0002d0 d8 26 55 be 4c b9 6d bd 6d 36 12 3f 4d a4 e7 be
       -0.20815599 -0.05803804 0.571143 -0.4524254
0002e0 68 d3 85 bc ae cc 32 bf 83 d2 3b 3f 53 22 c7 3e
       -0.016336158 -0.69843566 0.7336809 0.38893375
0002f0 6f 03 d8 3e 80 66 9b 3f c3 9e 96 3f 27 c5 ae be
       0.4219012 1.2140656 1.17672 -0.3413479
000300 3f 63 48 be c0 5b 46 3f a6 04 42 3e db 9d f5 3e
       -0.1956911 0.7748375 0.18947086 0.47971997
000310 4d 2e fe 3e 30 1c 92 3c 41 9e 8d be 97 8d dd 3e
       0.496447 0.017835706 -0.276598 0.43272087
000320 a2 56 f4 3c 3c bd 2d 3f c9 f6 39 bf ba a1 ac 3f
       0.029826466 0.67866874 -0.7264219 1.3486855
000330 4d 4a 80 be a5 ba fb 3e 5e c0 95 3e e7 a5 a7 3e
       -0.25056687 0.49165836 0.29248327 0.3274376
000340 bc 16 ca 3f 08 ce aa 3e da 0f 0b 3e 6e 9d 32 3f
       1.5788188 0.33360314 0.13580266 0.6977147
000350 28 3d b4 3e 67 08 24 3f 0a 6c 00 3e df 4c 54 3f
       0.3520291 0.6407532 0.12541214 0.82929796
000360 de 21 54 3e b9 a4 09 3f ae 87 cd 3e 47 17 58 ba
       0.20716044 0.5376697 0.40142578 -0.00082432147
000370 ab b5 36 be 6c 7e 0c bf 84 24 11 3f a8 c4 3d bd
       -0.17842738 -0.54880404 0.56696343 -0.046330124
000380 9f 4c 40 3f a5 63 83 3e 53 20 f7 3e d7 ca c2 3e
       0.75116915 0.2566196 0.4826685 0.3804538
000390 7b 04 d0 3e 73 b7 75 3f 5b 43 69 be 0b f6 38 3f
       0.40628418 0.95983046 -0.227796 0.7225043
0003a0 1d 81 e3 3e 31 7f 71 3f 18 f9 24 3f a9 74 6b 3f
       0.44434443 0.94334704 0.64442587 0.91974884
0003b0 9f 12 80 3f 08 b5 57 3d 3a 46 0d 3f 34 16 7f be
       1.0005683 0.05266288 0.5518528 -0.24910814
0003c0 97 d3 4c 3f 23 bb 71 3e bd 47 94 be 8d 9a 35 bd
       0.8001036 0.23606543 -0.28960982 -0.044336844
0003d0 b2 9a 87 be bc a5 fc 3e df b6 0c 40 82 de 09 3d
       -0.2648521 0.49345195 2.1986616 0.033659466
0003e0 09 9d ea 3e 7a ed d3 3e 20 ad da 3e 6b 01 fc 3e
       0.45822933 0.41392118 0.4271021 0.49219832
0003f0 18 9e 3a 3f 47 94 bf 3f b3 be a2 3f 27 aa 19 3f
       0.7289748 1.4967126 1.2714447 0.60025257

h3.bias f4 [8]
000000 e7 73 0f bf 01 29 1a bf 8e fa 20 3f e2 74 83 3f
       -0.5603623 -0.60218817 0.62882316 1.0270045
000010 36 62 ef bd 37 2c 00 bf 0b 5f 03 bf 01 d0 58 be
       -0.11688654 -0.50067466 -0.513169 -0.21173097
