weights/weights_LF=8_dense/w=0.36_1.pth (torch, 39820 bytes, 8 tensors)

input.weight f4 [64, 4]
1.4986345 0.69915533 0.30791882 1.6727417 -2.3462594 -0.6518327 -1.8417389 -0.6314601
0.6409862 0.61916375 -1.129785 -0.7359186 -0.24096248 1.2055794 2.4266 -0.23591827
0.5510379 2.1947823 0.14183803 2.3462777 -0.46480143 -1.8591985 -0.6159781 0.44308794
0.04080774 -2.6426353 0.34587064 0.18767849 0.353743 -1.6868263 1.8159275 1.1083071
-0.75476354 -2.6059172 -0.3498018 -1.9885237 0.0762225 -0.6453192 1.8656758 -0.8713862
0.9592102 2.9397378 -0.34499064 -0.49499166 0.49843583 -0.72928727 1.8215672 -0.09818128
1.2746003 -0.62473696 0.841208 0.6889463 -0.929548 -1.2578745 -3.0407414 -2.0874012
0.85928416 -0.9220879 0.5052491 1.2476712 -0.1471075 -0.36988306 0.31410745 -0.0031272185
-2.153702 -1.9941446 -0.90348005 -2.2768939 0.3729802 0.22848381 -0.57974714 -0.38430613
-0.112085044 1.9132218 -1.0547266 -0.81780005 0.72913426 -0.24252869 0.29754525 0.50488174
0.4025725 0.015620789 0.09124063 0.3739018 2.0201917 1.6526 1.8533849 0.52875555
1.2371745 2.995147 -0.3916383 0.4459494 0.43629068 2.9052432 -0.68225616 -0.11946113
-0.744504 -0.83628076 0.78487444 -0.25853336 0.14663497 0.3693437 -1.9373041 -0.012118609
2.2417452 0.9535716 0.1888088 2.5798118 -1.6757144 -1.8563635 -2.6594512 -1.5900894
0.87510014 1.3779433 0.43331 0.27557546 -1.5832635 -1.3008249 -0.60064507 -2.6274972
2.06024 2.2079785 2.2309115 0.90423197 0.21267982 0.97575605 -1.1699512 -0.082788184
1.5115442 2.0847003 1.6420143 1.7921202 -0.67821175 -0.39781567 0.95249903 1.3523871
-0.059782736 -1.0345458 -1.8482705 -2.0860522 0.5796844 1.2250687 1.7273463 -1.128142
0.29949036 0.9521075 -1.3629515 -0.8451779 0.22571269 0.5662091 -0.4060957 -1.0565866
0.24352707 -1.157201 1.8512466 0.81318617 -0.52221274 -0.75288206 1.4452902 0.9948991
-1.6811062 -1.607165 -1.2418772 -2.1051207 -2.2706828 -2.2150557 -0.933353 -2.3457685
-1.6366333 -3.050224 -1.0887693 -1.9332242 0.44387928 -0.08878371 -1.8529477 0.32427043
-0.28078935 0.07367509 -2.4752984 -2.47208 1.7831498 2.8640656 0.9091095 0.48733443
2.322844 3.2338674 0.8031995 0.87204516 -0.6343076 -0.060894214 0.16798966 0.46983093
-0.4427164 -0.7803175 1.9791869 1.6123176 0.06938192 1.7559212 -1.76623 -0.97415763
0.19203016 0.77843857 -1.6179926 0.010640443 0.8859456 2.2000456 1.1068087 2.136991
-0.5978319 -2.2490373 -1.1150179 -2.427618 -0.92275876 -1.7623074 -2.0469959 -1.7772424
-0.6493898 0.3960115 -0.6987016 -0.91233367 -0.48356655 1.892227 -1.7270018 0.53558165
0.49785775 0.29430997 0.09103822 0.82650703 -0.11485067 1.2507435 1.5970601 2.318621
0.45277584 0.016824238 2.688746 0.8962215 -1.0689172 -2.6366904 -0.43732536 0.0053961114
1.4361864 1.4772077 1.1232505 0.98174334 -2.1120927 -1.3188436 -1.3877431 -0.77370906
-0.10997738 -0.5880405 0.32295316 0.7933782 -0.43770343 0.00048247204 1.7676609 -0.19646369
00000000: 41d3 bf3f d8fb 323f 89a7 9d3e 661c d63f
00000010: 1d29 16c0 82de 26bf 1abe ebbf 5ea7 21bf
00000020: ac17 243f 8481 1e3f cb9c 90bf 2965 3cbf
00000030: debe 76be 6d50 9a3f 6a4d 1b40 8f94 71be
00000040: d210 0d3f 5077 0c40 fd3d 113e 6a29 1640
00000050: 74fa edbe 37fa edbf beb0 1dbf 6cdc e23e
00000060: 0426 273d f020 29c0 f515 b13e ca2e 403e
00000070: cd1d b53e ede9 d7bf 5070 e83f 02dd 8d3f
00000080: 2f38 41bf 59c7 26c0 3919 b3be f287 febf
00000090: 8b1a 9c3d a433 25bf 77ce ee3f 2a13 5fbf
000000a0: cd8e 753f aa24 3c40 9da2 b0be 8c6f fdbe
000000b0: fb32 ff3e 92b2 3abf 1d29 e93f 4413 c9bd
000000c0: 1a26 a33f c3ee 1fbf 6859 573f c95e 303f
000000d0: dcf6 6dbf 0802 a1bf 829b 42c0 fb97 05c0
000000e0: 0cfa 5b3f f40d 6cbf 0158 013f b1b3 9f3f
000000f0: 59a3 16be 5061 bdbe b1d2 a03e 05f2 4cbb
00000100: 41d6 09c0 2140 ffbf 784a 67bf a1b8 11c0
00000110: 43f7 be3e a9f7 693e 4f6a 14bf c6c3 c4be
00000120: d88c e5bd 74e4 f43f 4801 87bf 585b 51bf
00000130: 8ba8 3a3f 7159 78be da57 983e ee3f 013f
00000140: fc1d ce3e 56ee 7f3c 5edc ba3d 0f70 bf3e
00000150: d24a 0140 6688 d33f b73b ed3f 865c 073f
00000160: bc5b 9e3f 7db0 3f40 d184 c8be 7b53 e43e
00000170: 7e61 df3e 81ef 3940 57a8 2ebf 09a8 f4bd
00000180: d097 3ebf 7f16 56bf 88ed 483f 7c5e 84be
00000190: 7a27 163e 9e1a bd3e 95f9 f7bf 218d 46bc
000001a0: c178 0f40 451d 743f 1857 413e a31b 2540
000001b0: cf7d d6bf 529d edbf 7334 2ac0 0d88 cbbf
000001c0: 9006 603f 7260 b03f cfda dd3e 3a18 8d3e
000001d0: 61a8 cabf 6e81 a6bf e0c3 19bf ea28 28c0
000001e0: f9da 0340 854f 0d40 41c7 0e40 bf7b 673f
000001f0: bdc8 593e 26cb 793f f6c0 95bf da8c a9bd
00000200: 487a c13f bb6b 0540 862d d23f 3264 e53f
00000210: 499f 2dbf 7fae cbbe fad6 733f 051b ad3f
00000220: bede 74bd ff6b 84bf 2194 ecbf e181 05c0
00000230: 3266 143f 0dcf 9c3f af19 dd3f f566 90bf
00000240: cd56 993e 51bd 733f 3275 aebf 945d 58bf
00000250: 3a21 673e 14f3 103f c7eb cfbe 3b3e 87bf
00000260: 295f 793e 2a1f 94bf a6f5 ec3f f82c 503f
00000270: bcaf 05bf e1bc 40bf 45ff b83f b5b1 7e3f
00000280: 7d2e d7bf 95b7 cdbf d5f5 9ebf 4cba 06c0
00000290: de52 11c0 79c3 0dc0 39f0 6ebf 1221 16c0
000002a0: 337d d1bf df36 43c0 cb5c 8bbf e473 f7bf
000002b0: 2544 e33e 3cd4 b5bd 642d edbf c606 a63e
000002c0: 9fc3 8fbe f7e2 963d 4a6b 1ec0 8f36 1ec0
000002d0: 413e e43f da4c 3740 66bb 683f e683 f93e
000002e0: 7aa9 1440 aff7 4e40 7c9e 4d3f 5a3e 5f3f
000002f0: fc61 22bf 366c 79bd 7b05 2c3e ae8d f03e
00000300: b9ab e2be e3c2 47bf ff55 fd3f 6c60 ce3f
00000310: 1c18 8e3d 07c2 e03f d313 e2bf 6562 79bf
00000320: 8ea3 443e c047 473f 621a cfbf 4155 2e3c
00000330: 55cd 623f 8ccd 0c40 e8ab 8d3f 76c4 0840
00000340: 830b 19bf 3af0 0fc0 e8b8 8ebf 185e 1bc0
00000350: eb39 6cbf 4a93 e1bf fb01 03c0 ae7c e3bf
00000360: 693e 26bf 05c2 ca3e 1cde 32bf b38e 69bf
00000370: 0996 f7be 7f34 f23f 650e ddbf e11b 093f
00000380: 36e7 fe3e ccaf 963e 3f72 ba3d f795 533f
00000390: d436 ebbd 5d18 a03f 776c cc3f 4964 1440
000003a0: 3cd2 e73e fcd2 893c 6a14 2c40 c66e 653f
000003b0: 47d2 88bf 89bf 28c0 1ce9 dfbe ddd1 b03b
000003c0: f5d4 b73f 2415 bd3f acc6 8f3f 8853 7b3f
000003d0: 872c 07c0 decf a8bf 91a1 b1bf cc11 46bf
000003e0: d23b e1bd d289 16bf 1e5a a53e d51a 4b3f
000003f0: aa1a e0be 4df4 fc39 b642 e23f c72d 49be

input.bias f4 [64]
0.61883956 -1.3877406 0.50006396 0.20671158 1.0434364 -1.4055275 -0.8253704 -0.6084693
-1.5991731 -0.18630102 1.4981449 -0.33374208 0.2580016 -1.6050323 -0.032472298 -0.16311438
-1.6703962 0.8670458 0.60373837 0.052646253 0.05133597 1.4360354 1.6986988 1.4731491
-0.9783376 0.24756773 1.1413087 -1.7553264 1.5431782 -1.3190126 1.6887671 1.1114079
1.5845313 -0.7831468 -0.41891348 1.1500381 0.6373347 0.970453 0.05678307 -0.85118914
-1.4442276 -1.6252048 -1.7878784 0.4658612 -0.9544404 1.7435565 1.9327499 0.36858234
-0.11380206 0.35192743 0.90700555 1.0497062 -1.3703303 -1.1238487 0.4291841 0.52180415
-0.25855002 0.9367528 0.92498356 -1.5812654 0.8794502 -1.0024308 -1.0077881 -0.47649333
00000000: 456c 1e3f 7ca1 b1bf 3104 003f 33ac 533e
00000010: 538f 853f 53e8 b3bf 794b 53bf a5c4 1bbf
00000020: b4b1 ccbf b2c5 3ebe 36c3 bf3f 3ee0 aabe
00000030: c918 843e b371 cdbf ac01 05bd 7507 27be
00000040: 8bcf d5bf b7f6 5d3f 998e 1a3f 99a3 573d
00000050: ab45 523d 02d0 b73f f66e d93f 2690 bc3f
00000060: 5574 7abf 6582 7d3e 6716 923f 89ae e0bf
00000070: dd86 c53f 68d5 a8bf 8529 d83f 9d42 8e3f
00000080: ecd1 ca3f 4f7c 48bf d47b d6be 7334 933f
00000090: 5e28 233f 9c6f 783f 5d95 683d 88e7 59bf
000000a0: 73dc b8bf b606 d0bf 33d9 e4bf 5c85 ee3e
000000b0: 3556 74bf dc2c df3f 5964 f73f d3b6 bc3e
000000c0: 0e11 e9bd d52f b43e 8431 683f c65c 863f
000000d0: fc66 afbf 46da 8fbf 05be db3e f594 053f
000000e0: ab60 84be 08cf 6f3f b9cb 6c3f e866 cabf
000000f0: a623 613f a74f 80bf 33ff 80bf eff6 f3be

h1.weight f4 [64, 64]
-0.03189944 1.8317771 -0.18742067 0.38638303 -1.1952806 0.24702871 -0.21745354 0.40563992
1.7554212 0.5795605 -0.29439607 0.1393082 -0.04419904 0.10931239 0.34974217 0.077562734
1.1182693 0.022540666 -0.5964423 -0.03534165 0.40904945 -0.74097925 -0.046010956 -0.048787884
0.3232242 0.16850679 -0.8231439 0.9634804 0.025059696 1.2444468 -0.44847482 -0.048365638
-0.64315456 0.34264526 0.25260967 -0.5242077 -0.21050517 0.3733545 0.29793975 0.3012235
-0.2550276 0.52731085 0.5602113 -0.12801382 0.26318172 -1.636535 -1.5118619 -0.43266836
0.4451376 -0.17568791 -0.035551976 -0.48252848 1.6166925 0.03422758 -0.17726816 -0.12642531
0.035827175 -0.04021762 -1.4649465 -0.022134418 -1.1573957 0.63786966 0.21462634 -0.13337663
0.05404558 -0.43852076 0.33164737 -0.28213942 0.07212703 -0.9889564 0.36158893 -0.582432
0.89679307 0.7584695 0.7505836 -0.94529563 1.050112 0.22093374 0.097917795 0.6079864
-0.010882011 0.3705449 0.03180688 1.7106738 -1.3028227 0.3179971 -0.31806633 0.71791965
-1.1116173 0.46042374 -0.3795789 -0.2380673 0.57488096 0.07782947 -0.23835611 0.84184253
-0.0777183 -0.5411472 0.69400567 0.8818589 0.75537586 0.2030152 -0.09372461 -0.5756146
0.064123765 0.25493735 0.0751984 0.2987105 0.05982777 -0.6182139 -1.1737802 0.8034643
-0.724256 0.28802806 0.9426811 -0.5452817 0.05875989 0.5710996 0.17951578 -0.98784256
-0.73074174 -0.89194834 0.7042422 -0.7227626 -0.41795155 0.2674309 -0.7834132 -0.310574
4.6112456 -3.0042117 -4.442645 4.4198256 -0.80909073 3.5722208 3.6923387 4.7704563
-0.45063147 4.8496923 -3.5664122 4.8859277 3.9189293 -4.763047 5.0032115 1.4838858
-3.7255843 -3.914765 -4.910697 1.6137023 4.584216 3.4457467 -4.182547 -3.8742752
3.9860232 -3.7658563 2.9179616 -4.3798485 -3.5861158 -3.068467 4.234319 -3.749729
3.7800207 4.4015703 -3.488966 -3.5667102 -3.404074 -3.523253 4.913109 3.5440176
-4.4972916 -4.1462193 -4.2244234 -4.5830884 -4.3620687 2.152465 2.334969 -3.9046044
4.4949136 -4.6555147 -4.517763 4.2274575 -2.4473128 -3.3170204 -4.858451 -4.974402
4.7517033 4.366812 2.7280354 3.6870062 3.1634855 -2.9603117 3.5591488 3.3877013
-0.29204458 -0.60546756 0.5284596 -0.63397634 0.5199472 -0.8776154 0.666703 -0.3827588
0.65868104 -0.14456627 0.5381009 -1.2966665 1.2198924 -0.14231 -0.4346038 -0.1552459
-0.31220394 0.78522456 0.12728262 1.427259 -1.1450893 1.0272382 -0.029972835 0.40209445
-1.4551946 0.25731033 -0.056186866 0.15401915 -0.1575737 -0.6586008 -0.15361844 1.6527522
-0.3482622 -1.0208917 0.5770914 1.2189755 0.7417253 0.6608351 -0.11532773 -0.8381001
0.37509084 0.16026625 0.22520015 0.68090653 0.045777705 -0.79846084 -0.3604523 -0.024411203
-0.5626752 0.3204625 1.2071334 -0.3881219 -0.06587971 0.4031837 0.54199237 -0.3813204
-0.4844947 -1.2683548 0.95102763 -0.8293854 0.45606145 -0.7888761 -0.799059 -0.19852258
00000000: fda8 02bd ac77 ea3f 34eb 3fbe ffd3 c53e
00000010: f4fe 98bf 18f5 7c3e 24ac 5ebe 09b0 cf3e
00000020: a4b1 e03f 145e 143f 15bb 96be cfa6 0e3e
00000030: 0d0a 35bd 2ddf df3d 6811 b33e 36d9 9e3d
00000040: 7323 8f3f 34a7 b83c 71b0 18bf 68c2 10bd
00000050: ee6e d13e d1b0 3dbf fc75 3cbd ced5 47bd
00000060: a47d a53e 0b8d 2c3e 8fb9 52bf a7a6 763f
00000070: fe49 cd3c 084a 9f3f 7e9e e5be 0c1b 46bd
00000080: c7a5 24bf 336f af3e 0e56 813e 7a32 06bf
00000090: ab8e 57be 5228 bf3e 8f8b 983e f739 9a3e
000000a0: fa92 82be d8fd 063f 026a 0f3f 0e16 03be
000000b0: c1bf 863e fb79 d1bf b184 c1bf b586 ddbe
000000c0: 13e9 e33e 88e7 33be f39e 11bd f90d f7be
000000d0: c8ef ce3f 3832 0c3d c985 35be a375 01be
000000e0: 84bf 123d 3bbb 24bd 5e83 bbbf 3d53 b5bc
000000f0: 8b25 94bf 6d4b 233f 02c7 5b3e e293 08be
00000100: e65e 5d3d cb85 e0be afcd a93e 9474 90be
00000110: 56b7 933d 3f2c 7dbf 2f22 b93e 431a 15bf
00000120: 3b94 653f 0f2b 423f 3f26 403f e5fe 71bf
00000130: 126a 863f 743c 623e 2089 c83d ffa4 1b3f
00000140: 764a 32bc 10b8 bd3e ee47 023d 5cf7 da3f
00000150: e5c2 a6bf 84d0 a23e 97d9 a2be 95c9 373f
00000160: 7a49 8ebf a9bc eb3e 2a58 c2be eac7 73be
00000170: 662b 133f 0f65 9f3d a013 74be fe82 573f
00000180: c62a 9fbd 9f88 0abf 5baa 313f 81c1 613f
00000190: 5060 413f 37e3 4f3e b0f2 bfbd 7a5b 13bf
000001a0: 5253 833d 2687 823e 9e01 9a3d 95f0 983e
000001b0: f70d 753d 4443 1ebf 6e3e 96bf d6af 4d3f
000001c0: d768 39bf 6a78 933e 8c53 713f 9597 0bbf
000001d0: 36ae 703d 9533 123f fcd2 373e 40e3 7cbf
000001e0: e411 3bbf ba56 64bf 3849 343f f806 39bf
000001f0: bffd d5be b4ec 883e c48d 48bf 8e03 9fbe
00000200: 538f 9340 0145 40c0 262a 8ec0 366f 8d40
00000210: 9220 4fbf 449f 6440 474f 6c40 94a7 9840
00000220: 2bb9 e6be ae30 9b40 1940 64c0 8559 9c40
00000230: bdcf 7a40 e26a 98c0 4f1a a040 f8ef bd3f
00000240: f96f 6ec0 828b 7ac0 6e24 9dc0 cc8d ce3f
00000250: e6b1 9240 1d87 5c40 6dd7 85c0 20f4 77c0
00000260: 011b 7f40 ca03 71c0 e2bf 3a40 b827 8cc0
00000270: ec82 65c0 c361 44c0 8b7f 8740 8ffb 6fc0
00000280: dceb 7140 aad9 8c40 384b 5fc0 fb44 64c0
00000290: 59dc 59c0 fa7c 61c0 3038 9d40 2fd1 6240
000002a0: d0e9 8fc0 d4ad 84c0 7a2e 87c0 a9a8 92c0
000002b0: 1196 8bc0 fdc1 0940 2270 1540 0ae5 79c0
000002c0: 55d6 8f40 faf9 94c0 8491 90c0 5547 8740
000002d0: c6a0 1cc0 104a 54c0 6e78 9bc0 4d2e 9fc0
000002e0: f40d 9840 edbc 8b40 2298 2e40 e9f7 6b40
000002f0: 8c76 4a40 bf75 3dc0 18c9 6340 19d0 5840
00000300: de86 95be ecff 1abf 2149 073f 464c 22bf
00000310: 421b 053f 67ab 60bf 0cad 2a3f f6f8 c3be
00000320: 529f 283f 2e09 14be fbc0 093f 2bf9 a5bf
00000330: 6f25 9c3f b6b9 11be 6484 debe c8f8 1ebe
00000340: 32d9 9fbe 7a04 493f 6056 023e 6cb0 b63f
00000350: 4992 92bf 8b7c 833f 9789 f5bc 53df cd3e
00000360: d143 babf 2ebe 833e 3324 66bd 32b7 1d3e
00000370: 005b 21be 109a 28bf 274e 1dbe 628d d33f
00000380: 6c4f b2be 94ac 82bf 43bc 133f 6407 9c3f
00000390: b6e1 3d3f 7d2c 293f f230 ecbd ba8d 56bf
000003a0: e80b c03e d61c 243e de9a 663e e44f 2e3f
000003b0: 6781 3b3d ee67 4cbf 348d b8be 01fa c7bc
000003c0: 7b0b 10bf a913 a43e 5983 9a3f eab7 c6be
000003d0: f1eb 86bd 186e ce3e 03c0 0a3f 6d3c c3be
000003e0: b00f f8be 7359 a2bf 8c76 733f 9a52 54bf
000003f0: e380 e93e c9f3 49bf 218f 4cbf 8149 4bbe

h1.bias f4 [64]
0.05300982 -0.7631647 3.6593494 -0.77626586 -0.7808377 -0.4227659 -0.85505974 -0.9739989
1.3610247 -0.6770895 5.241969 -0.6252087 -0.57899505 1.6618294 -0.21236837 -0.77833945
-0.94263875 -1.4454559 0.042440068 -0.69975036 -0.79560477 -0.48063526 -0.93727154 0.0631421
-0.9954825 -0.5406717 -0.76288277 -1.8097466 -0.38618767 -0.449342 -0.19765194 0.21508095
-0.9513133 -1.6350868 -1.3549032 1.7391262 -0.7524396 -1.4518601 -0.4646146 1.244619
-1.5495325 0.10588489 -0.7690258 -0.9693637 -2.5675254 3.8777032 -0.8080079 -0.62785816
0.30352 0.0074892426 -0.6953438 -0.6937059 0.39154455 1.8392873 -1.1323713 -1.0636598
-1.1772333 -1.2873143 0.0963858 -0.6590476 -0.82283604 -0.3446095 1.3326961 1.5796235
00000000: d320 593d c35e 43bf c832 6a40 5cb9 46bf
00000010: fbe4 47bf c674 d8be 32e5 5abf fe57 79bf
00000020: 0f36 ae3f bd55 2dbf 36be a740 ad0d 20bf
00000030: 0539 14bf d3b6 d43f 1877 59be 4141 47bf
00000040: c650 71bf b304 b9bf a3d5 2d3d d722 33bf
00000050: c1ac 4bbf d315 f6be 07f1 6fbf a550 813d
00000060: f1d7 7ebf 7669 0abf 494c 43bf c7a5 e7bf
00000070: 64ba c5be 2810 e6be 4565 4abe 2e3e 5c3e
00000080: 4589 73bf 864a d1bf 786d adbf b09b de3f
00000090: e29f 40bf 8dd6 b9bf f7e1 edbe ad4f 9f3f
000000a0: 1557 c6bf 2dda d83d e0de 44bf 3828 78bf
000000b0: 5652 24c0 4a2c 7840 9bd9 4ebf 50bb 20bf
000000c0: f966 9b3e 5268 f53b 0d02 32bf b696 31bf
000000d0: 8778 c83e c46d eb3f 8bf1 90bf 0126 88bf
000000e0: 95af 96bf b7c6 a4bf eb65 c53d 58b7 28bf
000000f0: 62a5 52bf a870 b0be c995 aa3f 1a31 ca3f

h2.weight f4 [64, 64]
-1.2300305 -0.036118302 0.0038095668 -0.7459494 -0.5050439 -0.1581464 -0.83223486 0.30410153
-0.4389313 -0.81684124 0.16994189 -0.15647344 -0.8370224 -0.11919753 0.086957775 -0.49062476
-0.052403618 -0.7859021 -0.6604596 0.041860998 0.21411838 -0.50462395 -0.7972733 -0.36278975
-0.08543579 -0.15911347 -0.30701926 0.7921317 -0.17612973 0.092489794 -0.39788243 -0.19855085
-0.1421483 -0.80768096 0.0889527 -1.7125058 -0.4428076 0.24759042 0.048963763 0.20039696
0.23775674 -1.319435 -0.71202976 0.18064025 0.02710789 0.10499003 -0.65504336 0.5492683
-0.49498755 0.20690648 -0.4580304 -0.5514488 -1.7254336 -0.26583192 -0.37950975 0.28509292
-0.8111998 -1.1901788 -0.06009378 -0.21460734 0.091492675 -0.2503985 -0.020442873 -0.71984124
-0.100692555 -0.32895312 7.3340826 -0.07832108 0.12578864 0.40704104 -0.32336125 -0.29187888
4.907562 0.0053428565 6.624294 -1.4661978 -0.5921597 14.880109 -2.2909136 -0.080206856
-0.33374453 -0.5973963 0.12019645 0.7331456 0.7772112 0.0018686261 0.11279991 -0.6678999
-0.28280938 -1.9123797 -0.111367024 2.475825 6.6321 7.1278453 -0.20503825 -0.97931015
-0.60255927 -0.27270693 -0.8744423 2.034568 -0.6751209 -1.2443436 3.1091154 3.7564745
0.23299421 -0.8833779 0.17041628 0.47391045 2.535601 14.459614 0.24176098 -0.7032064
-1.1433387 -0.44043502 -0.6331604 0.11271 -0.95397663 7.445362 -0.28204232 0.43454206
-1.3040814 -0.09725124 -0.4881914 -0.94213027 -1.5747229 1.1814015 6.254809 5.816832
-0.3384974 -0.88042825 -0.87989634 -0.5830409 -0.4605064 0.28996703 -0.3049306 -0.3879481
-0.92308205 -0.56355304 0.29286087 -0.6097191 -0.8108538 0.36858505 -0.74502623 -0.59237146
0.71182954 -0.549227 -0.4474739 0.2829191 -0.79380584 0.43319705 -0.42638656 -0.44761038
0.6099735 -1.1470072 -0.5518542 -0.46795303 -0.77660114 -0.28649437 0.2637668 -0.5919816
-0.11260309 -0.9534172 -0.6240043 -0.48689553 -0.8329314 0.3135689 -0.5602992 0.14924154
-0.41977802 -0.75844574 -0.59079033 -0.5045814 0.06431258 -1.2302207 -0.5375432 0.80552304
-0.40360475 -0.30781567 -0.4113275 -0.59099364 -0.5730521 -0.22864965 -0.13909583 0.6701894
0.5142529 -2.3893187 -0.5231745 0.29804897 -0.8103382 -0.2987837 0.6019075 0.6633524
-1.007516 -0.054664697 -0.7220135 -0.124798276 0.04420205 -0.5137925 -0.097610444 0.14904046
-0.9504156 -0.21741739 0.3043409 -0.97711384 -0.14720602 0.098325014 -0.94093275 0.29865983
-0.3058721 -0.2435816 -1.0111243 -0.13287306 -0.3012319 -0.6964134 -0.012501589 -0.8283621
0.1377998 -0.08654737 0.23973966 0.13298556 0.023527436 -0.18311916 -0.83465356 -1.0825132
0.12388894 0.018758059 0.12213299 -1.0676638 -0.07463938 0.24601349 -0.1650848 0.23834778
-0.16267513 -0.9384153 -0.05183936 0.27967453 -0.18047035 -0.0051310947 -0.07868226 -0.17554393
-0.8196023 -0.79296184 0.1573985 -0.20062903 -0.9398208 -0.8989025 -0.6837173 0.14398816
0.0017866138 -0.9544702 -0.701395 0.09524136 -0.8572038 -0.15150718 -0.2182801 -0.01130836
00000000: a471 9dbf c9f0 13bd eda9 793b 8af6 3ebf
00000010: 8f4a 01bf 21f1 21be 580d 55bf 32b3 9b3e
00000020: 9abb e0be 821c 51bf 3f05 2e3e 933a 20be
00000030: 1a47 56bf d61d f4bd eb16 b23d 2b33 fbbe
00000040: 2da5 56bd e130 49bf e113 29bf 7076 2b3d
00000050: d941 5b3e 092f 01bf 1a1a 4cbf 94bf b9be
00000060: f6f8 aebd a4ee 22be a131 9dbe 25c9 4a3f
00000070: 5a5b 34be 4a6b bd3d 3fb7 cbbe ea50 4bbe
00000080: 538f 11be 2ec4 4ebf d52c b63d 6433 dbbf
00000090: aeb7 e2be 5888 7d3e 3a8e 483d dc34 4d3e
000000a0: 8176 733e 3fe3 a8bf 9547 36bf c2f9 383e
000000b0: 5e11 de3c 0305 d73d ecb0 27bf d99c 0c3f
000000c0: 026f fdbe 4bdf 533e f682 eabe c02b 0dbf
000000d0: 02db dcbf 1f1b 88be 1a4f c2be b3f7 913e
000000e0: caaa 4fbf c757 98bf e524 76bd 07c2 5bbe
000000f0: 8360 bb3d 3b34 80be d077 a7bc 8447 38bf
00000100: e637 cebd 8b6c a8be ceb0 ea40 cd66 a0bd
00000110: bdce 003e af67 d03e 9b8f a5be 2671 95be
00000120: bf0a 9d40 2113 af3b 37fa d340 5fac bbbf
00000130: c797 17bf ed14 6e41 549e 12c0 7e43 a4bd
00000140: 90e0 aabe f7ee 18bf 8e29 f63d 6eaf 3b3f
00000150: 50f7 463f b0ec f43a a403 e73d 7dfb 2abf
00000160: 64cc 90be dcc8 f4bf 6514 e4bd eb73 1e40
00000170: 2a3a d440 4f17 e440 8cf5 51be 12b4 7abf
00000180: 5341 1abf 3ea0 8bbe 73db 5fbf 5d36 0240
00000190: b9d4 2cbf a746 9fbf bffb 4640 146a 7040
000001a0: 0996 6e3e 0e25 62bf 9b81 2e3e 64a4 f23e
000001b0: 4947 2240 945a 6741 3190 773e 5605 34bf
000001c0: ec58 92bf b380 e1be cd16 22bf 80d4 e63d
000001d0: d037 74bf 6840 ee40 da67 90be 4c7c de3e
000001e0: 24ec a6bf a82b c7bd 39f4 f9be 732f 71bf
000001f0: 8590 c9bf 2a38 973f 6527 c840 7d23 ba40
00000200: 884f adbe bf63 61bf e340 61bf 2b42 15bf
00000210: 7fc7 ebbe 8f76 943e dd1f 9cbe 22a1 c6be
00000220: 1b4f 6cbf 0345 10bf dcf1 953e 8d16 1cbf
00000230: 1d94 4fbf 2eb7 bc3e 0aba 3ebf a8a5 17bf
00000240: 763a 363f 249a 0cbf 4d1b e5be c6da 903e
00000250: dc36 4bbf 01cc dd3e 574f dabe 302d e5be
00000260: 3927 1c3f 22d1 92bf 5146 0dbf 8a97 efbe
00000270: 55cf 46bf 64af 92be 710c 873e 1b8c 17bf
00000280: 739c e6bd 2613 74bf bfbe 1fbf 5f4a f9be
00000290: fe3a 55bf 1a8c a03e c56f 0fbf c6d2 183e
000002a0: 25ed d6be 8029 42bf 093e 17bf 3f2c 01bf
000002b0: 50b6 833d df77 9dbf 6e9c 09bf c236 4e3f
000002c0: 48a5 cebe 049a 9dbe 8599 d2be 5c4b 17bf
000002d0: 8bb3 12bf 2223 6abe 236f 0ebe 8891 2b3f
000002e0: 14a6 033f 99ea 18c0 c4ee 05bf e099 983e
000002f0: 5372 4fbf 2dfa 98be 9c16 1a3f 76d1 293f
00000300: 49f6 80bf 17e8 5fbd e0d5 38bf 3d96 ffbd
00000310: 350d 353d e887 03bf fce7 c7bd 109e 183e
00000320: 704e 73bf aaa2 5ebe 92d2 9b3e 2224 7abf
00000330: 2dbd 16be a05e c93d f8e0 70bf f1e9 983e
00000340: 459b 9cbe 746d 79be 856c 81bf e00f 08be
00000350: 113b 9abe 2648 32bf 77d3 4cbc 8a0f 54bf
00000360: 641b 0d3e bf3f b1bd 507e 753e 5e2d 083e
00000370: 9cbc c03c 9783 3bbe dbab 55bf cb8f 8abf
00000380: 7cb9 fd3d 80aa 993c dc20 fa3d 35a9 88bf
00000390: 88dc 98bd f6ea 7b3e fd0b 29be 7111 743e
000003a0: 4f94 26be fc3b 70bf 8255 54bd 8031 8f3e
000003b0: 38cd 38be be22 a8bb 2a24 a1bd cac1 33be
000003c0: 75d1 51bf 8cff 4abf 132d 213e b271 4dbe
000003d0: 1998 70bf 791e 66bf 1908 2fbf a271 133e
000003e0: d02c ea3a 2958 74bf 9f8e 33bf e70d c33d
000003f0: b571 5bbf b324 1bbe d284 5fbe b346 39bc

h2.bias f4 [64]
-1.4865493 0.20062874 -0.86601746 -0.099960186 0.96006125 -0.62389135 -0.52242804 -0.73865086
0.95348346 -0.42484775 -0.5496791 -0.67137873 -0.87157166 -0.589226 -0.0031081354 -0.6485124
-0.5226481 0.23582032 -0.58378077 -0.5435509 0.6003144 -0.8413243 0.50590074 0.4721099
0.97625685 -0.1816069 0.35597107 0.49931416 -0.33769682 1.1553066 -0.5642713 -0.7863867
-0.27245364 -1.0764503 -0.7168397 -1.4733335 -0.5216426 -0.64672726 0.505967 -0.61715525
0.5354302 0.9557485 -0.48667872 -0.67278993 -0.82093996 0.07637295 -0.56344503 0.94244206
0.48853993 -0.57335514 0.3651467 1.2620933 -0.5454218 -1.165308 0.36602902 0.67430097
-0.8632774 1.2389499 -0.70973355 -0.74351823 1.2988276 1.4333005 -0.66275966 -0.626059
00000000: 3f47 bebf 9f71 4d3e 52b3 5dbf edb7 ccbd
00000010: 93c6 753f 58b7 1fbf d8bd 05bf 3918 3dbf
00000020: 7e17 743f a585 d9be c5b7 0cbf 7adf 2bbf
00000030: 521f 5fbf 84d7 16bf dcb1 4bbb e904 26bf
00000040: 44cc 05bf e27a 713e a872 15bf 2726 0bbf
00000050: 34ae 193f 0861 57bf b682 013f 64b8 f13e
00000060: f8eb 793f 29f7 39be d741 b63e 1ba6 ff3e
00000070: 99e6 acbe 16e1 933f 1574 10bf a450 49bf
00000080: 0b7f 8bbe 20c9 89bf ce82 37bf 3196 bcbf
00000090: 5f8a 05bf eb8f 25bf 0e87 013f e3fd 1dbf
000000a0: f411 093f efab 743f f42d f9be f63b 2cbf
000000b0: 1f29 52bf 6c69 9c3d ef3d 10bf e243 713f
000000c0: e821 fa3e 67c7 12bf 82f4 ba3e 468c a13f
000000d0: c3a0 0bbf d028 95bf 2868 bb3e fd9e 2c3f
000000e0: bfff 5cbf e995 9e3f 19b1 35bf 3657 3ebf
000000f0: fc3f a63f 6476 b73f 9eaa 29bf 6745 20bf

h3.weight f4 [8, 64]
0.22851981 1.1408782 1.9724996 0.2279684 1.0302254 -0.28945008 -0.007942489 -0.2672481
0.69696504 0.8796692 -0.27595133 0.29866117 0.74702054 -0.04681678 0.5725858 0.5479503
-0.093963236 0.6449665 0.05436901 0.6279855 0.6784284 0.35632983 1.624081 0.68635905
0.54115987 0.83113426 2.9984465 0.52981585 2.2380166 2.4549463 0.26601964 -0.06345283
0.5822343 0.3540703 0.50466055 0.7816331 0.3696394 -0.016434709 1.086748 -0.21476038
0.9092172 2.6563625 0.27147257 0.5100781 0.62931573 0.7563873 0.06778197 1.7141373
0.4059939 0.4588335 0.53905815 0.44177002 -0.29734465 -0.22588904 0.28546575 0.7483661
0.0018570315 0.8169458 -0.054248612 0.39081684 0.502501 1.2294877 0.1208123 0.03117128
-0.3849677 -0.18001314 -0.82912236 0.079489134 -0.7075721 -0.6070405 -0.713056 -0.51000434
-0.81472814 -0.75906056 -0.39798838 -0.70985323 0.26613152 -0.6223995 -0.7536867 0.22825752
-0.5243622 -0.82473207 -0.78499633 -0.80694103 -0.4381881 -0.19373143 -0.6447868 -0.76589835
-0.6422552 -0.21534526 0.2731451 -0.8089572 -0.88304484 -0.14859337 -0.21138364 -0.4695626
-0.75119835 -0.34375647 -0.5752855 -0.58480424 -0.69384325 -0.4751742 -0.43420467 -0.45003664
-0.5970894 -0.24062683 -0.3666756 -0.31407872 -0.7846501 -0.14114958 -0.77079934 -0.46402827
-0.8709398 -0.4736291 -0.7586613 -0.904501 -0.4135636 -0.42389363 -0.72989684 -0.75520253
-0.6902728 -0.35479185 -0.40692616 -0.673517 -0.50387263 -0.56587654 -0.312051 -0.3149093
-0.021649936 4.2747254 -0.56220764 -0.23798549 -0.88347113 -0.5875853 -0.10133435 -0.836626
-0.29102415 -0.60012966 -0.6836773 -0.44435555 -0.25682977 -0.48275262 -0.8127855 -0.073739976
-0.8161211 0.5060956 -0.23728472 -0.52607965 -0.7911457 -0.28116283 -0.5495462 -0.3242858
-0.8875919 0.93370533 0.7734069 -0.80177796 0.8125284 1.232753 -0.1878625 -0.64198256
1.1584221 -0.5332198 -0.3159334 1.93062 -0.4788575 -0.79416597 -0.12998131 -0.48267508
-0.72294945 0.6472002 0.99252987 -0.516288 -0.8326776 1.9040768 -0.7939898 -0.42961887
-0.23389852 -0.033412103 -0.8124134 0.2743198 -0.52584076 -0.6219206 0.24189278 -0.80025214
-0.74661756 0.015677327 -0.35369173 0.104792565 0.24750677 -0.39176798 -0.61138916 -0.4404313
0.76612854 0.88994867 -0.41641238 -0.39025027 0.67618865 0.87183875 0.7247983 0.49076733
0.5876269 0.7087222 0.5306574 0.55960935 0.41855428 0.31580055 0.47716746 -0.16086467
0.35704863 1.0123209 0.6164451 0.4738789 0.6669323 0.38430348 0.588958 0.66877013
0.8770592 0.5592264 -0.849666 0.555531 0.46186295 1.4135047 -0.67696947 0.28479844
0.70931244 0.39583817 0.40437862 6.8839593 0.098070316 0.29906484 0.5172739 0.4359496
0.64291894 0.22535641 1.8856843 0.7425925 0.5805643 3.4451702 0.34526613 0.90228975
0.45752335 0.52649456 0.45907927 0.90280646 0.3654939 0.4766889 0.99077576 1.2086794
0.4311435 0.41044006 0.50341475 0.13882323 0.75228626 0.66345716 0.86251557 0.37137035
00000000: 1901 6a3e 4c08 923f de7a fc3f 8c70 693e
00000010: 6dde 833f cd32 94be 3721 02bc bed4 88be
00000020: 4d6c 323f 0032 613f 7e49 8dbe 1eea 983e
00000030: bd3c 3f3f f4c2 3fbd fc94 123f 7946 0c3f
00000040: cc6f c0bd 861c 253f 0ab2 5e3d a8c3 203f
00000050: 7cad 2d3f dd70 b63e e3e1 cf3f 3ab5 2f3f
00000060: 7489 0a3f 37c5 543f 8ce6 3f40 03a2 073f
00000070: aa3b 0f40 d71d 1d40 ba33 883e 8ff3 81bd
00000080: 4f0d 153f b448 b53e 6f31 013f 1b19 483f
00000090: 6041 bd3e 15a2 86bc 8f1a 8b3f 25ea 5bbe
000000a0: 75c2 683f d801 2a40 74fe 8a3e 7a94 023f
000000b0: d61a 213f 99a2 413f 46d1 8a3d da68 db3f
000000c0: 6fde cf3e 39ec ea3e b7ff 093f ae2f e23e
000000d0: 8f3d 98be 754f 67be 9128 923e ec94 3f3f
000000e0: a367 f33a 5c23 513f cb33 5ebd 2519 c83e
000000f0: e8a3 003f da5f 9d3f 706c f73d ea5a ff3c
00000100: 7d1a c5be 5d55 38be 5d41 54bf 33cb a23d
00000110: 7223 35bf 0267 1bbf d78a 36bf a58f 02bf
00000120: 0692 50bf cb51 42bf 22c5 cbbe f1b8 35bf
00000130: 6442 883e 9355 1fbf 9df1 40bf 57bc 693e
00000140: 9a3c 06bf a421 53bf 85f5 48bf b093 4ebf
00000150: 315a e0be 8861 46be bf10 25bf ea11 44bf
00000160: d66a 24bf 7883 5cbe add9 8b3e d217 4fbf
00000170: 3a0f 62bf dc28 18be f474 58be 826a f0be
00000180: 894e 40bf d900 b0be e945 13bf bbb5 15bf
00000190: b69f 31bf 084a f3be 1350 debe 346b e6be
000001a0: dada 18bf e166 76be e7bc bbbe edce a0be
000001b0: d4de 48bf 8489 10be 1b53 45bf 1d95 edbe
000001c0: e9f5 5ebf 837f f2be a137 42bf 618d 67bf
000001d0: 9cbe d3be 9608 d9be 85da 3abf f454 41bf
000001e0: b8b5 30bf 47a7 b5be a058 d0be 9c6b 2cbf
000001f0: ccfd 00bf 49dd 10bf 26c5 9fbe cb3b a1be
00000200: 355b b1bc 8dca 8840 d7ec 0fbf 78b2 73be
00000210: 2a2b 62bf fd6b 16bf 6288 cfbd 1f2d 56bf
00000220: 1e01 95be 19a2 19bf 7a05 2fbf 9282 e3be
00000230: 317f 83be 5a2b f7be b612 50bf fc04 97bd
00000240: 50ed 50bf 7b8f 013f c4fa 72be 28ad 06bf
00000250: 8688 4abf 93f4 8fbe 0faf 0cbf ca08 a6be
00000260: 3939 63bf 5007 6f3f fffd 453f 5241 4dbf
00000270: dc01 503f daca 9d3f 075f 40be f858 24bf
00000280: 2d47 943f 1881 08bf 06c2 a1be 8e1e f73f
00000290: cf2c f5be 764e 4bbf d219 05be 3021 f7be
000002a0: 3713 39bf eaae 253f 7016 7e3f 732b 04bf
000002b0: 5c2a 55bf cab8 f33f ea42 4bbf 01f7 dbbe
000002c0: 1883 6fbe 21db 08bd 53fa 4fbf a573 8c3e
000002d0: 809d 06bf 3036 1fbf beb2 773e 53dd 4cbf
000002e0: 5422 3fbf bd6d 803c 1517 b5be 7c9d d63d
000002f0: 6a72 7d3e d095 c8be 0084 1cbf 3680 e1be
00000300: 0021 443f add3 633f 0134 d5be e2ce c7be
00000310: b31a 2d3f d330 5f3f 628c 393f db45 fb3e
00000320: b76e 163f d16e 353f 2ad9 073f 8f42 0f3f
00000330: bf4c d63e 9cb0 a13e 4b4f f43e b5b9 24be
00000340: 14cf b63e bb93 813f 59cf 1d3f 41a0 f23e
00000350: 13bc 2a3f 6dc3 c43e f4c5 163f 8534 2b3f
00000360: f486 603f 7629 0f3f b683 59bf 4837 0e3f
00000370: 4d79 ec3e b9ed b43f df4d 2dbf 1ad1 913e
00000380: 8095 353f 4dab ca3e b70a cf3e 6549 dc40
00000390: 17d9 c83d 071f 993e 106c 043f c934 df3e
000003a0: 5696 243f d5c3 663e 1a5e f13f 8b1a 3e3f
000003b0: dd9f 143f ab7d 5c40 b9c6 b03e 76fc 663f
000003c0: 8040 ea3e 59c8 063f 700c eb3e 531e 673f
000003d0: 0422 bb3e 9110 f43e 7ba3 7d3f 02b6 9a3f
000003e0: d7be dc3e 3325 d23e cadf 003f ad27 0e3e
000003f0: d595 403f 54d8 293f d2cd 5c3f 4124 be3e

h3.bias f4 [8]
0.5991986 -0.55476224 0.32006285 1.3961066 0.3260075 0.37943336 -0.13748173 -0.78936064
00000000: 1465 193f e604 0ebf 47df a33e 9fb3 b23f
00000010: 74ea a63e 1745 c23e 03c8 0cbe 8a13 4abf
