weights/weights_LF=8_dense/w=0.20_3.pth (torch, 39820 bytes, 8 tensors)

input.weight f4 [64, 4]
000000 61 7a 0b 3f f3 67 bb bf 27 c4 a3 bf 5c 3b 97 3e
       0.5448361 -1.4641098 -1.2794236 0.29537475
000010 85 20 63 bf bd 75 80 bf 4f 5a 0d bf 96 b9 a6 bf
       -0.88721496 -1.0035931 -0.55215925 -1.3025386
000020 b8 2a e6 3f d1 58 67 3f ac 50 18 3f 36 ce 6b 3f
       1.7981787 0.903699 0.59498096 0.9211153
000030 1c 17 6b bf 41 7f fe bf 73 f0 58 bf c0 69 da bf
       -0.9183214 -1.9882585 -0.84741896 -1.7063522
000040 fc ae d1 3f 26 0c ee 3f c5 52 d0 3f 01 d8 80 3e
       1.6381526 1.8597457 1.6275259 0.25164798
000050 79 cd 54 bf 18 c6 6f bf 67 6b 99 3e b4 3d 87 3f
       -0.83126026 -0.9366164 0.29964754 1.0565705
000060 61 7f 41 3f 10 96 34 3f d7 73 36 3e 45 0a 26 bf
       0.7558499 0.7054148 0.17817627 -0.6485942
000070 d6 bc 90 3f b5 f4 66 3e 80 9e b2 3f 37 f5 84 3f
       1.1307628 0.22554286 1.395462 1.0387334
000080 f7 46 91 3f e9 73 cd 3f bf c7 cb 3e 49 c2 29 3f
       1.1349782 1.6050998 0.39800832 0.6631208
000090 e0 d1 fd be 4e e7 0a c0 e3 ba 01 c0 f1 9f 4f bf
       -0.49574184 -2.1703677 -2.0270317 -0.81103426
0000a0 0a a3 51 3f d8 53 2c 3f ac 66 53 be 4b 05 6a 3f
       0.818894 0.67315435 -0.20644635 0.91414326
0000b0 9b 9e df bf f4 3b 21 bf eb 5b ed bf 97 f2 14 bf
       -1.7470278 -0.62982106 -1.8543676 -0.5818266
0000c0 21 3d c6 bf 79 4c 39 3f c3 9d a1 3e 31 fa 93 3d
       -1.5487405 0.72382313 0.31565675 0.072254546
0000d0 77 56 85 3f 10 5a 7e 3f a3 8f 73 3f e5 8e 94 3f
       1.0417012 0.99356174 0.9514105 1.1606108
0000e0 a1 5c f1 bf 91 34 5c bf 2a d2 05 c0 1e 1c c1 be
       -1.8856393 -0.8601771 -2.0909524 -0.37716764
0000f0 94 8a 7b 3e b0 62 6b bd de 6b c0 3f f9 fe 0c bf
       0.24564582 -0.057467163 1.5032918 -0.5507656
000100 26 08 3b 3d d8 60 ac be 98 06 8a bf a3 82 4e be
       0.045662068 -0.33667636 -1.0783262 -0.20167021
000110 6a 30 58 bd f4 76 64 be 90 51 a0 3f 66 74 70 bd
       -0.052780546 -0.22311002 1.2524891 -0.058704756
000120 d8 51 9f 3d ce 98 b9 bf a8 d9 0f c0 5f 05 10 c0
       0.07779282 -1.4499757 -2.2476597 -2.2503278
000130 59 5b 10 3f 2e b3 c0 bf 2c 53 85 bf 1e 60 3a 3f
       0.56389385 -1.5054681 -1.0416007 0.72802913
000140 b5 bf 07 c0 18 14 06 c0 9d a9 e0 bf fa ed 46 bf
       -2.1210759 -2.0949764 -1.7551762 -0.77706873
000150 2a 9d a6 3f 7f e8 22 3f 52 2d 97 3e 5a 66 29 3e
       1.3016713 0.6363601 0.29526764 0.1654295
000160 f8 51 a3 bd 1e ae 30 3f 05 9c 90 bf d6 c6 8f bf
       -0.07974619 0.6901568 -1.1297613 -1.1232555
000170 b7 93 5e bf 7c b4 bb bf 66 1c 2c be ca 6b a9 bf
       -0.86944145 -1.4664454 -0.16807708 -1.323602
000180 68 8b b3 be 09 13 a9 bf db 4a 15 3e 66 c5 f3 bf
       -0.35067296 -1.3208934 0.14579336 -1.9044616
000190 b1 f5 04 be de 48 6c bf 8a 5e ad 3b 03 c5 77 3e
       -0.12984349 -0.92298687 0.005290811 0.24196248
0001a0 fa 5f 32 be 32 3f ae bf db 9c dd 3e d8 7a 8a 3e
       -0.17419425 -1.3613036 0.43283734 0.27046847
0001b0 c8 40 76 bf d2 e5 be bf 5b 23 fe be df 60 9a bf
       -0.961926 -1.4913886 -0.4963635 -1.2060813
0001c0 ca 1c 1f bd a4 04 b4 3e 48 64 04 40 ec 77 c6 3f
       -0.038845815 0.3515979 2.0686207 1.5505347
0001d0 ed d6 49 3f 5d ed c7 3f e4 96 01 40 d2 8d 90 3f
       0.78843576 1.5619313 2.0248346 1.129328
0001e0 b0 dd 89 bf f7 87 aa bf 81 ee 8e bf c5 ac 61 bf
       -1.0770779 -1.3322743 -1.1166536 -0.8815425
0001f0 50 f8 cf bf f0 5a 97 3c 2c 59 0d 3f 40 ed b0 3e
       -1.6247654 0.01847598 0.5521419 0.34556007
000200 9e ae f1 bf 97 7c a1 bf de 33 89 bf ef a0 13 bf
       -1.8881414 -1.2616147 -1.0718954 -0.5766744
000210 b7 08 7c be 77 78 f7 bf 90 49 14 c0 6c 30 aa bf
       -0.246127 -1.9333638 -2.31699 -1.3296027
000220 2d ba a6 be ca 4e b6 3f bc 1c 2f bf 57 0c 7a 3f
       -0.32563916 1.4242795 -0.6840322 0.9767508
000230 cd 2a d4 3f 44 c0 dd 3f 97 ba 84 3f 26 30 0b 40
       1.6575562 1.73243 1.0369443 2.1748137
000240 5d b0 11 40 9a 44 c4 3f 57 83 d7 3f 3b dc c0 3e
       2.2763894 1.5333436 1.6836957 0.37668023
000250 7c 72 0d 3f fe c1 65 3f 08 f5 00 bf cb d5 63 3f
       0.55252814 0.89749134 -0.5037389 0.889981
000260 8e 33 e0 3e 51 17 bc 3c 49 d1 21 3d 08 d5 c6 3e
       0.43789333 0.022960337 0.03950623 0.38834405
000270 3c 64 45 bf 53 24 28 3f 24 9e a5 bf 2f 5f fa 3e
       -0.7710607 0.65680426 -1.2938886 0.48900744
000280 4c 22 8b 3e 34 94 df bf 1f 17 a4 bf b2 3b a8 bf
       0.27174604 -1.7467103 -1.2819556 -1.3143218
000290 d7 39 5d be b1 26 cd bf 35 62 a1 bf de dc d2 bf
       -0.21604095 -1.6027433 -1.2608095 -1.6473653
0002a0 dc 0e e2 bd 71 c2 d6 bf 86 1d ce bf b7 3d 8d bf
       -0.110379905 -1.6778089 -1.610276 -1.1034459
0002b0 c5 90 70 3f 5e 07 9e 3e 24 31 97 3e 24 09 17 3f
       0.939709 0.30864996 0.2952968 0.5899832
0002c0 5d 96 a9 3f 21 c7 da 3d 41 a5 cc 3f 85 36 22 3f
       1.3249012 0.10682512 1.5987931 0.6336444
0002d0 ca a7 ce be 8d 69 e7 bf df 1e 17 be b6 14 a5 bf
       -0.40362388 -1.8079087 -0.1475787 -1.2896945
0002e0 06 88 24 3e 00 0b 88 3f dc 8b dd bc 21 9c 83 3f
       0.16067514 1.0628357 -0.02704423 1.0282022
0002f0 f6 1a dd 3d 26 f9 82 bf 41 4a 79 be 75 ce a6 bf
       0.10796158 -1.0232284 -0.24344732 -1.3031756
000300 72 b8 cb bf 8c 68 21 bf 90 12 97 be c2 fe ef be
       -1.5915663 -0.6305015 -0.2950635 -0.46874052
000310 cf 2d e3 3f 17 03 d0 3f dc 21 9e 3f f9 9a 26 3f
       1.7748355 1.6250943 1.2354083 0.6508022
000320 9d 3c 73 bd 0a 30 ea bf 39 9d b8 bf 9d 98 bd bf
       -0.059383977 -1.829591 -1.442298 -1.4812199
000330 d0 c9 81 bf 81 48 49 3e 7a f4 1d bf 83 35 62 3e
       -1.0139713 0.19656564 -0.61701167 0.22090726
000340 1f 21 12 be 98 46 d4 3e 4e e8 a1 3e b8 8f 8e 3f
       -0.14270447 0.4146011 0.31622547 1.113761
000350 35 a1 90 bf 2c 0d 14 bf 86 45 94 bf 59 ea c6 bf
       -1.1299196 -0.578326 -1.1583717 -1.5540267
000360 b3 b1 dd bf 4b c8 5a bf 29 46 89 3e 60 7a a5 bf
       -1.7319854 -0.8546187 0.2681134 -1.2927971
000370 d6 a0 4f bf 5c e9 71 bd b2 e5 14 bf f1 ee e3 bc
       -0.8110479 -0.05906044 -0.5816299 -0.027823897
000380 10 66 62 3f c7 27 33 be ad 85 40 3f d4 bf c8 ba
       0.88436985 -0.17495643 0.75203973 -0.0015315958
000390 47 6a b9 bd 44 0d c3 3f d9 d7 ec be 89 c9 e6 3d
       -0.09053474 1.5238423 -0.4625843 0.112689085
0003a0 1e d6 f6 bf 15 e0 e3 bf 2e c3 9f bf 97 b1 c8 be
       -1.9284093 -1.780276 -1.2481439 -0.3919799
0003b0 e1 45 95 bf 40 c4 4f 3f 63 3c 8e bf 3b 46 5a 3e
       -1.166195 0.8115883 -1.1112179 0.21315853
0003c0 fe e9 37 bc f4 b0 61 bf b7 95 4a bf c7 34 57 3e
       -0.011225222 -0.88160634 -0.79134697 0.21016227
0003d0 bb 0d 93 3e e4 dc bd 3f 4e a4 42 be 2b 95 c9 3f
       0.28721413 1.4833035 -0.1900799 1.5748647
0003e0 b2 56 c0 bf ba 7c 98 bf 81 a7 a0 bd 17 e1 23 bf
       -1.5026457 -1.1913064 -0.07844449 -0.64015335
0003f0 1f 4a 4b be 42 06 05 c0 a3 4b 1c be 16 ed 01 c0
       -0.19852494 -2.078507 -0.15263228 -2.0300956

input.bias f4 [64]
000000 d7 d8 c1 be be 93 50 bf 40 d7 84 3f 89 9e a0 bf
       -0.37860748 -0.81475437 1.0378189 -1.2548381
000010 06 d1 45 3f 4b 8f 43 3d bc 96 f6 be 1c 6f 63 3e
       0.7727207 0.047744077 -0.48161876 0.22210354
000020 a1 82 53 3f 76 da 8a bf 35 5f 0e be c3 3e 63 bf
       0.826212 -1.0847919 -0.13903506 -0.8876764
000030 50 a0 c2 be 1f bf 7d 3f 13 f3 72 bf cb a5 da 3e
       -0.38012934 0.9911975 -0.9490215 0.42704615
000040 6b 86 1b be 85 96 a9 3e f7 6f 89 bf af 07 c3 be
       -0.15187995 0.3312265 -1.0737294 -0.380918
000050 f5 e7 69 bf 08 29 9a 3e 4e c0 ee be 93 51 9b bf
       -0.91369563 0.3010943 -0.46631092 -1.213427
000060 60 df 51 bf 2d 56 00 be 01 3a 92 be 3f d6 61 bf
       -0.8198147 -0.12532873 -0.28559878 -0.8821754
000070 ff 1d 4f 3f 03 9f 93 3f ed 0b 06 bf 7b ff f9 be
       0.80905145 1.1532902 -0.5236195 -0.4882773
000080 09 b3 8a bf cc a4 8a bf cd 1c 8e 3e 27 4c 8e 3f
       -1.0835887 -1.0831542 0.27756348 1.111699
000090 18 de 90 3f 34 6a 5b 3e bb 92 b4 3e 81 c4 ac 3d
       1.1317778 0.21427232 0.35268196 0.08435918
0000a0 7a 4d 39 bf 51 e6 18 bf 54 78 3c bf 5a 9a 05 be
       -0.72383845 -0.59726435 -0.73621106 -0.13047162
0000b0 f4 6b 16 3f bb 28 3d bf d6 9e 03 be 95 81 38 bf
       0.58758473 -0.73890275 -0.1285356 -0.72072726
0000c0 94 db 21 bf b1 2f 81 3f 41 28 77 bf 7d 79 d8 be
       -0.63225675 1.0092679 -0.965458 -0.42280188
0000d0 97 46 55 3e 24 ba 4a bf 06 a9 4f bf 1f f1 85 3e
       0.20827709 -0.7919028 -0.81117284 0.26160523
0000e0 f0 85 05 3e 05 1a c1 3e b4 ea 75 bf 6b a7 a2 be
       0.13039374 0.37715164 -0.96061254 -0.31768355
0000f0 91 e3 5b be 18 83 11 3f 13 23 bd be e2 6d 82 bf
       -0.21473528 0.5684066 -0.36940822 -1.0189784

h1.weight f4 [64, 64]
000000 0d de 58 be a6 96 66 be ec e2 11 3e f0 62 5a 3e
       -0.21178456 -0.22518405 0.1424672 0.21326804
000010 cd fb 12 be 17 62 ec 3d 7b d4 23 3e 16 d6 a0 bb
       -0.14353867 0.11542147 0.15999024 -0.0049083335
000020 12 f4 16 3e d8 db e3 3c 15 a3 df bd 98 fe dd 3d
       0.14741543 0.02781479 -0.10919777 0.108395755
000030 e5 79 79 3d 66 d9 ef 3d 7a 38 8e 3e 9c 6c 5b 3e
       0.060907263 0.11711387 0.27777463 0.2142815
000040 20 ec 5a 3e 45 cb a9 3d b5 4e 8c bb 49 fb 14 be
       0.21379137 0.08290724 -0.0042818435 -0.14548983
000050 3c 5e 7f be f9 3e 83 3e 52 03 57 3e 48 39 08 be
       -0.24938291 0.25633982 0.2099736 -0.13303101
000060 81 f1 72 3e cd f5 86 be 0f be 7c be 40 00 12 be
       0.23724939 -0.26359406 -0.24681877 -0.14257908
000070 db 2c dd bd 83 05 f8 bd 80 f1 1e 3e 9e b5 00 3d
       -0.10799571 -0.12110426 0.15521812 0.031423204
000080 e8 c0 c3 bd 27 7a 7c bd d5 8b 96 bd 78 77 91 be
       -0.09558278 -0.06163993 -0.073508896 -0.2841146
000090 33 9d 7b 3d a8 27 54 bd 09 c2 40 3e 98 67 28 be
       0.061429214 -0.05179563 0.18824019 -0.16445768
0000a0 31 0b e8 bc 92 88 dc 3d 5a 69 7b 3e 6c 5f 3d 3d
       -0.028325649 0.10768236 0.24551907 0.04623358
0000b0 31 ff eb bd 9c a8 d3 3d db f0 88 3e e0 ef 53 3e
       -0.11523283 0.10334894 0.26746258 0.20696974
0000c0 67 29 2e be 86 e0 83 be 92 1a 6d 3e 5d 86 94 3e
       -0.17007981 -0.25757235 0.23154667 0.2900876
0000d0 9c a4 04 be cb ed 5f be 7f 49 49 3d c6 db 85 3e
       -0.12953418 -0.21868055 0.049142357 0.26144236
0000e0 d7 04 5c be 08 60 7c 3e fd a6 96 3d d4 c8 6f 3d
       -0.21486221 0.24646008 0.07356069 0.058541134
0000f0 22 2f d9 bd 89 42 88 be 8b f5 90 3e 2d 7c 73 3e
       -0.10604693 -0.26613262 0.28312334 0.23777838
000100 3c 6b a5 be 66 a2 ed 3e 5b 2a 2d bf 23 7c 43 3f
       -0.32308376 0.46412963 -0.67642754 0.7636129
000110 b3 6c ee be 1d b6 c3 3e fb 2b b8 be 7a ec e8 be
       -0.46567306 0.3822488 -0.35971054 -0.45492917
000120 2d a6 1d bf d5 14 8a 3e f7 17 91 be e6 13 42 3f
       -0.6158169 0.2696902 -0.28338596 0.7581161
000130 9e bb 19 bf a6 20 43 bf 58 cf 07 3f b8 24 41 3f
       -0.60051906 -0.7622169 0.53050756 0.75446653
000140 ba da bc 3e 26 ab e2 3e 3b 00 1f 3f 04 e7 00 bf
       0.36885625 0.442712 0.62109727 -0.503525
000150 83 1d c4 3e 97 47 33 bf 2a f8 a8 be 58 8d dc 3e
       0.38303766 -0.7003111 -0.33001834 0.43076587
000160 6f dc 4a bf 3b 7a 19 3f 65 ea 8e be 88 03 51 3f
       -0.79242605 0.59952134 -0.27913204 0.81646013
000170 bc 1c 3d bf 06 72 37 bf a1 53 42 3f 9f 43 ed be
       -0.7387197 -0.7165836 0.7590886 -0.46340653
000180 40 da 8e 3e 6f 78 3c 3f da 0c 43 bf be 2a 9c be
       0.27900887 0.7362127 -0.76191485 -0.3050136
000190 c6 eb b4 be a7 c9 4a bf d8 2e f9 3e da ce 3d 3f
       -0.3533613 -0.7921395 0.4866855 0.74143755
0001a0 28 61 2b 3f 35 bd 25 3f b3 c3 ff 3e e4 33 bd be
       0.66945124 0.6474183 0.49953994 -0.36953652
0001b0 fa 1c 27 bf 73 ff 0b 3f a9 7b a6 be 97 27 05 bf
       -0.6527859 0.5468666 -0.3251622 -0.52013534
0001c0 4b d9 0c 3f 55 85 0b bf ed 62 35 3f 9a 33 8c be
       0.5501906 -0.54500324 0.70854074 -0.2738312
0001d0 7d 4e dc be 4e ab 88 3e 2c 02 19 3f fc 4f 0b 3f
       -0.43028632 0.26693195 0.5976894 0.5441892
0001e0 1f 1f d2 be 15 18 b1 3e ca 5a 82 3e 3e e8 15 3f
       -0.4103937 0.34588686 0.25459892 0.585575
0001f0 a5 6e 1e 3f 6f b2 28 bf fd 29 2d 3f 45 a1 c8 3e
       0.6188758 -0.6589727 0.67642194 0.3918554
000200 bc 07 01 3f bb f7 95 be 33 99 56 bf a4 7c 0f 3f
       0.50402427 -0.29290566 -0.83827513 0.5604956
000210 7d 35 ca be eb 33 22 3f 16 86 0b bf 86 3f df be
       -0.39493933 0.6336047 -0.54501474 -0.43603152
000220 7a 96 15 bf 01 90 2c 3f 9c c4 0b bf 96 b2 4d 3f
       -0.58432734 0.6740723 -0.5459688 0.80350626
000230 62 4e ca be e6 d6 32 bf 3f a3 e9 3e 59 99 a4 be
       -0.39512926 -0.6985916 0.4563236 -0.32148245
000240 e2 5b 33 3f bb d4 4a 3f 37 2e 94 3e 94 ee d1 be
       0.7006208 0.7923085 0.2894151 -0.41002333
000250 77 c6 83 3e 24 bf a2 be 6a 61 13 bf 43 47 53 3f
       0.25737354 -0.31786454 -0.5757052 0.8253061
000260 3d 94 e1 be 43 e6 30 3f 62 2b 46 bf 03 37 55 3f
       -0.4405841 0.6910135 -0.77409947 0.83287066
000270 87 81 78 be 75 a2 ee be da 5a b1 3e 95 03 34 bf
       -0.24268161 -0.4660832 0.34639627 -0.70317966
000280 94 07 1e 3f 7a 87 47 3f ce 1e 91 3e 86 17 09 bf
       0.61730313 0.77941096 0.28343815 -0.5355152
000290 32 2c 1f bf cd 44 00 bf 3d 35 26 3f a6 01 4e 3f
       -0.6217681 -0.5010498 0.64924985 0.80471265
0002a0 69 28 38 3f eb d3 55 3f d6 81 85 3e 84 fa 31 bf
       0.7193666 0.83526486 0.2607562 -0.6952288
0002b0 d6 1c 8c be 35 27 d9 be 7b 8d ae be 01 ea 1c bf
       -0.2736575 -0.42412725 -0.34092316 -0.6129456
0002c0 6e be 22 3f 7c 46 04 bf 43 73 d2 3e d9 49 3c bf
       0.6357182 -0.5167005 0.41103563 -0.7355018
0002d0 e4 97 f3 be 86 e9 3b 3f a7 c7 02 3f e5 ae 07 3f
       -0.4757682 0.73403203 0.51085895 0.5300124
0002e0 7f 3d d9 be 34 5f 25 3f 81 94 b2 3e be 96 bd 3e
       -0.4242973 0.64598393 0.34878924 0.3702907
0002f0 c2 21 45 3f 8d 28 3f bf 26 f5 dc 3e 2b ed d8 be
       0.77004635 -0.7467125 0.43155783 -0.42368445
000300 43 55 b1 3d 4b 2a 04 3e fe 53 39 be 51 7e b5 bd
       0.086588405 0.12906758 -0.18098447 -0.088619836
000310 23 3b 9c 3e 12 ce 63 bd 8b 2b 70 3e 94 24 df 3e
       0.30513868 -0.055616446 0.2345411 0.43582594
000320 fe 80 5c be 46 3d 08 be 54 66 e3 3e 31 a3 93 bd
       -0.21533582 -0.13304624 0.44414008 -0.07208861
000330 d3 cc ac 3e 95 75 bc be 89 7c c4 3b 3e 9a 30 bf
       0.33750018 -0.36808458 0.005996291 -0.68985355
000340 97 1c 10 bf 31 2f e9 be 9f 5a 69 3e 35 f1 2c 3f
       -0.56293625 -0.45543817 0.22788475 0.6755555
000350 5e b8 24 bd de 01 dc 3e ef 3e 94 3e 8f fe a7 3d
       -0.04021489 0.42970175 0.28954265 0.0820285
000360 13 fb 33 3f 65 ac c4 3d 36 55 2e 3f 0c d0 66 3e
       0.70304984 0.09603194 0.6809877 0.22540301
000370 f2 62 b3 3d a7 66 7e bd dd 4a ba 3c 9b 84 ab bd
       0.08759107 -0.062109616 0.022740776 -0.08374902
000380 0f df 30 be 85 97 c3 3c b0 7e bd 3e b0 46 89 3e
       -0.1727259 0.023875961 0.37010717 0.26811743
000390 23 22 90 3e d9 8b ab bb 69 f2 9e bd 5d 0d 89 be
       0.28151044 -0.005235177 -0.0776108 -0.26768008
0003a0 a7 f9 ad 3d 8e 57 c2 bd f4 d9 26 be d4 7b c6 3c
       0.08494883 -0.09489356 -0.1629408 0.024228968
0003b0 56 2a c0 3e 01 ed e9 3d 92 11 c0 bc 00 32 f9 3e
       0.375323 0.11422158 -0.023445878 0.4867096
0003c0 fe b3 1a be 7a d0 5b be 6f 28 cb 3d c9 a9 83 3e
       -0.15107724 -0.21466246 0.099198215 0.25715473
0003d0 47 b1 e4 3e 1f 00 ee bd 2d 17 1b be 63 18 85 bd
       0.44666502 -0.11621117 -0.1514556 -0.06498792
0003e0 2b 88 24 3d f2 c1 99 be 6c b0 51 be 9c 15 d2 be
       0.040168922 -0.3003078 -0.20477456 -0.41032112
0003f0 21 8b e1 bd 19 9a cc 3d 3d 2a b9 bc 04 23 ba 3b
       -0.11012865 0.09990329 -0.022603149 0.0056804437

h1.bias f4 [64]
000000 3d 59 25 bd 2d d1 0a bf d7 ee ec be f0 45 94 3d
       -0.040368307 -0.54225427 -0.4627597 0.07239902
000010 3d 9a 0a bf 4f 90 00 bf d8 83 5f 3e 59 85 5b 3f
       -0.541416 -0.502202 0.21827638 0.8575035
000020 8b b7 1c bf da d7 ff be b7 4c 43 3f 8a 87 5c bd
       -0.61217564 -0.4996937 0.7628893 -0.053840198
000030 01 d7 48 3f 2d d4 1c bf 7a 45 44 3d bd ac fa be
       0.7845307 -0.61261255 0.04791782 -0.48959914
000040 e9 53 f3 be d2 fb c8 bd ed 96 f7 be 20 ac d6 be
       -0.47524956 -0.09813656 -0.48357335 -0.41928196
000050 5f 25 0e bf c4 18 12 bf a2 57 f9 be af 04 1f bf
       -0.55525774 -0.5706904 -0.4869967 -0.6211652
000060 7b b1 b1 bd 5b 45 70 3f a5 03 24 bf 81 8e 3d 3f
       -0.0867643 0.9385583 -0.6406806 0.7404557
000070 cf 62 16 bf 36 08 04 3f 1e c8 6a 3f c9 a7 f1 be
       -0.5874452 0.5157503 0.91711605 -0.47198322
000080 2d 38 a1 3e 52 c6 b0 3e f3 d1 22 3d 87 70 5e 3d
       0.3148817 0.34526306 0.039751004 0.054306533
000090 3b 84 da be 02 db 02 bf e2 cc 56 3f 32 51 72 3f
       -0.4267901 -0.5111543 0.83906376 0.94655144
0000a0 8c 6b ef be 7d 4c 53 3f c7 60 54 3f da cc 24 3c
       -0.4676174 0.82538587 0.8296017 0.010058606
0000b0 6d 9f 1b bf ce ac 61 3f 80 8c a1 3c 8c 68 06 bf
       -0.6079014 0.88154304 0.019720316 -0.52503276
0000c0 44 65 fc be 4e 56 5e 3f 3c b8 17 bf 70 b8 1b bf
       -0.4929601 0.8685044 -0.59265494 -0.60828304
0000d0 2f 36 1f bf d9 e7 20 bf b4 cf d4 3e ba 7f 40 3f
       -0.6219205 -0.6285377 0.41564715 0.75194895
0000e0 26 b1 e8 be 5e 22 06 bf 2e 7f 48 3f 92 30 1f bf
       -0.45447654 -0.5239619 0.7831906 -0.6218349
0000f0 68 7c ea be c3 e1 04 bf ca bc 92 3f 6a ba 91 bd
       -0.4579804 -0.51906985 1.1463864 -0.07115634

h2.weight f4 [64, 64]
000000 3c cf 4a bc d8 88 7e be f8 ea d0 be 11 35 45 bf
       -0.01237851 -0.24856889 -0.40804267 -0.770341
000010 10 f1 94 be d3 5c 0e bf c2 9b 34 bf 0c a3 af be
       -0.29090166 -0.5561039 -0.7055017 -0.34304082
000020 48 44 dc be 24 a9 ae be 4f dc 8e be 34 c0 08 3e
       -0.43020844 -0.3411342 -0.27902457 0.1335457
000030 f2 31 18 bf 5a f9 13 bf 73 fe 97 3e 0f 14 84 be
       -0.5945121 -0.57802355 0.29686317 -0.25796553
000040 34 38 02 bf 2c 8d fa 3d af 3c 48 bf 8d 3a b0 bc
       -0.5086701 0.12233958 -0.78217596 -0.021512294
000050 48 69 2d bf 63 f7 c2 be c1 59 e2 be c4 68 16 bf
       -0.6773877 -0.38079366 -0.44209102 -0.5875361
000060 62 cf 83 3e a0 29 56 bf 0e 81 a6 be 8a 64 8e be
       0.25744158 -0.83657265 -0.32520336 -0.2781108
000070 96 b1 c3 be dc 53 55 bf 36 ff 24 bf 4f e9 3e bf
       -0.38221425 -0.83331084 -0.6445192 -0.7457475
000080 4d 22 3b bf 44 62 05 bf c4 aa f1 bd eb eb 92 be
       -0.73099214 -0.52103066 -0.11800149 -0.28695616
000090 da 5c 76 be 89 15 1e bf 78 8f 0b bf b5 36 a5 be
       -0.24058858 -0.6175161 -0.5451579 -0.322683
0000a0 7d 40 55 bf 57 6b 4e bf e4 ed a9 be 33 39 9d be
       -0.83301526 -0.8063254 -0.3318931 -0.30707702
0000b0 a7 71 d2 be 91 4e 0d bf e2 ca ff bd f9 76 4e bf
       -0.41102335 -0.5519801 -0.12489869 -0.8065029
0000c0 a2 5f c9 be 58 6f 86 be 57 b9 12 bf c4 5b 3b bd
       -0.39330775 -0.26256824 -0.57314056 -0.04574181
0000d0 66 a2 ea be 48 30 26 bf 3a 49 c9 be 0f e1 97 be
       -0.45827025 -0.6491742 -0.3931368 -0.29663894
0000e0 40 53 ba be 9e 4b 04 bf 0a 62 58 bf e5 cd 1e bf
       -0.3639164 -0.5167788 -0.84524596 -0.6203292
0000f0 a5 b0 86 be a3 c4 bf be a8 0c 55 bf 20 47 35 be
       -0.26306644 -0.3745471 -0.83222437 -0.17702913
000100 56 ca 33 bd 11 d7 1d bf 8e 51 53 bf 69 25 b9 be
       -0.043894134 -0.6165629 -0.8254632 -0.36161354
000110 7e 36 44 bf e5 1f 8a be d1 4e fc be 5e f2 ad be
       -0.7664565 -0.2697746 -0.49278882 -0.33973974
000120 d3 24 8e be 5e ab d3 be d6 06 07 bf 62 50 5c 3e
       -0.2776247 -0.4134168 -0.52744806 0.21515039
000130 c4 cd 0e bf ea 2d f5 be d9 cc d8 3d df 93 f6 be
       -0.55782723 -0.47886592 0.105859466 -0.48159692
000140 ff 9b 2f bf 66 b3 31 be ed f2 29 bf 7f 3a 65 be
       -0.68597406 -0.17353591 -0.663863 -0.22385596
000150 d0 1e 4e bf 28 1d 75 be a8 49 4b bf 8b cc 26 bf
       -0.80515766 -0.23936903 -0.79409266 -0.6515586
000160 a8 6a 72 be 06 ee 80 be 97 6a 2e bf c9 cf 4e bf
       -0.23673499 -0.25181597 -0.68131393 -0.80785805
000170 ba 51 33 bf 53 93 be be 15 0d 74 be 9f b2 18 bf
       -0.7004658 -0.37221774 -0.23833115 -0.59647554
000180 e8 0b ed be 62 2f da be b2 b6 55 bd a2 3a 22 3e
       -0.46298146 -0.42614275 -0.052176185 0.15842679
000190 19 ee 13 bf 00 ed e7 be bd 66 46 bf a3 60 1c bf
       -0.57785183 -0.45298004 -0.77500516 -0.61084956
0001a0 7e 04 04 bf 4f 42 01 bf 6b 42 3d bf 13 35 1b bf
       -0.51569355 -0.50491804 -0.7392947 -0.6062786
0001b0 7e f3 33 bf fd 76 15 bf 3d a3 81 3d 02 a6 99 be
       -0.70293415 -0.58384687 0.06329963 -0.30009466
0001c0 f6 05 24 bf e3 eb 58 bf 0e 9d 56 bf 60 61 0a bf
       -0.64071596 -0.84734935 -0.83833396 -0.5405483
0001d0 90 49 0a bf 9c 44 1a bf 50 f3 37 bf 62 8e 00 bf
       -0.540185 -0.6026094 -0.7185564 -0.5021726
0001e0 ff 0f 26 bf b4 8b fc be 37 78 13 bf 8b 7f 34 bf
       -0.6486816 -0.49325335 -0.5760531 -0.70507115
0001f0 d9 d7 d4 be 16 70 32 bf 47 64 9d be 99 01 94 3e
       -0.4157093 -0.6970228 -0.30740568 0.2890747
000200 a2 36 83 be 6b b0 ca be 2d ab 35 bf 5a 95 31 bf
       -0.2562762 -0.3958772 -0.7096432 -0.6936852
000210 de 52 ba be 74 73 d5 be 8f f0 04 bf 5a 3c 3b bf
       -0.36391348 -0.41689646 -0.51929563 -0.73138964
000220 e0 80 1e bf 3e 08 bf 3e ab e1 1d bf 16 13 3e 3e
       -0.619154 0.37310976 -0.61672467 0.18561968
000230 28 09 57 bf 4f 62 0c bf 6a 7f 4c 3d 3b c3 d2 be
       -0.83998346 -0.54837507 0.0499262 -0.41164574
000240 74 7f a8 be 3b bd 8b 3d 58 92 55 bf 15 4a 18 bb
       -0.3290974 0.06823202 -0.8342643 -0.0023237516
000250 e5 cd e6 be fe 15 b9 be e4 4f a7 be 2b 18 e8 be
       -0.4507896 -0.3614959 -0.3267814 -0.4533094
000260 91 7f 7a 3e ef 93 b9 be e3 cd ce be fa 0b 29 bf
       0.24462725 -0.36245677 -0.40391454 -0.660339
000270 bb 3b 03 bf 3e 83 bf be ba 46 a2 be 8e c6 15 bf
       -0.51263016 -0.37404817 -0.31694585 -0.58506095
000280 48 f8 d2 be 1d 2d 8c be e4 9f e7 3d a1 2f 3e bd
       -0.4120505 -0.2737817 0.113097936 -0.04643214
000290 e9 fc 05 bf 3a 82 82 be fd 24 06 bf 46 bc eb be
       -0.52339035 -0.2548998 -0.5240019 -0.4604208
0002a0 7d 5b 58 bf 17 e2 48 bf 7c f7 4e bf 70 7f 4c bf
       -0.845146 -0.78469986 -0.8084638 -0.79881954
0002b0 ba d0 fa be ec cb 20 bf e6 79 6f 3e e6 fc 0e bf
       -0.4898737 -0.6281116 0.23386344 -0.5585464
0002c0 ce 6d b7 be 51 7b 0a bf 32 a8 7d be 82 24 40 3f
       -0.35825962 -0.54094416 -0.24771193 0.75055707
0002d0 f9 22 40 bf f3 3d b2 be 7b 2a 43 bf 52 2b 1e bf
       -0.75053364 -0.34812889 -0.76236695 -0.6178485
0002e0 7e c6 e8 be ce fd e5 be 0b ab 52 bf 9e b5 35 bf
       -0.45463938 -0.449202 -0.8229224 -0.7098025
0002f0 e7 c7 94 be f1 76 e7 be 84 7b 30 bf 9d b4 16 bd
       -0.29058763 -0.45207933 -0.6893847 -0.03679334
000300 d7 ba 2a 3e cc f2 d1 be e6 c1 73 be 00 d7 0b bf
       0.16672836 -0.41005552 -0.23804435 -0.5462494
000310 d1 a5 2e bf 77 d2 8b be f7 cc 4c bf d7 95 11 bf
       -0.68221766 -0.2730901 -0.8000025 -0.5686926
000320 2e 92 b5 be d4 3a 31 bf f9 cb 24 bf f0 8b 7a be
       -0.3546309 -0.6923039 -0.6437374 -0.24467444
000330 b1 4c 0d bf a1 0a 15 bf 85 9d 88 be 5d ca a9 be
       -0.55195147 -0.58219343 -0.26682678 -0.33162203
000340 c3 43 53 bf 9d ff 8b 3e 36 f6 97 be a1 5d 48 3e
       -0.8252527 0.27343455 -0.29680032 0.19566967
000350 06 ac 91 be 79 1f 06 bf 08 07 17 bf e5 cb 4a bf
       -0.28451556 -0.52391773 -0.58995104 -0.7921737
000360 39 42 f3 bd 1a 14 50 bf c8 91 d3 be ca cd 8e be
       -0.11877865 -0.8128067 -0.4132216 -0.2789138
000370 3e 7c ce be 15 91 45 bf 51 4c d5 be aa 08 9a be
       -0.40329164 -0.771745 -0.41659787 -0.30084735
000380 da 3f 4a bf f6 c6 3d bf 65 e2 93 be 4c b7 07 3d
       -0.7900368 -0.74131715 -0.28883663 0.03313379
000390 93 35 86 be de 82 03 bf bf dc 56 bf 58 66 02 bf
       -0.2621275 -0.5137156 -0.8393058 -0.50937414
0003a0 20 1b 25 bf 54 a3 44 bf eb 6e 04 bf 0e d6 05 bf
       -0.64494514 -0.7681172 -0.5173175 -0.52279747
0003b0 01 d9 82 be d9 b3 51 bf 80 3f 67 3e 3c 27 0d bf
       -0.25556186 -0.8191505 0.22582817 -0.5513799
0003c0 82 05 00 bf e2 4e 1b bf d3 1d 12 bf 4c 1d 3d be
       -0.50008404 -0.6066724 -0.5707676 -0.18468207
0003d0 a7 f9 aa be 16 9b 4f bf 6d 35 2a bf 3c f9 22 bf
       -0.33393595 -0.8109602 -0.6648777 -0.6366155
0003e0 0d c0 e3 be 2b 88 07 bf 68 30 a8 be c2 77 91 be
       -0.4448246 -0.5294215 -0.3284943 -0.2841168
0003f0 7b e0 00 bf ea 99 80 be 01 4d e7 be a7 51 8c bd
       -0.5034253 -0.25117427 -0.45175937 -0.068515114

h2.bias f4 [64]
000000 f7 c3 f4 be 29 19 17 bf a3 3e 03 bf fa 84 19 bf
       -0.4780576 -0.59022766 -0.5126745 -0.5996853
000010 66 72 1c bf d9 45 35 3f c0 d7 4e bd 38 06 ed be
       -0.6111206 0.70809704 -0.050498724 -0.46293807
000020 1a e9 21 bf ab ee 17 bf 29 4f 1f bf 94 11 26 3f
       -0.6324631 -0.59348553 -0.62230164 0.6487057
000030 71 ee 10 bf c4 1c 1e bf 59 87 e5 be 1c c7 84 3e
       -0.5661383 -0.6176264 -0.44829825 0.25933158
000040 b1 51 12 bf 25 01 26 3f ca 29 ee be 24 a2 ee be
       -0.571559 0.64845496 -0.46516258 -0.46608078
000050 c2 ae 1b bf 8e 54 17 bf 36 8c d5 be 0a cf 4e 3d
       -0.60813534 -0.59113395 -0.41708535 0.050490417
000060 c3 e1 14 3f 9e cc 16 bf 3b c1 0a bf 68 f6 22 bf
       0.58156985 -0.5890597 -0.54201096 -0.63657236
000070 4e f5 ba 3e 1c b5 1f bf 19 db ab 3e d0 78 27 3f
       0.36515278 -0.62385726 0.33565596 0.6541872
000080 d1 35 e5 be c8 97 34 3f b2 9b 00 bf 9c 6b 24 bf
       -0.4476762 0.705441 -0.5023757 -0.642267
000090 4c 50 43 be d0 3a 66 bd 5d a7 01 3f dd c5 32 3f
       -0.190736 -0.05620843 0.50646 0.69833165
0000a0 14 5f 07 bf 9d 4e e1 3e 96 c1 1d bf 32 f5 b2 be
       -0.5287945 0.4400529 -0.61623514 -0.34952694
0000b0 59 1c 0d bd 6d b1 01 bf 6c 50 e4 be 74 9f 24 be
       -0.034450863 -0.50661355 -0.44592607 -0.16076452
0000c0 c2 fd 3b 3f a4 5c 37 3f 95 a2 4b 3f 96 60 19 3f
       0.7343408 0.71625733 0.79544955 0.59913003
0000d0 53 00 06 3e b8 a3 01 bf 0d ef f0 be 6d 69 d1 3c
       0.13086061 -0.5064044 -0.4705738 0.025562966
0000e0 9d a6 36 3d 54 58 20 3f b3 aa 40 3f 9c 28 29 3f
       0.04459249 0.6263478 0.75260466 0.6607759
0000f0 93 bb f6 be e2 0c 17 bf 22 66 20 bf 56 81 0f bf
       -0.48189983 -0.5900403 -0.6265584 -0.56056726

h3.weight f4 [8, 64]
000000 a5 e7 4c bf dc 08 f4 be 5e b9 90 be 3a 5a e1 be
       -0.8004096 -0.4766301 -0.28266424 -0.4401415
000010 87 bc 55 bf 8c 55 40 bf cd da c7 bc 9b 6e b6 be
       -0.83490795 -0.75130534 -0.024396325 -0.3563126
000020 42 59 1c bf 98 24 f9 be a1 7f 1e bf f6 e3 8c be
       -0.61073697 -0.4866073 -0.61913496 -0.2751767
000030 5a 36 15 bf f6 69 94 be f5 fb 41 bf 84 4d 00 bf
       -0.5828606 -0.28987092 -0.7577508 -0.5011828
000040 85 85 01 bf 8f 41 57 bf 35 6c a1 be f0 0b 94 be
       -0.5059436 -0.8408441 -0.31527868 -0.28915358
000050 fd ca 28 bf 25 d3 4f bf b5 c8 10 bf 7f 96 e5 bd
       -0.65934736 -0.81181556 -0.56556255 -0.112103455
000060 b3 0f 6b 3e 7b d2 1b bf 93 df 1a bf d2 39 c1 be
       0.22955208 -0.6086804 -0.604974 -0.37739426
000070 ae 80 bb be 52 9f 27 3e 8f 28 eb be d5 22 e3 be
       -0.36621612 0.1636937 -0.4592938 -0.44362512
000080 ff de c4 be d4 70 8e 3e ea 03 37 bf 09 ee 26 bf
       -0.38451383 0.27820456 -0.7149035 -0.6520696
000090 03 9c cf be cb 74 c4 3d 74 19 1b bf 44 8b e0 be
       -0.40548715 0.09592589 -0.60585713 -0.4385625
0000a0 41 9f 08 bf 88 81 3a bd 62 16 b0 bd 81 13 20 bf
       -0.53368 -0.045533687 -0.08598019 -0.6252976
0000b0 1c da 2a bf de 91 58 bf cb d1 ec be e3 8a 1d 3d
       -0.6673906 -0.84597576 -0.4625381 0.03846253
0000c0 77 4c 49 bf 67 db 02 bf b5 3a 06 bd 0b 2b a0 3d
       -0.786323 -0.5111603 -0.03277083 0.0782071
0000d0 dd 2c 34 bf 49 99 11 be fc be 5d 3e 02 84 4b 3e
       -0.70380956 -0.1421863 0.21654886 0.19874576
0000e0 7e cd 9b be aa 92 2b 3e dd 08 b3 be 8d b5 a1 be
       -0.30430216 0.16755167 -0.349677 -0.31583825
0000f0 c8 73 fb be 2a ba 3e bf 7d ba 88 be 14 84 a5 3d
       -0.49111772 -0.74502814 -0.2670478 0.080818325
000100 dc 9d c5 be dc ab ef be 6f 42 32 bf 3e 9f ff be
       -0.38597 -0.46810806 -0.6963262 -0.4992618
000110 5d 5e bd be 9a fb eb be 12 78 e9 bd 76 f8 53 bf
       -0.36986056 -0.46090394 -0.11399855 -0.82800996
000120 10 e6 90 be 73 be f6 be aa 97 ba be 28 ad 24 bf
       -0.28300524 -0.48192176 -0.36443835 -0.64326715
000130 7b 91 1e bf 82 da 99 be 3c b3 2f bf 95 f3 03 bf
       -0.61940736 -0.3004952 -0.68632865 -0.5154355
000140 45 e2 4e bf 49 3d 26 bf 25 bc 15 bf bc 0d 1d bf
       -0.8081401 -0.64937264 -0.5849021 -0.6134908
000150 f3 b3 ac be b7 77 36 bf a9 cb f3 be 58 25 f1 bc
       -0.3373104 -0.7127642 -0.47616318 -0.029436752
000160 ad 2e 00 bf 84 e6 3a bf 3e 2c 9a be 9f 53 36 bf
       -0.5007122 -0.7300799 -0.3011188 -0.71221346
000170 df 58 d9 be 58 4c 7b be 02 2d ef be 77 e7 0a bf
       -0.42450616 -0.24540842 -0.46714026 -0.5425944
000180 72 44 1a bf c4 e6 33 bf ec bf 40 bf 81 06 51 bf
       -0.6026069 -0.70273995 -0.7529285 -0.8165055
000190 b2 a4 e1 be 1a fb ac 3a 26 1c a8 be da 5a 22 bf
       -0.44070965 0.0013197393 -0.32833976 -0.6341988
0001a0 01 b2 55 bf f8 a8 79 bd 71 76 82 be 04 34 02 bf
       -0.8347474 -0.060952157 -0.2548099 -0.5086062
0001b0 40 38 9c be 05 30 32 bf c1 29 09 bf b8 c3 4b bf
       -0.30511665 -0.6960452 -0.53579336 -0.7959552
0001c0 4f a8 cf be c8 aa 0d bf 3c fa 4c bf f6 37 50 bf
       -0.40558097 -0.55338717 -0.8006933 -0.8133539
0001d0 cf 2f b6 be a9 2d 12 bf cc 84 3f 3d 0e e2 99 3e
       -0.3558335 -0.5710092 0.046757504 0.3005528
0001e0 b6 94 46 3a b7 7f 0e 3d 2d fe 3a bf 89 09 55 bf
       0.000757526 0.034789767 -0.7304409 -0.83217674
0001f0 6f bb 48 bf 94 4a c2 be 14 d1 ac bc 72 0f b9 be
       -0.78411 -0.37947524 -0.02109579 -0.36144596
000200 db f6 b0 3c c7 84 24 3e 49 b4 11 be 4f d0 e9 bd
       0.021602085 0.16066276 -0.1422893 -0.11416685
000210 1f 4e b5 3d 07 c3 16 bf f7 a8 80 3e ad 8d 6f 3e
       0.08852791 -0.5889134 0.2512891 0.23393889
000220 69 98 46 bf 82 09 3b be d7 90 02 be 7f 27 e9 be
       -0.7757631 -0.18265346 -0.12750565 -0.45537946
000230 e6 40 a4 bd 44 dc fc bd 3d 47 00 bd 86 91 f2 be
       -0.08020191 -0.123467 -0.031317938 -0.4737665
000240 3f 39 8d be 74 81 0c bf cd c3 02 be 50 e7 dc 3d
       -0.27582738 -0.5488503 -0.12770005 0.10786307
000250 9e 9a 8b be 74 6c 3b 3e d5 4f e3 be 80 56 e1 3d
       -0.272664 0.1830309 -0.44396845 0.11002827
000260 d8 34 3d bf 07 8f 91 3e 64 15 7e be eb 9e f3 3d
       -0.7390876 0.28429434 -0.24812847 0.118955456
000270 ec 06 fb be 19 5d 53 be e6 22 12 bf 57 c8 37 bf
       -0.49028718 -0.20640983 -0.570845 -0.7179007
000280 7b d1 8b be e0 fe 51 be 05 5a 7a bd f3 4e aa 3d
       -0.27308258 -0.20507383 -0.061121006 0.083158396
000290 5e 59 be be a4 6c 95 be b3 ab 80 be 7b 44 de be
       -0.37177557 -0.2918445 -0.25130996 -0.4341162
0002a0 f4 f3 90 3e a4 53 65 be 38 4d 1b be 72 99 c1 be
       0.2831112 -0.22395188 -0.15166175 -0.37812382
0002b0 d8 fb 8f be c4 d0 b3 bd fe 91 6c be fe 09 a1 be
       -0.2812183 -0.08780053 -0.23102567 -0.31452936
0002c0 25 1d 0a bf fa 85 98 be e0 4a a3 be cc 19 96 be
       -0.5395072 -0.29789716 -0.31893063 -0.29316556
0002d0 2b fb 6a be 37 86 8e be 38 12 85 3e 44 6d cb 3d
       -0.22947375 -0.27836773 0.25990462 0.0993295
0002e0 de ed 29 3e b0 5c 44 bf 30 82 75 be a3 dd a8 be
       0.16594645 -0.7670393 -0.23975444 -0.32981595
0002f0 1e 1b c2 bd cd fb ca bd 04 5f cc bd 69 94 65 be
       -0.094778284 -0.099113084 -0.0997906 -0.22419895
000300 4e b5 31 bc 2e ed 44 3e 38 69 90 3e d3 44 f7 3d
       -0.010846449 0.19231102 0.28205276 0.12073674
000310 68 9d ed bc a7 38 36 3f 87 b4 33 be 40 61 88 3e
       -0.029005721 0.71180195 -0.17549334 0.26636696
000320 16 10 75 3e c7 11 58 be 91 0f d6 bd d3 97 6a 3f
       0.23931918 -0.21100532 -0.10452188 0.91637915
000330 d8 98 5d bd ba 49 17 be fa 5d 56 be 67 b8 9f 3e
       -0.05410084 -0.14774218 -0.20934287 0.31195375
000340 82 ed 33 3e d2 10 2a 3f c2 37 86 bd a1 17 9b 3c
       0.17571071 0.66431916 -0.06553604 0.018932166
000350 1c fa cf bc 80 08 1a 3c cf 16 09 3f 63 8f 4d bd
       -0.025387816 0.009401441 0.5355043 -0.050185572
000360 67 9d 4b 3f c2 62 33 be 5e 84 45 3e fc 47 65 be
       0.7953705 -0.17518142 0.19288775 -0.22390741
000370 50 e8 eb 3e 4d 05 27 3e 51 ba 8b 3e 8e a1 5a 3f
       0.46075678 0.16310616 0.27290586 0.8540276
000380 1d 3e 09 be ef 06 36 3f 14 30 9c 3e 8a a4 af 3d
       -0.134026 0.7110433 0.3050543 0.08576305
000390 50 98 29 3f 38 26 46 bd 65 5f 0e 3f f1 6d 56 3f
       0.66248035 -0.048376292 0.5561431 0.8376151
0003a0 5d f8 2a 3d 27 fe 2c 3f 14 76 65 be a8 d2 80 3e
       0.041740764 0.67575306 -0.22408324 0.25160718
0003b0 38 0c de 3e 2c dd 40 be 35 7b d4 3c 79 40 c6 3e
       0.43368697 -0.1883437 0.025937656 0.38721064
0003c0 79 b1 57 3f f7 21 0b 3f 84 f0 5b 3f f3 d4 77 3f
       0.84255177 0.543487 0.8591387 0.9680931
0003d0 92 ae b1 3e 1f bb 9c bd 96 c5 8e 3e 2b 4d 93 be
       0.347035 -0.07652878 0.2788512 -0.28769812
0003e0 62 d1 46 3e bb 12 87 3f 2f 63 46 3f 8a ff 44 3f
       0.1941581 1.0552591 0.7749509 0.7695242
0003f0 dc c2 5c 3e 55 4d f6 3d c1 31 a7 bd 9d df 86 be
       0.21558708 0.12026469 -0.08163787 -0.26342478

h3.bias f4 [8]
000000 34 7d 19 bf a3 6c fa be 93 c5 0b bf 39 14 db 3e
       -0.5995667 -0.48911008 -0.5459835 0.42788866
000010 c6 c3 f3 3e 39 da 0e bf c8 49 16 bf 74 81 ef be
       0.476103 -0.5580173 -0.5870633 -0.46778452
