weights/weights_LF=8_dense/w=0.38_2.pth (torch, 39820 bytes, 8 tensors)

input.weight f4 [64, 4]
0	0xbf933d3a	-1.150306
1	0xbfe04a9c	-1.7522769
2	0x3f3245df	0.69637865
3	0xbf00bafb	-0.5028531
4	0xc024d4d7	-2.5754907
5	0xbf1de9cd	-0.61684877
6	0xbff89dba	-1.9423134
7	0xbfb028de	-1.3762472
8	0x3fd13d75	1.634688
9	0x3ffbff1e	1.968723
10	0x406dc976	3.7154212
11	0x4021ff20	2.5311966
12	0x3fb090e0	1.3794212
13	0x3fa67829	1.300542
14	0x4088c94c	4.2745724
15	0x4034c7e7	2.824701
16	0x403293fe	2.7902827
17	0x3f803aae	1.0017908
18	0x4002d5e1	2.0443041
19	0x405ca071	3.4472926
20	0xbf0c2ae5	-0.5475295
21	0xbf1cdf07	-0.6127781
22	0xc01fdaf7	-2.4977396
23	0xc04b96f8	-3.1810894
24	0xbfaed4ac	-1.3658652
25	0xbf893957	-1.0720624
26	0xc06e5871	-3.724148
27	0xc0689b20	-3.634468
28	0xbfa842b5	-1.3145357
29	0xbf89dd66	-1.077069
30	0xbffdc309	-1.9825145
31	0x3d836bb9	0.06417031
32	0xbe491771	-0.19637848
33	0xbea1a438	-0.315706
34	0x3f8610fb	1.0473932
35	0xbeec0880	-0.46100235
36	0xbf0b578a	-0.5443045
37	0xbe450d20	-0.19243288
38	0x404722b5	3.1114933
39	0x40251512	2.579411
40	0x3fca4705	1.5802923
41	0x3fe84271	1.8145276
42	0x40810a70	4.032524
43	0x40224f34	2.5360842
44	0xbf7199b5	-0.94375163
45	0xbebc65af	-0.36796328
46	0x3f40345b	0.7507989
47	0x3f3a3524	0.72737336
48	0x40234e4c	2.5516539
49	0x401e7bc7	2.4763048
50	0x402f242e	2.7365832
51	0x402400d3	2.5625503
52	0xc00822f6	-2.1271338
53	0xbd7ebfcb	-0.062194627
54	0xbf3fde47	-0.74948543
55	0xc05569d9	-3.3345854
56	0xbf85426b	-1.0410894
57	0xbf054b2e	-0.5206784
58	0x4012ef0c	2.2958403
59	0x3f711bf4	0.9418328
60	0x4000610d	2.0059235
61	0x3f33cab4	0.70231175
62	0x401817a9	2.376444
63	0x4070d0b0	3.7627373
64	0x4000443b	2.0041645
65	0x40014e61	2.0204089
66	0x3ff1ebec	1.8900123
67	0x403bb547	2.9329393
68	0x3fb8b26f	1.4429454
69	0x3e8c5254	0.2740656
70	0x406e396d	3.722255
71	0x40329bd4	2.790761
72	0x403c0ed9	2.9384062
73	0x3fce8eec	1.6137366
74	0x402cd479	2.7004683
75	0x400c8b7e	2.196014
76	0x401113d6	2.2668357
77	0x3fb4a57b	1.4113001
78	0x4057f54c	3.3743467
79	0x403d8193	2.9610336
80	0x3f2e12c4	0.67997384
81	0x3f7c84b8	0.9864001
82	0x40621988	3.5328083
83	0x3fa8dcbc	1.3192363
84	0x3f9adb35	1.2098147
85	0x3ff7fb9b	1.9373659
86	0x4059f362	3.40548
87	0x3fdb42fb	1.7129816
88	0xc0220b38	-2.5319347
89	0xc019b551	-2.4016917
90	0xc04d701d	-3.2099679
91	0xc0406a6d	-3.0064957
92	0x3f866efd	1.0502621
93	0x3ea93f1a	0.33055955
94	0x3fafd3f9	1.3736564
95	0x3d9b51c2	0.075839534
96	0x400a420f	2.160282
97	0x3fc89777	1.5671223
98	0x403e7693	2.9759872
99	0x406cc06f	3.6992452
100	0xbff6dcc3	-1.9286121
101	0xc03861d0	-2.88097
102	0xc0382cde	-2.8777385
103	0xc01a96c2	-2.4154515
104	0xbfc11108	-1.5083323
105	0xbfd007ac	-1.6252341
106	0xc043f192	-3.0616193
107	0xc04098ae	-3.0093188
108	0xbe98fbc8	-0.29879594
109	0xbf6a34ac	-0.9148662
110	0xc07023d5	-3.752187
111	0xc016d5ab	-2.3567913
112	0x3f6a3c02	0.91497815
113	0x3fa749f0	1.3069439
114	0x407b22c8	3.9239979
115	0x401aeeee	2.420833
116	0xbfe98061	-1.8242303
117	0xbfb534b4	-1.4156709
118	0xbfc8f04a	-1.569833
119	0xbe63a847	-0.22232161
120	0x3fec4b3d	1.8460461
121	0x3f965a0a	1.1746228
122	0x3f45349f	0.7703342
123	0x3dfb4b63	0.12270238
124	0x4005be82	2.0897527
125	0x40254377	2.5822427
126	0x4081d230	4.0569077
127	0x3fd7a8ae	1.6848352
128	0xc02f0ee4	-2.7352839
129	0xbfab8d02	-1.3402407
130	0xc062c8c4	-3.5435038
131	0xbff5f7d2	-1.9216254
132	0x4037e29a	2.8732057
133	0x4014ac81	2.3230288
134	0x401e0a4d	2.4693787
135	0x402b2e66	2.674707
136	0x3fa865d7	1.3156079
137	0x402bf449	2.686785
138	0x403890ca	2.8838372
139	0x402375b5	2.5540593
140	0x3e734ca1	0.237597
141	0x3fc63593	1.54851
142	0x40281fca	2.6269403
143	0x40568e2c	3.3524275
144	0x3fe0dcd5	1.7567393
145	0x3fee1414	1.8599877
146	0x4070e0c8	3.7637196
147	0x402e9097	2.727575
148	0x4044d32f	3.0753896
149	0x3faf216f	1.3682078
150	0x4025eb49	2.5924857
151	0x405578fc	3.3355093
152	0x3fd286ec	1.6447425
153	0x3fe6f16c	1.8042426
154	0x40828750	4.0790176
155	0x3ff0f1e9	1.8823825
156	0xc05f13f5	-3.485593
157	0xbfd5c4b2	-1.6700652
158	0xc011a992	-2.2759748
159	0xc064d401	-3.5754397
160	0x4042a0bc	3.0410604
161	0x3fb3358d	1.4000717
162	0x40499bca	3.1501336
163	0x40589ea7	3.3846834
164	0x401430df	2.3154829
165	0x3fcc7f78	1.59764
166	0x405ea74e	3.4789615
167	0x4033bef0	2.808529
168	0xc032a5e5	-2.7913754
169	0xbfc9788d	-1.5739914
170	0xc04f7459	-3.2414763
171	0xc0434c92	-3.0515485
172	0xc01ef973	-2.4839752
173	0xbfb2e392	-1.3975699
174	0xbeede0d8	-0.46460605
175	0xbfc1628b	-1.5108198
176	0x3fbeec0c	1.4915786
177	0x3fb46aec	1.409513
178	0x4058e91e	3.3892283
179	0x403fbec4	2.9960184
180	0x403e9b4a	2.978228
181	0x3fb358ba	1.4011452
182	0x3fe2551f	1.7682227
183	0x3fed9f8e	1.8564317
184	0xc02ab918	-2.6675472
185	0xbf28fef7	-0.66014045
186	0xc0155247	-2.3331468
187	0xc0338f25	-2.8056118
188	0x4013125d	2.2979958
189	0x3fc1d3b9	1.5142738
190	0x4054608b	3.3183925
191	0x404c46ae	3.191814
192	0xbf5b1bd1	-0.8558932
193	0x3d96ceae	0.0736364
194	0xbed148c1	-0.4087582
195	0xc00167d5	-2.0219624
196	0xbf8359aa	-1.0261738
197	0xbf681a30	-0.9066496
198	0xc023037f	-2.5470884
199	0xbf4944aa	-0.786204
200	0xc0020e75	-2.0321324
201	0xc0067869	-2.1010993
202	0xc05dca7f	-3.4654844
203	0xc0326dc2	-2.787949
204	0x40203012	2.502934
205	0x3e8370ce	0.25672
206	0x4080fefe	4.031127
207	0x401977dc	2.3979406
208	0xbf836e4c	-1.0268035
209	0xbebc70d8	-0.36804843
210	0xc026788d	-2.6011078
211	0xc00022e7	-2.0021303
212	0x401ec9d9	2.4810698
213	0x3d0cc833	0.034370612
214	0x3fdabd7a	1.7089074
215	0x403a6c55	2.912862
216	0x404f44f8	3.2385845
217	0x400645d4	2.098012
218	0x404fa064	3.2441645
219	0x402375f7	2.554075
220	0xbfd57d5e	-1.6678884
221	0xbf5ebacd	-0.87003785
222	0x3fed5a17	1.8543118
223	0x3e355feb	0.17712371
224	0x3f536815	0.8258069
225	0xbf0b3be4	-0.5438826
226	0x40006c67	2.0066164
227	0x3ff2ff37	1.8984135
228	0x405809a6	3.375589
229	0x3f7c9aa3	0.98673457
230	0x40470fa3	3.1103294
231	0x404bf887	3.187044
232	0x3e9da591	0.3079038
233	0x3fd7a7ab	1.6848043
234	0xc03c12aa	-2.9386392
235	0xc00382be	-2.0548549
236	0xc00abecc	-2.1678953
237	0xc000a1a1	-2.009865
238	0xc04519bc	-3.0796957
239	0xc02233a5	-2.5344021
240	0x3f9e3b38	1.2361822
241	0x3f690b08	0.9103246
242	0xbfbf60fe	-1.4951475
243	0xbedb58ea	-0.42841274
244	0x403be0af	2.9355886
245	0x3f77e8af	0.9683942
246	0x40490569	3.1409552
247	0x405adefe	3.4198604
248	0xbe4b6254	-0.19861728
249	0x3cc42d72	0.023947451
250	0x3f6018e6	0.8753799
251	0x3f93e358	1.1553755
252	0xc01918c2	-2.392136
253	0xbfb99a76	-1.4500263
254	0xc070f20e	-3.7647738
255	0xbfd66f70	-1.6752758

input.bias f4 [64]
0	0xbd652129	-0.055939827
1	0xbfcf7aec	-1.6209388
2	0x40345316	2.8175712
3	0x402b5f5a	2.6776948
4	0x402bf11a	2.6865907
5	0xc015eb7f	-2.3424985
6	0xc02052da	-2.5050569
7	0xbf8706e2	-1.0548975
8	0x3ebfe742	0.37481123
9	0x3fddfd45	1.7342917
10	0x40266327	2.5998018
11	0x3f223e9c	0.63376784
12	0x402e9e9f	2.7284315
13	0xbfd906b9	-1.6955177
14	0x3fb5ca64	1.420239
15	0x402943ca	2.6447625
16	0x40111d00	2.267395
17	0x3ff9e359	1.9522506
18	0x40210e02	2.51648
19	0x400b3f4e	2.1757388
20	0x400cba59	2.1988738
21	0x401f7310	2.4913979
22	0xc02544b0	-2.5823174
23	0x3f022533	0.5083801
24	0x4034a058	2.8222866
25	0xc038687f	-2.881378
26	0xc02fbd7e	-2.7459407
27	0xc00e4810	-2.2231483
28	0x40130d6d	2.2976944
29	0xbfc0f300	-1.5074158
30	0x3f526b91	0.82195383
31	0x4030da83	2.763337
32	0xc01fd621	-2.4974444
33	0x40329ee4	2.790948
34	0x4029b216	2.6514945
35	0x4004ee7e	2.0770564
36	0x4038ac78	2.8855267
37	0x402f3856	2.7378135
38	0x40323abf	2.7848356
39	0xc024b6d8	-2.57366
40	0x400c2b43	2.1901405
41	0x401f9df4	2.4940157
42	0xc01975be	-2.3978114
43	0xbf97bbb5	-1.1854159
44	0x402b5a67	2.6773927
45	0x4005f893	2.0932968
46	0xc025d221	-2.5909503
47	0x4015b7df	2.3393476
48	0xbf65292a	-0.89515936
49	0xbfd8ef4b	-1.6948026
50	0xc00fea87	-2.2486894
51	0x40166d7a	2.350432
52	0xc016f050	-2.3584175
53	0x401097b0	2.2592583
54	0x402a5812	2.6616254
55	0x3fc3f1ff	1.5308226
56	0x3fa3fc35	1.2811342
57	0x401dc411	2.465092
58	0xbfad5f5c	-1.3544726
59	0xc03981b7	-2.8985422
60	0xbf13b1b6	-0.5769304
61	0x401ad37d	2.4191582
62	0x3f1b2410	0.606019
63	0xc017f514	-2.3743334

h1.weight f4 [64, 64]
0	0x3f7d4b00	0.98942566
1	0x3f8bb8d9	1.0915786
2	0xbe83d130	-0.25745535
3	0xbe8dfca0	-0.277318
4	0xbfbe510d	-1.4868485
5	0x3e526c1e	0.20549056
6	0x3d40b58a	0.04704813
7	0x3f9d59e4	1.2293057
8	0x3fb8d407	1.4439706
9	0x3f044474	0.5166695
10	0xbf9fbf23	-1.2480205
11	0x3fa84bc0	1.3148117
12	0xbf04c15d	-0.5185755
13	0x3f765bdc	0.96233916
14	0xbea93982	-0.33051687
15	0xbf5b5332	-0.8567382
16	0xbe686d3e	-0.22697923
17	0x3f255732	0.64586174
18	0xbf5043f6	-0.813537
19	0xbe915c51	-0.28390744
20	0xbd612014	-0.054962233
21	0xbe8d7817	-0.27630684
22	0xbe8a25e9	-0.26982048
23	0xbcb2fc9c	-0.02184897
24	0xbf4c8c52	-0.7990161
25	0x3ed55cbc	0.41672313
26	0x3f05b09c	0.5222261
27	0xbd1f8afc	-0.038950905
28	0xbe5e2789	-0.21694769
29	0x3f53d9e9	0.8275438
30	0xbfc40a31	-1.531561
31	0xbe93f47e	-0.2889747
32	0xbe85594d	-0.26044694
33	0xbf2cbf64	-0.6747954
34	0xbd922f19	-0.071378894
35	0x3f3e530e	0.7434548
36	0xbf8314d4	-1.0240731
37	0xbfaa8fa8	-1.332509
38	0xbf34b924	-0.70595
39	0x3ec613a3	0.38686857
40	0x3e8ccf8d	0.275021
41	0xbfdc8b7d	-1.7230068
42	0xbc6f8e03	-0.014621261
43	0x3fc9277e	1.5715177
44	0xbf83a933	-1.028601
45	0xbf1c83a7	-0.61138386
46	0x3ef96c88	0.48715615
47	0xbe095c60	-0.13414145
48	0x3fb95a06	1.4480598
49	0x3ea86bfb	0.32894883
50	0xbf1fd249	-0.62430245
51	0x3d1d906c	0.03846781
52	0x3e8784bd	0.2646846
53	0xbf4bcbc4	-0.79607797
54	0xbf030644	-0.51181436
55	0xbf16a1fc	-0.5884092
56	0x3f867b49	1.0506374
57	0xbef460e3	-0.4773017
58	0xbfa5723b	-1.2925485
59	0x3f30f093	0.6911709
60	0xbfa2f40d	-1.2730728
61	0xbe0c7d8f	-0.13719772
62	0x3f80a448	1.0050135
63	0xbeb54333	-0.3540283
64	0xc01b9475	-2.430936
65	0xc05443bb	-3.316634
66	0x404e6304	3.2247934
67	0x402362d3	2.5529068
68	0x404422e7	3.0646303
69	0x40532813	3.299321
70	0xc0415173	-3.0205963
71	0xbf8a6f5f	-1.0815238
72	0xc04ae8d4	-3.1704607
73	0xc048e744	-3.1391153
74	0xc00e997f	-2.2281187
75	0xc04cab9f	-3.197975
76	0x405162ec	3.2716627
77	0xc0644d0f	-3.5672033
78	0xc04b6dbf	-3.1785734
79	0x404fb564	3.2454462
80	0x405cb134	3.4483156
81	0xc02663be	-2.5998378
82	0x405176b6	3.2728705
83	0x4052eeff	3.2958372
84	0x402a62d7	2.6622827
85	0x4005aa91	2.0885355
86	0x4044080a	3.0629907
87	0xc03696d3	-2.8529556
88	0xbfff6104	-1.9951482
89	0xc03c324a	-2.9405694
90	0xc04919df	-3.142204
91	0xc038fe38	-2.8905163
92	0x404917e7	3.142084
93	0xc03eee0c	-2.9832792
94	0x404167d0	3.0219612
95	0xc02ab12c	-2.6670637
96	0x3ede5121	0.4342127
97	0xc02cd5ca	-2.7005486
98	0x402ebe7c	2.7303762
99	0xc0598292	-3.3985944
100	0xc00561c9	-2.0840933
101	0x3ff14a67	1.8850831
102	0xbfe643ec	-1.7989478
103	0xc0601866	-3.5014892
104	0x405c1738	3.4389172
105	0xc0135e21	-2.3026202
106	0x3fa41ae3	1.2820705
107	0xc0467b2a	-3.1012673
108	0xbffca9f5	-1.9739367
109	0x4037287b	2.8618457
110	0xc05fce12	-3.4969525
111	0x401b87d1	2.4301646
112	0xc0347994	-2.8199205
113	0xc0324ca0	-2.7859268
114	0x4005a5f2	2.0882535
115	0xbf074a9b	-0.52848214
116	0x403ef9d0	2.9839973
117	0x40592f01	3.393494
118	0x40510ed2	3.2665296
119	0xc04fccae	-3.2468677
120	0xc034d2a1	-2.8253558
121	0x40477d23	3.1170127
122	0x402df57e	2.7181087
123	0xc03ff1dd	-2.9991372
124	0x4029118b	2.6416957
125	0x4040af05	3.0106823
126	0xc049f4c3	-3.155564
127	0x4041f39a	3.0304933
128	0x3e5dead7	0.21671616
129	0xbf9f9f1b	-1.247043
130	0x402e50b6	2.7236762
131	0x404b61d4	3.177846
132	0x401ebe51	2.480366
133	0xbf807e2d	-1.0038506
134	0xc04c865c	-3.1957006
135	0x3fd2af77	1.6459798
136	0xbfff3407	-1.9937752
137	0x3fe5dbcc	1.7957702
138	0xc006fc92	-2.1091657
139	0xbf9d026d	-1.2266365
140	0x40106f5a	2.2567964
141	0xc01cf639	-2.4525282
142	0xc011b3ca	-2.2765985
143	0x40234728	2.551218
144	0x4019ea48	2.4049244
145	0xbf51b20c	-0.819123
146	0x3ff0c4c8	1.8810053
147	0x402df197	2.7178705
148	0x400a6ef0	2.163021
149	0x3f890a30	1.0706234
150	0x400c324c	2.1905699
151	0xc044913b	-3.0713642
152	0x3f886b82	1.0657809
153	0xbfe54fcd	-1.7914978
154	0xc03386ae	-2.8050952
155	0xc03d4f44	-2.957963
156	0x40365b3f	2.8493192
157	0xbfd3cc07	-1.6546639
158	0x3feac4ff	1.8341368
159	0xc039f4c8	-2.9055653
160	0x40060b4b	2.0944393
161	0xc0612d56	-3.518392
162	0x3fc0109d	1.500507
163	0x40055d22	2.0838094
164	0xbf5ac8e9	-0.85462815
165	0x3fb59a8f	1.4187793
166	0xc01997e5	-2.399896
167	0xc01d5b28	-2.4586887
168	0x4020df91	2.5136454
169	0xc00d9e5c	-2.2127905
170	0x3fe4f8e4	1.7888455
171	0xbfbb7672	-1.4645522
172	0xc0184c2f	-2.3796499
173	0x3fbcde4d	1.4755341
174	0xc03e4a9a	-2.9733033
175	0x4003fbd0	2.0622444
176	0xbffc15ff	-1.9694213
177	0xbfba806d	-1.4570442
178	0x401fb00f	2.4951208
179	0xbf0fdbe9	-0.5619493
180	0x402ce82d	2.701671
181	0x403c5aca	2.9430413
182	0x3ff20f17	1.8910855
183	0xbfc80ff8	-1.5629873
184	0xbfc9221c	-1.5713534
185	0x40125841	2.2866366
186	0xbe41b678	-0.18917263
187	0xc0246393	-2.5685775
188	0x3da31c9b	0.079644404
189	0x400dfc4e	2.2185245
190	0xbfeda286	-1.8565223
191	0x403b75e5	2.9290707
192	0x3fa32919	1.2746917
193	0x3f18b3e0	0.5964947
194	0xbf2e294a	-0.6803175
195	0xbf435429	-0.76300293
196	0xbf38e549	-0.7222486
197	0x3eeb08f9	0.45905283
198	0x3f40f38b	0.7537162
199	0x3f933357	1.1500043
200	0x3f94115b	1.1567796
201	0x3f8eee8f	1.1166552
202	0xbf9df9d9	-1.2341872
203	0x3fca4276	1.5801532
204	0xbf2039e0	-0.6258831
205	0x3f77d445	0.9680827
206	0xbd5faad3	-0.05460627
207	0xbf945322	-1.158787
208	0xbf3dd0a7	-0.74146503
209	0x3f2f6846	0.68518484
210	0xbdfd9dea	-0.12383635
211	0xbde556b0	-0.11198175
212	0xbec9339d	-0.3929719
213	0xbf448d5d	-0.76778203
214	0xbe718c0a	-0.23588577
215	0x3ee42b49	0.44564274
216	0xbf6e0d19	-0.92988735
217	0x3f60f9d6	0.8788122
218	0x3f95e9c1	1.1711961
219	0x3e7165d8	0.23574007
220	0xbeb595f6	-0.35465974
221	0x3f18acf0	0.5963888
222	0xbf68730c	-0.9080055
223	0x3e40d638	0.18831718
224	0xbecf1070	-0.40442228
225	0xbf8928e1	-1.07156
226	0xbf918bdb	-1.1370806
227	0x3f5cf92c	0.86317706
228	0xbf2986ab	-0.6622111
229	0xbf72c4a2	-0.9483129
230	0xbee2f0df	-0.44324395
231	0x3e39a57c	0.18129534
232	0xbb9ca287	-0.004780117
233	0xbf781db2	-0.9692031
234	0xbe9b6b9f	-0.30355546
235	0x3f393e1e	0.7236041
236	0xbf7d8a74	-0.9903939
237	0xbec22a79	-0.3792303
238	0x3e7d4571	0.24733521
239	0x3dc1f1e1	0.09469963
240	0x3f85a8f2	1.0442183
241	0x3f0ec532	0.55769646
242	0xbf13b8ea	-0.5770403
243	0x3f0cedc4	0.550503
244	0x3ed766d2	0.42070633
245	0xbe676f50	-0.22601056
246	0xbebc4a82	-0.36775595
247	0xbe816aa8	-0.25276685
248	0x3fc8102e	1.5629938
249	0xbeb26abf	-0.34847066
250	0xbf9ca01f	-1.2236365
251	0x3f4f18d0	0.80897236
252	0xbe91195a	-0.28339654
253	0xbf0d587e	-0.55213153
254	0x3fc119a1	1.5085946
255	0xbf0df601	-0.554535

h1.bias f4 [64]
0	0xbd438d48	-0.04774216
1	0x40604251	3.5040476
2	0x4045d449	3.0910819
3	0xbe619ccb	-0.22032468
4	0xbce7cfa4	-0.028297253
5	0xbf6a3d3d	-0.9149969
6	0xbdc8d48f	-0.09806167
7	0xbc89df78	-0.016830191
8	0xbf7477fa	-0.9549557
9	0x3fdb76b9	1.7145606
10	0xbc1c8222	-0.00955251
11	0xbeacf992	-0.33784157
12	0xbde9bd6d	-0.11413083
13	0xbf4eca42	-0.8077737
14	0xbee79eb8	-0.4523828
15	0x3e85826b	0.26076064
16	0xbf0ff1a8	-0.56228113
17	0xbefcec20	-0.493989
18	0xbf5337b1	-0.82506853
19	0x3e6fdc8b	0.23423974
20	0xbf73f874	-0.95300984
21	0x3d911b57	0.07085293
22	0xbed8ea89	-0.42366436
23	0xbf70de9b	-0.9408967
24	0xbf7747f5	-0.9659417
25	0xbf677b7b	-0.9042279
26	0x3e434a4b	0.1907131
27	0x3e204a2c	0.15653294
28	0xbf39710e	-0.7243813
29	0xbe87da58	-0.2653377
30	0xbe27c8f5	-0.16385253
31	0xbd3d1707	-0.04616454
32	0xbf761365	-0.96123344
33	0xbf822903	-1.0168766
34	0xbf6f3899	-0.93445736
35	0xbf56aa54	-0.8385365
36	0xbf58186a	-0.8441225
37	0xbf8403e3	-1.0313686
38	0x401d04a7	2.453409
39	0xbedc0c66	-0.4297821
40	0xbf3e4002	-0.7431642
41	0x3e84b8dc	0.25922287
42	0xbd6b9407	-0.057514217
43	0xbf5606a4	-0.8360388
44	0xbf302011	-0.6879893
45	0xbdfb9f34	-0.12286225
46	0xbf62b1f4	-0.88552785
47	0x3e12a23a	0.14319697
48	0xbf31a427	-0.693911
49	0xbf71d737	-0.94469017
50	0xbf74ff38	-0.9570193
51	0x405b6053	3.4277542
52	0x3e2dbc0d	0.16966267
53	0xbf1c4da3	-0.61055964
54	0xbf6e145a	-0.92999804
55	0xbf6acbae	-0.9171704
56	0xbf31a297	-0.6938872
57	0xbc9a5775	-0.01884053
58	0xc0194ef9	-2.395445
59	0xbe3d07d3	-0.18460016
60	0xbebbb66a	-0.36662608
61	0xbe85560a	-0.26042205
62	0xbf7e5937	-0.9935488
63	0xbf56b873	-0.838752

h2.weight f4 [64, 64]
0	0xbf5670ec	-0.83766055
1	0x3f0a2a68	0.53970957
2	0x3dfe017e	0.12402628
3	0xbf1255f2	-0.5716239
4	0xbf3f01e5	-0.74612266
5	0xbf28bec9	-0.65916115
6	0xbe78ed8e	-0.2430937
7	0xbed53ce3	-0.41648015
8	0xbf1b1c79	-0.6059032
9	0xbf1b26fb	-0.60606354
10	0xbed542b9	-0.41652468
11	0xbf122ef3	-0.5710289
12	0xbf5a734d	-0.85332185
13	0xbea36434	-0.31912386
14	0x3e8cc660	0.27495098
15	0xbeb147da	-0.3462513
16	0xbe40d1d0	-0.18830037
17	0xbf0dfbe0	-0.55462456
18	0xbed55996	-0.4166991
19	0xbf54a9ac	-0.830714
20	0xbf2cc54a	-0.6748854
21	0xbe9db146	-0.3079931
22	0xbef1cb40	-0.4722538
23	0xbf67b3ab	-0.90508527
24	0xbe8fac56	-0.2806117
25	0xbf4b9923	-0.79530543
26	0xbf20af35	-0.62767345
27	0xbec22f6c	-0.37926805
28	0x3fd0cc6f	1.6312388
29	0xbecd3b44	-0.4008428
30	0xbf6224b4	-0.88337255
31	0x3e5b3891	0.21408297
32	0xbefa798f	-0.48920867
33	0x3d67de34	0.056608394
34	0xbf07be29	-0.53024536
35	0xbf064d53	-0.5246174
36	0xbf32457a	-0.6963726
37	0xbf3662bd	-0.7124441
38	0xc03e7d97	-2.9764154
39	0xbfb2b946	-1.3962791
40	0xbeca1eb0	-0.39476538
41	0xbf1ac3e8	-0.6045518
42	0xbe27c07a	-0.16382018
43	0xbe916ca6	-0.28403205
44	0xbf64f261	-0.8943234
45	0x3db68cb0	0.08913553
46	0xbeb9f626	-0.3632061
47	0xbeff7054	-0.49890387
48	0xbe974d7e	-0.2955131
49	0xbf5131e3	-0.81716746
50	0x3ab570ff	0.001384288
51	0x3f322edb	0.69602746
52	0xbf1840cc	-0.5947387
53	0xbf5516f7	-0.83238167
54	0xbe6f3d04	-0.2336312
55	0xbf1a196e	-0.6019505
56	0xbf1aca61	-0.60465056
57	0xbea7f961	-0.32807449
58	0x3e8ff075	0.28113142
59	0x3e1ee79b	0.15518038
60	0xbec7ae30	-0.39000082
61	0x3e954cb3	0.2916008
62	0xbefb49ad	-0.49079648
63	0xbecbd5a1	-0.39811423
64	0x3f25be5a	0.6474358
65	0x3eaff469	0.34366158
66	0x3e386765	0.18008192
67	0xbdde616a	-0.10858424
68	0xbe8effc1	-0.279295
69	0x3f690d98	0.9103637
70	0xbe8462f7	-0.25856754
71	0x3f7536f2	0.95786965
72	0xbec337da	-0.3812855
73	0x3fe76568	1.8077822
74	0xbdc3f343	-0.09567883
75	0xbe5636d3	-0.20919351
76	0xbef1dbf5	-0.47238126
77	0x3f0851b9	0.532497
78	0x3fa12847	1.2590417
79	0x3ee3bdd6	0.4448077
80	0xbc4bcb61	-0.012438626
81	0x3e13adb2	0.14421728
82	0x3f55cee4	0.83518815
83	0xbefe232d	-0.49636212
84	0x3f0eaf6e	0.55736434
85	0x3d60e1ac	0.054902717
86	0x3d8c9014	0.06863418
87	0x3f1e1b99	0.6176086
88	0x3f20332a	0.6257807
89	0x3f2965c5	0.66170913
90	0xbedc7ee2	-0.43065554
91	0x3f3c9985	0.7367175
92	0x403ab78a	2.9174523
93	0xbe54dce7	-0.20787393
94	0xbf2e843f	-0.6817054
95	0x3ce2795c	0.02764576
96	0x3de37377	0.111060075
97	0x3ea4f8c2	0.32221037
98	0x3ea76725	0.3269588
99	0x3ecefbf8	0.40426612
100	0xbe4a4dc9	-0.19756235
101	0x3f37c0cb	0.71778554
102	0xbd7f58ed	-0.062340666
103	0x3f8b6703	1.0890812
104	0x3e86a2f9	0.26296213
105	0x3ef96433	0.48709258
106	0xbe3b2263	-0.18274836
107	0x3f31cb4b	0.69450825
108	0xbcf6ecaf	-0.030142156
109	0x3ef7b99f	0.48383805
110	0xbd182f1a	-0.037154295
111	0x3ee7d08e	0.45276302
112	0xbf461706	-0.7737888
113	0x3ec6a0ec	0.3879465
114	0x3f19bd4b	0.60054463
115	0x3e397f7e	0.1811504
116	0xbe4375b1	-0.19087864
117	0x3da72b93	0.08162608
118	0x3e9dbab4	0.30806506
119	0x3eba6d74	0.3641163
120	0x3c954037	0.018219097
121	0x3e84b7ed	0.25921574
122	0x402af0a5	2.6709378
123	0x3f0b741c	0.54474044
124	0x3f9bfb5b	1.2186083
125	0x3fa1daae	1.2644861
126	0x3d8c0a41	0.06837893
127	0x3f0f9c3b	0.56097764
128	0xbeeca7b7	-0.46221706
129	0xbd7dffe7	-0.062011626
130	0xbf6580af	-0.8964948
131	0xbf1ceb19	-0.6129623
132	0xbf340c8f	-0.7033166
133	0xbf423670	-0.75864315
134	0x3e499c01	0.19688417
135	0xbf65b003	-0.897217
136	0xbf4cdc57	-0.8002371
137	0xbfa776c8	-1.3083124
138	0xbf3c30a9	-0.7351175
139	0xbeba5f40	-0.36400795
140	0xbf43e776	-0.76525056
141	0xbf2a1f6d	-0.664542
142	0xbf40a708	-0.7525487
143	0xbf395698	-0.72397757
144	0xc0025e6d	-2.0370133
145	0xbeb7943e	-0.35855287
146	0xbf2295eb	-0.63510007
147	0xbf174ea5	-0.5910438
148	0xbe9c64b0	-0.30545568
149	0xbf3e6b01	-0.74382025
150	0xbf270db1	-0.65255266
151	0xbea4be31	-0.32176355
152	0xbf04b696	-0.51841104
153	0xbf0f07e5	-0.5587142
154	0xbf2be7bd	-0.6715048
155	0xbec49779	-0.38396814
156	0xc0234537	-2.5510995
157	0xbf614e61	-0.8801022
158	0xbf5d7010	-0.8649912
159	0xbe7a4331	-0.24439694
160	0xbf4aa890	-0.79163456
161	0xbe962c9b	-0.29330906
162	0xbe9b6966	-0.3035385
163	0xbee675ab	-0.4501165
164	0xbea81774	-0.32830393
165	0xbf061602	-0.5237733
166	0x3d1dc9f4	0.038522676
167	0xbfa07722	-1.2536356
168	0xbf0f30e8	-0.55934
169	0xbf1985f3	-0.59970015
170	0xbe124687	-0.14284717
171	0xbf238a2c	-0.6388271
172	0xbf341362	-0.70342076
173	0xbf9cdab2	-1.225424
174	0xbf4d93a5	-0.8030341
175	0xbf2ad436	-0.6673006
176	0xbf0c68ba	-0.548473
177	0xbeaf1529	-0.3419583
178	0xbf2e59a9	-0.6810556
179	0xbf123f32	-0.5712768
180	0xbf2a5338	-0.6653323
181	0xbf58c06f	-0.8466863
182	0xbf1c3127	-0.610125
183	0xbead3fd5	-0.33837762
184	0xbf276c9b	-0.65400094
185	0xbed94065	-0.42431942
186	0xc0149910	-2.3218422
187	0xbf370ec0	-0.7150688
188	0xbf19cc04	-0.6007693
189	0xbf60e72e	-0.8785275
190	0xbe8e33a7	-0.27773783
191	0xbf5eab34	-0.86979985
192	0xbf0e27f1	-0.55529696
193	0xbf33a0ac	-0.7016704
194	0xbf941354	-1.1568398
195	0xbdd89fa4	-0.10577324
196	0xbf166ddc	-0.5876138
197	0xbea8657e	-0.32889932
198	0x3e85acc6	0.26108378
199	0xbf1b245f	-0.6060237
200	0xbde83628	-0.113384545
201	0xbf265e2e	-0.64987457
202	0xbeebfb29	-0.46090057
203	0xbf1c0480	-0.60944366
204	0xbf6b90a7	-0.92017597
205	0xbeab4391	-0.33449987
206	0xbe1039df	-0.14084576
207	0xbf2e74c2	-0.6814691
208	0xbf003ce5	-0.5009292
209	0xbf784d2e	-0.96992767
210	0xbeac7c04	-0.33688366
211	0xbf188570	-0.5957861
212	0xbc9f01e1	-0.019410076
213	0xbde2815e	-0.11059831
214	0xbf09e424	-0.5386374
215	0x3d353d4a	0.044247903
216	0x3c1da8ef	0.009622796
217	0xbf357737	-0.7088503
218	0xbf14020a	-0.5781561
219	0xbdd80737	-0.10548251
220	0xbe75cca6	-0.24003848
221	0xbee523db	-0.44753918
222	0xbe6913cb	-0.22761457
223	0x3d303f90	0.043029368
224	0x3f17697b	0.59145325
225	0xbf1cb03a	-0.612064
226	0xbf99d127	-1.2016953
227	0xbe74f245	-0.23920543
228	0xbf11e27e	-0.56986225
229	0x3f1ffe1f	0.62497133
230	0xbf0664d2	-0.5249759
231	0xbeb509cc	-0.35359037
232	0xbeafcfbc	-0.34338176
233	0xbe445203	-0.1917191
234	0xbdeeb492	-0.11655535
235	0x3e5a6d6e	0.21330807
236	0xbf82d28a	-1.0220501
237	0xbef5ada0	-0.47984028
238	0x3f440c8f	0.7658166
239	0xbf07ff86	-0.5312427
240	0xbf2a6c1a	-0.665712
241	0x3d1e9fab	0.03872649
242	0xbf271afe	-0.6527556
243	0xbec05c73	-0.37570533
244	0xbecbf34e	-0.39834064
245	0xbf5283da	-0.8223244
246	0x3e1df1d6	0.15424284
247	0xbe2ba220	-0.16761065
248	0x3eb21497	0.34781334
249	0xbf6e147f	-0.93000025
250	0xbe342ad7	-0.17594467
251	0xbf12e837	-0.5738558
252	0xbd4d6313	-0.050143313
253	0xbf27ddbc	-0.65572715
254	0xbef45d50	-0.47727442
255	0xbe1b9075	-0.15191825

h2.bias f4 [64]
0	0x3eaf4d07	0.34238455
1	0x3f0a2cf4	0.53974843
2	0xbfa9f8fa	-1.3279107
3	0xbee955af	-0.45573184
4	0x3d80b4e3	0.062845014
5	0xbf0d1cbc	-0.5512197
6	0x3ec3e4d1	0.3826051
7	0xbf484338	-0.7822757
8	0xbd40828a	-0.04699949
9	0xbf2d0346	-0.6758312
10	0xbef8c5cf	-0.48588416
11	0xbf3500f5	-0.70704585
12	0x3e28211a	0.16418877
13	0xbf21431c	-0.62993026
14	0xbd01162c	-0.031515285
15	0x3e966986	0.29377383
16	0xbf1cf9df	-0.61318773
17	0xbf22c769	-0.63585526
18	0x3e81c314	0.25344145
19	0xbf50eb01	-0.8160859
20	0x3e89cf42	0.26915938
21	0x3eed57f5	0.46356168
22	0xbdb4f889	-0.08836467
23	0x3e16b0ba	0.14715853
24	0xbdd1e84d	-0.10249386
25	0xbf364207	-0.711945
26	0xbf01c814	-0.5069592
27	0xbee698e2	-0.45038515
28	0xbf1ea367	-0.6196808
29	0xbed6494c	-0.41852796
30	0x3ec9f321	0.39443305
31	0xbf3ea5b1	-0.74471575
32	0xbedeb815	-0.43499818
33	0xbef59551	-0.47965482
34	0xbf28037d	-0.6563032
35	0xbf2f36c9	-0.6844297
36	0xbea3fc43	-0.32028398
37	0xbe80cb9f	-0.2515535
38	0xbf2494bd	-0.64289457
39	0x3c606e27	0.013698137
40	0xbeaffeae	-0.34373993
41	0xbf892f45	-1.071755
42	0xbf486ed1	-0.7829409
43	0xbdfe8822	-0.12428309
44	0x3e9db96c	0.30805528
45	0x3eb676ce	0.35637516
46	0x3f01c211	0.50686747
47	0x3dd099eb	0.101856075
48	0x3ed71c9d	0.42014018
49	0xbf038175	-0.5136941
50	0x3ec1db6f	0.37862727
51	0xbf734f83	-0.950432
52	0xbd618363	-0.05505694
53	0x4080d2c0	4.0257263
54	0xc027976b	-2.6186168
55	0xbe84744c	-0.25869977
56	0x3eb92a7a	0.3616522
57	0xbc886059	-0.016647505
58	0x3e0bcf2e	0.13653252
59	0x3f1d193c	0.6136663
60	0xbf6186a4	-0.8809607
61	0xbf92d1c4	-1.1470265
62	0x3ea34695	0.31889787
63	0xbf24cc0f	-0.6437387

h3.weight f4 [8, 64]
0	0x3f70c7b6	0.94054735
1	0x3e80ba87	0.2514231
2	0x401c0676	2.4378943
3	0x3f1eef7a	0.6208416
4	0x3f4a66b2	0.7906295
5	0x3f1114b1	0.566722
6	0x3ec05069	0.37561348
7	0x3f5caf20	0.8620472
8	0x3e16d8f1	0.14731194
9	0x3f0fdfe4	0.56201005
10	0x3e51ebb3	0.20500068
11	0x3f2c582f	0.6732206
12	0x3e4dc9d5	0.20096524
13	0x3ef589ac	0.47956598
14	0xbe9cf604	-0.30656445
15	0x3f1b1bbf	0.6058921
16	0x3ea9d48e	0.3316998
17	0x3f3333e0	0.7000103
18	0x3f1f7692	0.622903
19	0xbf745b02	-0.95451367
20	0x3f0f5f16	0.56004465
21	0x3f15cbec	0.58514285
22	0x3f21b104	0.6316073
23	0x3ee4a259	0.4465511
24	0x3f10dcca	0.565869
25	0x3f6098d0	0.87733173
26	0x3edc9a85	0.4308664
27	0x3f3ba174	0.7329323
28	0x3f5e70b6	0.86890733
29	0x3ef641df	0.4809713
30	0x3f094936	0.53627336
31	0x3ed0e52f	0.40799853
32	0x3f000b45	0.50017196
33	0x3efcdb33	0.49385986
34	0x3f552b1c	0.83268905
35	0x3f09d5ee	0.53842056
36	0x3e9fa243	0.31178483
37	0x3ead3b60	0.33834362
38	0x3f486c53	0.7829029
39	0x3ea23e00	0.31687927
40	0x3f3f29c3	0.746731
41	0x3f63dd99	0.89010006
42	0x3f2a3a82	0.66495526
43	0x3ebda952	0.37043244
44	0x3f8d449f	1.1036566
45	0x3f34db94	0.7064755
46	0x3efe7385	0.4969751
47	0x3f447ead	0.7675579
48	0x3ef4f133	0.4784027
49	0x3f453c82	0.7704545
50	0x3ebf8cf0	0.37412214
51	0x3ec9c6eb	0.39409575
52	0x3f2f5e77	0.68503517
53	0x3fa07c1e	1.2537878
54	0x3fdf4331	1.744238
55	0xbed78ce4	-0.4209968
56	0x3e9e2160	0.30884838
57	0xbcc69eef	-0.024245707
58	0x3f19179e	0.5980166
59	0x400a1902	2.1577764
60	0x3f2751a7	0.65358967
61	0x3f7117d0	0.9417696
62	0x3f33ef97	0.7028746
63	0x3f06f93e	0.52724063
64	0x3e1a2937	0.15054785
65	0x3fbc4fcd	1.4711853
66	0xbd289a23	-0.04116262
67	0x3b5974f1	0.0033181275
68	0x3d3c11c2	0.045915373
69	0x3c3b197a	0.011419648
70	0x3e88d9b3	0.2672859
71	0x3f3878a0	0.7205906
72	0xbec205ac	-0.37894952
73	0xbe84b3ec	-0.2591852
74	0x3f38acd7	0.7213873
75	0xbd97f254	-0.07419267
76	0xbf06283f	-0.5240516
77	0xbde2ac65	-0.11068038
78	0x3f4f36a3	0.80942744
79	0xbf2d81f0	-0.67776394
80	0x3f03d22e	0.51492584
81	0xbe17fdd9	-0.14842929
82	0x3d4023f0	0.046909273
83	0x3d9ea863	0.07746961
84	0xbd8e37e5	-0.06944255
85	0xbe1e8188	-0.154791
86	0x3e28fc1d	0.16502424
87	0x3c62f880	0.013853192
88	0xbe92162f	-0.2853255
89	0x3f72ece8	0.9489274
90	0x3faf399f	1.368946
91	0xbe9a16a8	-0.3009541
92	0xbf1051a4	-0.56374574
93	0x3de1a1fe	0.11017226
94	0xbec76e2f	-0.3895125
95	0xc0071a96	-2.1109977
96	0x3e549e84	0.20763594
97	0x3f269615	0.65072757
98	0xbe854967	-0.26032564
99	0xbe7c1fc0	-0.24621487
100	0x3e40c0b7	0.18823515
101	0x3e188002	0.14892581
102	0xbf39d81b	-0.72595376
103	0x3ed8a2e2	0.4231177
104	0x3f07f260	0.5310421
105	0xbcea17c4	-0.028575785
106	0xbebd1f2d	-0.36937848
107	0xbd88bf3a	-0.066770986
108	0x3ed49333	0.41518554
109	0xbe32de86	-0.17467698
110	0xbf3f453f	-0.74715036
111	0x3eeb186f	0.4591708
112	0x3d4acb8f	0.049510535
113	0xbe95f407	-0.2928774
114	0xbf077a3b	-0.52920884
115	0x3f0fc49e	0.5615939
116	0x3e08298b	0.13297097
117	0x3f80bcf6	1.0057666
118	0x4015166b	2.3294933
119	0xbe3d3535	-0.18477328
120	0xbf45e777	-0.7730631
121	0xbf2c8102	-0.6738435
122	0x3e885382	0.2662621
123	0x3f51bee8	0.81931925
124	0xbda3045c	-0.07959816
125	0x3f17e491	0.5933314
126	0xbc29e4af	-0.010369464
127	0xbda9f684	-0.08298972
128	0x3f1371cd	0.5759552
129	0x3f15ba21	0.58487135
130	0x40307f69	2.7577765
131	0xbe65c5b9	-0.22438706
132	0xbe3cd206	-0.18439493
133	0xbe991431	-0.29898217
134	0x3beaaa5a	0.007161421
135	0x3eb7159b	0.3575867
136	0xbeacd781	-0.33758166
137	0x3ddf5262	0.10904385
138	0x3d4c5f77	0.04989573
139	0xbe06a3e5	-0.13148458
140	0xbf01d1f8	-0.5071101
141	0x3deb7fb4	0.11498967
142	0xbe156473	-0.145891
143	0xbebb13ca	-0.36538535
144	0x3db639e2	0.08897759
145	0xbe748426	-0.23878536
146	0xbe744b8b	-0.23856942
147	0xbdf17103	-0.117891334
148	0xbf12887e	-0.5723952
149	0xbf4af2b8	-0.7927661
150	0x3e354095	0.17700417
151	0xbe81ae53	-0.2532831
152	0xbcdc43a3	-0.02688772
153	0xbcf5bfc4	-0.029998668
154	0x3f582e27	0.8444542
155	0xbd8257e8	-0.06364423
156	0xbe8aaf68	-0.2708695
157	0xbe6e8774	-0.23293859
158	0xbf4d5a79	-0.80216175
159	0xbfb8e49c	-1.4444766
160	0xbf1d2a0e	-0.61392295
161	0x3f2b575f	0.6693019
162	0x3e05e033	0.13073806
163	0xbd9f305f	-0.07772898
164	0xbdc9ae5e	-0.09847711
165	0x3d75bb2f	0.059992965
166	0xbf0747dc	-0.52844024
167	0xbdc86c33	-0.09786262
168	0x3e7c4d48	0.24638855
169	0x3e0d309b	0.13788073
170	0x3e0f249d	0.1397881
171	0xbf3ca5cf	-0.73690504
172	0x3f4f2e72	0.80930245
173	0xbf2547a8	-0.64562464
174	0xbf1511c5	-0.5823024
175	0x3f4d0d19	0.8009811
176	0xbf4ede91	-0.8080836
177	0x3db15f04	0.08660701
178	0xbf266853	-0.65002936
179	0xbb89d2c2	-0.0042060325
180	0xbdd35b09	-0.10320098
181	0x3f12b5d0	0.57308674
182	0x4007edb9	2.1238844
183	0xbe5abfa6	-0.2136217
184	0xbee7e8ac	-0.45294702
185	0xbf4539f9	-0.77041584
186	0x3e75cf0a	0.2400476
187	0x4079da92	3.9039655
188	0x3d387e60	0.045042396
189	0xbdfc2b41	-0.123129375
190	0x3e94a608	0.29032922
191	0x3e323b6a	0.17405477
192	0x3f1a11a2	0.60183156
193	0x3e9b9843	0.30389604
194	0x40c22816	6.0673933
195	0xbe263adf	-0.16233395
196	0xbeb1b365	-0.3470718
197	0xbef23ec6	-0.47313517
198	0xbf038842	-0.5137979
199	0x3f35810d	0.7090004
200	0xbf0aef28	-0.54271173
201	0x3ed4079a	0.4141205
202	0x3eab1a4a	0.33418494
203	0x3f3ef090	0.7458582
204	0xbf1efe4e	-0.6210679
205	0xbd8885dc	-0.06666157
206	0x3eef16fc	0.46697223
207	0xbf2bf7a6	-0.67174757
208	0x3e6348a5	0.2219568
209	0x3ef61e42	0.4806996
210	0xbe9bb349	-0.3041022
211	0x3e0575a6	0.1303316
212	0xbecf0509	-0.4043353
213	0xbf0112ce	-0.5041932
214	0xbef4ec72	-0.47836643
215	0xbebc40b2	-0.3676811
216	0xbe8823fc	-0.26589954
217	0x3ab74a20	0.0013983883
218	0xbd983534	-0.07432023
219	0xbe8d9541	-0.27652934
220	0xbf4116b8	-0.7542529
221	0xbeb8c044	-0.36084187
222	0xbe9ca21c	-0.3059243
223	0x40197334	2.3976564
224	0xbe98a1f3	-0.29811057
225	0x3e955683	0.29167566
226	0x3f3b05ba	0.73055613
227	0xbe2c6772	-0.16836336
228	0xbefe2bb2	-0.49642712
229	0xbead5788	-0.33855844
230	0x4006b4e3	2.1047904
231	0x3c1ff150	0.009762123
232	0x3f773757	0.96568817
233	0xbee5bdff	-0.44871518
234	0x3e6d5b17	0.2317928
235	0xbe813520	-0.25235844
236	0x3f8dc4d6	1.1075695
237	0xbf0ce109	-0.55030876
238	0xbf21a757	-0.63145965
239	0x3f6504d1	0.89460474
240	0xbf1721f2	-0.5903617
241	0x3eb5959a	0.354657
242	0xbf1f06ef	-0.62119955
243	0xbeb0ce1e	-0.34532255
244	0x3f2a1638	0.66440153
245	0x4018f8b6	2.39018
246	0xc03f029f	-2.984535
247	0xbf00e293	-0.50345725
248	0xbf3e7253	-0.74393195
249	0x3f3d7594	0.74007535
250	0xbe750691	-0.23928286
251	0x402f5a60	2.739891
252	0x3f195550	0.598958
253	0xbda92117	-0.082582645
254	0xbec2ba1f	-0.38032624
255	0x3f4c5f17	0.79832596

h3.bias f4 [8]
0	0x3ea47f2e	0.3212828
1	0x3f6565c9	0.89608437
2	0x3d22da85	0.039759178
3	0x3f909c3e	1.1297681
4	0xbf0eb41f	-0.5574359
5	0xbf2736ae	-0.6531781
6	0x3f283e99	0.65720516
7	0x404ef4e5	3.2336972
