weights/weights_LF=8_dense/w=0.36_4.pth (torch, 39820 bytes, 8 tensors)

input.weight f4 [64, 4]
-1.2152013 0.10805704 -0.6011524 0.885811 1.0531996 0.93222624 0.23912072 1.099619
0.45712885 -0.8815606 0.24029803 -1.2828236 -0.94313836 -0.8008525 -1.1904815 0.5949044
1.0322956 0.18266988 0.6167067 -0.93059444 0.3722924 -0.44714123 0.7769914 -0.74770284
-0.70515484 -1.1500313 -0.49955288 -0.5975958 -0.93443173 1.0171813 0.99278975 -1.1092633
-0.121833265 0.22549799 0.68913424 -1.6658827 0.22178835 -0.52702 0.3629571 1.5633273
-0.5110242 0.47170463 0.6452565 -0.78523475 -1.261074 -0.07232396 -0.14564237 1.3067963
-0.8082785 0.6596944 -0.9503372 -0.5247065 -2.1769612 0.551076 0.14369266 -1.4107596
0.88105077 0.25151545 0.373339 -0.76276636 -0.8372087 -1.4742308 0.74765354 -1.5745633
-0.48502994 1.1439465 -1.7010633 -0.6667103 -1.2570828 -0.79779696 0.10252727 -1.1368251
-1.181993 -0.50414413 -0.9144476 1.2355024 -1.2599925 0.27397698 -1.1801893 -0.461395
-0.28845963 -0.8186992 -0.8396764 -1.2447281 0.3674694 0.6410422 0.4863455 -0.93907964
-0.40780646 -0.90334105 -1.173894 -1.397201 0.6855592 -1.0749643 -1.0409939 -1.311642
-1.2904193 -0.5291479 -1.2168919 1.1542667 0.07098196 0.7228656 -0.33371356 0.2059863
1.7130333 -0.54803616 0.37201303 0.73216414 0.9843211 -1.3463311 1.2613902 -0.8182937
0.9027181 -0.6127083 -0.72510713 -0.38582537 -0.9159574 -0.39728954 -0.770701 -1.0296521
1.1839175 0.9844651 0.89007336 -0.43104887 0.71013165 0.45492288 0.59541094 -0.41098538
0.9097258 -0.13269368 0.20382088 -0.8143172 -0.23315226 0.7931965 -0.8064052 1.0356716
0.9038256 -0.9265905 1.1948768 -1.408131 -0.004881894 0.045619 0.72242343 0.6596026
0.6969149 0.99891233 -0.76117796 0.88922274 1.8566942 0.08035952 -0.00062224 1.2073405
0.44589493 0.32182688 -1.3253108 -0.026808342 0.6325971 -0.4470055 1.2625434 0.6336284
-1.5036205 -0.7900825 0.26440498 -0.437906 0.92357886 -1.2290416 0.26398483 -0.002546711
1.0911108 0.92736197 1.3474104 0.74412274 0.10348227 0.47753185 0.6672557 -0.77938044
-0.66203535 0.17758064 0.2821431 -0.7166732 0.59897065 0.24560833 -0.40609357 -0.93046457
-1.4679322 -0.009270193 -0.39513692 -0.36458817 -0.995683 -1.7175125 0.49648356 -0.5772615
0.20731118 0.43229643 0.89209086 0.9495025 0.5730076 -0.48247963 -0.7017597 1.174638
0.9977819 0.45255402 0.5664562 0.94950587 -0.7939509 -0.23800522 -0.9598799 -0.83501303
0.5822645 0.9703742 0.30951452 0.9518256 -0.70925534 -0.28860167 -1.1730902 -0.47731245
-1.7604747 -0.21943009 -0.097759366 -1.4458807 0.76032 -0.28865054 0.8864191 -0.278729
-1.0971999 1.1923125 -0.8838795 0.23768473 0.44157058 0.5322301 0.8750317 1.877094
0.19511525 -1.5759395 -0.6233924 -1.0373105 -1.2493396 0.31262264 0.019296417 -1.182623
-0.26821992 -0.36336526 0.92805505 -0.2675753 0.34540054 -0.028679544 0.8379327 1.2798994
0.07857008 0.7971716 0.662917 -0.63999885 1.0213681 0.49903473 0.10044046 -1.569933
00000000: b78b 9bbf 024d dd3d 20e5 19bf 82c4 623f
00000010: 3fcf 863f 61a6 6e3f 10dc 743e 51c0 8c3f
00000020: cb0c ea3e f5ad 61bf b010 763e 9033 a4bf
00000030: 8471 71bf ab04 4dbf b361 98bf a84b 183f
00000040: 4322 843f d00d 3b3e 7ee0 1d3f 703b 6ebf
00000050: 1c9d be3e b2ef e4be e9e8 463f 7469 3fbf
00000060: 0785 34bf 3a34 93bf 65c5 ffbe 0afc 18bf
00000070: eb36 6fbf ff32 823f 7827 7e3f 57fc 8dbf
00000080: b883 f9bd f2e8 663e 1a6b 303f a53b d5bf
00000090: 7c1c 633e c8ea 06bf 83d5 b93e 1c1b c83f
000000a0: 7bd2 02bf 4583 f13e 882f 253f 2505 49bf
000000b0: df6a a1bf 961e 94bd 4623 15be 1a45 a73f
000000c0: 57eb 4ebf bbe1 283f 4c49 73bf 2a53 06bf
000000d0: 5553 0bc0 5113 0d3f 2b24 133e c593 b4bf
000000e0: 8b8c 613f a2c6 803e 4a26 bf3e a844 43bf
000000f0: 4f53 56bf 98b3 bcbf 3966 3f3f 4a8b c9bf
00000100: d855 f8be d76c 923f 71bc d9bf 87ad 2abf
00000110: 17e8 a0bf 6c3c 4cbf d1f9 d13d 7c83 91bf
00000120: 8c4b 97bf 970f 01bf 3d19 6abf f124 9e3f
00000130: 6f47 a1bf b646 8c3e 7110 97bf f73b ecbe
00000140: fbb0 93be 4596 51bf 08f5 56bf 4053 9fbf
00000150: f324 bc3e 571b 243f 4702 f93e 8667 70bf
00000160: 02cc d0be 5c41 67bf 2942 96bf 7bd7 b2bf
00000170: cf80 2f3f 6e98 89bf 4a3f 85bf e3e3 a7bf
00000180: 762c a5bf 3d76 07bf 1dc3 9bbf 03bf 933f
00000190: fd5e 913d b80d 393f 81dc aabe 13ee 523e
000001a0: ad44 db3f 194c 0cbf 7e78 be3e 1c6f 3b3f
000001b0: 78fc 7b3f 9454 acbf 3c75 a13f b27b 51bf
000001c0: 8918 673f 73da 1cbf 9fa0 39bf e78a c5be
000001d0: 2f7c 6abf 8969 cbbe a94c 45bf a4cb 83bf
000001e0: 9c8a 973f e805 7c3f d9db 633f 70b2 dcbe
000001f0: 30cb 353f a7eb e83e da6c 183f ad6c d2be
00000200: cae3 683f dae0 07be 6cb6 503e 1877 50bf
00000210: 77bf 6ebe ed0e 4b3f 9270 4ebf e390 843f
00000220: 1d61 673f 0935 6dbf b9f1 983f a33d b4bf
00000230: 4cf8 9fbb fdda 3a3d bef0 383f b7db 283f
00000240: 0469 323f b8b8 7f3f 8fdc 42bf 1aa4 633f
00000250: 28a8 ed3f 8893 a43d d21d 23ba 228a 9a3f
00000260: 574c e43e 7ec6 a43e c9a3 a9bf 2b9d dbbc
00000270: e2f1 213f e8dd e4be 069b a13f 7935 223f
00000280: a376 c0bf d942 4abf 1760 873e 3735 e0be
00000290: aa6f 6c3f 3c51 9dbf 0529 873e b8e6 26bb
000002a0: 85a9 8b3f 9867 6d3f f277 ac3f d47e 3e3f
000002b0: 83ee d33d 0e7f f43e 45d1 2a3f 7a85 47bf
000002c0: 267b 29bf b3d7 353e 0f75 903e e577 37bf
000002d0: 2456 193f c080 7b3e 7feb cfbe ed32 6ebf
000002e0: 34e5 bbbf 02e2 17bc 634f cabe 4dab babe
000002f0: 15e5 7ebf 73d7 dbbf 1833 fe3e 69c7 13bf
00000300: 6249 543e f555 dd3e 1160 643f 9912 733f
00000310: a0b0 123f 9207 f7be 86a6 33bf 8a5a 963f
00000320: a26e 7f3f 29b5 e73e 4603 113f d112 733f
00000330: 5e40 4bbf a4b7 73be b0ba 75bf 6ac3 55bf
00000340: 490f 153f 726a 783f b078 9e3e d8aa 733f
00000350: c291 35bf 99c3 93be d227 96bf 4c62 f4be
00000360: 3c57 e1bf 48b2 60be 1036 c8bd 9e12 b9bf
00000370: 55a4 423f 01ca 93be 5dec 623f 91b5 8ebe
00000380: 0c71 8cbf b29d 983f ed45 62bf a063 733e
00000390: 8a15 e23e 3b40 083f 1402 603f 9e44 f03f
000003a0: 4bcc 473e 63b8 c9bf a596 1fbf 97c6 84bf
000003b0: 5cea 9fbf 1310 a03e 8513 9e3c 3160 97bf
000003c0: 1f54 89be 030b babe 0495 6d3f a1ff 88be
000003d0: 57d8 b03e 5df1 eabc c282 563f bed3 a33f
000003e0: 5ae9 a03d 7013 4c3f eeb4 293f f7d6 23bf
000003f0: 31bc 823f 7b81 ff3e bab3 cd3d 91f3 c8bf

input.bias f4 [64]
0.0138652595 0.06715857 -0.05832642 0.099831894 0.40297687 -0.077377416 -0.018668067 -0.013387096
-0.41610956 0.46623224 -0.15240566 0.13801375 -0.40068325 -0.6215788 -0.0998889 -0.3972402
-0.41518784 -0.3099358 -0.06905763 -0.39999548 -0.021241626 -0.23852779 -0.353883 -0.07759393
-0.049139656 0.0048182155 0.65095365 -0.35630962 -0.27133268 -0.2718073 0.044588577 0.071929075
0.120318934 0.13582306 0.006014065 0.13101007 0.008360208 0.7677449 -0.20110574 0.08725902
-0.8234552 -0.02051848 0.29580528 -0.15754798 -0.0435199 0.19620818 -0.34936488 -0.21650022
0.5165999 0.5695584 0.15809335 -0.42763957 0.18446325 -0.22787775 -0.6108982 0.004866677
0.17257302 0.8490986 -0.59700245 -0.6655778 -0.26382777 0.4276082 -0.1508867 -0.16128817
00000000: 1d2b 633c 6f8a 893d afe7 6ebd aa74 cc3d
00000010: fc52 ce3e 0d78 9ebd c6ed 98bc 8d55 5bbc
00000020: 500c d5be feb5 ee3e 3b10 1cbe 7a53 0d3e
00000030: 5b26 cdbe ca1f 1fbf 8d92 ccbd 1163 cbbe
00000040: 8093 d4be e8af 9ebe 166e 8dbd 35cc ccbe
00000050: eb02 aebc a140 74be 2730 b5be 91e9 9ebd
00000060: aa46 49bd 1fe2 9d3b e6a4 263f 376e b6be
00000070: 1eec 8abe 542a 8bbe 83a2 363d 8d4f 933d
00000080: c669 f63d 3315 0b3e a211 c53b 8127 063e
00000090: 41f9 083c ee8a 443f aaee 4dbe dbb4 b23d
000000a0: f6cd 52bf 5f16 a8bc ca73 973e 4254 21be
000000b0: ec41 32bd ccea 483e f4df b2be 3cb2 5dbe
000000c0: e43f 043f 94ce 113f 39e3 213e 93f3 dabe
000000d0: efe3 3c3e c958 69be d363 1cbf a578 9f3b
000000e0: fbb6 303e 875e 593f 27d5 18bf 4f63 2abf
000000f0: 6f14 87be 76ef da3e 0b82 1abe ba28 25be

h1.weight f4 [64, 64]
-0.72978896 1.4390564 1.6923126 -1.1848253 -1.0884314 -0.32181427 -0.1633675 0.17150605
-0.5711339 0.8496481 0.2651309 0.49488032 -1.4982796 -0.80605924 -1.039883 -1.3132794
0.74917376 0.15052158 -0.5373936 -1.5781426 -0.8152638 0.13356906 -1.2956624 -0.5255855
-1.0200182 -1.0290512 1.2867879 -1.326603 -1.0040463 -0.025077272 1.4242283 -1.1003684
-0.26529273 0.113021575 -0.9289387 -1.4377354 -1.695877 1.8472162 -1.3910936 -0.87000656
-0.9206838 -1.1326329 1.4545716 -1.6530938 0.864037 1.6828637 -1.2098356 0.6350505
1.1805813 1.2733033 1.3195399 -1.1632134 -0.9409933 -1.3336697 -1.3606465 -1.0932239
1.8053701 1.5257195 -0.7093381 -1.8285351 0.32256672 1.1405487 0.16955923 -0.42030942
0.28637764 -0.0375755 -1.0196018 0.5174642 0.15340643 -0.59193194 -0.36349118 -1.2982459
-0.26576483 0.77968776 -0.6680101 -0.052247763 0.59256285 -1.1941559 0.7806118 -0.18121766
-0.73532164 -0.74024004 0.34783018 0.108336605 -0.1911285 -0.34374583 0.1925598 0.018292857
0.0036338004 1.2923626 -0.68197143 0.6579765 1.2075958 -0.50980574 -0.1976176 0.9110968
-0.34733376 0.6341108 0.18254787 0.7819234 0.94614106 0.61736435 1.4175103 0.9607912
0.392059 1.093332 -0.28965673 0.74312735 -1.3397095 -1.134501 0.28837097 -0.15557443
-0.52270263 -0.91885835 -0.27619368 0.550457 0.8451221 0.08314334 0.5739734 1.019087
-0.9431283 -1.2036556 1.0638523 1.1995423 -0.34650728 -0.7147626 -0.25833765 -0.3310625
0.39188707 -0.15714015 -0.92489 -0.17796162 0.38368866 -0.5955134 -0.41300792 -0.170697
0.13758124 0.18473776 -0.42681664 -0.05053064 0.49611083 -0.53808224 0.7271009 -0.023300001
-0.44999194 -0.4600536 0.24897629 0.1655063 -0.57015836 0.10010262 0.4127094 -0.2791941
0.09059755 1.2860774 -0.86741495 0.63117164 1.1949052 -0.5480737 -0.16077544 0.700692
-0.3985308 0.42763922 0.6277291 0.9279687 1.0670764 -0.4147687 1.1849499 0.77653706
0.7947463 0.99613637 0.040411226 1.1343918 -0.95966274 -0.46077722 0.58021826 -0.5601692
-0.3558401 -0.5860581 -0.3443267 -0.037688866 0.49609306 -0.13408816 0.3998384 1.1386262
-1.1888548 -0.89503443 0.28346437 1.2751113 -0.10814512 -0.41266516 -0.077334374 -0.006293351
0.021263793 -1.4111581 -0.8814319 1.1624624 0.07598112 -0.09390561 0.46003008 -0.53054297
0.09556123 -0.98161215 -1.3597778 -0.423971 0.39183536 -0.26879793 0.40623274 0.013600587
-0.20463187 -0.38810945 1.0805228 0.3183741 0.8729909 -1.0314447 1.1207302 1.2681863
0.84079397 0.9949541 -1.035137 0.29043677 0.44943774 0.13205813 -0.9441293 0.35018072
0.3803266 0.1468813 0.3833825 0.56764144 0.88261503 -0.19199492 1.2083454 -0.08522554
0.11657311 0.54234684 -1.409994 0.037485305 -0.17294425 -1.055166 1.2132233 -1.0058764
-1.3236974 -0.48147658 -1.1831785 0.82878065 0.3281518 1.2467012 0.9898619 0.32208738
-0.3518829 -0.20128503 0.054600354 0.35350034 -1.1290319 -1.0023409 -1.4042728 -0.1113806
00000000: 73d3 3abf 0033 b83f b39d d83f 5ba8 97bf
00000010: b851 8bbf d7c4 a4be cf49 27be 489f 2f3e
00000020: d535 12bf 8a82 593f 3dbf 873e f460 fd3e
00000030: a0c7 bfbf e659 4ebf e31a 85bf 8a19 a8bf
00000040: dac9 3f3f 5422 1a3e a192 09bf 9400 cabf
00000050: 21b5 50bf 54c6 083e 44d8 a5bf c58c 06bf
00000060: f58f 82bf f3b7 83bf 77b5 a43f 21ce a9bf
00000070: 9784 80bf da6e cdbc 1d4d b63f dfd8 8cbf
00000080: 73d4 87be db77 e73d edce 6dbf b707 b8bf
00000090: 7f12 d9bf 9571 ec3f 5b0f b2bf c0b8 5ebf
000000a0: efb1 6bbf 1dfa 90bf 672f ba3f 9498 d3bf
000000b0: 8731 5d3f 1468 d73f e5db 9abf ab92 223f
000000c0: 4a1d 973f 9afb a23f afe6 a83f 2de4 94bf
000000d0: f0e4 70bf b0b5 aabf aa29 aebf c3ee 8bbf
000000e0: 5e16 e73f c74a c33f 2f97 35bf 700d eabf
000000f0: 7727 a53e 80fd 913f efa0 2d3e cc32 d7be
00000100: 17a0 923e c4e8 19bd 5082 82bf 8978 043f
00000110: 9316 1d3e da88 17bf 841b babe ec2c a6bf
00000120: 5412 88be 9e99 473f b602 2bbf c001 56bd
00000130: 33b2 173f 1ada 98bf 2dd6 473f 1f91 39be
00000140: 0a3e 3cbf 5f80 3dbf cc16 b23e 95df dd3d
00000150: 31b7 43be 74ff afbe 652e 453e e7da 953c
00000160: 0e25 6e3b 236c a53f ae95 2ebf 2671 283f
00000170: 8092 9a3f a182 02bf 455c 4abe a43d 693f
00000180: bbd5 b1be 1655 223f d4ed 3a3e 222c 483f
00000190: 4d36 723f 970b 1e3f fa70 b53f 69f6 753f
000001a0: f5bb c83e 4ef2 8b3f e34d 94be 983d 3e3f
000001b0: 9a7b abbf 5437 91bf 5ca5 933e e74e 1fbe
000001c0: d7cf 05bf 4d3a 6bbf 4269 8dbe c0ea 0c3f
000001d0: ec59 583f 0e47 aa3d ecef 123f 7171 823f
000001e0: db70 71bf 6311 9abf 502c 883f 9a8a 993f
000001f0: 6769 b1be affa 36bf d544 84be 0681 a9be
00000200: 6ca5 c83e 59e9 20be 97c5 6cbf 923b 36be
00000210: d772 c43e 9173 18bf c675 d3be 32cb 2ebe
00000220: 19e2 0c3e e52b 3d3e b687 dabe 37f9 4ebd
00000230: 3d02 fe3e c2bf 09bf 4923 3a3f a5df bebc
00000240: 5865 e6be 258c ebbe a4f3 7e3e 7c7a 293e
00000250: e6f5 11bf 9a02 cd3d a54e d33e 87f2 8ebe
00000260: 358b b93d 2f9e a43f e80e 5ebf 7794 213f
00000270: a7f2 983f 8f4e 0cbf 51a2 24be 8d60 333f
00000280: 3b0c ccbe 87f3 da3e dbb2 203f 5b8f 6d3f
00000290: f695 883f 905c d4be 70ac 973f 22cb 463f
000002a0: 7e74 4b3f cb02 7f3f 3e86 253d c033 913f
000002b0: 75ac 75bf feea ebbe 2f89 143f 4067 0fbf
000002c0: ac30 b6be e707 16bf 974b b0be a45f 1abd
000002d0: e9ff fd3e 684e 09be 9eb7 cc3e 81be 913f
000002e0: 652c 98bf fa20 65bf 3e22 913e d936 a33f
000002f0: 307b ddbd d948 d3be 7c61 9ebd 7438 cebb
00000300: 6831 ae3c d4a0 b4bf 85a5 61bf 91cb 943f
00000310: fd9b 9b3d 9651 c0bd 1089 eb3e aad1 07bf
00000320: 9bb5 c33d ef4a 7bbf 330d aebf ba12 d9be
00000330: a59e c83e e29f 89be bdfd cf3e ffd4 5e3c
00000340: 048b 51be 48b6 c6be 924e 8a3f ee01 a33e
00000350: 557c 5f3f 6106 84bf 1674 8f3f ee53 a23f
00000360: 463e 573f 50b5 7e3f 5f7f 84bf 21b4 943e
00000370: b41c e63e 3f3a 073e 75b2 71bf e34a b33e
00000380: 2bba c23e 0d68 163e b64a c43e f350 113f
00000390: 0ff3 613f 519a 44be 10ab 9a3f ba8a aebd
000003a0: e2bd ee3d 3ed7 0a3f af7a b4bf 318a 193d
000003b0: 4c18 31be ae0f 87bf e74a 9b3f 8fc0 80bf
000003c0: eb6e a9bf 1984 f6be 6572 97bf f82a 543f
000003d0: 8303 a83e e893 9f3f 9767 7d3f a3e8 a43e
000003e0: ff29 b4be aa1d 4ebe 9fa4 5f3d fffd b43e
000003f0: 1e84 90bf b54c 80bf 36bf b3bf 831b e4bd

h1.bias f4 [64]
1.052465 -0.29914227 -0.06676688 -1.1714044 -0.91873527 -0.20872687 -1.0105122 -1.0338483
-0.5068211 -1.0948013 -0.034826703 0.03711729 0.076384716 -0.34562117 0.09176112 0.51437473
-0.2609058 -0.8670465 -0.99757564 0.07941599 -0.2492132 -1.0055319 0.3854256 0.09747741
-1.3555098 -0.7956523 -1.0501208 0.004938364 0.716359 0.77155447 -1.0343021 -1.0011449
-0.16989663 -0.68692034 -0.1527755 -1.2401456 0.09092399 1.1033849 -0.0019988306 -0.980142
-0.5212072 1.1655409 -1.0073031 -0.050679106 -0.5574723 0.08218777 -0.7340475 -0.09172718
-0.59561116 -0.08845984 0.28144017 -0.31757936 -1.0546945 -0.6926157 -0.3875522 -0.8462511
0.060471836 -0.20393093 -0.2565826 -0.07386449 -0.6072535 -1.2444379 -0.034467556 0.026168386
00000000: 2cb7 863f 2d29 99be 13bd 88bd 94f0 95bf
00000010: 3c32 6bbf 7fbc 55be 7758 81bf 2455 84bf
00000020: 07bf 01bf 7322 8cbf 72a6 0ebd 4d08 183d
00000030: 976f 9c3d 42f5 b0be 41ed bb3d 10ae 033f
00000040: 7295 85be c2f6 5dbf 1e61 7fbf daa4 a23d
00000050: bf31 7fbe 45b5 80bf 8156 c53e 3da2 c73d
00000060: 5881 adbf deaf 4bbf 5c6a 86bf 00d2 a13b
00000070: 4e63 373f 9884 453f 0364 84bf 8425 80bf
00000080: 62f9 2dbe 03da 2fbf 2e71 1cbe 17bd 9ebf
00000090: 5b36 ba3d b73b 8d3f d0fe 02bb 96ea 7abf
000000a0: d66d 05bf 7230 953f 4fef 80bf e594 4fbd
000000b0: 81b6 0ebf 1052 a83d 89ea 3bbf 76db bbbd
000000c0: f979 18bf 6f2a b5bd ed18 903e c399 a2be
000000d0: 3b00 87bf 434f 31bf 3e6d c6be e9a3 58bf
000000e0: 51b1 773d 45d3 50be cb5e 83be 4446 97bd
000000f0: f774 1bbf be49 9fbf da2d 0dbd 155f d63c

h2.weight f4 [64, 64]
-0.04881141 -0.34582308 -0.5228261 -0.61483544 -0.34627482 -0.86862934 -0.66609645 -0.45858917
-0.89107645 -0.5917599 -0.44056404 0.18454385 0.24748774 0.24330759 -0.51839536 -0.6364233
-0.068453506 -0.41523698 -0.6423726 0.19649373 -0.6337337 -0.66534406 -0.67270285 0.23390298
0.23659398 -0.8644159 0.61632663 -0.22490633 -0.21265584 -0.8830836 -0.82037497 -0.6167918
-0.6026075 -0.68507105 -0.39188725 -0.85642165 0.30463925 -0.7025885 -0.41569594 -0.5205764
-0.66084105 -0.54497296 -0.6640832 -0.8047259 -0.8873932 -0.5929336 0.07797745 -0.43438804
-0.8569713 -0.7640606 -0.56310564 -0.6738203 -0.23160832 -0.14157829 -0.020326328 0.05467302
-0.5569762 -0.5881805 -0.49798623 -0.8292595 -0.31370595 0.4631631 -0.29385373 -0.9031794
0.32446012 -0.06881447 -0.80882937 0.20106822 -0.32460898 -0.11886322 0.22873095 -0.07411191
0.47908872 -0.20622534 -0.73232704 0.07309739 -1.0899428 -0.6949181 -1.2472783 -1.1154373
-0.21518947 0.3023011 0.052125122 0.014338755 0.049366865 0.11798488 -1.0119226 -0.973554
-0.21623136 0.73802257 0.19725068 0.034277305 -1.1902721 -0.6294642 0.30398193 0.9893213
-0.16146329 -0.23448053 -0.8854375 0.10392388 0.41822135 -0.4015443 -0.24306528 0.19649829
-0.011178272 -0.9047887 0.7418113 -0.11246604 0.4458359 -0.6844139 -0.35759014 0.07558011
-0.10217686 -1.0138996 -0.73576856 0.005019106 0.035289206 0.361217 -0.071180806 0.06141491
-0.69675493 -0.9646686 -0.29334506 -1.0630794 -0.123530306 0.1741672 0.17096247 -1.6407768
-0.9013579 -0.046121743 -0.8629438 0.45425627 -0.27113292 0.09776944 0.29467463 0.43187344
-0.29637715 0.29401112 -0.88582844 0.14287819 -0.7945637 -0.46570194 -0.9136068 -0.40039897
-0.069782056 0.20381056 0.63448817 0.068920344 -0.43099517 0.50760853 -0.7414108 -0.7005104
0.11015802 0.054082446 0.22922364 0.103910975 -1.1651508 -0.5950565 0.5367344 0.44249284
-0.104569666 -1.0640044 -0.84696823 0.3043959 -0.61077386 -0.6388579 -0.3891291 0.39698333
-0.12075508 -0.56917226 0.7597071 -0.57431614 0.06186591 -0.9048693 -0.122927204 -0.44896263
-0.23347442 -0.37307 -0.79889846 0.18454124 0.33313644 0.032777235 0.7497399 0.49800268
-0.53086954 -1.0003932 -0.7957633 -0.4861078 -0.5361564 0.7262773 0.17098753 -0.8909359
-0.9536073 0.086902335 -0.36302087 0.6964545 -0.1252687 0.048446275 0.017722137 0.44547597
0.4241096 -0.014320763 0.08241368 -0.15000735 -0.1526435 -0.8687758 0.016970703 -0.46123892
0.041107982 -0.049544487 -0.09817501 -0.11892297 0.17855386 0.14665726 -0.8899355 -0.851966
0.06753162 0.7810775 0.033751126 0.25659516 -0.87553746 -0.13337648 0.012622944 0.13133542
0.52941096 -0.65532166 -0.06630447 0.30661437 -1.4141765 -0.08451767 -0.3851224 0.6036373
0.62434775 -0.6377223 0.74616486 -1.0366648 0.28553233 -0.25920606 0.26175445 0.13073209
-0.01077802 -0.3229938 -1.1012945 0.6099407 0.5316161 -0.41781932 0.5722165 -0.41694853
-0.0050582434 -0.3587439 -0.29694462 -0.61719793 0.19212604 0.7954246 0.5284889 -0.5194129
00000000: 79ee 47bd b90f b1be eed7 05bf db65 1dbf
00000010: ef4a b1be 7e5e 5ebf 4c85 2abf 33cc eabe
00000020: 961d 64bf 947d 17bf 9c91 e1be 10f9 3c3e
00000030: 6d6d 7d3e a025 793e 8fb5 04bf a3ec 22bf
00000040: 5a31 8cbd f199 d4be 8872 24bf a735 493e
00000050: 5f3c 22bf fd53 2abf 4136 2cbf 4384 6f3e
00000060: b145 723e 5c4a 5dbf 95c7 1d3f d84d 66be
00000070: 74c2 59be c411 62bf 1804 52bf 11e6 1dbf
00000080: 7c44 1abf d160 2fbf 72a5 c8be 733e 5bbf
00000090: adf9 9b3e d7dc 33bf 19d6 d4be 7f44 05bf
000000a0: e12c 29bf 5983 0bbf 5b01 2abf 8402 4ebf
000000b0: 332c 63bf 7fca 17bf a4b2 9f3d 1c68 debe
000000c0: 7962 5bbf 7a99 43bf b127 10bf 7d7f 2cbf
000000d0: bb2a 6dbe e6f9 10be 6683 a6bc d1f0 5f3d
000000e0: fe95 0ebf ff92 16bf 0df8 febe 5a4a 54bf
000000f0: 119e a0be b723 ed3e ff73 96be c436 67bf
00000100: a31f a63e 9aee 8cbd 710f 4fbf d4e4 4d3e
00000110: 2633 a6be 8f6e f3bd 7238 6a3e fcc7 97bd
00000120: 1e4b f53e bc2c 53be c979 3bbf 16b4 953d
00000130: 3f83 8bbf 27e6 31bf d1a6 9fbf a6c6 8ebf
00000140: a15a 5cbe 36c7 9a3e 2781 553d 19ed 6a3c
00000150: e934 4a3d 0fa2 f13d ae86 81bf d63a 79bf
00000160: c16b 5dbe 0cef 3c3f 15fc 493e 5c66 0c3d
00000170: d65a 98bf 9124 21bf 85a3 9b3e 2944 7d3f
00000180: a256 25be aa1b 70be 08ac 62bf 0bd6 d43d
00000190: 1c21 d63e 3797 cdbe 1be6 78be d936 493e
000001a0: 1225 37bc 3ba0 67bf 58e7 3d3f 9854 e6bd
000001b0: 9a44 e43e c035 2fbf 0e16 b7be bfc9 9a3d
000001c0: 1a42 d1bd 76c7 81bf 545b 3cbf 5077 a43b
000001d0: 6a8b 103d 6ff1 b83e 3ec7 91bd 338e 7b3d
000001e0: 885e 32bf 85f4 76bf 5331 96be fc12 88bf
000001f0: 75fd fcbd e358 323e c910 2f3e f904 d2bf
00000200: 64bf 66bf 27ea 3cbd e3e9 5cbf 4794 e83e
00000210: efd1 8abe 583b c83d 98df 963e 841e dd3e
00000220: bfbe 97be a088 963e a7c5 62bf a94e 123e
00000230: 8768 4bbf 7c70 eebe 23e2 69bf 1801 cdbe
00000240: e5e9 8ebd b7b3 503e d16d 223f 1c26 8d3d
00000250: 66ab dcbe a2f2 013f 19cd 3dbf a654 33bf
00000260: 879a e13d 8e85 5d3d 9ab9 6a3e 47cf d43d
00000270: a923 95bf 9f55 18bf 6d67 093f 6c8e e23e
00000280: 9f28 d6bd 4c31 88bf e9d2 58bf c8d9 9b3e
00000290: ad5b 1cbf 318c 23bf ee3b c7be 6641 cb3e
000002a0: 704e f7bd 46b5 11bf 2a7c 423f 6206 13bf
000002b0: 1c67 7d3d 84a5 67bf 42c1 fbbd 6ede e5be
000002c0: eb13 6fbe 0803 bfbe 9c84 4cbf 61f8 3c3e
000002d0: dc90 aa3e 6c41 063d f4ee 3f3f 35fa fe3e
000002e0: 11e7 07bf e20c 80bf 25b7 4bbf 1fe3 f8be
000002f0: 8c41 09bf 4fed 393f 5b17 2f3e 6014 64bf
00000300: 9c1f 74bf daf9 b13d dfdd b9be d84a 323f
00000310: 7046 00be 9a6f 463d 042e 913c 6d15 e43e
00000320: e524 d93e a2a1 6abc 81c8 a83d 879b 19be
00000330: 944e 1cbe 1768 5ebf 2506 8b3c 8227 ecbe
00000340: d860 283d 29ef 4abd fb0f c9bd e38d f3bd
00000350: d3d6 363e 522d 163e d0d2 63bf 721a 5abf
00000360: 054e 8a3d b2f4 473f 9f3e 0a3d 7160 833e
00000370: 3923 60bf d893 08be 77d0 4e3c cb7c 063e
00000380: 7a87 073f 29c3 27bf a3ca 87bd 8ffc 9c3e
00000390: bc03 b5bf 9a17 adbd c32e c5be f987 1a3f
000003a0: 41d5 1f3f c541 23bf a904 3f3f 6fb1 84bf
000003b0: 4b31 923e a8b6 84be ae04 863e a2de 053e
000003c0: 4b96 30bc 715f a5be 38f7 8cbf 1325 1c3f
000003d0: fe17 083f 6aec d5be c87c 123f 477a d5be
000003e0: 9fbf a5bb 48ad b7be 2009 98be af00 1ebf
000003f0: b0bc 443e f2a0 4b3f 0c4b 073f 3ef8 04bf

h2.bias f4 [64]
-0.74727064 0.027889306 0.30444834 0.047772847 0.9353206 -0.6852647 0.3254778 -0.74987966
-0.83545345 -0.65724456 -0.7343081 0.1924671 -0.27475783 -0.55534804 -0.9872267 0.102684215
0.37080392 -0.5294184 -1.0679332 0.43926144 0.1085337 0.5112831 -0.19179827 -0.4258787
-0.025211722 0.06535333 -1.0094627 -0.048547797 0.6968738 -0.59288484 0.35680315 -0.66639423
-0.6451426 -0.24852328 -0.6533468 -0.04919386 -0.04798478 0.21617687 0.20244838 -0.5780412
0.14647561 0.11524149 -0.035810467 0.27863443 -0.45702463 -0.5006373 -0.6907724 0.16716915
-0.5446047 -0.13432012 0.32714912 -0.37069878 0.74302715 0.8841616 -0.7890139 0.1886033
-0.34734184 0.28278804 -0.5351312 -0.04924251 -0.9799227 -0.6944469 0.2892161 0.520927
00000000: 214d 3fbf 1d78 e43c a7e0 9b3e 76ad 433d
00000010: 2c71 6f3f 826d 2fbf 07a5 a63e 1df8 3fbf
00000020: 47e0 55bf 2e41 28bf 9efb 3bbf 1816 453e
00000030: 0fad 8cbe 4a2b 0ebf e4ba 7cbf 1a4c d23d
00000040: 03da bd3e f787 07bf 09b2 88bf e0e6 e03e
00000050: eb46 de3d 73e3 023f c466 44be c60c dabe
00000060: d088 cebc f7d7 853d 1336 81bf 0eda 46bd
00000070: 5266 323f 4dc7 17bf e7ae b63e d098 2abf
00000080: 1128 25bf e37c 7ebe bc41 27bf 807f 49bd
00000090: b08b 44bd 785d 5d3e a14e 4f3e 82fa 13bf
000000a0: b4fd 153e bb03 ec3d ffad 12bd 2ca9 8e3e
000000b0: 22ff e9be c429 00bf 76d6 30bf 642e 2b3e
000000c0: 376b 0bbf 378b 09be 1780 a73e 3bcc bdbe
000000d0: 0737 3e3f 6a58 623f d1fc 49bf 3921 413e
000000e0: cad6 b1be 98c9 903e 5cfe 08bf 84b2 49bd
000000f0: 37dc 7abf 46c7 31bf 2214 943e 795b 053f

h3.weight f4 [8, 64]
-0.64110065 -0.6888127 -0.34999475 -0.64461076 -0.8389895 -0.80349916 -0.46860704 -0.67443436
-0.47879824 -0.42922056 -0.2934438 -0.56948996 -0.23902816 -0.6527626 -0.59985954 0.1386
-0.5533768 -0.3849593 -0.44990075 -0.42612782 -0.77506477 -0.36582053 -0.6211403 -0.024193456
-0.048212294 0.10693421 -0.4147649 -0.7725695 0.017792044 -0.5860289 -0.55929357 -0.22388089
-0.33544677 0.06480531 -0.4070883 -0.46951854 0.02019697 -0.5979912 -0.46589994 -0.73063326
-0.6215142 -0.75182366 -0.47972602 -0.71486884 0.25022784 -0.54799527 -0.33121893 -0.45731333
-0.6762852 -0.64118576 -0.53009665 0.08822178 -0.3278492 -0.250574 -0.5747158 -0.47694448
0.08569578 -0.326609 -0.7928173 -0.29066366 -0.6983127 -0.64717335 0.28971797 0.027000215
0.58161527 0.44621813 0.6536716 0.6705624 0.5265165 0.8606034 0.63844043 0.6424719
0.91535956 0.30353588 0.7053173 0.6574214 0.57103354 0.070886865 0.8898552 0.31835315
0.8787282 0.01491221 0.5950127 0.6822909 0.41344434 1.0576072 0.43116394 0.41177556
1.4615898 0.5001482 0.47824624 0.71668243 0.6248292 0.15942624 0.5119387 0.79628307
-0.2743286 0.25040865 0.04668611 0.68391156 0.0020505837 0.5138013 0.82013685 -0.010653363
0.6720483 0.5542229 -4.4016733 0.5949214 0.7621044 0.32119685 0.12224887 0.4524346
-0.013134357 0.39787495 0.39692017 0.62067384 0.22267254 0.80420285 0.8187395 0.5446736
-0.23686902 0.889149 -0.26484212 0.61847603 0.98287004 -0.2084591 0.75003314 0.7679583
-0.68475723 -0.592292 -0.5892741 -0.7830878 -0.95125264 -0.57083017 -0.7095329 -0.391719
-0.7991472 -0.53584594 -0.5620025 -0.68937415 -0.4404871 -0.36180314 -0.3870394 -0.17988297
-0.6536505 -0.30839688 -0.7016213 -0.4730809 -0.862668 -0.66890633 -0.388038 -0.6060525
0.13614488 -0.49691236 -0.66828275 -0.61263585 -0.83688885 -0.88689214 -0.60113215 -0.23399054
-0.50905985 -0.1984396 -0.34480587 -0.43876874 -0.20432223 -0.5561774 -0.7390576 -0.9001521
-0.36055902 -0.31892917 -0.91078514 -0.6083757 -0.021398742 -0.39265862 -0.79239255 -0.3865698
-0.5749318 -0.45977303 -0.4681578 -0.3535854 -0.3610169 0.25973654 -0.69311804 -0.7382205
-0.2846827 -0.51369274 -0.8008486 -0.32792833 -0.8233778 -0.6332554 -0.57925063 -0.67702866
-0.051526785 -0.041188862 -0.1859035 0.30511528 -0.26082554 -0.08531899 0.101161726 0.30698162
0.10764873 0.30365288 -0.3103716 -0.3609889 -0.002765375 0.532385 0.18503205 0.9130468
0.05678756 0.4382525 0.7179313 -0.41493452 0.2418463 0.4084987 -0.1143722 0.024573022
-0.012893557 -0.28669864 0.28601375 0.34825712 -0.33516207 0.45150885 0.20978417 0.07580995
0.6316822 -0.55777776 0.5292204 0.3438639 -0.19292912 0.3844695 -0.08529506 0.4381294
0.45336536 -0.08348563 0.7422205 0.1549507 -0.40725645 0.13687433 0.29962415 0.13994092
0.22188976 0.2256069 0.13903403 0.008723777 0.6409203 -0.16317078 0.32622516 0.19757174
-0.54637796 0.22070973 0.5779923 0.0353049 -0.21710755 0.55881506 -0.3883699 -0.30919543
00000000: 2c1f 24bf 0756 30bf 8332 b3be 3605 25bf
00000010: 04c8 56bf 1fb2 4dbf 43ed efbe bba7 2cbf
00000020: 0b25 f5be ccc2 dbbe 443e 96be 18ca 11bf
00000030: ccc3 74be 731b 27bf 6590 19bf 29ed 0d3e
00000040: 1aaa 0dbf 6319 c5be 6459 e6be 6d2d dabe
00000050: a56a 46bf d44c bbbe 0d03 1fbf 5b31 c6bc
00000060: 417a 45bd 5300 db3d 115c d4be 1dc7 45bf
00000070: 9fc0 913c fd05 16bf dd2d 0fbf 0841 65be
00000080: aebf abbe a5b8 843d e16d d0be bc64 f0be
00000090: 1e74 a53c f415 19bf 708a eebe c80a 3bbf
000000a0: 8e1b 1fbf 8477 40bf a69e f5be a501 37bf
000000b0: dd1d 803e 6b49 0cbf 8795 a9be f924 eabe
000000c0: 0721 2dbf c024 24bf 6ab4 07bf 9fad b43d
000000d0: dadb a7be 3c4b 80be 9320 13bf 1132 f4be
000000e0: 4581 af3d 4b39 a7be 13f6 4abf ded1 94be
000000f0: 9fc4 32bf 27ad 25bf ea55 943e 8e2f dd3c
00000100: bde4 143f b476 e43e 0657 273f faa9 2b3f
00000110: c9c9 063f 8150 5c3f d570 233f 0a79 243f
00000120: 0155 6a3f 0e69 9b3e ad8f 343f c54c 283f
00000130: 412f 123f 222d 913d 8dcd 633f 2fff a23e
00000140: 55f4 603f 5852 743c c152 183f 9eaa 2e3f
00000150: faae d33e ac5f 873f 85c1 dc3e 3fd4 d23e
00000160: 6015 bb3f b609 003f b1dc f43e 8078 373f
00000170: cef4 1f3f a240 233e 6a0e 033f 35d9 4b3f
00000180: cc74 8cbe 9035 803e ef39 3f3d d414 2f3f
00000190: 1663 063b 7b88 033f 7df4 513f 718b 2ebc
000001a0: 5b0b 2c3f 8de1 0d3f 82da 8cc0 c54c 183f
000001b0: 4619 433f ea73 a43e 9e5d fa3d 82a5 e73e
000001c0: 7c31 57bc 44b6 cb3e 1f39 cb3e 7be4 1e3f
000001d0: 4504 643e 3de0 4d3f e998 513f bb6f 0b3f
000001e0: cb8d 72be 459f 633f 6399 87be 7254 1e3f
000001f0: 5f9d 7b3f 4d76 55be 2c02 403f ea98 443f
00000200: 404c 2fbf 73a0 17bf abda 16bf 7178 48bf
00000210: 4b85 73bf ed21 12bf f3a3 35bf 658f c8be
00000220: e994 4cbf 332d 09bf 65df 0fbf d37a 30bf
00000230: 8687 e1be 433e b9be 072a c6be 3e33 38be
00000240: a455 27bf 32e6 9dbe 749d 33bf a937 f2be
00000250: cfd7 5cbf 723d 2bbf ebac c6be 4226 1bbf
00000260: 9069 0b3e 4c6b febe 9414 2bbf b4d5 1cbf
00000270: 593e 56bf 5d0b 63bf cce3 19bf 379b 6fbe
00000280: bf51 02bf c033 4bbe 658a b0be 4ca6 e0be
00000290: d939 51be a461 0ebf e132 3dbf 5e70 66bf
000002a0: 319b b8be af4a a3be 3729 69bf 83be 1bbf
000002b0: 6a4c afbc 8d0a c9be 3dda 4abf 7aec c5be
000002c0: bb2e 13bf 5f67 ebbe 61b2 efbe 2509 b5be
000002d0: 35d7 b8be 30fc 843e 2f70 31bf 05fc 3cbf
000002e0: eec1 91be 5e81 03bf 6a04 4dbf 39e6 a7be
000002f0: e3c8 52bf 071d 22bf c549 14bf c051 2dbf
00000300: c00d 53bd a7b5 28bd 7d5d 3ebe 1238 9c3e
00000310: ed8a 85be b9bb aebd e12d cf3d b22c 9d3e
00000320: f076 dc3d 6478 9b3e 07e9 9ebe 89d3 b8be
00000330: 4b3b 35bb 624a 083f 0b79 3d3e 6fbd 693f
00000340: 139a 683d a262 e03e 58ca 373f 4c72 d4be
00000350: 8ea6 773e be26 d13e f93b eabd 5d4d c93c
00000360: 7f3f 53bc 2aca 92be 6570 923e c24e b23e
00000370: 5d9a abbe 2b2c e73e a9d1 563e 3f42 9b3d
00000380: edb5 213f 86ca 0ebf fd7a 073f ee0e b03e
00000390: 368f 45be 30d9 c43e 2daf aebd 7f52 e03e
000003a0: 811f e83e 84fa aabd 2a02 3e3f 65ab 1e3e
000003b0: eb83 d0be c928 0c3e 5668 993e ac4c 0f3e
000003c0: 1237 633e 7f05 673e f05e 0e3e 2cee 0e3c
000003d0: 5a13 243f 3e16 27be fc06 a73e 3f50 4a3e
000003e0: 6ddf 0bbf bb01 623e 4ef7 133f df9b 103d
000003f0: 7151 5ebe 810e 0f3f 6bd8 c6be dd4e 9ebe

h3.bias f4 [8]
-0.60033447 0.5594561 -0.7134457 0.61924684 0.3142618 0.4370342 0.4734081 -0.5647037
00000000: 85af 19bf 8438 0f3f 61a4 36bf f686 1e3f
00000010: ece6 a03e f2c2 df3e 8c62 f23e 6c90 10bf
